data/model/slrl_training/4/470.pth (torch, 44823 bytes, 5 tensors)

linear.weight f4 [100, 4]
0.12414264 -0.2919212 0.29488564 -0.28208315 0.08449093 -0.017105786 0.017639818 -0.3558468
0.18703693 0.10957617 -0.24152482 0.35147536 -0.23019236 -0.043941654 0.06707738 -0.49850002
0.025237206 0.2264009 0.5203007 0.49538314 -0.1532172 -0.11377219 -0.46363467 -0.20424958
0.13565324 -0.4111918 0.27862543 -0.39134678 0.26831707 0.39006364 0.041166738 0.2294404
-0.23760718 0.4662289 0.13034917 0.28172678 0.31713676 -0.10096694 -0.103945985 0.26849943
0.0070667607 -0.43687668 0.33759743 -0.4211225 -0.23399884 0.14246637 -0.12626702 0.22679764
0.41535562 0.28078645 -0.53786594 0.06780035 0.45057648 -0.38077387 -0.41610673 0.4420473
-0.5023514 -0.05306979 -0.24769792 -0.386579 -0.10034801 0.46342033 0.0019974739 -0.26568714
-0.43617645 0.26532263 -0.31272584 0.09310893 0.13380742 0.1214971 0.14609206 0.49081886
0.3098353 -0.06528673 0.34361872 -0.26793447 0.11104449 -0.4894913 0.069582336 0.19919373
-0.31026986 -0.11199655 -0.2455013 0.4413162 -0.22456698 0.23896313 -0.33196312 0.10465859
0.17887351 0.006476152 0.008986369 0.073458396 0.12552755 0.19836594 -0.33861077 -0.44000554
-0.33682236 -0.20042771 0.3137304 -0.47719693 0.40509364 -0.35761112 -0.181149 0.17797495
-0.23253298 0.4340425 0.21962398 0.21125646 0.3902087 0.304735 0.06270018 -0.13908646
-0.42327523 0.21944654 -0.43627366 0.085568905 0.2652582 -0.48457366 0.0873986 0.4404142
-0.0120756235 -0.088615604 -0.49242622 -0.21952662 -0.026737742 0.2743094 -0.13194637 -0.20499854
0.41949502 -0.22229478 -0.06952323 -0.25562292 -0.24080606 -0.20214587 0.123993844 0.16340068
-0.07086666 -0.088621944 0.07918647 -0.37040907 -0.4897626 0.009428799 -0.36354184 -0.07846288
-0.018806845 0.1283719 -0.5633951 -0.17277446 -0.038024534 0.48043805 -0.44039425 -0.42924583
0.52219564 -0.11571051 0.24505778 -0.17560026 0.08037332 0.4081522 -0.2967742 -0.48634645
-0.21288598 0.081902675 0.10073822 -0.2882935 0.26689497 -0.20198376 0.35552305 -0.0199481
-0.29505655 0.07880208 0.1408228 -0.40009576 0.336002 0.10364018 0.28385803 -0.23993337
0.05029015 -0.44695726 0.4733923 -0.1410482 0.30161402 -0.2774254 -0.35717386 0.05740306
-0.42332563 -0.3353704 0.34799206 0.047512714 0.30421352 -0.4436269 -0.3422354 0.42917156
-0.1463734 0.4272326 -0.29621345 0.4661101 -0.41076112 0.16137089 -0.3083211 -0.3006989
-0.24745578 0.4574036 -0.09461416 -0.108696066 -0.052053414 -0.19491221 -0.60396963 -0.35879797
0.08745282 -0.44983694 -0.42947924 -0.4796913 -0.28564847 0.12231291 -0.42757824 -0.085600436
-0.30348995 -0.20947467 0.22906965 0.07084533 0.23642217 -0.017435089 0.35529596 -0.2347306
-0.14405392 -0.22406536 -0.3450405 -0.3656283 0.11040285 -0.38153023 -0.5703604 -0.24858801
-0.24790281 0.48415887 0.17141484 0.14611247 0.48322797 -0.3582537 0.31518385 0.17909044
-0.1379489 0.20038664 -0.50072765 0.12394039 -0.47505522 -0.4367145 0.2945772 -0.40732518
0.10178755 -0.27030826 -0.47970432 -0.25311267 -0.2332709 0.17692244 -0.37271732 0.09941021
00000000: 7f3e fe3d b276 95be 40fb 963e 346d 90be
00000010: 9509 ad3d 6f21 8cbc 6181 903c 8d31 b6be
00000020: 9c86 3f3e 7969 e03d 4852 77be 94f4 b33e
00000030: 8cb7 6bbe 2afc 33bd de5f 893d 653b ffbe
00000040: 42be ce3c a3d5 673e 6d32 053f dca2 fd3e
00000050: f8e4 1cbe 6501 e9bd 8661 edbe cd26 51be
00000060: afe8 0a3e bb87 d2be fea7 8e3e 9b5e c8be
00000070: db60 893e 6cb6 c73e 749e 283d 6df2 6a3e
00000080: 4c4f 73be 8eb5 ee3e 417a 053e 7e3e 903e
00000090: c05f a23e c1c7 cebd a2e1 d4bd c278 893e
000000a0: 4990 e73b 4dae dfbe 92d9 ac3e 5e9d d7be
000000b0: 649d 6fbe b4e2 113e 244c 01be a43d 683e
000000c0: 7ea9 d43e 3ec3 8f3e 95b1 09bf e9da 8a3d
000000d0: f6b1 e63e cbf4 c2be f10b d5be 0654 e23e
000000e0: 1a9a 00bf b55f 59bd 86a4 7dbe afed c5be
000000f0: 4283 cdbd 6e45 ed3e 0de8 023b 2508 88be
00000100: 8552 dfbe 5ed8 873e 9a1d a0be e5af be3d
00000110: d004 093e 79d3 f83d 2899 153e 9c4c fb3e
00000120: bca2 9e3e 0db5 85bd cbee af3e b52e 89be
00000130: 4b6b e33d 9b9e fabe 2f81 8e3d 71f9 4b3e
00000140: b1db 9ebe 725e e5bd b164 7bbe 32f4 e13e
00000150: e3f4 65be c0b2 743e 12f7 a9be 3e57 d63d
00000160: 9e2a 373e e735 d43b 903b 133c 5b71 963d
00000170: 4b8a 003e 7120 4b3e 645e adbe 6848 e1be
00000180: fb73 acbe ec3c 4dbe 45a1 a03e 2853 f4be
00000190: 6f68 cf3e ce18 b7be 207f 39be 113f 363e
000001a0: 201d 6ebe d23a de3e 1ce5 603e 9d53 583e
000001b0: 6fc9 c73e 3a06 9c3e f468 803d ae6c 0ebe
000001c0: 88b7 d8be 98b6 603e 435f dfbe c03e af3d
000001d0: eccf 873e 0a1a f8be 0afe b23d f87d e13e
000001e0: d6d8 45bc 197c b5bd 4a1f fcbe 96cb 60be
000001f0: 1c09 dbbc 4872 8c3e f31c 07be 23eb 51be
00000200: 0dc8 d63e 3ea1 63be 3262 8ebd 02e1 82be
00000210: dd95 76be 54ff 4ebe 7cf0 fd3d 8252 273e
00000220: 8a22 91bd 6c7f b5bd 842c a23d 42a6 bdbe
00000230: 2ac2 fabe 407b 1a3c 2822 babe 25b1 a0bd
00000240: d010 9abc ec73 033e a93a 10bf caeb 30be
00000250: 9dbf 1bbd fafb f53e 5b7b e1be 1cc6 dbbe
00000260: 9dae 053f a2f9 ecbd 6df0 7a3e 8ed0 33be
00000270: c49a a43d 53f9 d03e caf2 97be 6702 f9be
00000280: c8fe 59be 97bc a73d d74f ce3d 359b 93be
00000290: 75a6 883e d5d4 4ebe 1e07 b63e 336a a3bc
000002a0: a711 97be fc62 a13d da33 103e 5ad9 ccbe
000002b0: 7408 ac3e 4d41 d43d d755 913e 18b1 75be
000002c0: 0bfd 4d3d 95d7 e4be 7a60 f23e f06e 10be
000002d0: 276d 9a3e b40a 8ebe 7edf b6be 791f 6b3d
000002e0: 23be d8be abb5 abbe 042c b23e b19c 423d
000002f0: e0c1 9b3e 1123 e3be 7a39 afbe 60bc db3e
00000300: e9e2 15be 3bbe da3e 4aa9 97be fca5 ee3e
00000310: 484f d2be 693e 253e 43dc 9dbe 35f5 99be
00000320: 0c65 7dbe ce30 ea3e 12c5 c1bd 0b9c debd
00000330: f635 55bd 1197 47be c19d 1abf 5eb4 b7be
00000340: 771a b33d 0751 e6be b4e4 dbbe 199a f5be
00000350: 8440 92be 317f fa3d 89eb dabe 484f afbd
00000360: 0963 9bbe 8780 56be 3c91 6a3e 5b17 913d
00000370: a718 723e 08d4 8ebc 5ae9 b53e 385d 70be
00000380: df82 13be 6471 65be 26a9 b0be a233 bbbe
00000390: e41a e23d ee57 c3be 2403 12bf db8d 7ebe
000003a0: 3cda 7dbe ace3 f73e 5f87 2f3e 829e 153e
000003b0: a869 f73e 076d b7be c75f a13e 7c63 373e
000003c0: 7a42 0dbe 2832 4d3e b02f 00bf 76d4 fd3d
000003d0: 703a f3be 0b99 dfbe d3d2 963e ed8c d0be
000003e0: fe75 d03d d865 8abe ce9b f5be fc97 81be
000003f0: 91de 6ebe 282b 353e ced4 bebe 9597 cb3d

linear.bias f4 [100]
-0.43476576 -0.38435265 -0.44318926 -0.43091735 -0.14657427 0.18061498 0.335577 0.45232022
0.09105804 0.30844992 0.1456382 0.4193912 0.15906487 -0.104490265 -0.09151354 -0.43879187
-0.220211 -0.06661355 -0.21870439 -0.15003063 0.3104583 0.45398816 -0.3761996 0.03150037
-0.34510294 -0.49230644 -0.35682854 -0.32953677 -0.21940753 0.5057619 0.016266715 -0.45346504
-0.3360141 -0.37812063 -0.12593025 0.29195032 0.4502956 0.26779526 -0.24955599 0.47784996
0.3067594 0.32103404 0.12572138 -0.40308547 0.17631535 -0.38595873 0.41642112 -0.123703636
-0.056502864 0.2324845 0.43036336 0.4317651 0.48338443 -0.32778826 -0.3375567 -0.45507008
-0.05853336 0.20494713 0.22563133 0.28007174 -0.22166607 -0.324758 0.38332564 0.4241277
-0.34973392 0.30221355 0.49890786 -0.11128975 0.16148447 0.39579687 -0.41114748 -0.46150503
-0.41278964 0.3918626 0.35874036 0.10845766 0.47617444 0.03296451 0.34938806 -0.3957378
0.4517959 -0.16086197 -0.0768582 -0.36968035 -0.30904013 -0.32373983 0.10799528 0.27713946
-0.048308328 -0.16771469 0.24695294 -0.45962882 -0.12581116 -0.15454118 0.41142878 0.24245821
-0.20840727 0.421028 0.42627928 -0.46170393
00000000: 9e99 debe dfc9 c4be b4e9 e2be 33a1 dcbe
00000010: 9117 16be 22f3 383e c0d0 ab3e 8496 e73e
00000020: a37c ba3d 26ed 9d3e 2e22 153e 72ba d63e
00000030: e7e1 223e fefe d5bd 736b bbbd 54a9 e0be
00000040: fe7e 61be af6c 88bd 0bf4 5fbe a1a1 19be
00000050: 64f4 9e3e 2371 e83e 3c9d c0be 8806 013d
00000060: 55b1 b0be 970f fcbe 3bb2 b6be 0bb9 a8be
00000070: 5eac 60be 9d79 013f c641 853c 922c e8be
00000080: 0a0a acbe 0799 c1be dcf3 00be 837a 953e
00000090: 258d e63e 761c 893e 9b8b 7fbe c0a8 f43e
000000a0: 910f 9d3e 935e a43e 1bbd 003e 3861 cebe
000000b0: 038c 343e 629c c5be 2635 d53e 5558 fdbd
000000c0: 8c6f 67bd 6b10 6e3e 9658 dc3e 5110 dd3e
000000d0: 2a7e f73e ddd3 a7be 3bd4 acbe f2fe e8be
000000e0: adc0 6fbd a9dd 513e e60b 673e 9065 8f3e
000000f0: 6efc 62be ae46 a6be 4243 c43e 4427 d93e
00000100: 5310 b3be bcbb 9a3e da70 ff3e e1eb e3bd
00000110: 2f5c 253e e3a5 ca3e ec81 d2be 634a ecbe
00000120: 2a59 d3be 37a2 c83e d1ac b73e 0d1f de3d
00000130: 23cd f33e cb05 073d fee2 b23e 259e cabe
00000140: cb51 e73e 00b9 24be d567 9dbd be46 bdbe
00000150: 823a 9ebe 3ac1 a5be a12c dd3d 39e5 8d3e
00000160: f4de 45bd 66bd 2bbe 3be1 7c3e 7854 ebbe
00000170: a4d4 00be 0b40 1ebe cba6 d23e f746 783e
00000180: b768 55be fb90 d73e 4741 da3e 7564 ecbe

hidden.weight f4 [100, 100]
-0.054911308 -0.010069753 -0.003834046 -0.057764553 0.09834717 -0.048226856 -0.07118736 0.07840662
0.10674622 0.00052549195 -0.013130609 0.049541164 0.047240175 0.0648258 -0.047480363 -0.09857674
-0.021910615 0.05926062 -0.017959788 0.050049 0.04542 -0.028963497 0.047068294 0.051880646
-0.06407351 -0.07548356 0.010454884 0.100634366 0.04175695 -0.067989014 -0.15897454 0.033293024
-0.033888463 0.054642957 -0.06996901 0.062238187 -0.021121763 -0.043105103 -0.03046566 -0.008658962
-0.012306725 -0.009332363 0.06665216 0.006496974 0.067808755 0.010638763 -0.06423615 0.007961912
-0.072977655 0.023609536 0.06426472 -0.00084863475 -0.05691389 0.049623605 0.0598192 -0.06825863
-0.014754491 -0.11558954 -0.06462217 0.110740915 -0.12527789 -0.083163865 0.0533523 -0.08633726
0.04261447 0.08670678 0.068605006 -0.021795692 -0.051969167 0.09626944 -0.05739919 0.038868695
-0.07026415 -0.004646339 0.09644716 -0.022606336 -0.056175787 0.072132014 -0.051340453 0.12439369
0.09659071 -0.15279338 0.112263456 -0.017236242 -0.09841288 0.08089833 -0.017103344 0.034237217
0.024970185 0.050335284 0.07760923 0.03360886 -0.076238364 0.09828899 0.037175696 -0.00028202875
0.046700515 -0.08693128 -0.014965236 0.0067788064 0.05458453 0.03445478 -0.012256846 0.044597782
-0.12843174 -0.014524412 0.052629102 -0.008945639 -0.04289148 0.03219943 -0.0024833784 0.07204029
-0.05118446 -0.02074963 -0.038716 0.03156598 0.005010027 -0.10000619 0.06621799 -0.01155266
0.015414011 -0.04269429 0.015648626 0.104077704 0.028891083 -0.07190651 -0.08477899 0.07005462
0.08340974 -0.07623371 0.07728339 0.0085169 -0.04001822 0.0025819675 0.007169128 -0.05317071
0.11997473 0.051978935 0.067644775 -0.036159873 -0.03889135 -0.018982293 -0.0032334777 -0.009526312
0.009804965 0.0991233 0.025644021 -0.018361393 0.056804374 0.04539482 -0.087487005 0.0997328
-0.010911173 -0.052198205 0.041972894 -0.059869826 0.069011025 -0.021739006 -0.116972186 -0.04102692
0.07724259 0.10632039 -0.029147794 0.08833466 0.0893907 -0.0004483165 -0.012698894 -0.0049283192
-0.060506843 -0.012455515 -0.03802117 -0.02077545 0.100950696 -0.0297203 0.044818353 0.009338908
0.060336277 0.07376002 0.017644156 0.03951985 -0.07402051 0.08931905 -0.08616222 -0.084923305
0.08757719 -0.073057435 -0.049239933 0.033689115 -0.103147544 0.018861352 7.520637e-05 0.024692552
0.028910208 -0.0085804155 0.052031714 -0.048148375 -0.08034922 0.10544826 -0.04384526 0.12947962
-0.010197127 0.03422204 -0.07283198 0.08249056 0.012352234 0.1411666 -0.0022921797 0.05879616
0.062258214 0.01750295 0.04847471 -0.09605671 0.030400928 -0.025973842 0.054436393 0.0827422
-0.0057753557 -0.064298995 -0.057486963 -0.08770832 0.029524453 0.07883035 -0.0099812085 -0.04602937
-0.06299943 0.093212456 -0.091251716 -0.033390366 -0.05658702 -0.031119267 0.10622995 0.069468915
-0.064464144 -0.012244079 0.08886819 -0.0050284686 0.04097619 0.08528362 -0.11598931 0.040400796
-0.039303977 0.07286571 0.06435083 -0.07817031 0.017647643 -0.064836055 -0.008454111 0.09727421
-0.105103195 -0.052753516 -0.065075114 0.11082124 0.050673403 0.12427991 0.042415377 -0.055216648
00000000: aeea 60bd 9bfb 24bc 9e44 7bbb 869a 6cbd
00000010: 3e6a c93d 8689 45bd aeca 91bd a693 a03d
00000020: c39d da3d 2bc1 093a c421 57bc adeb 4a3d
00000030: ea7e 413d 64c3 843d c57a 42bd 9ae2 c9bd
00000040: e47d b3bc 44bb 723d 6820 93bc 2e00 4d3d
00000050: 520a 3a3d db44 edbc afca 403d cd80 543d
00000060: f938 83bd 2097 9abd f64a 2b3c 6419 ce3d
00000070: 5609 2b3d d33d 8bbd 39ca 22be 445e 083d
00000080: a1ce 0abd 4bd1 5f3d ea4b 8fbd 78ed 7e3d
00000090: 8c07 adbc fa8e 30bd 1f93 f9bc 52de 0dbc
000000a0: 25a2 49bc c4e6 18bc ed80 883d 91e4 d43b
000000b0: 51df 8a3d 354e 2e3c 3e8e 83bd ae72 023c
000000c0: 4f75 95bd c968 c13c 399d 833d ea76 5eba
000000d0: 8a1e 69bd 1f42 4b3d fa04 753d 2ecb 8bbd
000000e0: d2bc 71bc 35ba ecbd a158 84bd 22cc e23d
000000f0: d948 00be d151 aabd f187 5a3d 97d1 b0bd
00000100: 838c 2e3d 5393 b13d c880 8c3d e18c b2bc
00000110: 9fdd 54bd ea28 c53d 6a1b 6bbd c834 1f3d
00000120: a7e6 8fbd 5140 98bb 1786 c53d ec30 b9bc
00000130: 9518 66bd f3b9 933d 5e4a 52bd 1ec2 fe3d
00000140: 5ad1 c53d de75 1cbe 62ea e53d 0533 8dbc
00000150: b18c c9bd 06ae a53d 501c 8cbc 533c 0c3d
00000160: 468e cc3c 5f2c 4e3d 97f1 9e3d 72a9 093d
00000170: dc22 9cbd bd4b c93d 8b45 183d 42dd 93b9
00000180: 0a49 3f3d 0709 b2bd c030 75bc c020 de3b
00000190: 0794 5f3d 7520 0d3d f0d0 48bc 2aac 363d
000001a0: 9c83 03be cdf7 6dbc 9d91 573d bb90 12bc
000001b0: faae 2fbd 8de3 033d 2dc0 22bb dc89 933d
000001c0: cca6 51bd 21fb a9bc ab94 1ebd 544b 013d
000001d0: 272b a43b 0cd0 ccbd 4c9d 873d 5e47 3dbc
000001e0: 0c8b 7c3c 35e0 2ebd 8c31 803c b126 d53d
000001f0: feac ec3c b843 93bd 9ba0 adbd cc78 8f3d
00000200: bad2 aa3d 6b20 9cbd c146 9e3d 788a 0b3c
00000210: 25ea 23bd 3a36 293b 01eb ea3b 88c9 59bd
00000220: 50b5 f53d dde7 543d 5889 8a3d 601c 14bd
00000230: 894c 1fbd c180 9bbc c1e8 53bb 4014 1cbc
00000240: 01a5 203c 2801 cb3d 6913 d23c a26a 96bc
00000250: b4ab 683d ebef 393d 632c b3bd b640 cc3d
00000260: c7c4 32bc c9cd 55bd c5eb 2b3d 103a 75bd
00000270: a755 8d3d 0016 b2bc 1d8f efbd d80b 28bd
00000280: 5d31 9e3d 81be d93d 5bc7 eebc cde8 b43d
00000290: 7912 b73d 060c ebb9 060f 50bc bd7d a1bb
000002a0: 06d6 77bd 3712 4cbc 16bc 1bbd 4731 aabc
000002b0: 3dbf ce3d fd77 f3bc 7393 373d 3802 193c
000002c0: 2c23 773d 7e0f 973d 7a8a 903c 91df 213d
000002d0: 1198 97bd e8ec b63d d175 b0bd 45ec adbd
000002e0: ab5b b33d 239f 95bd d0af 49bd 99fd 093d
000002f0: 053f d3bd 1f83 9a3c 1db8 9d38 0948 ca3c
00000300: 1ad5 ec3c df94 0cbc 351f 553d 3b37 45bd
00000310: 228e a4bd 42f5 d73d 1697 33bd 4e96 043e
00000320: da11 27bc 692c 0c3d ef28 95bd d0f0 a83d
00000330: 0661 4a3c fa8d 103e 6538 16bb 3ed4 703d
00000340: 7802 7f3d 5962 8f3c 6b8d 463d 61b9 c4bd
00000350: 5e0b f93c 18c7 d4bc b2f8 5e3d be74 a93d
00000360: 323f bdbb 31af 83bd 7377 6bbd 6ba0 b3bd
00000370: 44dd f13c ce71 a13d 3988 23bc 4b89 3cbd
00000380: d805 81bd 2ce6 be3d 2ee2 babd 56c4 08bd
00000390: cbc7 67bd d5ed febc 178f d93d b845 8e3d
000003a0: c705 84bd 649b 48bc 8700 b63d dac5 a4bb
000003b0: a6d6 273d 2ea9 ae3d ce8b edbd 4e7b 253d
000003c0: 35fd 20bd 9e3a 953d 5eca 833d c117 a0bd
000003d0: ca91 903c c4c8 84bd 1d83 0abc b337 c73d
000003e0: 5840 d7bd 1214 58bd 1a46 85bd 3ff6 e23d
000003f0: ea8e 4f3d 7786 fe3d bfbb 2d3d da2a 62bd

hidden.bias f4 [100]
-0.07986865 -0.07298787 0.09097604 -0.08405438 0.01851145 -0.012993221 -0.06594476 0.043585192
-0.08686046 -0.05997088 -0.087537 -0.06642533 0.068385296 -0.060921777 0.03271822 0.011937782
0.018158674 -0.040118326 -0.03875053 0.09617874 0.059514206 0.024604099 0.10175091 0.01110414
0.087676905 0.06857879 0.064222716 -0.0059594978 -0.0036086265 -0.04183429 0.022127414 0.09903905
0.045974184 -0.015722573 0.015079029 0.10628077 -0.02285521 -0.034654323 -0.06220897 0.003558674
-0.07623062 -0.04265953 -0.056862235 -0.029571652 0.09980438 -0.046297755 0.019384744 0.029848004
-0.013902964 -0.009886259 -0.06929265 -0.043516073 -0.03640263 -0.06435624 -0.0057917885 -0.06371222
-0.01995878 0.019698802 0.032938812 0.09622799 -0.021297093 -0.01961941 -0.052050795 0.06319449
0.06312568 -0.056651928 0.008419617 -0.08383409 0.09669787 0.011669255 -0.02186232 0.037513405
-0.09068881 -0.085499294 0.088639595 0.06666095 -0.021875724 0.013850078 -0.05668448 0.052339926
-0.011589283 0.10036085 -0.0779234 -0.029375318 -0.08021739 -0.07843459 0.012609118 -0.0026241494
0.046943642 0.013227077 -0.023539098 0.025480643 0.09836277 -0.03724388 -0.010159071 0.0077954335
-0.004593518 0.049738023 0.07827966 0.007768394
00000000: 2d92 a3bd aa7a 95bd a551 ba3d b424 acbd
00000010: 53a5 973c 85e1 54bc 0c0e 87bd 6386 323d
00000020: e6e3 b1bd 07a4 75bd 9946 b3bd 010a 88bd
00000030: 970d 8c3d 1d89 79bd 8a03 063d b096 433c
00000040: 80c1 943c 1d53 24bd e0b8 1ebd 5cf9 c43d
00000050: 2bc5 733d 898e c93c c862 d03d 24ee 353c
00000060: f38f b33d 0973 8c3d 3387 833d e447 c3bb
00000070: b57e 6cbb 6f5a 2bbd 8d44 b53c fcd4 ca3d
00000080: 6d4f 3c3d a0cc 80bc 080e 773c bba9 d93d
00000090: d93a bbbc b1f1 0dbd d5ce 7ebd a438 693b
000000a0: cd1e 9cbd c2bb 2ebd 60e8 68bd 4040 f2bc
000000b0: 3d66 cc3d b7a2 3dbd c1cc 9e3c cd83 f43c
000000c0: 42c9 63bc faf9 21bc 4ee9 8dbd e93d 32bd
000000d0: ed1a 15bd 34cd 83bd 0bc9 bdbb 8d7b 82bd
000000e0: 9880 a3bc 625f a13c d9ea 063d 2e13 c53d
000000f0: 3e77 aebc e3b8 a0bc 3733 55bd 1d6c 813d
00000100: 0948 813d da0b 68bd 6ff2 093c 35b1 abbd
00000110: 8809 c63d 6730 3f3c 9c18 b3bc a8a7 193d
00000120: 0ebb b9bd 411a afbd ad88 b53d 8985 883d
00000130: b834 b3bc 70eb 623c fc2d 68bd 6462 563d
00000140: fae0 3dbc fd89 cd3d 4e96 9fbd 82a4 f0bc
00000150: 0449 a4bd 50a2 a0bd 7996 4e3c ecf9 2bbb
00000160: fa47 403d 62b6 583c 11d5 c0bc c8bc d03c
00000170: 6c72 c93d 0a8d 18bd 3b72 26bc d670 ff3b
00000180: 3985 96bb 19ba 4b3d 1651 a03d 038e fe3b

output.weight f4 [1, 100]
0.07445972 -0.093588926 -0.113226414 -0.082100116 0.1028112 0.087281 0.1396908 -0.06620352
-0.084542684 -0.04735215 -0.082731344 0.092937164 -0.046735603 -0.12912963 0.14215685 0.12897669
0.047876887 -0.063520424 0.039923456 -0.10601889 -0.065274306 0.07604369 0.07147605 -0.092594534
-0.091429375 -0.012425971 0.13051544 0.0751329 -0.12247582 0.08223316 -0.07592566 0.067896836
0.09447635 0.10709835 0.04184404 0.12464961 0.04773845 0.090154715 -0.13120721 0.069571264
-0.051076077 -0.02156743 0.0982543 0.058602877 0.15940677 0.0462992 -0.093132794 -0.12590997
-0.070035666 0.014259966 -0.09187997 -0.07587789 -0.16774426 -0.049024362 -0.09091601 -0.12610722
0.0571945 -0.052446034 0.076487176 0.053118493 -0.09424909 0.09877997 -0.060224976 -0.053823046
0.10793196 -0.115223475 -0.05780994 0.138765 0.11068289 0.102739565 -0.06155413 -0.06579829
-0.047246467 0.15275878 -0.07616864 -0.124279894 0.06819597 0.07765899 -0.12316242 -0.09920869
-0.112050876 0.05084219 0.06022557 -0.122310795 0.10435414 -0.09525884 -0.065026425 0.12036164
0.037152126 -0.067677476 -0.120836444 -0.06430438 0.1051102 -0.07422728 0.042784013 0.12167594
-0.11939635 0.039140727 0.0714605 -0.08140602
00000000: 567e 983d 8dab bfbd 40e3 e7bd 1b24 a8bd
00000010: ae8e d23d 62c0 b23d 1b0b 0f3e b695 87bd
00000020: b724 adbd 54f4 41bd 0d6f a9bd d755 be3d
00000030: d56d 3fbd 8f3a 04be 9191 113e 7712 043e
00000040: 8e1a 443d ff16 82bd c786 233d 6f20 d9bd
00000050: 89ae 85bd cbbc 9b3d 0962 923d 34a2 bdbd
00000060: 533f bbbd 4d96 4bbc d7a5 053e 47df 993d
00000070: 9ad4 fabd dc69 a83d ea7e 9bbd 7f0d 8b3d
00000080: d17c c13d 6156 db3d a864 2b3d 4b48 ff3d
00000090: 6589 433d 09a3 b83d 2f5b 06be 617b 8e3d
000000a0: 2635 51bd 2eae b0bc 8d39 c93d 9209 703d
000000b0: 873b 233e 3ba4 3d3d 68bc bebd 8bee 00be
000000c0: dc6e 8fbd a2a2 693c 912b bcbd de65 9bbd
000000d0: 27c5 2bbe c5cd 48bd 2c32 babd 4022 01be
000000e0: c844 6a3d a7d1 56bd 4fa5 9c3d c792 593d
000000f0: ab05 c1bd 274d ca3d 77ae 76bd 8e75 5cbd
00000100: 6e0b dd3d 49fa ebbd 1eca 6cbd 6a18 0e3e
00000110: b6ad e23d 1f69 d23d 2f20 7cbd 41c1 86bd
00000120: 8385 41bd cc6c 1c3e 4efe 9bbd 7586 febd
00000130: 54aa 8b3d ad0b 9f3d 943c fcbd ed2d cbbd
00000140: ee7a e5bd e63f 503d 16af 763d 157e fabd
00000150: a0b7 d53d 1117 c3bd 932c 85bd 2a80 f63d
00000160: d42c 183d 7d9a 8abd 1979 f7bd 04b2 83bd
00000170: 0444 d73d 7904 98bd 4a3e 2f3d 3c31 f93d
00000180: 1386 f4bd 0752 203d e259 923d 33b8 a6bd
