data/model/iarl_training_noisy/4/117.pth (torch, 44823 bytes, 5 tensors)

linear.weight f4 [100, 4]
000000 ae 50 c1 be 7a 9a e0 be b0 2c df bd a7 a7 2d be
       -0.37756866 -0.43867856 -0.10897195 -0.16958486
000010 33 22 a0 3d 14 e4 85 be 5e 96 fe be 77 8f c2 be
       0.07819023 -0.26150572 -0.49724096 -0.3800008
000020 61 51 98 bd b4 43 35 3e ed 51 bf be 6e 21 85 bd
       -0.07437397 0.17701608 -0.37367192 -0.06500517
000030 af 53 f6 3e 1e 2b d4 bb 1e 09 ce 3e 94 0f 74 be
       0.4811072 -0.0064748665 0.4024133 -0.23834068
000040 0a 6b 09 bd ce 76 ec 3c fa a2 07 3e a9 07 9c be
       -0.033549346 0.028865244 0.13245764 -0.30474594
000050 80 0a df be 58 51 c3 3e 28 d4 ce 3d d9 0d ac 3e
       -0.43562698 0.38147998 0.10099059 0.33604315
000060 b6 1b c4 be 42 a3 e2 3e ea ab 0f 3f 1d 21 04 bd
       -0.38302392 0.4426518 0.56121695 -0.03225814
000070 61 11 34 be df e7 2e 3e 2e 2e 2f 3f 6d 1e 8a 3d
       -0.17584755 0.1708064 0.6842984 0.067440845
000080 ba 73 8b 3e 0a af db 3e 4b 82 0c be 2f 49 70 bd
       0.2723673 0.42906982 -0.13721578 -0.058663543
000090 a2 26 9d 3e 79 61 1c bd 57 b1 eb be b6 b3 03 be
       0.30693537 -0.038178895 -0.46033737 -0.12861523
0000a0 21 ba 9d 3e e7 1e 8f bd f9 27 20 3f 44 f6 d9 3e
       0.30806068 -0.06988316 0.62560993 0.42570698
0000b0 4a 75 e0 3e 44 40 dd 3d ff cc ae 3e e8 90 ad 3d
       0.43839484 0.10803273 0.34140775 0.08474904
0000c0 af a5 38 3d a7 54 dc be 2a 08 85 be 51 f6 2e 3d
       0.045079883 -0.43033335 -0.2598279 0.042715374
0000d0 01 08 52 3e 2d db d2 3d b5 42 47 3b f8 00 a3 3e
       0.20510866 0.10295711 0.003040475 0.31836677
0000e0 74 e7 ff 3e 41 23 8e 3e aa bc 1e 3f e1 a2 cb 3e
       0.49981272 0.27761272 0.6200663 0.39772704
0000f0 8b 20 64 bd 97 57 a5 be b6 6a dd be c6 dc e4 be
       -0.055695098 -0.32293388 -0.43245476 -0.44699687
000100 79 7f ad be c3 ac 8a be ab 39 01 3d e6 a1 04 3d
       -0.33886316 -0.27084932 0.031549137 0.03238096
000110 43 d7 8b 3e fe 87 20 be 7e f7 00 bf 5c a2 b7 3e
       0.2731267 -0.15676877 -0.50377643 0.35866058
000120 f7 ca 86 3e c5 7c 69 3d b8 15 aa be 3e 46 eb 3e
       0.26326725 0.057003755 -0.33219695 0.45952028
000130 59 dc aa 3e 97 2a 64 3e 2d 74 3f 3b d7 4d 99 be
       0.33371237 0.22281872 0.0029213533 -0.299422
000140 2c c3 d5 3e 57 1d da 3e aa 74 b1 3d d0 e4 99 3d
       0.41750467 0.4260051 0.0866483 0.07514346
000150 92 fd bc be e9 6e 21 be 1e 3e 74 3e 91 e8 e9 be
       -0.3691221 -0.15764965 0.23851821 -0.45685247
000160 e4 4c 80 3d 51 c8 bf be 4f 2d 84 be 8d 9e 72 be
       0.06264666 -0.37457517 -0.25815818 -0.23693295
000170 d2 3b 98 be f7 49 f7 3e 42 f0 14 bf a9 f5 5f 3e
       -0.2973314 0.48298618 -0.58179104 0.21871056
000180 5c bb 97 be 11 03 3c be f6 50 04 3d ed 66 a5 3e
       -0.2963513 -0.18360545 0.032303773 0.3230509
000190 c6 e5 04 3e 16 4f 65 3e 34 bf 12 be 8b 7f 5d 3d
       0.12978277 0.2239345 -0.1433075 0.054076713
0001a0 65 a5 b4 3e 2f 37 e0 3e 5a 89 2e 3f a6 78 de 3e
       0.35282436 0.43792102 0.6817833 0.43451422
0001b0 de 70 7b be e3 63 a8 be a2 1c ae 3c 71 7c 4d be
       -0.24554774 -0.32888708 0.021253888 -0.20067002
0001c0 1e 9c f2 3e 1b 12 e3 3d c3 df fc 3e af eb 92 be
       0.47384733 0.11087438 0.49389467 -0.28695437
0001d0 5d e5 8b 3d 94 78 88 be 37 f3 96 3d 1a 24 42 3e
       0.06830857 -0.26654494 0.07370608 0.18959084
0001e0 ac 88 e8 bd 83 ab e6 3e f3 84 1d 3c 0c 32 8e 3e
       -0.11354193 0.45052728 0.009614217 0.27772558
0001f0 2f 87 f8 bd 02 d5 b7 3e e8 fa f0 be df a7 02 bf
       -0.12135159 0.359047 -0.47066426 -0.510374
000200 51 16 ee 3e bc cf e0 3e 62 73 7f 3e 8b a0 e6 be
       0.465014 0.4390849 0.24946359 -0.4504436
000210 68 08 93 be 5d db e2 3e 36 76 23 3f ae 2e 0c 3e
       -0.2871735 0.44307986 0.6385225 0.13689682
000220 2e ae 4f be 83 70 bb be 4b 22 c7 3e f7 fe 18 bd
       -0.20281288 -0.36609277 0.3889335 -0.03735253
000230 ff 3a 0e be 45 05 de 3e f9 e4 04 3f 72 77 7e 3d
       -0.13889693 0.43363395 0.51911885 0.06212563
000240 c3 46 75 be d7 cd 8d be ec 12 65 3e a6 10 4c 3e
       -0.23952775 -0.27696106 0.223705 0.19928226
000250 50 ed c5 be 93 5d 82 3e cc f7 94 be c4 eb 04 bf
       -0.38657618 0.25462016 -0.29095304 -0.5192225
000260 ee 90 62 3d 82 d4 b0 3c 1d 81 2a bf 5b 18 e2 3e
       0.055313997 0.021585707 -0.6660326 0.44159207
000270 59 51 20 3c 58 bd d2 be 63 f3 54 3e 11 bf 43 bd
       0.00978502 -0.41160083 0.2079597 -0.047789637
000280 6b 8b 97 3d cc 1c 02 3e bf ed 26 3f 48 41 cc 3e
       0.07399639 0.12706298 0.6520652 0.39893556
000290 9d 70 bd 3d a7 9b 8f be 6e 88 14 3e d3 d7 ed 3e
       0.09249995 -0.2804844 0.14505169 0.46453723
0002a0 3a 78 20 3e 08 6f d5 bd cf 53 cd be 83 5c e3 bd
       0.15670863 -0.10421568 -0.40103003 -0.111016296
0002b0 67 cc fb be 9f fd 07 be 9c f4 07 3e 6d 51 ef 3e
       -0.49179384 -0.13280343 0.13276905 0.4674181
0002c0 cc a6 18 39 a9 a2 9d 3e 96 d9 b7 be eb 39 87 be
       0.00014557986 0.30788162 -0.35908192 -0.26411375
0002d0 77 89 d1 be 04 da f7 3d 06 8e f0 3e f3 40 05 3f
       -0.4092519 0.1210213 0.46983355 0.5205223
0002e0 f5 8f de be f4 0f de be 56 d2 a5 bd 3b 79 fe be
       -0.43469205 -0.43371546 -0.08096759 -0.49701867
0002f0 f0 20 e3 3e 99 35 be be 93 b8 8f 3e c0 bd 8d 3e
       0.44361067 -0.37150267 0.28070506 0.2768383
000300 7d 27 e3 bd 4f 19 b9 bc b4 d3 25 be dc 3b 99 be
       -0.11091516 -0.022595076 -0.1619404 -0.29928482
000310 45 5e 8d be 65 91 4b 3e 18 0b e9 3e 98 1e 09 3f
       -0.27610984 0.19879682 0.45516276 0.5356231
000320 da 1a b6 3e 74 cc e4 bc 77 6f cd be 93 11 1d 3e
       0.3556736 -0.027929522 -0.40124103 0.15338735
000330 4d 89 bc 3d a9 75 a3 be 14 9a 31 3d 3f bf ec be
       0.092058755 -0.31925705 0.04335983 -0.4623966
000340 64 5c ed be 2f 73 a2 3e d5 49 33 3d 4a 76 c8 be
       -0.4635955 0.31728503 0.043771584 -0.39152747
000350 16 8d 64 3e f3 67 32 3e 2d 38 79 3e 2c e6 ee 3d
       0.22319445 0.17422466 0.24337836 0.116649956
000360 0f e0 94 3e 71 9c 1b 3d 78 35 22 3f c8 9f 5c be
       0.29077193 0.03799099 0.63362837 -0.21545327
000370 03 0f 81 be dc aa 01 3d 0f f6 10 3f 35 a3 d7 3e
       -0.25206766 0.031657085 0.56625456 0.42116705
000380 73 7e c9 be 8a 95 71 be df 59 13 bd 44 8b 75 be
       -0.39354286 -0.23592201 -0.03597438 -0.23978907
000390 91 9e 12 be 00 7e 9e 3d 8e 89 8f be 79 b6 f9 be
       -0.14318301 0.07738876 -0.28034633 -0.48772028
0003a0 50 a4 c2 be e6 de fe 3e 93 c4 cf 3e 5c e0 80 3e
       -0.38015985 0.49779433 0.40579662 0.25171173
0003b0 f4 43 6c be f6 fc a1 3e 4c 6d a4 b9 44 a5 d0 3e
       -0.23072797 0.31638306 -0.0003136195 0.40751088
0003c0 3d 5c 74 3e 1c db bc be d1 4f 83 be 01 d4 8d be
       0.23863311 -0.36885917 -0.25646833 -0.2770081
0003d0 e2 92 6f bd 27 bc e6 bd f5 6d 16 3f f0 8b ee 3e
       -0.058489688 -0.11266356 0.5876153 0.4659114
0003e0 3b 49 f3 3e e1 0e 75 3e d3 d7 01 3f 53 f7 81 3e
       0.47516808 0.23931457 0.50719947 0.25384006
0003f0 84 1e 05 be 06 6c bb 3d a6 80 35 be 44 b9 00 bf
       -0.12999922 0.09151463 -0.17724857 -0.5028269

linear.bias f4 [100]
000000 16 89 9f bd 17 77 01 3f 05 f8 20 3e af 7c 22 be
       -0.07789819 0.5057234 0.15719612 -0.15867876
000010 f8 c9 51 bd af 54 bd be 26 b6 43 be b5 6e ed 3d
       -0.051218003 -0.3697867 -0.19112453 0.11593381
000020 8a e6 d1 3b c7 88 a9 3e 61 da f3 bd e9 27 6e be
       0.006405656 0.33112165 -0.11906887 -0.23257412
000030 23 32 01 be e4 aa e5 be 7d 29 c6 be bf bc 23 be
       -0.12616782 -0.44856942 -0.38703528 -0.1598997
000040 c2 f4 ba 3e 78 ce e2 be e8 e7 fc 3d e1 75 d1 3e
       0.3651486 -0.44298148 0.1234892 0.40910247
000050 14 58 ec bc 1d 6a d2 3e 63 db 00 3d 57 4a be 3d
       -0.028850593 0.41096583 0.031459223 0.09291523
000060 aa 36 0d 3d 5e 65 85 be cd a7 7a 3e ec e8 f5 3e
       0.03447596 -0.260539 0.24478073 0.48029268
000070 ee fb c3 bd 9a 31 17 be b8 3d c9 3e 97 d9 05 bc
       -0.09569536 -0.14765015 0.393049 -0.008169553
000080 7d 87 bd 3e 80 e1 53 3e 30 c7 43 be 27 41 ce 3d
       0.37017432 0.2069149 -0.19118953 0.100710206
000090 24 52 89 3e 7f d3 0e 3d 53 15 c2 3c 4e 93 a1 be
       0.2682048 0.034869667 0.023691809 -0.31557697
0000a0 62 9e fe bd 7b 0e 05 3e ae 7f cf 3e 7e c5 e8 be
       -0.12432553 0.12993805 0.405271 -0.45463175
0000b0 27 07 91 3d f6 23 6f 3e c3 22 97 3e df 7c 90 3c
       0.07081442 0.23353562 0.2951871 0.017637668
0000c0 41 a2 a0 3d 0e 1c c3 3e 3b ae 06 3e bd fb 5e be
       0.078434475 0.38107342 0.13152401 -0.21775718
0000d0 45 29 a1 3e 46 61 14 3e cd e1 c4 3d 8e 2e e7 3e
       0.314768 0.14490232 0.096133806 0.45152706
0000e0 57 70 3e 3e 50 a4 b0 be 26 07 db 3c ca d2 93 3d
       0.18597542 -0.3450036 0.026736807 0.07217939
0000f0 b7 5f 42 be 32 b1 23 3e 0e e4 17 3a 4e 4d 07 3f
       -0.18981825 0.15985563 0.00057941757 0.5285233
000100 f6 3c cb be da 6d fb 3d 5d ee c3 be dd 63 32 be
       -0.39694947 0.12276812 -0.38267794 -0.17420907
000110 06 16 01 bf b3 70 7a bd 89 d1 8a 3e db 73 d1 3e
       -0.5042423 -0.061142635 0.27112988 0.40908703
000120 37 c8 99 3d 15 3a 6c 3e 36 3e 03 3f 83 15 fb be
       0.07508891 0.23069032 0.512668 -0.4903985
000130 3c e0 74 3e e7 34 a1 3e f1 02 02 bf 74 35 06 3f
       0.23913664 0.31485674 -0.5078574 0.52425313
000140 0a d1 05 3f 2c df 8b be a2 3f e3 3d a4 9e ab bd
       0.52272093 -0.27318704 0.11096121 -0.08379868
000150 30 16 3b 3e ed 6a 03 3d 59 60 c0 3e 73 b2 b2 be
       0.18270183 0.032084394 0.37573507 -0.3490177
000160 c2 1d 26 3d b3 99 9d 3e e5 9b 69 be cd ee 9d 3e
       0.040555723 0.30781326 -0.22813375 0.30846253
000170 8c bc 73 3d 30 7a 76 3e 4e 2d e7 3e 83 20 17 3d
       0.059505984 0.24070048 0.45151752 0.03689624
000180 54 21 2f bd 90 04 57 be e7 83 f4 3e 8c a8 26 be
       -0.042756394 -0.20997834 0.47756884 -0.16275233

hidden.weight f4 [100, 100]
000000 ff 1b 2b bd 45 25 91 bd 1d 7b 5d bc bf 8c 54 3d
       -0.041774746 -0.07087187 -0.013518122 0.05189204
000010 e6 fa 2a 3d 84 08 3c bd 1e 33 00 3e 71 22 eb 3d
       0.04174318 -0.04590656 0.125195 0.114811786
000020 42 32 cf 3d 15 8e 2f 3c 3b bb 23 3e 64 42 6b 3d
       0.10117008 0.010715027 0.15989392 0.057436362
000030 a7 a9 8d bd 05 8a 5f 3c ae 3f 8f 3d 9a 29 dc bb
       -0.06917124 0.013643746 0.06994568 -0.0067188265
000040 1d b9 d1 bb 80 dd b3 bc ac a2 c7 3c e4 6d 92 3c
       -0.006400241 -0.021956205 0.02436956 0.017874666
000050 6e c9 94 3d 54 67 02 bd 71 1a 95 bc c9 40 65 3d
       0.07264982 -0.031836823 -0.018201085 0.055969987
000060 c1 a4 87 bd 96 75 6d bd c5 94 7c 3c 24 d7 30 3d
       -0.06623221 -0.057973467 0.015416329 0.043173924
000070 09 f3 7e 3d 2d fd 14 bd b0 ac 1c 3d d3 0b 0f bd
       0.062243495 -0.03637426 0.038250625 -0.034923386
000080 61 2a ca 3d 3f ef 6d bc d3 de a6 ba 45 22 91 3d
       0.098713644 -0.014522373 -0.0012731202 0.070866145
000090 0b 2d e3 3c a8 0c 96 3d 74 36 fc bd f4 25 f9 3b
       0.02773144 0.07326633 -0.123150736 0.0076034013
0000a0 04 e4 cc 3d 39 81 69 bd d0 9d b0 bd 1b 60 86 3d
       0.10004428 -0.057008002 -0.0862385 0.065612994
0000b0 e6 03 37 3c d7 09 56 ba 8c 7d 99 bd 37 48 a1 3c
       0.011170363 -0.00081649184 -0.07494649 0.019687755
0000c0 8f 3e d5 bb e0 de 64 3d 20 ef 62 bd a0 b8 60 3d
       -0.0065077017 0.055876613 -0.05540383 0.054863572
0000d0 78 1d 31 ba b1 1c c4 3d 65 d6 12 3e 4d ec b6 bc
       -0.00067564053 0.09575785 0.14339598 -0.022329474
0000e0 df 9e 5f 3d 62 8e 03 3d b0 ae 2c 3d e2 77 27 bd
       0.05459487 0.03211821 0.042158782 -0.040885814
0000f0 21 f5 8e bc 3b c5 09 3e bd eb 45 3d 37 3b 8c bd
       -0.017450871 0.13454144 0.04832052 -0.06847232
000100 25 ca 96 3d 31 27 a9 3c 35 ed 59 3c 95 99 3e 3d
       0.07362775 0.02064857 0.0133011835 0.046533186
000110 30 39 a6 bc 4a a3 85 bd cf d9 1c bc 3a 80 e4 3d
       -0.020290941 -0.065252855 -0.009573414 0.1115727
000120 5b 66 bd bc c7 05 84 3d 65 fb 7a bd c5 aa 87 bd
       -0.023120096 0.064464144 -0.061274905 -0.066243686
000130 06 9f a2 3d ae f2 31 bd ad 30 2a 3b e9 ff a1 bd
       0.079404876 -0.043444328 0.0025968954 -0.07910139
000140 91 ea 2c 3d e9 54 01 3d 63 1b 1c bc 6a 4c 30 bd
       0.042215887 0.031575117 -0.009528014 -0.043041624
000150 4a 35 5f bc 1a fa dc 3c 10 42 b2 3d e4 b8 16 bd
       -0.013623545 0.026974726 0.08704007 -0.03679742
000160 1e 2e 25 3a 1f a8 01 3e 66 86 0b 3e 87 1b 00 3d
       0.00063011225 0.1266179 0.13625488 0.031276252
000170 46 2d b3 3d fa 3b 7f bc 09 1a 89 bd af d8 1a 3d
       0.087488696 -0.015578264 -0.06694419 0.0378043
000180 cb f6 2d 3d dc a6 65 bd 2d b1 2a bd 4c 49 83 3b
       0.04247169 -0.056067333 -0.041672874 0.0040065404
000190 bf a4 8b 3d 64 d7 2c bb c8 e0 d6 bd 18 99 5d bd
       0.06818532 -0.00263735 -0.10492092 -0.05410108
0001a0 c6 b2 af 3c 00 9f 95 3d ac a2 87 3d 68 f6 ab 3d
       0.02144755 0.073057175 0.06622824 0.08396608
0001b0 1f de e3 bd 74 3d 09 be 5a 10 2c 3d 8e 68 90 bd
       -0.111263506 -0.13402349 0.04200778 -0.07051192
0001c0 02 1d ae bd a2 e4 fd 3c 64 6a fa bc 8d df 7e bd
       -0.085016266 0.03099281 -0.03056831 -0.062224913
0001d0 2f dd 53 bd 54 3e 8c 3b d7 6e d5 bc 01 dd 04 bd
       -0.05172461 0.004279891 -0.02605383 -0.03243733
0001e0 68 30 06 3b 38 5e 4a 3d cb e4 a4 bd 4a 86 83 bd
       0.002047563 0.04940626 -0.08051451 -0.06422098
0001f0 0d db c1 3d b8 89 21 bd 16 48 b0 3b 72 a0 0e bd
       0.09465609 -0.03943798 0.005379687 -0.03482098
000200 fc 9f c4 bc 30 ca f6 bc 4a 3c 85 3d fc ec 85 3a
       -0.024002068 -0.030125707 0.0650564 0.0010217722
000210 d7 4c 93 3d f8 df aa 3c 49 f7 12 3d ab c5 08 3e
       0.071923904 0.02085875 0.03588036 0.13356654
000220 c2 9e c3 3d 28 45 7d bd 9e 89 1f bd 06 87 d3 ba
       0.09551765 -0.06183353 -0.0389496 -0.0016138263
000230 71 99 28 3e ce c8 82 3d 93 28 a2 bd 9b ef 3e 3d
       0.16464783 0.06385957 -0.07917895 0.046615224
000240 92 ef 42 3d a9 9d c3 3c 84 02 a6 3d 21 bd df bc
       0.047591753 0.02387889 0.081059486 -0.027311863
000250 18 44 12 39 ba bb 8e 3b 87 76 df bd f0 2e a5 bd
       0.00013949012 0.004355875 -0.10911279 -0.08065593
000260 7b c3 8d 3d 94 e8 1d bd 83 cd 1e bd f9 06 3e 3d
       0.069220506 -0.038551882 -0.03877021 0.04639337
000270 96 73 10 3d 1f ca 0e bd 85 8c 0f 3e c3 aa 9e 3d
       0.03526648 -0.034860726 0.14018448 0.07747414
000280 e8 e5 de bc 8e ea c7 3b 2d 5b 81 3d e5 11 d9 bc
       -0.027209237 0.006100959 0.063162185 -0.02649779
000290 0c b2 98 bd 39 64 5e 3c 95 3a f3 3d 86 10 d7 3d
       -0.07455835 0.0135737 0.11876408 0.105011985
0002a0 b0 69 76 bd 41 eb 73 bd 6b a0 ff bc 80 2e e3 3d
       -0.060159385 -0.059550527 -0.031204423 0.110928535
0002b0 c5 ac 97 3d 2e 7d 03 be c5 6c ae 3d 17 73 38 bc
       0.07406 -0.12840721 0.0851684 -0.011257908
0002c0 d3 91 1b bb 4a 02 22 bc cf da 4f bd eb 3f 82 bd
       -0.002373804 -0.009888241 -0.05074578 -0.06359848
0002d0 a3 c5 04 bd 4f 15 c4 bc 13 b0 1e 3d d2 83 a7 3d
       -0.032415044 -0.023935942 0.038742136 0.081794396
0002e0 28 fc ce 3d 82 e3 15 3e e4 02 d6 bd 0d 91 af bd
       0.10106689 0.14637569 -0.1044977 -0.08572588
0002f0 7f 65 cc bd 9a 82 1b 3c cb 35 1f bd c8 c2 81 3d
       -0.09980296 0.009491587 -0.03886966 0.0633598
000300 41 30 68 3c 7b df b1 bb 14 7f 25 bc c0 4a 18 3d
       0.014171661 -0.0054282523 -0.010101099 0.037180662
000310 53 a8 45 3e a5 cf fd bb 0f 60 a8 bd 5d 5e 0b 3d
       0.19302492 -0.0077457004 -0.08221447 0.03402554
000320 d9 3d 64 3c 29 83 d5 bd 1c 07 a2 3c 6e 4c 30 3c
       0.013930761 -0.104254074 0.01977878 0.01076041
000330 7e 83 16 3d ab 64 16 3b fd 6c d8 3d 87 f0 9c 3d
       0.036746494 0.0022948186 0.10567663 0.076630645
000340 d8 2f 5f bd 55 45 41 3c c3 c6 0e 3c 47 01 8b bc
       -0.054488987 0.011796315 0.008714381 -0.016968383
000350 9a a5 91 bc c2 cb 75 3d b3 8f f5 bc 40 d8 71 bd
       -0.01777916 0.06000877 -0.029975748 -0.059044123
000360 90 f3 a5 3d aa 8e c2 bd 15 6c 30 3d 69 1e 9f 3d
       0.081030965 -0.09499867 0.043071825 0.07769472
000370 c5 c4 9b 3d c1 3a 5c bb 13 da eb bd 8f 2f 4c bd
       0.0760589 -0.0033604356 -0.11516204 -0.049850043
000380 7b 53 d9 bc d6 1a 70 bc da 47 f4 3c 5d c4 bd bc
       -0.026529064 -0.014654836 0.029819418 -0.023164922
000390 20 e6 13 bd 00 7c a6 3c c8 29 7d 3b f4 a1 89 bb
       -0.036108136 0.0203228 0.003862964 -0.0042002145
0003a0 b8 25 69 bd 2e a6 e1 3b 1c f6 70 3d 9b d7 91 38
       -0.056920737 0.0068862652 0.05882846 6.9542984e-05
0003b0 a9 7e 87 3c 93 dd 6e bd 2f f2 7d bd d4 dc 8a bd
       0.016539888 -0.05831678 -0.061998542 -0.06780401
0003c0 0f 0a 39 3e 7d e5 31 bd 3c 1b 2a bd 04 0e c3 3d
       0.18070243 -0.043431748 -0.04152988 0.09524158
0003d0 db 00 46 3d fe 08 df 3d 20 db 0f bd 1a ee 49 bc
       0.04834066 0.10890387 -0.035121083 -0.012324834
0003e0 55 c9 4a bd db 6b 02 3d d7 dd 44 bd 59 04 26 bd
       -0.04950841 0.03184114 -0.048063125 -0.04053149
0003f0 ed b7 bf 3d 4e ca 8c bb 08 1b fb 3d 98 d0 f9 3c
       0.09361253 -0.0042965775 0.12261015 0.030494973

hidden.bias f4 [100]
000000 94 d6 91 3c 4a 75 84 bd 6c b3 28 bd 7e cb e5 bc
       0.017802514 -0.064676836 -0.041186735 -0.028051134
000010 fc 45 74 3b 41 1a a0 3d d5 c8 4d 3c 8a 05 2a bc
       0.003727316 0.078175075 0.012560089 -0.010377297
000020 17 fc 96 3d 94 dd a4 bd 97 cc ab 3d d4 f2 52 bd
       0.07372301 -0.08050075 0.08388632 -0.05150111
000030 d2 b1 cf 3d 6a ee 72 bd 5b 53 cc 3c 61 c9 90 3c
       0.101413384 -0.0593094 0.02494209 0.01767415
000040 61 24 9b 3d f9 fb 82 3d 9b 91 53 bd 8d 28 c8 bb
       0.07575298 0.06395716 -0.051652532 -0.0061083497
000050 88 28 8a 3c e9 b8 f0 ba 4e 2f e6 3c b3 d9 5e bd
       0.01686503 -0.0018365654 0.028098729 -0.054406833
000060 5b 95 42 bd 09 a1 bf bc 76 a4 af 3d e6 ac 6a bd
       -0.047505718 -0.023392217 0.0857629 -0.057293795
000070 7a 7e e0 3d b5 8c ec 3d f0 68 98 3d 18 e5 42 3d
       0.109616235 0.11550275 0.0744189 0.047581762
000080 bd d4 81 3d e9 a6 44 bd cc 39 04 3d 63 8b 6f 3d
       0.06339405 -0.04801074 0.032281682 0.05848254
000090 51 78 1a bc 37 5c af bd 88 88 cb 3b 9d 67 de 3d
       -0.0094281 -0.085625105 0.006211344 0.108596064
0000a0 d7 ef 15 3d 88 0d 89 3d 1f a6 10 3d 5d 3c 70 3d
       0.036605682 0.06692034 0.035314675 0.058651317
0000b0 06 83 81 3b c1 e2 77 3d 1f 88 69 3c 5a 8c b8 3d
       0.003952387 0.060518984 0.014253645 0.09011145
0000c0 d8 f4 90 bc fe a2 62 3d 33 b0 b6 3d 23 37 b8 3d
       -0.017694876 0.055331223 0.08920326 0.089948915
0000d0 35 5e f6 3b 61 39 3a 3d c7 72 ef bc bb c0 8b bb
       0.0075185546 0.045464877 -0.029229535 -0.0042649186
0000e0 76 2b 90 3d 77 4b 26 3d ee 55 67 3d 06 62 cf bc
       0.070395395 0.040599313 0.056478433 -0.025315296
0000f0 fa f6 4d 3b fc 17 77 3d 7d 6e 87 bd 65 0d fa 3d
       0.0031427727 0.060325608 -0.06612871 0.12209586
000100 fb 07 d4 3d 54 86 c0 bc 19 8d dc 3d 47 55 73 3d
       0.10353085 -0.023501553 0.107691 0.0594075
000110 10 13 86 3c 64 75 99 3c 3e 2c 50 3d 1e c3 a7 3d
       0.016366512 0.018732734 0.050823443 0.081915125
000120 ba 2a ed bb 74 3b 29 3d c8 66 2a bd 5f dd 63 3d
       -0.0072377594 0.041316465 -0.041601926 0.055631038
000130 b7 9c c1 bd cb f5 ef 3c 1c eb a8 3d 3e b7 a1 bd
       -0.09453719 0.029292008 0.082479686 -0.07896279
000140 36 d3 f1 3d 2e c0 60 bd 38 e9 10 bd bb 21 81 3a
       0.118078634 -0.054870777 -0.035378665 0.0009851971
000150 ff bb a4 3d 30 f5 4b bd 85 b5 83 bd 4d 8c 3c bd
       0.0804367 -0.049794376 -0.064311065 -0.04603224
000160 bf f9 ba bc 18 90 b2 3b f6 53 5e bd 50 f1 5e 3d
       -0.022824166 0.005449306 -0.05427929 0.054429352
000170 cb 64 08 3c 9c d4 73 3d dd c0 fc bc 70 0e be 3d
       0.008324812 0.059528932 -0.030853683 0.092800975
000180 8b 68 0e bd 43 aa ec 3c bc 58 90 3d 2c fc 90 bc
       -0.03476767 0.02888978 0.07048175 -0.01769837

output.weight f4 [1, 100]
000000 50 7b 99 3d 9a 58 c5 3d e1 ba 30 3e e3 85 18 3e
       0.07494223 0.0963604 0.17258789 0.14894824
000010 e8 2f 14 3e 7e 4d 0c be 98 b8 5c be e7 9b 5a be
       0.144714 -0.13701436 -0.21554792 -0.21348535
000020 36 61 07 3e 59 c5 02 3e 13 33 0e bd 91 35 46 3e
       0.13220677 0.12770595 -0.034716677 0.19356371
000030 30 b0 46 be 5e b4 22 3e c1 43 c4 3d 1d 43 1a 3e
       -0.19403148 0.15889117 0.095832355 0.15064664
000040 15 80 83 3e 2b d1 af bd 53 38 3a 3e b4 4a 2a be
       0.25683656 -0.085848175 0.18185548 -0.1663006
000050 5f 4d ea bd 49 a3 50 be c0 a4 63 be 4c d7 27 be
       -0.114405386 -0.20374788 -0.22230816 -0.16390723
000060 d6 c8 f5 3d de ea d7 3d c1 de fe 3d 6f 3d d5 3d
       0.12001197 0.10542844 0.12444831 0.10412108
000070 30 76 31 be 3d ae 32 be b1 5f 20 3e 16 bb 00 be
       -0.17330241 -0.17449279 0.15661503 -0.12571368
000080 c9 d0 ac 3d 40 61 5c be c7 52 3a be 90 dd 06 3e
       0.0843826 -0.21521473 -0.1819564 0.13170457
000090 e1 63 db bd 61 10 dc 3d cf d8 13 3e c7 25 02 be
       -0.1071241 0.107453115 0.14438175 -0.12709723
0000a0 a9 43 e1 3d 91 04 77 be a7 df 37 be 33 11 1a 3e
       0.10999233 -0.24122836 -0.1795641 0.15045623
0000b0 43 f4 6b 3e 3c 79 44 be f1 d2 5c 3e f8 0f 2d be
       0.23042397 -0.19186872 0.21564843 -0.16900623
0000c0 c3 cb 3f be 07 0e bd 3d 57 de 19 3e 95 fb db 3d
       -0.18730073 0.09231191 0.15026222 0.10741345
0000d0 72 08 9e 3d 02 62 4a 3e 3d 30 75 3e ee c8 3a be
       0.077164546 0.1976395 0.23944183 -0.18240711
0000e0 f4 cd 57 be d2 a8 25 3e 3b dd 35 be a4 87 50 3e
       -0.21074659 0.16177681 -0.17760174 0.20364243
0000f0 69 05 5e be 41 bb 0e 3e 35 78 43 3e ba 85 c9 bd
       -0.21681751 0.13938619 0.19088824 -0.098399594
000100 06 f7 0c be 4e f7 10 be a4 2b d5 bd 9f 58 0d be
       -0.13766107 -0.14156839 -0.104087144 -0.13803338
000110 dc d7 30 be 1d 16 49 be e1 04 03 be 01 1e 99 3e
       -0.17269844 -0.19637342 -0.1279483 0.29905704
000120 96 1e 8d be d8 b2 32 3e 4a ce 77 be 9a f2 3d be
       -0.27562398 0.17451036 -0.24199787 -0.18549576
000130 53 f4 43 3e 61 b2 38 3e 08 0b 10 be 0d 6a cc 3d
       0.19136171 0.18036796 -0.14066708 0.09981165
000140 20 66 84 bd 12 14 21 be 80 9f 4f be b3 f3 40 be
       -0.06464791 -0.15730312 -0.20275688 -0.18842964
000150 b9 6d 0f 3e fa 78 ee bd 3b 69 d0 3d 8f 4f 48 be
       0.140067 -0.11644168 0.10176321 -0.19561599
000160 2e 2c c6 3d 1d 4e bd 3d e9 fe 22 be 0a 1b 7d 3e
       0.09676395 0.092434146 -0.15917553 0.24717346
000170 33 ca 34 3e e7 37 3e bd 9d 17 fd bd 73 17 03 be
       0.17655258 -0.04644003 -0.123580195 -0.12801914
000180 de b4 a9 bd e4 aa c5 bd b8 52 1d be 6b fe f8 3d
       -0.08286451 -0.096517354 -0.15363586 0.121579014
