data/model/sl_training_noisy_2/3/12.pth (torch, 44823 bytes, 5 tensors)

linear.weight f4 [100, 4]
0.27336815 0.23116778 0.47483537 -0.42055184 -0.19088805 -0.36652052 0.42327398 0.05771263
0.50730187 -0.1254054 0.6018678 -0.021212801 0.13950413 0.22007439 0.45005104 -0.23126176
-0.12838319 -0.4497695 -0.36292106 -0.36813167 0.29070154 0.25876966 0.46701774 -0.1915087
-0.1923114 0.01369677 0.44146302 -0.42836586 -0.15988767 -0.19717363 -0.6257231 -0.5010836
0.06875526 -0.4116812 0.24524273 0.13821878 0.18612911 0.10869818 0.18499441 -0.49557498
0.17311355 0.12201744 -0.4440146 -0.46207044 0.18263605 -0.23396583 -0.41201657 -0.40832463
-0.37519982 0.11666302 0.16669174 0.45356056 -0.11391946 -0.23929837 -0.28020728 0.30067033
0.0035542143 -0.34082127 0.5295236 -0.46857694 -0.37441462 -0.49526182 0.27659807 0.12350707
-0.022155903 -0.17467524 -0.071432285 0.34358227 -0.40045708 -0.25241193 0.011307818 0.15015922
-0.09541049 -0.4418053 0.42066455 0.00554301 -0.42839226 -0.054355897 -0.17133218 0.47130144
0.013109765 0.130535 0.35249048 0.36785477 0.2647974 0.3853813 -0.36917886 -0.13781127
0.28654447 -0.13595577 0.1698902 0.3688041 0.07660541 -0.029520899 -0.27867484 -0.27258167
-0.20148312 -0.47170347 -0.1861294 -0.03561498 0.465092 0.061095465 -0.12637769 0.11481967
0.44700962 0.43696067 -0.032670904 -0.36352438 0.033336774 -0.4411575 -0.54507035 -0.33666018
-0.28950793 0.13732094 -0.48066884 -0.31956112 -0.28352082 0.007853825 0.63128865 -0.27636045
0.10258735 -0.067574635 0.1804439 0.09627697 0.23462981 0.42984843 0.40796167 -0.3732686
-0.21125475 0.29789415 -0.49557704 0.23448281 -0.1722282 -0.16968462 0.034345195 -0.47079885
-0.44389912 0.05733671 -0.13562551 -0.49153113 0.4111753 0.43450284 0.26315507 -0.19413872
0.067195244 -0.0024411934 -0.55280334 -0.09601303 0.434214 0.20760076 0.48498696 0.039343517
-0.29377362 0.35690704 0.44849476 -0.4736075 0.22245975 -0.07168134 0.33252758 0.04681964
-0.31101224 0.032553677 -0.0040771575 0.33132237 0.40761897 -0.22700903 0.38500613 0.11844639
-0.17588504 0.34091213 -0.14929406 0.39821938 -0.34820023 0.46153706 0.50735074 -0.081683256
-0.38007045 -0.22228628 0.5414142 0.4226598 -0.2542119 -0.3094974 -0.50875825 -0.04335997
0.13071547 0.17174082 -0.13758127 0.42935312 0.031441156 0.4535278 -0.4001513 -0.3129198
0.2889832 -0.38019916 -0.24525458 -0.065570034 0.120188795 0.36557624 0.46601668 0.167061
0.3559568 0.28846037 0.5445992 0.27388155 0.07632665 0.26379272 -0.44193 0.26906312
0.32279643 -0.37484413 0.28981918 0.12549262 0.07760097 -0.20835666 -0.22916001 -0.42896497
0.13623133 0.28871375 0.44225717 -0.17214768 0.04501868 0.14555858 -0.16963466 0.06593612
-0.2085698 0.39233768 -0.25849655 -0.28496188 0.07116929 0.33749878 0.19989207 -0.026024267
0.371922 0.22032256 0.15899739 0.2897636 0.14272603 -0.34492064 -0.16648127 -0.4296211
-0.41611943 -0.22540283 -0.2347542 0.1998212 -0.30752778 -0.34301668 0.48721662 0.34036878
0.18401901 -0.23838359 0.25669456 0.24054165 -0.14257099 -0.232032 0.21960142 -0.49766016
00000000: e9f6 8b3e 3fb7 6c3e 9f1d f33e 9252 d7be
00000010: 2878 43be 94a8 bbbe 5eb7 d83e 1464 6c3d
00000020: 89de 013f 466a 00be 0214 1a3f 78c6 adbc
00000030: 2cda 0e3e 2e5b 613e 176d e63e e2cf 6cbe
00000040: e276 03be 3048 e6be cad0 b9be c17b bcbe
00000050: d5d6 943e 757d 843e f31c ef3e db1a 44be
00000060: 48ed 44be 6b68 603c 7107 e23e c552 dbbe
00000070: 98b9 23be e2e7 49be 642f 20bf 0447 00bf
00000080: 8fcf 8c3d e1c7 d2be e920 7b3e 3989 0d3e
00000090: a198 3e3e 279d de3d 2d6f 3d3e 01bc fdbe
000000a0: ae44 313e 48e4 f93d e255 e3be 7f94 ecbe
000000b0: f204 3b3e bd94 6fbe d6f3 d2be ed0f d1be
000000c0: 311a c0be 05ed ee3d 3db1 2a3e 1739 e83e
000000d0: 9b4e e9bd a20a 75be 5477 8fbe 76f1 993e
000000e0: d2ed 683b 2080 aebe dc8e 073f 51e9 efbe
000000f0: 46b3 bfbe f592 fdbe 439e 8d3e 46f1 fc3d
00000100: 4c80 b5bc 11de 32be 174b 92bd 04ea af3e
00000110: b608 cdbe 233c 81be 6d44 393c 57c3 193e
00000120: 9366 c3bd 4e34 e2be 5861 d73e 23a2 b53b
00000130: 3b56 dbbe 4aa4 5ebd b471 2fbe 6c4e f13e
00000140: 57ca 563c f8aa 053e a279 b43e 7657 bc3e
00000150: 8693 873e b350 c53e 0305 bdbe 661e 0dbe
00000160: f5b5 923e fd37 0bbe b2f7 2d3e e4d3 bc3e
00000170: 4ce3 9c3d d0d5 f1bc 78ae 8ebe d38f 8bbe
00000180: 9751 4ebe 1e83 f1be b598 3ebe 03e1 11bd
00000190: 8a20 ee3e 3d3f 7a3d 2769 01be 9326 eb3d
000001a0: 72de e43e 4fb9 df3e edd1 05bd de1f babe
000001b0: 248c 083d 65df e1be bb89 0bbf b95e acbe
000001c0: 623a 94be dc9d 0c3e 3a1a f6be 849d a3be
000001d0: a429 91be 54ad 003c 229c 213f 1e7f 8dbe
000001e0: 5119 d23d 9264 8abd 49c6 383e dc2c c53d
000001f0: cc42 703e 1815 dc3e 5ae0 d03e 101d bfbe
00000200: 2a53 58be 9585 983e 46bc fdbe 431c 703e
00000210: 975c 30be cec1 2dbe 8cad 0c3d 8c0c f1be
00000220: bf46 e3be e6d9 6a3d 6ae1 0abe f8a9 fbbe
00000230: 9285 d23e 2877 de3e 43bc 863e 4dcc 46be
00000240: a99d 893d 6efc 1fbb 8584 0dbf 7ba2 c4bd
00000250: 4c51 de3e 4b95 543e 3650 f83e ab26 213d
00000260: 7f69 96be 85bc b63e 1ba1 e53e af7c f2be
00000270: 7dcc 633e abcd 92bd 0e41 aa3e f3c5 3f3d
00000280: ff3c 9fbe 0157 053d ad99 85bb 16a3 a93e
00000290: 6fb3 d03e 0e75 68be 861f c53e 0594 f23d
000002a0: 351b 34be 098c ae3e 8be0 18be 69e3 cb3e
000002b0: 4d47 b2be 964e ec3e bde1 013f 8d49 a7bd
000002c0: 9898 c2be 049f 63be 1f9a 0a3f de66 d83e
000002d0: 1028 82be 7176 9ebe fb3d 02bf 399a 31bd
000002e0: 47da 053e d3dc 2f3e 1be2 0cbe 2cd4 db3e
000002f0: 71c8 003d cc34 e83e a2e0 ccbe 0637 a0be
00000300: 9bf5 933e 77a9 c2be 0424 7bbe 9549 86bd
00000310: 8b25 f63d cf2c bb3e bd99 ee3e 0a12 2b3e
00000320: f83f b63e 14b1 933e da6a 0b3f 343a 8c3e
00000330: 2651 9c3d d70f 873e a644 e2be a4c2 893e
00000340: 9345 a53e 92eb bfbe 2e63 943e 2381 003e
00000350: 42ed 9e3d 735b 55be eca8 6abe 4ca1 dbbe
00000360: 3a80 0b3e 4ad2 933e 886f e23e 7b47 30be
00000370: 8265 383d 4f0d 153e b5b4 2dbe 8409 873d
00000380: 5293 55be 7ce0 c83e a959 84be 86e6 91be
00000390: 34c1 913d a4cc ac3e 82b0 4c3e d830 d5bc
000003a0: 8f6c be3e 3d9c 613e 36d0 223e e55b 943e
000003b0: c626 123e 7099 b0be 117a 2abe 4cf7 dbbe
000003c0: 9b0d d5be 00d0 66be 6863 70be ee9d 4c3e
000003d0: 4874 9dbe e29f afbe 7574 f93e d144 ae3e
000003e0: 7b6f 3c3e d41a 74be 786d 833e 8d50 763e
000003f0: 21fe 11be cc99 6dbe 32df 603e 50cd febe

linear.bias f4 [100]
0.35146895 0.23700178 0.17109133 -0.42190257 -0.13358793 0.24124277 0.23750293 -0.05785321
0.33865452 0.3981827 0.1600906 0.5147147 -0.115584336 0.45598054 0.2271668 0.2544692
0.25470203 -0.001702496 0.3494924 0.1360452 0.0789417 -0.45110753 0.3015312 -0.49992883
0.23159616 0.3777875 0.13448602 -0.22650574 -0.407355 -0.20056121 0.081474766 0.5122896
-0.28638598 0.19295277 0.013576049 -0.2727502 0.2669204 0.29995382 -0.35216793 -0.09459092
-0.13709053 -0.3783845 -0.10378225 -0.23611742 0.19435583 -0.44858843 -0.42403945 0.28586558
-0.22486785 -0.47746336 0.10515935 -0.18286493 0.371101 0.42268896 -0.33124235 -0.50287044
-0.02731098 0.4290989 0.31310445 0.42282125 0.121560745 0.35092816 -0.12150508 0.084589556
-0.508288 0.29934984 -0.15927985 0.11231622 -0.2559206 -0.040298633 -0.09026562 -0.08210744
0.03503761 -0.3133786 -0.23744327 -0.48190603 0.1593611 -0.17000625 0.4907464 0.5109762
0.12581924 0.395338 0.42092827 0.10689314 0.04508519 0.32309997 -0.2091911 -0.1750273
0.0028148748 0.014440904 -0.123592645 -0.3252057 0.089960024 -0.4112197 0.009383035 0.38114393
-0.047068283 0.19954543 0.14462443 0.13953342
00000000: bdf3 b33e 98b0 723e 9132 2f3e 9d03 d8be
00000010: 46cb 08be 5808 773e f833 733e 7df7 6cbd
00000020: 2064 ad3e 9ade cb3e caee 233e 58c4 033f
00000030: 7bb7 ecbd 4876 e93e 6a9e 683e c949 823e
00000040: 4e68 823e 4926 dfba abf0 b23e 6f4f 0b3e
00000050: 30ac a13d 91f7 e6be 4c62 9a3e acf6 ffbe
00000060: 8b27 6d3e 5d6d c13e b4b6 093e 1ff1 67be
00000070: d690 d0be eb5f 4dbe 3edc a63d 6925 033f
00000080: 2fa1 92be 6995 453e 146e 5e3c eaa5 8bbe
00000090: caa9 883e 8c93 993e 5b4f b4be e2b8 c1bd
000000a0: 7661 0cbe 9dbb c1be ca8b d4bd c4c8 71be
000000b0: 3705 473e 62ad e5be b31b d9be f95c 923e
000000c0: c243 66be 1476 f4be c95d d73d f240 3bbe
000000d0: f300 be3e b06a d83e 9998 a9be 1ebc 00bf
000000e0: 47bb dfbc dab2 db3e 3a4f a03e 077c d83e
000000f0: d7f4 f83d dbac b33e a8d7 f8bd 4a3d ad3d
00000100: 2a1f 02bf 6244 993e 421a 23be 0c06 e63d
00000110: 0608 83be 2e10 25bd 2edd b8bd f227 a8bd
00000120: 9983 0f3d 2973 a0be 5424 73be 63bc f6be
00000130: 8e2f 233e 1e16 2ebe 1d43 fb3e 56cf 023f
00000140: c2d6 003e be69 ca3e e983 d73e caea da3d
00000150: 40ab 383d 5c6d a53e 3136 56be 5b3a 33be
00000160: c379 383b 8b99 6c3c 241e fdbd 5d81 a6be
00000170: f63c b83d 638b d2be 4dbb 193c 4c25 c33e
00000180: acca 40bd a355 4c3e 6d18 143e d9e1 0e3e

hidden.weight f4 [100, 100]
0.045432962 -0.05404161 -0.110109046 0.013287471 0.05575273 0.058437433 -0.042620864 0.006354742
-0.05363468 0.060281254 0.072702885 -0.007582459 -0.022170786 0.10534421 0.037109595 -0.019063624
0.093123205 0.06627161 0.06783259 0.08482113 0.021836761 0.008053125 -0.012096832 0.006019103
0.035872396 -0.03837217 -0.05607292 0.008262195 0.08369458 -0.08916255 0.065489404 -0.008056397
0.074056834 0.07083379 -0.010909056 -0.011690957 -0.029348295 -0.101928696 -0.028937098 -0.0752208
-0.04135304 -0.0031877733 -0.058548614 0.031368557 -0.08736266 0.028285742 -0.03996158 0.008407056
0.030479614 -0.15219824 0.018017672 0.06004987 0.056546967 -0.028443603 -0.0719701 -0.09861452
0.08363921 0.050663847 0.023345426 -0.026003167 -0.07254962 -0.097380646 0.03008738 0.094205186
0.07695053 0.034900676 -0.02464035 -0.08637318 -0.12465858 -0.07149761 -0.1200315 -0.040425636
0.06247896 0.03945487 0.07334068 -0.13290241 -0.025975231 -0.026407726 -0.013943152 0.004442154
0.101098806 0.049027454 0.09744559 0.008816789 0.12391482 0.012844674 -0.011053875 0.0710809
-0.100192 0.056352522 0.057017144 0.11333554 0.08503982 -0.09922935 -0.04360699 -0.055131454
-0.040701695 -0.036124364 0.020800592 -0.015668528 -0.07978129 0.08254204 -0.046820145 0.019106394
-0.056577902 -0.05219198 -0.03334624 0.10611278 0.042622868 -0.016286673 0.08978793 0.08075676
-0.010366792 0.049263187 0.08124236 0.044759054 0.013108098 -0.016548548 0.06935965 -0.043467503
-0.03756102 0.07433286 -0.020730598 -0.06574273 0.0891833 0.05561491 -0.04828807 -0.04397575
0.032979704 -0.05421902 -0.04521334 0.082178585 -0.07065613 0.0589156 0.07385897 0.061524987
-0.014084871 -0.003542323 0.04613342 -0.024741104 -0.07023737 -0.04104023 0.09282265 0.0003745673
-0.06831204 -0.019946128 -0.012548638 0.049392056 0.032258067 -0.13391083 -0.039094485 0.031470925
-0.030337885 0.11075386 0.023408452 -0.10701497 0.014420287 -0.01588136 -0.09803784 -0.0012939989
0.046540283 -0.04136969 -0.085383974 -0.06978981 -0.063922524 -0.021524105 -0.028853029 -0.10026456
-0.046490714 -0.031019837 0.04941142 0.04601837 -0.1007241 0.084061295 -0.09044816 -0.034236863
-0.02341703 -0.07724506 -0.04569995 -0.011751976 -0.0255652 0.06290023 -0.0472909 0.007077035
-0.018038455 -0.103901505 -0.08780973 0.028060557 -0.10733456 -0.032327056 0.09167555 0.04786762
-0.012514405 -0.11272286 -0.013026264 0.08248665 0.016169235 -0.014611842 0.10332385 -0.022101998
-0.0701785 0.08470307 0.051200558 -0.059944604 -0.025268009 -0.11782634 -0.0055154166 0.0026807536
-0.047212716 0.017622601 0.06791024 -0.009368666 -0.038017567 -0.02207251 -0.052288596 -0.05539509
-0.068457745 -0.07570466 -0.010545066 0.014005993 -0.054007806 0.06738711 0.081820846 -0.002348471
0.08326022 0.08706589 -0.022354743 -0.044589814 0.021048551 0.053213727 -0.074695475 -0.00868186
0.045000758 0.11748251 -0.039232355 -0.08045647 -0.019558465 0.034289777 -0.03437419 0.017951734
-0.107298344 -0.14305353 0.06639286 0.0181368 0.037198763 -0.048991274 0.007966619 -0.02184723
0.0028303238 -0.008912026 0.01001478 0.0014859098 0.052757885 -0.047068477 -0.02080755 -0.062874086
00000000: ea17 3a3d bc5a 5dbd da80 e1bd b1b3 593c
00000010: fa5c 643d 175c 6f3d 3793 2ebd 713b d03b
00000020: 0ab0 5bbd 7ae9 763d 40e5 943d 4776 f8bb
00000030: 829f b5bc b5be d73d 3b00 183d 512b 9cbc
00000040: 61b7 be3d 69b9 873d d0eb 8a3d b3b6 ad3d
00000050: 02e3 b23c 41f1 033c ca31 46bc e53b c53b
00000060: efee 123d 232c 1dbd b8ac 65bd 285e 073c
00000070: 1068 ab3d db9a b6bd 4f1f 863d fafe 03bc
00000080: 1cab 973d 4e11 913d e6bb 32bc 6d8b 3fbc
00000090: d66b f0bc febf d0bd 7e0d edbc 5d0d 9abd
000000a0: ce61 29bd f6e9 50bb acd0 6fbd 517c 003d
000000b0: 32eb b2bd 80b7 e73c c1ae 23bd c0bd 093c
000000c0: 62b0 f93c dbd9 1bbe cc99 933c daf6 753d
000000d0: cb9d 673d 8f02 e9bc 0f65 93bd 69f6 c9bd
000000e0: 094b ab3d e584 4f3d e83e bf3c 9804 d5bc
000000f0: e594 94bd 816f c7bd cf79 f63c a6ee c03d
00000100: 3d98 9d3d 03f4 0e3d 8fda c9bc 6ce4 b0bd
00000110: ff4c ffbd 576d 92bd 13d3 f5bd 5a95 25bd
00000120: f0e9 7f3d 6e9b 213d a333 963d 9217 08be
00000130: 02ca d4bc 0455 d8bc d171 64bc 7d8f 913b
00000140: e40c cf3d 03d1 483d 8e91 c73d 4b74 103c
00000150: 0ec7 fd3d 7872 523c 501b 35bc dd92 913d
00000160: 7731 cdbd e7d1 663d cf8a 693d 771c e83d
00000170: 5b29 ae3d c238 cbbd 3e9d 32bd 85d1 61bd
00000180: d2b6 26bd 24f7 13bd 0166 aa3c 495b 80bc
00000190: 5f64 a3bd cd0b a93d 7bc6 3fbd 0385 9c3c
000001a0: 3bbe 67bd 42c7 55bd 1196 08bd a851 d93d
000001b0: 5195 2e3d a16b 85bc bce2 b73d cd63 a53d
000001c0: 7ad9 29bc 32c8 493d 6562 a63d 4555 373d
000001d0: 59c3 563c d290 87bc 6f0c 8e3d fb0a 32bd
000001e0: 96d9 19bd d43b 983d 37d3 a9bc 20a4 86bd
000001f0: bca5 b63d 76cc 633d b6c9 45bd eb1f 34bd
00000200: ba15 073d c314 5ebd a031 39bd 3f4d a83d
00000210: 29b4 90bd 7c51 713d 5f43 973d a001 7c3d
00000220: 3bc4 66bc 5126 68bb 66f6 3c3d dbad cabc
00000230: 9cd8 8fbd cd19 28bd cd19 be3d 9261 c439
00000240: 2fe7 8bbd 1066 a3bc cd98 4dbc 534f 4a3d
00000250: 0921 043d ec1f 09be 8a21 20bd a8e7 003d
00000260: 2887 f8bc ebd2 e23d 15c3 bf3c aa2a dbbd
00000270: 1143 6c3c a019 82bc 10c8 c8bd 669b a9ba
00000280: 06a1 3e3d 4473 29bd cbdd aebd f6ed 8ebd
00000290: d0e9 82bd 5253 b0bc 305d ecbc 8157 cdbd
000002a0: 0c6d 3ebd 501d febc a163 4a3d c27d 3c3d
000002b0: 7048 cebd 5428 ac3d e33c b9bd f43b 0cbd
000002c0: 12d5 bfbc a832 9ebd df2f 3bbd 5c8b 40bc
000002d0: 1c6e d1bc d6d1 803d 1ab4 41bd 79e6 e73b
000002e0: 62c5 93bc 50ca d4bd 96d5 b3bd 41df e53c
000002f0: 39d2 dbbd 6069 04bd 64c0 bb3d d610 443d
00000300: 3809 4dbc 3edb e6bd 1c6c 55bc c3ee a83d
00000310: 5875 843c 8266 6fbc 749b d33d 400f b5bc
00000320: bfb9 8fbd ce78 ad3d adb7 513d 7988 75bd
00000330: dbfe cebc f04e f1bd abba b4bb 95af 2f3b
00000340: 1f62 41bd 465d 903c 8614 8b3d 097f 19bc
00000350: 4fb8 1bbd 69d1 b4bc 912c 56bd f6e5 62bd
00000360: 9333 8cbd 0b0b 9bbd 36c5 2cbc 6479 653c
00000370: 4a37 5dbd 4102 8a3d b091 a73d cee8 19bb
00000380: 5684 aa3d 9a4f b23d 4b21 b7bc cfa3 36bd
00000390: 036e ac3c a3f6 593d f1f9 98bd 5c3e 0ebc
000003a0: b752 383d ac9a f03d 1bb2 20bd 5dc6 a4bd
000003b0: 1339 a0bc 7073 0c3d f3cb 0cbd 840f 933c
000003c0: 3cbf dbbd a07c 12be fbf8 873d a093 943c
000003d0: bb5d 183d 13ab 48bd 6c86 023c f6f8 b2bc
000003e0: f47c 393b bf03 12bc 0815 243c dcc2 c23a
000003f0: a718 583d e0ca 40bd 9874 aabc 21c4 80bd

hidden.bias f4 [100]
-0.053253 0.06426525 0.10960691 -0.059001125 -0.05968942 -0.051799018 -0.01000559 -0.049956594
0.0060630487 0.08240482 0.07259271 -0.011196695 0.031839885 -0.022023167 -0.013543464 0.04732835
-0.060523707 -0.019266779 -0.053030472 -0.062432535 0.019657152 0.04294125 0.06097481 0.02038431
0.0198117 -0.038338397 0.08115056 -0.0404562 0.01581699 0.0041315546 0.040762533 0.02872721
0.03295652 -0.08260488 -0.052316893 -0.030265827 0.058002792 -0.071696855 -0.10714452 -0.034486353
-0.046723846 -0.05147178 0.09300503 0.016891833 0.06994918 -0.09296151 -0.061164822 -0.03099073
0.032385174 -0.062272646 -0.03164999 0.02715052 0.029620765 0.04213978 0.011479432 -0.0699734
0.06461989 0.019847948 0.0073146457 0.025795985 -0.07391487 -0.053310942 -0.02189099 0.042078998
-0.048478864 -0.030662522 -0.0059196246 0.07504504 0.040484734 0.09980422 0.056810427 -0.0631467
-0.06334164 0.0036685306 0.08743479 -0.009403183 0.121329665 0.06188002 0.09635222 0.062415075
0.050741136 -0.028841147 -0.03900554 0.056973346 0.06761886 0.05300706 0.027573414 0.020718753
-0.04398531 0.07173405 -0.057381522 -0.09453521 0.060508296 -0.072761744 0.05298804 0.06160182
0.021356551 -0.053425748 0.0023442511 0.10229629
00000000: d11f 5abd 809d 833d 9679 e03d 2aab 71bd
00000010: e57c 74bd 352b 54bd 7cee 23bc 499f 4cbd
00000020: 8aac c63b dcc3 a83d 7dab 943d 5872 37bc
00000030: 8a6a 023d ee69 b4bc 68e5 5dbc 5fdb 413d
00000040: b5e7 77bd 5dd5 9dbc 7b36 59bd 42b9 7fbd
00000050: 0908 a13c 2ae3 2f3d b9c0 793d fffc a63c
00000060: 254c a23c b908 1dbd 4432 a63d 66b5 25bd
00000070: a292 813c fe61 873b 9df6 263d 5355 eb3c
00000080: 6afd 063d bf2c a9bd 3d4a 56bd 0af0 f7bc
00000090: 5694 6d3d cdd5 92bd 966e dbbd 9041 0dbd
000000a0: 8161 3fbd 13d4 52bd 6c79 be3d be60 8a3c
000000b0: 8441 8f3d 9b62 bebd f787 7abd 45e0 fdbc
000000c0: 51a6 043d 9a11 7fbd 6ba3 01bd c46a de3c
000000d0: 3fa7 f23c c39a 2c3d 3a14 3c3c 374e 8fbd
000000e0: 6f57 843d 2a98 a23c b2af ef3b 1a52 d33c
000000f0: ae60 97bd 935c 5abd bc54 b3bc 075b 2c3d
00000100: c691 46bd f82f fbbc 69f9 c1bb 37b1 993d
00000110: 52d3 253d 2866 cc3d 0db2 683d 0f53 81bd
00000120: 43b9 81bd bb6b 703b 0311 b33d cf0f 1abc
00000130: b07b f83d e775 7d3d 5054 c53d f3a6 7f3d
00000140: f0d5 4f3d 4544 ecbc 46c4 1fbd e25c 693d
00000150: c27b 8a3d ee1d 593d a4e1 e13c 60ba a93c
00000160: f129 34bd 4de9 923d e308 6bbd ad9b c1bd
00000170: 8cd7 773d 1c04 95bd fd09 593d 3152 7c3d
00000180: eff3 ae3c f5d4 5abd 02a2 193b b880 d13d

output.weight f4 [1, 100]
-0.10095509 -0.059279077 -0.04292749 0.13247885 -0.02198301 0.16230193 0.09143581 0.112084925
0.05364207 -0.0764379 -0.13136922 -0.098051354 0.12670183 -0.16276732 -0.0911041 0.080974005
-0.20193723 -0.19605312 0.13180952 -0.057312466 -0.13954303 0.11632973 -0.16961026 -0.088903815
0.072274506 -0.0912026 0.12514585 0.103508085 0.14012672 0.12060367 0.046720713 -0.10591854
0.044735733 0.12762687 -0.10020779 0.11204204 0.07507414 0.11143674 0.11231606 0.09790515
-0.06864413 0.0885437 -0.0999591 0.098400585 0.11461995 0.06633145 0.029959952 0.08185997
-0.08534903 0.07737901 0.1402078 -0.1058346 0.079729736 -0.17308876 -0.10267842 -0.017949728
-0.11676623 -0.14151964 0.11643321 0.089957796 0.10931678 0.10941294 0.11854379 0.09301141
0.08148888 -0.10398146 -0.13528304 -0.21972057 0.09410456 -0.058759414 0.05012457 -0.11860221
-0.122043505 0.10389027 0.071377866 -0.09822233 -0.17164412 -0.07262975 0.10435152 -0.0517098
0.0752797 0.11089642 -0.14301741 -0.065877184 0.104936145 0.12673539 0.13134381 0.13657933
-0.10367676 0.103686206 0.1048082 0.13000187 -0.16234525 0.09103874 -0.08323237 0.20333508
-0.087797545 -0.14256276 -0.05262492 -0.10567721
00000000: 8bc1 cebd 9ece 72bd bcd4 2fbd 89a8 073e
00000010: b715 b4bc 7a32 263e b342 bb3d c88c e53d
00000020: cab7 5b3d 798b 9cbd a785 06be 26cf c8bd
00000030: 20be 013e 7aac 26be c994 babd b3d5 a53d
00000040: a2c8 4ebe 26c2 48be 13f9 063e 7ac0 6abd
00000050: 5ee4 0ebe 483e ee3d 50ae 2dbe 3413 b6bd
00000060: a804 943d 6ec8 babd 3c26 003e 0cfc d33d
00000070: 617d 0f3e 0fff f63d 385e 3f3d d2eb d8bd
00000080: d13c 373d 9eb0 023e be39 cdbd 4c76 e53d
00000090: 79c0 993d f238 e43d f605 e63d 7f82 c83d
000000a0: 4b95 8cbd 6656 b53d 5bb7 ccbd 3f86 c93d
000000b0: ddbd ea3d c9d8 873d 936e f53c 33a6 a73d
000000c0: 79cb aebd e378 9e3d a292 0f3e d0bf d8bd
000000d0: 5849 a33d 2e3e 31be 1049 d2bd 4f0b 93bc
000000e0: 2223 efbd 86ea 10be 8974 ee3d cb3b b83d
000000f0: 7ae1 df3d e413 e03d 16c7 f23d c47c be3d
00000100: a4e3 a63d 3bf4 d4bd a387 0abe 6efe 60be
00000110: e4b9 c03d b6ad 70bd 6c4f 4d3d b7e5 f2bd
00000120: f2f1 f9bd 6cc4 d43d 8f2e 923d ca28 c9bd
00000130: 7ac3 2fbe e8be 94bd 40b6 d53d a8cd 53bd
00000140: 3e2c 9a3d aa1d e33d 2873 12be 9eea 86bd
00000150: c3e8 d63d ecc6 013e fe7e 063e 74db 0b3e
00000160: 7b54 d4bd 6f59 d43d aea5 d63d 361f 053e
00000170: d53d 26be 8572 ba3d bc75 aabd 1237 503e
00000180: 33cf b3bd f9fb 11be 3a8d 57bd 4b6d d8bd
