data/model/hg_dagger_training_liberal/20/170.pth (torch, 44823 bytes, 5 tensors)

linear.weight f4 [100, 4]
000000 06 b0 98 bc ee 2f be 3c c4 fd ec 3c f2 ed d6 bc
       -0.018638622 0.023216214 0.028929599 -0.026236508
000010 97 da a1 3a 4c 52 b6 3c e4 88 e6 3c 1d 1b eb bc
       0.001234847 0.02225604 0.028141446 -0.028699452
000020 0f e9 0c bf 13 45 18 3f 7b cf 0b 3f 55 0d 50 3f
       -0.5504312 0.594804 0.54613465 0.81270343
000030 ec c2 30 be f0 0c aa bd 4f e8 c4 bd b0 85 b7 bd
       -0.17261857 -0.08303249 -0.09614622 -0.08961046
000040 0b e1 20 3e ea 73 be ba 8c 8d 98 3d 2d 1c 47 3c
       0.15710847 -0.0014530395 0.07448873 0.012152714
000050 b6 54 a2 3a e3 54 b6 3c 43 84 e6 3c db 1e eb bc
       0.0012384865 0.022257274 0.02813924 -0.028701236
000060 42 07 5c 3e cd 54 1e 3e fd 8f 10 3e 2a e7 b5 3d
       0.21487144 0.15462036 0.14117427 0.08881982
000070 09 9e fe 3e b3 fc 3b be d0 b7 91 3e 20 ac df 3d
       0.49729946 -0.18358116 0.2846055 0.10921502
000080 1c f7 c3 3e 8c 4e f7 bd 2b ab 93 3e ee b8 00 3e
       0.38274467 -0.120755285 0.28841528 0.12570545
000090 1f 48 bf 3c a6 11 5d bc ab ec 71 bc 72 dd 23 3d
       0.02334982 -0.013492977 -0.014765899 0.04000611
0000a0 a8 93 a7 be 7f 5c 16 be 65 e9 66 be be 6e 5e be
       -0.3272984 -0.14683722 -0.2254997 -0.21721932
0000b0 31 36 be bd fb 26 49 be d6 f7 98 be 11 bc 70 be
       -0.0928768 -0.19643776 -0.29876584 -0.23509242
0000c0 a4 4a cb bc 35 dc 03 3d e0 69 41 3d a3 46 7f 3b
       -0.024815865 0.032192428 0.04722011 0.0038952015
0000d0 81 78 fc bd da c3 8e bd e6 59 8c bd c4 6f 5a bd
       -0.12327672 -0.069709495 -0.06853084 -0.053329244
0000e0 b2 59 4c 3c ce a5 96 bc 59 a4 bd bc ce 2d 03 3d
       0.012472557 -0.018389609 -0.023149656 0.032026105
0000f0 22 b9 77 3e 38 e5 15 3e ea dc e2 3d 25 85 3d 3d
       0.24191716 0.14638221 0.11077292 0.046269555
000100 c6 2d 34 3d 52 08 6d bc f6 dd 6a bc bb 78 20 3d
       0.043988965 -0.014467316 -0.014335146 0.039177638
000110 e0 50 a2 3a 89 57 b6 3c 94 7d e6 3c d9 21 eb bc
       0.0012383722 0.022258537 0.028136052 -0.028702663
000120 7d cd 9d 39 b6 bf ad bc 33 ab f3 bc 8d f1 e3 3c
       0.00030098474 -0.021209579 -0.02974472 0.027825141
000130 7c 19 45 3a 49 69 b3 3c ef c4 e7 3c 20 01 ea bc
       0.0007518751 0.02190079 0.028292147 -0.02856499
000140 ab 9b 30 bd c7 3d c1 3b 7b c0 07 3c 07 2b 25 bd
       -0.043117207 0.005897257 0.008285637 -0.040324237
000150 5a a8 e2 3c bd c4 69 bc 50 70 88 bc 22 f6 1a 3d
       0.027668167 -0.0142680975 -0.016655117 0.037832387
000160 ea 14 41 be be 59 cf bd 7c 4d f7 bd e7 d3 dc bd
       -0.18855634 -0.10124539 -0.12075326 -0.10782605
000170 b9 34 9c 3e 34 6a 89 bd ec 97 d5 3d 36 6f 37 bc
       0.30508974 -0.0670971 0.104293674 -0.011195948
000180 5b e7 f7 3e dc 06 04 bf 31 3e d1 3e b7 76 14 3e
       0.48418698 -0.51572967 0.4086776 0.14498411
000190 1b 81 b9 be b3 97 74 be 0c d8 b3 be 87 2f a9 be
       -0.36231312 -0.23885994 -0.35125768 -0.33044073
0001a0 b5 ec 2c 3e 23 84 41 bc 3d 28 22 bb c2 73 19 3d
       0.16887172 -0.011811289 -0.0024743222 0.03746391
0001b0 27 a1 a6 3e 94 10 07 be 2b e7 82 be 44 80 0e be
       0.32544824 -0.13189918 -0.25566992 -0.13916117
0001c0 7e df ca be 6c 5a 01 3f 80 08 db 3e 0f 4a 0f 3f
       -0.39623636 0.505286 0.42779922 0.5597238
0001d0 43 33 86 3e e7 70 fe bc 1b b1 a2 3e a0 66 93 3e
       0.26210985 -0.031059695 0.31775746 0.28789234
0001e0 e7 5b 9b be 6f 47 27 3e 5c 71 12 3e aa 0e 49 3e
       -0.30343553 0.16335844 0.14301056 0.196345
0001f0 82 1f 50 3c dc bd 99 bc 59 b0 ce bc 77 8c fb 3c
       0.012702825 -0.01876729 -0.025230573 0.030706627
000200 ba 8d 66 3e d3 ba dd 3c 8c fa 97 3d ac f3 84 bb
       0.22515002 0.027066624 0.07420835 -0.0040573683
000210 d5 6a f7 3d 4f 92 ba bd 9e c3 36 be ca e4 06 be
       0.120809235 -0.091099374 -0.1784806 -0.13173214
000220 8e 3b c8 39 fd 76 ad bc 18 64 f3 bc 13 8a e4 3c
       0.00038191344 -0.021174902 -0.029710814 0.02789787
000230 1b 68 8f bd f2 10 ef bc 1f b2 21 bd 64 d9 0f bc
       -0.070022784 -0.029182885 -0.03947651 -0.008779857
000240 d9 e2 e5 3d 3b 52 51 bd 38 80 a4 3c 87 c1 a8 3d
       0.112249084 -0.05110381 0.02008067 0.082400374
000250 31 2a 98 3d 54 a1 88 bd 3f bd 07 3e 26 93 06 3e
       0.07429922 -0.06671396 0.13255785 0.1314207
000260 16 f7 18 be 73 7f 78 3e cb fc 95 3e 19 38 bb 3e
       -0.14938006 0.24267368 0.29294428 0.36566237
000270 f6 51 f7 3b 23 a9 9c bc a6 01 d7 bc 80 87 fd 3c
       0.0075476123 -0.01912362 -0.026245903 0.0309484
000280 fa fe a5 bd 64 81 65 3b 63 74 38 3c c4 2b e4 bc
       -0.081052735 0.003501975 0.0112582175 -0.0278529
000290 84 9f bd 39 3d 92 ad bc 8b fd f3 bc 7e cb e3 3c
       0.00036167738 -0.021187896 -0.029783985 0.027806994
0002a0 b1 17 b6 3e e4 5d 41 3c e9 71 50 3e 4a 55 cd 3d
       0.3556495 0.01180217 0.20355953 0.10026033
0002b0 c3 72 3c 3e e7 37 a3 3c 8b e3 f2 3c 75 5b 24 bd
       0.18403153 0.019924117 0.029649517 -0.040126283
0002c0 ff ec 47 3c 2e 4c c4 3c 9b 2a 20 3c 72 6b 4b bc
       0.0122025 0.023962107 0.009775783 -0.012415754
0002d0 89 7a ce 3c 79 75 89 bc 0c a3 8e bc 0f ae 0f 3d
       0.025204914 -0.016779648 -0.017411731 0.035078105
0002e0 7d bf 2b bd 4b 91 86 3c aa 9f c0 3c 0d d5 d8 bc
       -0.041930664 0.016426703 0.023513634 -0.026468778
0002f0 ee f6 eb ba b7 c5 a9 3c c1 0d d8 3c a6 53 f5 bc
       -0.0018002668 0.02072416 0.026373746 -0.029947113
000300 18 85 ff bd e6 b0 e7 3c cd 51 94 3d 71 af 95 3d
       -0.124765575 0.028282594 0.07242165 0.073088534
000310 fb 85 0b bb 20 44 ac 3c 3a c0 e0 3c e0 1a ec bc
       -0.0021289575 0.021028578 0.02743541 -0.028821409
000320 72 f1 99 39 3d d8 ad bc b2 cf f3 bc 3e e4 e3 3c
       0.00029362325 -0.021221275 -0.029762123 0.027818795
000330 a4 3c 79 3e 17 57 07 3e e7 b8 20 3e a7 e0 97 3d
       0.24339539 0.13216816 0.15695535 0.07415896
000340 e2 59 89 3e 55 95 18 bd 16 31 bb 3e 9d 71 af 3e
       0.26826388 -0.03725179 0.36560887 0.34266368
000350 de 02 87 3e 2c 88 73 3d 70 7d 92 3d 4a 56 da bb
       0.26369375 0.059456035 0.071528316 -0.0066631185
000360 1e 91 fa bb 1a 38 5d be d2 d0 a3 be 23 fc 87 be
       -0.007646694 -0.21603432 -0.31995255 -0.26559553
000370 2d 56 20 3e 33 c0 79 3c b2 b4 71 3d 4f 0d 14 bc
       0.15657873 0.015243578 0.059010215 -0.009036376
000380 28 74 a1 3e 01 a0 32 bd 0c fe c1 3d 90 7a 6a bc
       0.31533933 -0.043609623 0.09472284 -0.014311448
000390 da 5a c3 bd 6c 31 16 3a d7 f6 8d bb 92 87 3e bd
       -0.09538813 0.00057294103 -0.004332404 -0.04651601
0003a0 b3 95 74 be 42 98 bc bd 08 43 ae bd 34 b7 aa bd
       -0.2388523 -0.092087284 -0.08508879 -0.083357245
0003b0 60 c4 6d 3c 5f 0f 96 bc fb 87 ca bc 42 0b 01 3d
       0.0145121515 -0.018317876 -0.024723044 0.031504877
0003c0 77 78 93 3c 23 42 a8 bc 4f c0 cf bc 29 7a 00 3d
       0.018001778 -0.020539349 -0.025360255 0.0313665
0003d0 98 20 ca be c3 40 13 3f 44 bc 9b 3e 9b c9 b4 3e
       -0.39477992 0.57520694 0.30417073 0.35310063
0003e0 ae 01 5b 3e 48 39 97 bd 09 28 01 3e 69 fa d9 3d
       0.2138736 -0.073839724 0.12612928 0.10643465
0003f0 cb 46 46 3d 51 84 b4 bc 1d 4c d8 bc cd 80 f5 3c
       0.048407357 -0.02203575 -0.026403481 0.029968644

linear.bias f4 [100]
000000 f5 82 d2 bb 5e 18 af 3b d6 ee cd bb c7 dd 24 3e
       -0.0064243027 0.005343481 -0.006284575 0.16100226
000010 4b cc ff 3d 48 20 af 3b f9 65 ff 3d 13 cb 6e 3c
       0.12490138 0.0053444244 0.124706216 0.014574784
000020 26 9a fa 3d f4 2e 03 bd fb c4 d3 3e 2f d3 ea 3e
       0.12236433 -0.0320272 0.41361222 0.45864245
000030 e5 36 21 be f4 c1 0a 3d ac 44 20 bd 2e fd f2 3d
       -0.15743597 0.033876374 -0.03912799 0.118646964
000040 36 af 9d bd 75 18 af 3b 91 3f 8c bb e5 15 c0 3b
       -0.076994345 0.0053434917 -0.0042800386 0.005861985
000050 25 22 64 3d ac 35 12 bd 4a 93 70 3e 54 0d 42 be
       0.055696625 -0.035695717 0.23493686 -0.18950397
000060 30 cd bd bd 9a a9 f8 3e 5f e9 0f be ae fb fa 3e
       -0.09267652 0.48566896 -0.14053868 0.4902014
000070 c3 56 26 3e 67 bd bf 3c 81 a2 97 3e 42 13 f4 bc
       0.16244034 0.023405744 0.29616168 -0.02979434
000080 ae 97 a4 3d fc b6 8c 3e d7 89 8e bb 64 c5 80 3e
       0.08036743 0.27483356 -0.004349928 0.25150597
000090 f5 4d 5b be 73 ba cc 3d 08 cc 24 3e 9c a4 43 bc
       -0.21416457 0.099965 0.16093457 -0.011941101
0000a0 c1 18 d6 3d 79 00 8e bb 6b 2c 73 3e 33 e0 7c bb
       0.1045394 -0.0043335524 0.23747413 -0.0038585782
0000b0 64 22 94 bd 89 6f 8c bd 4b 9d fe 3c 80 a2 0c 3c
       -0.07233122 -0.06857211 0.031080863 0.008583665
0000c0 39 50 92 3e 9a 98 12 3c e9 36 8c bb e2 7c 55 3e
       0.2857683 0.008947516 -0.0042790067 0.2084842
0000d0 b5 27 ad bc 7f e8 51 be c5 4b d5 3e 61 04 1d 3d
       -0.021137098 -0.20498846 0.4165937 0.038334254
0000e0 3d 71 82 be 81 6e df 3d 64 93 b1 3d 41 af a1 bc
       -0.2547702 0.10909749 0.08670691 -0.019736888
0000f0 fa b4 6e bc 1b 66 05 3d bd dc 25 be 41 bd 91 bc
       -0.014569515 0.03256808 -0.16197486 -0.017790439
000100 91 bf bc 3e 7b b1 38 be 1b db 88 3d 12 44 8d bb
       0.36864904 -0.18036453 0.06682416 -0.004311093
000110 9a 3b 8f 3e 2f cd b3 3e c8 0f ad bd 34 b6 ec bd
       0.2797516 0.3511748 -0.08450276 -0.1155819
000120 e1 8f 89 3d 11 9e 02 be 1c a8 42 bc 88 d7 79 bc
       0.06716896 -0.1275561 -0.011880901 -0.015249141
000130 66 57 bb 3e d1 d2 8b bb 09 9b dc bc a3 fe 4f bc
       0.36590117 -0.0042670746 -0.026929395 -0.0126949875
000140 56 7e 0e 3d a7 04 ed 3c 2e 98 53 bb 37 91 7b bd
       0.034788452 0.028932882 -0.003228675 -0.061417785
000150 a3 98 34 be 73 3b 60 3d c4 a1 c1 bd 6c 31 e3 3e
       -0.17636351 0.054744195 -0.094546825 0.44373643
000160 67 4c 05 be 4d 0f 90 3e db d7 74 3e 11 59 8b 3e
       -0.13017426 0.28136674 0.23910467 0.2721639
000170 19 eb 3a bc d5 f4 bb 3e 45 13 39 be c1 f0 2f 3e
       -0.011408591 0.3671023 -0.18073757 0.17181684
000180 bc 24 3b bd c0 ce 8b bb dc e3 ab bc 1b 11 93 3e
       -0.04568933 -0.00426659 -0.020982675 0.28723988

hidden.weight f4 [100, 100]
000000 18 35 86 bb 4e bb 06 bd e5 e5 05 be b0 e4 03 3d
       -0.0040956847 -0.03289347 -0.13075979 0.032200515
000010 b7 18 a8 bc 03 c1 06 bd ab 4b 55 bd bb f3 83 bd
       -0.020519597 -0.032898914 -0.052074116 -0.06442972
000020 e3 7a 2b bd 0c f2 6e 3c 0f 55 a7 3d 94 72 a5 3d
       -0.04186524 0.014584076 0.081705205 0.08078495
000030 5c 03 47 bc 19 c2 be 3c 84 04 dc 3c 14 d5 96 bc
       -0.012146797 0.023285912 0.026857622 -0.01841215
000040 a6 cf 57 3c f4 c3 06 bd e1 4d 02 3d b2 c0 02 bd
       0.013172066 -0.03290172 0.031812552 -0.03192205
000050 00 82 e1 ba 9f 7e 40 3c 4c d5 23 3d df 78 1d bd
       -0.0017204881 0.011748939 0.039998338 -0.03844535
000060 06 c9 b8 bd 7a 28 eb 3d 89 63 85 bc f8 8d b0 3d
       -0.09022717 0.1148233 -0.016282814 0.086208284
000070 25 3b 9d bd a3 0e 83 bd be 46 21 3b ef 1b eb 3c
       -0.076772965 -0.06399276 0.0024608816 0.028699843
000080 c9 e3 1a bd 13 cd fb 3c c4 20 02 3d 0d a3 04 3d
       -0.03781489 0.030737435 0.03176953 0.03238206
000090 b0 48 77 3c 26 4b 42 bb 49 f2 2c bd a1 82 ce 3c
       0.015093014 -0.0029646843 -0.04222325 0.025208773
0000a0 f3 ad c8 3b da cc 01 3d 4c 68 f3 3b e0 2c fb bb
       0.006124252 0.031689502 0.0074282046 -0.0076652616
0000b0 ca bc 23 bc 92 8a 8f 3c 8d 94 fc 3a 3c 98 f6 bc
       -0.009993741 0.01752213 0.0019270346 -0.030101888
0000c0 47 41 30 3c 05 ba f0 bc 66 6d 02 3d 74 55 6c bc
       0.010757751 -0.029385576 0.03184261 -0.0144246705
0000d0 4b 60 8e bd 74 d3 0f bd 96 b9 b8 3d 6f c6 a4 ba
       -0.0695196 -0.035113767 0.09019773 -0.0012571345
0000e0 ae bf 08 bd ad 4a 11 3c 46 ba 1c 3d ee 23 9c 3c
       -0.033385925 0.008867902 0.03826358 0.019060101
0000f0 da 0b 58 3c a3 0f 99 bd 32 09 c4 bc ec 71 c3 3a
       0.013186419 -0.074736856 -0.023930166 0.0014911271
000100 20 0a 54 3d 60 bd 48 bd d3 ec af 3a 1b 41 02 3d
       0.05176747 -0.049008727 0.001342202 0.03180037
000110 88 86 52 bc a8 3a 89 3d 1e dc d4 bc ff dc b7 bc
       -0.012849458 0.06700641 -0.025983866 -0.022444246
000120 f4 2c b7 3c 19 c2 8f bd 95 14 d6 3c 61 e3 5f bc
       0.022360303 -0.07019443 0.026132861 -0.013665051
000130 14 7e 98 bc ef 57 02 3d 63 d4 9a 3c 84 74 37 ba
       -0.018614806 0.03182214 0.018900102 -0.0006998258
000140 ed 7e 07 bb 36 d9 00 bc ca 8b 04 3d 7d 8a 66 3b
       -0.002067502 -0.007864287 0.032359876 0.003517776
000150 5a 6a 3a bc 25 fc 2b bd 44 70 c1 bb 8d e0 a2 bd
       -0.011377895 -0.04198851 -0.0059032757 -0.07952986
000160 b6 c5 1f bc 58 30 90 bd 8e d9 30 bc 8e fc 6d bd
       -0.009751728 -0.07040471 -0.010794057 -0.058102183
000170 ac 44 56 bb a6 0b 52 3d b4 a3 69 bc 08 82 0f 3c
       -0.003269474 0.05128064 -0.014260221 0.008759029
000180 d0 22 d6 bb 7f 73 02 3d 78 5a fd 3c ad f0 40 3d
       -0.0065349117 0.031848427 0.030926928 0.047104526
000190 4b c6 f5 bb e3 8c 0d bd 63 5d 74 bd 16 e0 0b 3c
       -0.007500445 -0.03455819 -0.059659373 0.008537313
0001a0 25 a8 04 bc d5 91 0d bd 03 51 86 bc 52 a6 a3 bc
       -0.008096729 -0.034562904 -0.016396051 -0.019976769
0001b0 79 18 fe bc 47 be a5 3c 11 26 bd 3c 4f 5b 04 3d
       -0.031017529 0.020232333 0.02308944 0.03231364
0001c0 ed 6e b5 ba 95 5d 1f 3c ce c8 08 3d 07 ea 0d bc
       -0.0013842263 0.009726902 0.033394627 -0.0086617535
0001d0 07 20 b5 3c cd 94 0d bd 08 ee 09 3d d3 b6 0a bd
       0.022109998 -0.034565736 0.03367427 -0.03386576
0001e0 a9 20 11 bc c2 4d 90 3c 40 43 1f 3c b9 52 b1 bb
       -0.008857884 0.017615203 0.0097206235 -0.0054114726
0001f0 23 f0 1e bd c8 92 1a 3d fe 9d 47 3a 73 27 58 3b
       -0.03880323 0.037737638 0.000761479 0.0032982498
000200 07 7d 26 bd a2 51 88 bc 5a 7b 1e bc 90 47 0f 3d
       -0.04064658 -0.016640488 -0.009672964 0.034980357
000210 37 be a6 bb 65 e7 97 3c 07 db 09 3d 51 f1 6b 3b
       -0.0050885933 0.018542955 0.033656146 0.003600199
000220 84 f5 0f 3d 93 bf 19 3b da 5d cd bc b7 0b ec 3c
       0.03514625 0.0023460134 -0.025069166 0.02881418
000230 7f ca 89 bb b7 8b 09 3d 65 6f 04 bd 79 6f 08 bc
       -0.0042050476 0.033580508 -0.032332797 -0.008327358
000240 37 ad 79 bb fe d8 d3 3c 99 58 b5 bb df f6 04 bd
       -0.003809763 0.025860306 -0.0055342433 -0.032461997
000250 31 1c d1 bb 3c da 03 bd 3f 0e 0a 3d f8 ef 4d bc
       -0.0063815345 -0.032190546 0.033704992 -0.01256942
000260 c4 f9 9c bc 15 ad 1b bc b0 6b 08 3d 47 f9 91 bb
       -0.019162066 -0.009501715 0.033305824 -0.004454765
000270 98 0a 96 bb 4a 3c 5e bb 8d f8 5b 3c 6d 72 c4 3c
       -0.0045788996 -0.0033910447 0.013425958 0.023980344
000280 a0 78 94 3c d0 ef 08 bd 2a ca 93 3b 55 68 d1 3b
       0.018123925 -0.033431828 0.004510184 0.006390611
000290 6d 5d ae 3b 34 9c b3 bc f3 79 2d 3b 09 f3 09 3d
       0.005321196 -0.02192507 0.0026470392 0.033679042
0002a0 4c a0 44 bc 35 29 97 3c 44 c8 a6 bb ad 74 cd bb
       -0.012001108 0.018452266 -0.0050897915 -0.0062700124
0002b0 1b 29 f9 3b a6 dd c8 bc 8d 0e f5 3c 0c 17 34 ba
       0.007603777 -0.024519753 0.029914165 -0.00068698893
0002c0 7d dc 07 3d fb 01 0a 3d aa 87 c8 3c c2 64 9e 3b
       0.03316926 0.033693295 0.024478752 0.0048337886
0002d0 0e 28 fe bb 94 60 61 bc 1a fd 44 3c 9b d6 37 3c
       -0.0077562397 -0.013755936 0.012023235 0.0112205995
0002e0 fb b6 9f 3b 7b 43 8e bc 24 0a bd 3b 24 f5 74 bd
       0.004874108 -0.017366162 0.005769031 -0.059804097
0002f0 15 05 89 3b 25 84 e0 bc 38 74 24 bc 29 e7 33 bd
       0.004181514 -0.027406761 -0.010037474 -0.043921623
000300 f1 ec 8d bb 99 09 ac 3c ba 88 25 3b 3a 75 47 bc
       -0.004331224 0.02100067 0.0025258497 -0.012173945
000310 68 c1 80 bb c9 0d 0a 3d 8a be 0a 3d 61 23 40 3c
       -0.003929306 0.033704553 0.03387312 0.011727185
000320 ae 13 be bb a1 83 07 bd 13 98 ee bd 1d d5 e8 3c
       -0.005800686 -0.033084515 -0.116500996 0.028421933
000330 b0 03 b4 bc 49 89 07 bd 57 55 3f bd 1d 07 37 bd
       -0.021974415 -0.03308991 -0.046712246 -0.044684518
000340 2e 1f 78 bd 1f c8 80 3c 8b d0 92 3d 98 0f b8 3d
       -0.06057661 0.015720425 0.07168683 0.08987349
000350 67 bf 2e bc 0a 3f b0 3c 85 14 e1 3c 46 af a9 bc
       -0.010665751 0.021514434 0.027475605 -0.02071346
000360 0c 96 72 3c 22 8c 07 bd ff 32 03 3d 55 43 05 bd
       0.014806282 -0.033092625 0.032031056 -0.032534916
000370 a9 67 58 bb a1 fd 54 3c 89 11 10 3d d1 a7 fe bc
       -0.003302077 0.012999923 0.035172973 -0.03108588
000380 aa 55 ab bd 18 c6 d8 3d 03 ec 59 bc 1d 25 b0 3b
       -0.083659485 0.105846584 -0.0133008985 0.005375518
000390 cb 2b 91 bd fa 11 45 bd 92 91 d2 bb de af f8 3c
       -0.07088431 -0.048112847 -0.0064260447 0.030357298
0003a0 70 70 f9 bc 06 6c f8 3c 14 0b 03 3d 55 c9 7e 3c
       -0.030449122 0.030324947 0.031992987 0.015550931
0003b0 fe 1d 8e 3c a4 f0 e9 bb 78 19 29 bd 78 f1 d3 3c
       0.017348286 -0.0071392823 -0.041284055 0.025871977
0003c0 9f 98 82 3b 25 a7 02 3d 94 17 8e bc 18 0a fd bc
       0.003985479 0.031897683 -0.017345227 -0.030888602
0003d0 e9 2d 10 bc fb f8 97 3c 99 f3 e0 39 8c a9 f9 bc
       -0.008800008 0.01855134 0.00042906104 -0.030476354
0003e0 7c 18 2e 3c ef ef f4 bc 9e 52 03 3d db 93 86 3a
       0.010625955 -0.029899566 0.03206121 0.0010267453
0003f0 d1 cb 44 bd d2 c7 fb bc 9a 8b b5 3d 53 f6 51 bc
       -0.048045937 -0.03073493 0.088645175 -0.012815076

hidden.bias f4 [100]
000000 c6 16 0a 3d 19 d3 80 3d fd 00 72 3c e1 2d ba bc
       0.033713125 0.06290264 0.014770743 -0.022726955
000010 1e b9 d5 3c 69 4c ad 3b 6e df 73 3a 6d 07 19 3d
       0.026089247 0.00528865 0.0009303008 0.037360597
000020 f0 8b 56 3d 41 a2 84 3b 04 99 3b 3d 49 26 06 3d
       0.05237955 0.0040476625 0.045800224 0.032751355
000030 92 72 20 3d 8f 2a 3a bb 38 21 3e 3c 55 e0 35 3d
       0.039171763 -0.0028406715 0.0116046 0.044403393
000040 9d e5 7f 3c 78 ba 92 3d 1d 9c 8d bc 9a fd 27 3c
       0.015618709 0.07164472 -0.017286355 0.010253334
000050 c0 de 3c 3d 36 e3 16 3c de 69 49 bc b6 79 b2 ba
       0.04611087 0.009209445 -0.012293307 -0.0013616595
000060 39 c6 68 3d 30 93 58 3d 6e 1f 18 3d 28 14 26 3d
       0.056829665 0.052874744 0.03713935 0.040546566
000070 60 34 35 3d a8 7c 11 3d 61 60 e5 ba c2 1e 75 3d
       0.0442394 0.035519272 -0.0017500037 0.059843786
000080 6e 7f 93 3b 39 f0 9d 3c a9 f1 0c 3d 77 31 3f 3d
       0.004501275 0.019279586 0.034410153 0.046678033
000090 7c 78 09 3d f8 95 15 3e d6 bc 80 3d 4a b4 e2 3c
       0.03356217 0.1460799 0.062860176 0.02767386
0000a0 af fe 1e bc d5 68 48 3c 7a 0c ac 3c 9c 42 6d 3d
       -0.009704276 0.012232025 0.021002043 0.05792485
0000b0 a7 21 9c 3d 0e 4e 86 3d fd c5 43 3d 64 ab 07 3d
       0.07623606 0.065578565 0.04779624 0.033122435
0000c0 56 73 9d 3d f2 98 7e 3d 5f 6c 83 3d 52 86 93 3d
       0.07688014 0.06215758 0.064171545 0.07203354
0000d0 4b ce cc 3c 45 8a b1 3c be eb df 3c aa 9e 1d 3d
       0.025000712 0.021672377 0.02733409 0.038481392
0000e0 24 90 95 3d cb 3b 87 3c 7e 02 55 3d 34 b1 9a 3c
       0.07302883 0.016508004 0.05200433 0.018883325
0000f0 ac bc 69 3d 5a 77 96 3d f7 7b 62 bc e6 57 c9 3c
       0.057064697 0.07346983 -0.013823501 0.024578046
000100 d7 93 88 3c 83 71 19 ba 69 6f 55 3c fd 8e bd 3d
       0.016672058 -0.00058534014 0.0130270505 0.092557885
000110 cb f6 02 3d 51 6b d4 bb fb bc f9 3a 61 7f c9 3d
       0.03197364 -0.0064825197 0.0019053513 0.09838749
000120 bd 8a e8 3b 3e 3b 91 3d 53 46 a2 3b be 5a a3 3d
       0.007096617 0.07091378 0.004952231 0.07976292
000130 3d d3 07 bc a3 d2 35 3d ec a4 82 3d 62 44 09 3d
       -0.008290109 0.044390332 0.063791126 0.03351248
000140 65 2c 11 3d 1d 48 47 3c 53 e9 4f 3c 0f 52 46 3d
       0.03544273 0.012163189 0.012689906 0.0484181
000150 a5 5b 99 3c 28 07 76 bc 29 00 e7 3d b8 87 33 3d
       0.018720457 -0.015016355 0.112793274 0.043830603
000160 ae 4e b0 3d 9e 36 47 3d d8 cf 54 bb ea aa 97 3d
       0.08608757 0.04863607 -0.0032472517 0.07405646
000170 77 1f 68 bc 33 22 b3 3c 6a 8f b4 3d ba 79 20 3d
       -0.014167658 0.021866893 0.088164166 0.039178587
000180 b8 7b 57 bc 71 e3 de 3c 59 85 70 bb 35 69 cb 3b
       -0.013152055 0.027208062 -0.0036700575 0.00620761

output.weight f4 [1, 100]
000000 5d 94 9f be b8 68 f2 bd 1e f0 94 be 17 c3 63 3e
       -0.3116788 -0.1183638 -0.29089445 0.2224239
000010 ac d2 5c 3e 12 2b 8b 3c bb f5 67 be 4f 55 7a be
       0.2156474 0.016988311 -0.22652332 -0.24446605
000020 20 cc 5c be eb b4 01 be 5b b2 85 be 0b 19 2b 3e
       -0.21562243 -0.12666671 -0.26112637 0.16708772
000030 ad d5 a7 3e 90 0d 85 bd 21 56 6a bd b9 64 25 be
       0.3278021 -0.064967275 -0.057211045 -0.16151704
000040 8c 14 6c be 31 da 1c be 3e 84 27 be c7 52 b7 bd
       -0.23054713 -0.15317608 -0.1635904 -0.089513354
000050 7b 0b 0d be 41 7c 08 3d bd 78 9e 3e ef 1e 25 3e
       -0.1377391 0.033321623 0.3095149 0.16125081
000060 88 65 8b 3e dd 2e a8 3e 78 0b 80 3e 21 c2 6d 3e
       0.272259 0.32848254 0.2500875 0.23218586
000070 4f 85 0e be e3 97 62 bd d4 42 e1 bd ce 51 22 3e
       -0.1391804 -0.05532063 -0.109990746 0.15851519
000080 d2 a3 8a 3c bc f2 20 be e1 81 19 3e 42 7c 33 3e
       0.016923819 -0.15717596 0.14990951 0.1752787
000090 e8 cb 66 3e 73 f3 c4 be 09 10 97 3e c4 73 ae 3e
       0.22538722 -0.38466987 0.2950442 0.34072697
0000a0 bd 92 8b 3e a2 d8 87 be dd 40 71 be 93 c8 4f be
       0.2726039 -0.26532465 -0.235599 -0.20291357
0000b0 8b 17 95 be 15 11 4d 3e b3 de d1 3d 83 64 97 be
       -0.29119524 0.20026048 0.10247555 -0.29568872
0000c0 10 97 95 3e f5 57 5f 3e 66 66 9f 3e a5 c2 5b be
       0.29216814 0.21810897 0.3113281 -0.2146097
0000d0 21 c3 51 be 27 8a 85 3e 3f 37 78 3e b0 a8 00 be
       -0.20484592 0.26081964 0.24239825 -0.12564349
0000e0 04 9e 4e be 80 cf 5a be 72 d9 a4 bd a3 9f 46 be
       -0.20177466 -0.21368217 -0.08049287 -0.19396834
0000f0 2c 7c 05 be 09 02 af 3e ce fd 15 3e 50 35 80 3e
       -0.13035649 0.3418124 0.146476 0.25040674
000100 34 a3 92 3d c7 f7 65 bd f6 3e 9f bd e1 08 b4 be
       0.07160035 -0.056144502 -0.07775681 -0.35163024
000110 76 36 32 be 0f 07 84 3e 8e 5d 45 3e 13 4d 84 be
       -0.17403588 0.25786635 0.1927397 -0.25840053
000120 3f 14 c5 bd 48 bd 15 be e8 73 2c 3e bd 9a 4a be
       -0.09623002 -0.14622986 0.1684109 -0.1978559
000130 5b 7b b9 3c 38 b2 20 3e 26 09 ca be e7 32 54 be
       0.022641828 0.15692985 -0.39460105 -0.20722543
000140 9d d6 d2 bd 54 02 7a be 41 6f 82 3e 56 44 d6 3e
       -0.102948405 -0.2441495 0.25475505 0.4184901
000150 7a af 99 3d d1 ba b2 bd d4 4a a9 be 58 ca 86 bd
       0.075041726 -0.08727039 -0.33064902 -0.06581563
000160 69 3b c4 3e 19 b4 c8 3d 09 d0 90 bc f6 91 85 3e
       0.38326576 0.09799976 -0.017677324 0.26087922
000170 a6 c7 9a bd 42 f0 e5 3d 4d 30 62 be 3f 6a 2c 3e
       -0.07557611 0.11227466 -0.22088738 0.16837405
000180 c7 32 80 3e ba 6c 5c be 83 4b 83 be 42 07 ce bd
       0.2503874 -0.21525851 -0.25643548 -0.10059978
