data/model/sl_training/5/420.pth (torch, 44823 bytes, 5 tensors)

linear.weight f4 [100, 4]
0	0xbe5da938	-0.21646583
1	0x3e8657f3	0.26238975
2	0xbeb1300b	-0.34606966
3	0x3f02eacb	0.51139516
4	0x3dcd316d	0.10019193
5	0x3ebf93f4	0.37417567
6	0xbdf8245a	-0.121163085
7	0xbe9d349d	-0.30704203
8	0xbea31dfe	-0.3185882
9	0x3ed6d868	0.4196198
10	0x3cdcb046	0.026939522
11	0x3cc665f4	0.024218537
12	0x3ed15279	0.40883234
13	0xbd890c52	-0.06691803
14	0xbcdb649f	-0.026781378
15	0xbd1eba6c	-0.038752005
16	0x3ee17f82	0.44042593
17	0x3e9f845e	0.31155676
18	0x3ce4f3a1	0.027948203
19	0xbef3a182	-0.47584158
20	0x3e2285fa	0.1587142
21	0x3f01a028	0.50635004
22	0xbcca7917	-0.024715943
23	0xbe5e4fd4	-0.2171014
24	0x3ebbb89c	0.36664283
25	0x3eacbeb1	0.33739236
26	0x3dde6788	0.10859591
27	0x3e50e4a2	0.20399716
28	0x3e8f1250	0.2794366
29	0x3ed0bb8a	0.4076808
30	0xbbc55837	-0.006022479
31	0xbdb964e5	-0.09052447
32	0x3ee07c11	0.43844655
33	0x3e271cc2	0.16319564
34	0xbeb15279	-0.34633234
35	0x3c8fde38	0.017562017
36	0x3c49175b	0.012273635
37	0xbc25ea1b	-0.010126616
38	0x3ea81615	0.32829347
39	0x3e06cc5b	0.13163893
40	0x3e8afa28	0.2714398
41	0x3eb4c303	0.35305032
42	0x3f08d33b	0.5344731
43	0xbe183042	-0.14862159
44	0xbd39922f	-0.045305427
45	0xbebda8cc	-0.37042844
46	0xbe21a0aa	-0.15783945
47	0xbe892d21	-0.26792243
48	0xbe6fe073	-0.23425464
49	0x3efad39e	0.48989576
50	0xbe33c533	-0.17555694
51	0xbe3e6609	-0.18593611
52	0xbda3328e	-0.07968627
53	0x3dbad49c	0.09122583
54	0x3e909ad0	0.28243113
55	0x3f073e0a	0.5282904
56	0x3ee1bb14	0.44088042
57	0xbec5620a	-0.3855136
58	0x3e8a411c	0.270028
59	0x3f016224	0.50540376
60	0xbeda03ee	-0.42581123
61	0x3e0e35f7	0.13887773
62	0x3de177de	0.11009191
63	0xbec46350	-0.3835702
64	0xbe53ceae	-0.20684311
65	0xbdc21f36	-0.09478609
66	0x3d7a7588	0.061147243
67	0x3ec79438	0.3898027
68	0x3d1a2dd1	0.03764135
69	0x3e3c531e	0.18391082
70	0x3edcb91f	0.43109986
71	0xbcf81ede	-0.030288156
72	0x3eb6dcef	0.35715434
73	0x3e6e6b87	0.23283206
74	0xbec39d64	-0.38206017
75	0xbec3a7d3	-0.38213977
76	0x3d10b517	0.03532895
77	0xbe06b999	-0.13156737
78	0xbe4ccff9	-0.2000121
79	0x3eee8ed6	0.4659335
80	0xbe84cb5e	-0.25936407
81	0xbf013dc9	-0.504849
82	0x3e11bff8	0.14233387
83	0x3ee84bb8	0.4537027
84	0xbe709803	-0.23495488
85	0xbd840eb4	-0.06448117
86	0x3e63d54d	0.22249337
87	0x3ec4d70b	0.38445315
88	0x3e13c575	0.14430793
89	0x3d1df59e	0.038564317
90	0xbb1c42d4	-0.0023843544
91	0x3ed66f03	0.4188157
92	0xbeb869b0	-0.36018133
93	0x3e749aab	0.23887126
94	0xbe9faa15	-0.3118445
95	0x3ea37381	0.3192406
96	0xbeacfc3e	-0.33786196
97	0x3dc39def	0.09551608
98	0x3eebda97	0.46065208
99	0x3e18b232	0.14911726
100	0xbe02f23d	-0.12787719
101	0xbe8f7512	-0.28019005
102	0xbe8629c0	-0.26203728
103	0xbe00759f	-0.12544869
104	0x3e62405d	0.22094865
105	0xbe48cc86	-0.1960927
106	0x3e438c4f	0.19096492
107	0x3e94e4dc	0.29080856
108	0x3cb2b75d	0.02181595
109	0x3e861c6c	0.2619356
110	0x3e60ac9c	0.21940845
111	0xbe415219	-0.18878974
112	0x3dfa7de2	0.122310415
113	0xbeb0f555	-0.34562173
114	0x3e080854	0.13284427
115	0xbe3b3206	-0.18280801
116	0xbe0c4a3a	-0.1370019
117	0x3ece07c2	0.40240294
118	0x3dcaf3f5	0.09909812
119	0xbf0dd467	-0.55402225
120	0xbd823a57	-0.06358784
121	0x3eef7df2	0.46775776
122	0x3e2a054d	0.16603585
123	0x3ef7039d	0.48244944
124	0xbdd9fd12	-0.106439725
125	0xbeae8f18	-0.34093547
126	0xbea54af4	-0.32283747
127	0xbe7720e5	-0.24133642
128	0xbe8c4732	-0.27398068
129	0x3e7d2aae	0.24723312
130	0x3dd2b0a0	0.10287595
131	0x3e87ec10	0.2654729
132	0x3ead981a	0.33905107
133	0x3effa7ed	0.49932805
134	0x3eaf2127	0.3420498
135	0xbee85fe7	-0.45385668
136	0x3eb3d1af	0.35120913
137	0x3ef1837b	0.47170624
138	0x3ee15afb	0.44014725
139	0xbe0df4b5	-0.1386288
140	0x3eb59d2f	0.35471484
141	0x3df4a041	0.119446285
142	0x3d38c145	0.04510619
143	0x3e783627	0.24239407
144	0xbeeea887	-0.4661295
145	0xbeba96ab	-0.36443076
146	0x3eef008e	0.4668011
147	0xbe17b27f	-0.14814185
148	0xbd733656	-0.05937799
149	0xbe982492	-0.297154
150	0xbebd320e	-0.3695225
151	0xbebf6196	-0.3737914
152	0x3f000072	0.5000068
153	0x3ef6ee0b	0.48228487
154	0x3ea70683	0.32622156
155	0x3d23956b	0.039937418
156	0xbe5a9391	-0.21345355
157	0x3eeca340	0.462183
158	0x3edd7a8e	0.43257564
159	0x3eb4e50d	0.35331002
160	0x3cd2aac1	0.025716187
161	0xbea25afb	-0.31710038
162	0x3d10504d	0.03523283
163	0xbe13bfde	-0.1442866
164	0xbecc4c6f	-0.39902064
165	0x3db96844	0.0905309
166	0xbd33aa62	-0.04386366
167	0xbf05368b	-0.5203635
168	0x3ec79bb3	0.38985977
169	0xbecf349d	-0.40469828
170	0xbddbe9a9	-0.107379265
171	0xbeaf0d91	-0.34190038
172	0x3ea24eca	0.31700736
173	0x3e497e34	0.19677049
174	0xbe06fd1c	-0.13182491
175	0xbedb3f47	-0.42821714
176	0xbe94f562	-0.29093462
177	0xbebcee3c	-0.36900508
178	0xbe05ca25	-0.13065393
179	0xbe48968a	-0.19588676
180	0xbed5bd1d	-0.41745844
181	0xbe8f3196	-0.2796752
182	0xbf0007e9	-0.5001207
183	0xbe04eb32	-0.12980345
184	0x3f064eb7	0.5246386
185	0x3ee8fdcf	0.4550614
186	0xbdcc99e9	-0.099902935
187	0xbeb1b71e	-0.3471002
188	0x3cb431c8	0.021996394
189	0xbf0249ee	-0.5089406
190	0x3d21d4a7	0.03950944
191	0xbf02f093	-0.5114834
192	0x3efa94c6	0.4894163
193	0x3e83a5d8	0.25712466
194	0xbea93844	-0.3305074
195	0xbf04357a	-0.516441
196	0x3ee63fbd	0.44970503
197	0x3ec632ed	0.38710728
198	0xbdcf63a4	-0.10126427
199	0xbea509d5	-0.32234064
200	0x3e2793a4	0.16364914
201	0x3ee8cccd	0.4546875
202	0xbf0f61ac	-0.5600841
203	0xbebea305	-0.3723375
204	0x3d1588a0	0.03650725
205	0x3e558f94	0.20855552
206	0x3da2826f	0.079350345
207	0x3ef9a1ab	0.48756155
208	0xbddea289	-0.10870845
209	0x3eef7f6b	0.467769
210	0x3e5953af	0.21223329
211	0x3e2e2f8f	0.1701033
212	0xbe7cd50b	-0.24690644
213	0x3ee32b2c	0.44368875
214	0x3ed90d3b	0.42392907
215	0xbd2a1a1c	-0.041528806
216	0xbebd7ffe	-0.37011713
217	0x3e90ca2a	0.2827924
218	0xbbfc45c9	-0.0076987487
219	0x3e6c1527	0.23054944
220	0x3ee0ed8f	0.43931243
221	0xbe1edb71	-0.15513398
222	0xbef3c3d6	-0.47610348
223	0x3e79ec77	0.2440661
224	0x3ee1302d	0.43982068
225	0xbeb0a567	-0.34501192
226	0x3e205add	0.15659662
227	0x3ec6fdda	0.38865548
228	0x3eeb18c3	0.4591733
229	0x3cdb9888	0.026806131
230	0xbe5ae7f9	-0.21377553
231	0xbebc03c3	-0.3672162
232	0x3ee04dc0	0.4380932
233	0xbd0e9d34	-0.03481789
234	0xbefc9276	-0.4933049
235	0x3e1badb2	0.15202978
236	0xbcd138d6	-0.025539797
237	0x3e9f3d56	0.31101483
238	0x3e8ba323	0.272729
239	0xbee7a61c	-0.4524392
240	0xbd320e46	-0.043470643
241	0x3ef5cf1d	0.48009577
242	0x3e1c5c8d	0.1526968
243	0xbe089b7c	-0.13340563
244	0xbc193381	-0.009350658
245	0x3eaa85cf	0.33305213
246	0x3e21a8b1	0.15787007
247	0xbf06b509	-0.5261999
248	0x3daf27c6	0.08552508
249	0x3e6265c5	0.22109134
250	0xbe89f6b9	-0.26946047
251	0x3e1aff2f	0.15136407
252	0xbec31c6a	-0.38107616
253	0xbeba9360	-0.36440563
254	0x3edb446d	0.42825642
255	0x3f07b34f	0.5300798

linear.bias f4 [100]
0	0x3e085133	0.13312225
1	0xbdb40d53	-0.08791604
2	0x3e99ddca	0.30052024
3	0x3e44d8d5	0.1922334
4	0xbe8678de	-0.2626409
5	0x3e9fd85d	0.3121976
6	0x3e74de1f	0.23912857
7	0x3ecda5af	0.4016547
8	0x3eacc4c7	0.3374388
9	0x3e1ae791	0.15127398
10	0xbd4a712e	-0.049424343
11	0x3e971002	0.295044
12	0x3e6cc3b0	0.23121524
13	0x3d560042	0.05224634
14	0x3eb9a1a3	0.36256132
15	0xbea684a8	-0.32523084
16	0x3eaa7c87	0.33298132
17	0xbec0135c	-0.3751477
18	0xbe57856e	-0.21046993
19	0xbe353391	-0.17695452
20	0x37eeb83e	2.8457605e-05
21	0x3eaae508	0.33377862
22	0xbdcd414a	-0.100222185
23	0xbd718033	-0.05896015
24	0x3ee64d5c	0.44980896
25	0x3e2705c9	0.163108
26	0xbd979f3a	-0.07403417
27	0x3e0258e4	0.12729222
28	0x3df03a0e	0.11729823
29	0x3e24f47d	0.1610889
30	0xbee1c8ca	-0.44098502
31	0xbd46b79d	-0.04851495
32	0xbec01339	-0.37514666
33	0xbe143834	-0.14474565
34	0xbe5c6170	-0.21521544
35	0x3e93caed	0.28865758
36	0xbdf9571f	-0.1217482
37	0xbd608ed0	-0.054823697
38	0x3e8b7bde	0.2724294
39	0xbed6e894	-0.41974318
40	0xbdb6ed31	-0.089319594
41	0xbeeb7368	-0.45986485
42	0xbe7533b1	-0.239455
43	0x3ecf9498	0.40543056
44	0xbe07d4ba	-0.13264742
45	0x3efdbfbb	0.4956034
46	0xbe8afcd6	-0.27146024
47	0xbea790eb	-0.3272775
48	0xbe88e279	-0.26735285
49	0xbe944d9b	-0.28965458
50	0x3ea71dce	0.32639927
51	0xbec0a197	-0.37623283
52	0xbe74e448	-0.23915207
53	0x3e8b32d3	0.27187213
54	0xbecc5e35	-0.39915624
55	0x3ebedd55	0.37278238
56	0x3e52100f	0.20513938
57	0xbdff528a	-0.12466915
58	0x3ed35d3b	0.41282067
59	0x3ef69a35	0.48164526
60	0xbe9299b7	-0.286329
61	0xbe83fa9e	-0.25777143
62	0x3e1ee5aa	0.15517297
63	0x3ca5ca91	0.020238193
64	0xbd4516b2	-0.048117347
65	0x3d967502	0.07346536
66	0x3e601cde	0.21886012
67	0xbd37d628	-0.04488197
68	0x3ed8d08f	0.42346618
69	0xbee47e4f	-0.44627616
70	0xbc5ee797	-0.01360502
71	0xbeb887b5	-0.36041036
72	0xbedff316	-0.43740147
73	0xbcac1686	-0.021006834
74	0x3e56c9b8	0.20975387
75	0x3ef69c50	0.48166132
76	0xbeb74460	-0.35794353
77	0x3da82a45	0.08211187
78	0xbe4e8783	-0.20168881
79	0x3edac8e9	0.42731407
80	0x3e977135	0.29578558
81	0xbb10603d	-0.0022030019
82	0xbe48c846	-0.19607648
83	0xbe6554cc	-0.22395629
84	0x3ca04a84	0.019566782
85	0x3ef41352	0.4767099
86	0xbe84f6b4	-0.2596947
87	0xbe051d5c	-0.12999481
88	0x3eef03eb	0.46682677
89	0x3e92cd69	0.2867234
90	0x3e968178	0.29395652
91	0xbe7b019d	-0.24512334
92	0xbd443956	-0.047906242
93	0xbea4fa1b	-0.32222065
94	0x3cffcdb9	0.031226026
95	0x3b05b8b6	0.0020404286
96	0x3deb9f38	0.11504978
97	0x3ed030b5	0.4066216
98	0xbed7f3df	-0.42178246
99	0xbbcbb41c	-0.006216539

hidden.weight f4 [100, 100]
0	0x3cae2155	0.021256128
1	0x3cb0b6a4	0.021571465
2	0xb9cf2cc1	-0.0003951546
3	0xbd66c36d	-0.056338716
4	0x3d0768db	0.033058982
5	0x3d845a3f	0.064625256
6	0xbd98dc79	-0.07463927
7	0x3d6925d1	0.05692083
8	0xbd64df18	-0.05587682
9	0xbc796f2f	-0.015224262
10	0xbda46c48	-0.080284655
11	0x3cb4cc08	0.022069946
12	0x3d7a1bcc	0.061061665
13	0xbd6c82b4	-0.057741836
14	0x3d46648c	0.048435733
15	0x3d5f7b86	0.05456116
16	0xbdd173c9	-0.102271624
17	0xbd5ec4ce	-0.054386906
18	0xbc05f4ef	-0.0081760725
19	0xbcf588cf	-0.029972462
20	0x3db53f2f	0.08849942
21	0x3d49ddea	0.0492839
22	0x3c1d02ed	0.009583217
23	0xbc134b6d	-0.008990151
24	0xbc9e64bf	-0.019335149
25	0xbbb13123	-0.005407469
26	0xbdf41574	-0.11918154
27	0x3c8a8364	0.016908355
28	0x3dce9c21	0.10088373
29	0x3d63f16c	0.05565016
30	0xbc973a98	-0.018460557
31	0x3c8a17f5	0.016857127
32	0xbc4679b6	-0.012113979
33	0x3c98f5d4	0.018671907
34	0xbd44dd16	-0.048062406
35	0xbd3984d9	-0.04529271
36	0x3d8f6baf	0.07002961
37	0x3deb76b5	0.11497251
38	0x3d80ee53	0.06295457
39	0xbda5f70e	-0.081037626
40	0xbccfd51e	-0.025370177
41	0x3cd97c5c	0.026548557
42	0xbc86ee21	-0.01647097
43	0xbd6e81b4	-0.058229163
44	0x3ca521f8	0.0201578
45	0x3ddec656	0.10877673
46	0x3d2f98e2	0.04287041
47	0x3ca9d7ca	0.020732779
48	0x3d041468	0.032246023
49	0xbc45be97	-0.012069366
50	0x3d970d05	0.0737553
51	0xbd9dcf91	-0.07705606
52	0xbdecf3c0	-0.11569929
53	0xbd9393af	-0.07205903
54	0x3b86020f	0.004089601
55	0xbd7aa71d	-0.061194528
56	0xbde55f40	-0.11199808
57	0xbdc170b2	-0.09445323
58	0xbb4edd2b	-0.0031564932
59	0xbd7e1dd7	-0.062040176
60	0x3d3b0c11	0.045665804
61	0x3c967da2	0.018370453
62	0xb8f164d2	-0.00011510555
63	0xbde84015	-0.11340348
64	0x3e097e8d	0.13427182
65	0xbaea5b65	-0.0017880021
66	0x3da224b0	0.07917154
67	0x3d1ee377	0.038791146
68	0xbbe74c07	-0.0070586237
69	0xbd4de9fa	-0.050271966
70	0x3e0ab1ed	0.13544436
71	0x3c1194bb	0.008885558
72	0x3d42d840	0.047569513
73	0x3ccd5536	0.025065046
74	0x3c9d97ba	0.019237388
75	0xbd65fe77	-0.05615088
76	0x3d25ee1f	0.040510293
77	0x3dd5f9a3	0.10448005
78	0x3d573cca	0.052548207
79	0xbd4ea7fd	-0.050453175
80	0x3d620659	0.055181835
81	0x3c68fae3	0.014219972
82	0x3de288d3	0.110612534
83	0x3d6228a4	0.05521454
84	0xbd3b50b3	-0.045731258
85	0x3dd3060d	0.103038885
86	0x3d5c9b55	0.053859074
87	0x3d5bfa9a	0.05370579
88	0x3db9864f	0.090588205
89	0x3c3fa184	0.011696223
90	0xbd16fa15	-0.03685959
91	0xbe2a4e0e	-0.16631338
92	0xbd0264e6	-0.031834505
93	0xbd7045bc	-0.058660254
94	0xbc08dcd6	-0.008353433
95	0x3cbef191	0.023308547
96	0xbc0db794	-0.0086497255
97	0x3b23b0b9	0.002497716
98	0xbd9e62c5	-0.077336825
99	0x3c208a54	0.009798605
100	0xbdb3b1d5	-0.08774153
101	0x3c593eaf	0.013259574
102	0x3d1870ff	0.037217136
103	0xbd0b4a5d	-0.034006465
104	0x3ba39c89	0.0049930257
105	0x3d482a6b	0.048868578
106	0xbcb8f3c3	-0.022577172
107	0xbd521b46	-0.05129554
108	0x3d098606	0.03357508
109	0xbd9fd454	-0.0780417
110	0xbd1fe201	-0.039033893
111	0xbd2389f5	-0.039926488
112	0x3c7a32b4	0.015270878
113	0xbd9084ee	-0.07056604
114	0xbdcaf67e	-0.09910296
115	0x3c7dbfb8	0.015487604
116	0x3cc7830c	0.02435448
117	0x3d078f4e	0.03309565
118	0x3d607629	0.054800186
119	0x3da6b6d5	0.08140341
120	0xbb8b38e0	-0.0042487234
121	0xbdcad517	-0.09903925
122	0xbda3ec0e	-0.08004008
123	0x3d4250f7	0.047440495
124	0xbd5224d5	-0.051304657
125	0x3d35ef10	0.04441744
126	0x3d32c88c	0.043648288
127	0xbb1265cf	-0.0022338515
128	0x3d89e039	0.0673222
129	0x3da877f7	0.082260065
130	0x3cc42cfc	0.023947231
131	0xbd3d121f	-0.04615986
132	0xbdf02612	-0.11726011
133	0x3d6f9219	0.05848894
134	0xba5b2a6a	-0.0008360507
135	0xbd485d4f	-0.04891711
136	0xbcc3b860	-0.023891628
137	0x3e2cba28	0.16867888
138	0xbbb20f90	-0.005433984
139	0xbdc44569	-0.095835514
140	0x3d3c4200	0.04596138
141	0x3d30427d	0.04303216
142	0xbc2328f3	-0.0099584935
143	0x3d7b63c3	0.061374437
144	0x3ce62dc4	0.028097995
145	0x3ca224dc	0.019792967
146	0xbdd5a78d	-0.104323484
147	0x3d8265b6	0.06367056
148	0x3d1634e5	0.036671538
149	0x3d21f3ca	0.039539136
150	0x3d0925a0	0.033483148
151	0x3d88be04	0.066768676
152	0x3d520b2e	0.051280193
153	0x3cb770dc	0.022392683
154	0xbc3916f0	-0.011296973
155	0x3c87d60a	0.016581554
156	0x3c958590	0.018252164
157	0x3d2755b1	0.040853206
158	0xbc07ba74	-0.0082842
159	0x3d04d89a	0.03243313
160	0x3d39da28	0.045374066
161	0xbdd08a49	-0.10182626
162	0x3b9834e1	0.0046449755
163	0xbcca26c6	-0.024676692
164	0x3d881bb5	0.0664591
165	0xbd0120c1	-0.031525377
166	0x3de0f712	0.10984625
167	0x3d8b5fa9	0.06805355
168	0xbdbc0a74	-0.09181681
169	0x3d60c34e	0.054873757
170	0x3c46435d	0.012101022
171	0x3d917ec5	0.071042575
172	0x3ca3096a	0.01990195
173	0x3d9fc9a9	0.078021355
174	0x3d39dfb8	0.04537937
175	0xbd8f24b4	-0.069894224
176	0xbd6cdfcb	-0.057830613
177	0x3d3d7eca	0.046263494
178	0xbc634010	-0.013870254
179	0xbda5a561	-0.08088184
180	0xbd187108	-0.03721717
181	0xbd496ffe	-0.04917907
182	0x3ddd7115	0.10812584
183	0xbd968ad6	-0.073506996
184	0xbdd36560	-0.1032207
185	0xbc9a4ed0	-0.018836409
186	0xbdc67300	-0.09689903
187	0x3d0fa2cf	0.035067376
188	0xbce5bc80	-0.028043985
189	0x3dc6344f	0.09677946
190	0x3d97a852	0.074051514
191	0x3b5eeb8d	0.003401491
192	0x3c931b01	0.017957212
193	0x3d636e59	0.055525158
194	0xbdb680e1	-0.089113005
195	0xbcd2409d	-0.025665576
196	0x3d8b6512	0.06806387
197	0xbde358bd	-0.1110091
198	0x3ca793a3	0.02045614
199	0xbc8d6d3a	-0.017263997
200	0x3cb110ec	0.021614514
201	0xbb1e840e	-0.0024187597
202	0x3da69a46	0.08134894
203	0xbd91e367	-0.07123452
204	0xbda5ae11	-0.08089841
205	0x3d20b26d	0.03923266
206	0x3d2a316f	0.04155105
207	0xbc94e0ac	-0.018173538
208	0x3bfb084d	0.0076609016
209	0x3d5ab25c	0.053392753
210	0xbdcbd972	-0.09953584
211	0x3de24e04	0.110500365
212	0x3cfd372b	0.030910095
213	0xbde59e07	-0.11211782
214	0x3d89e7c9	0.06733663
215	0xbcc4a5d2	-0.02400485
216	0x3da04d77	0.07827275
217	0x3c01badf	0.007918089
218	0xbcd5dc47	-0.026106013
219	0x3d7d756c	0.06187956
220	0xbdb85ad2	-0.090016976
221	0x3d4fd4f3	0.050740194
222	0xbdd3095a	-0.10304518
223	0xbda6d7f8	-0.081466615
224	0xbc061ad9	-0.008185112
225	0x3d92e2e7	0.071721844
226	0xbd87cf3f	-0.06631326
227	0xba4fc214	-0.0007925343
228	0xbd8304ef	-0.063974254
229	0x3ded65e6	0.11591701
230	0xbd4277a2	-0.047477372
231	0x3d2ddf35	0.042449195
232	0x3cdcabed	0.02693745
233	0xbccb0d48	-0.024786606
234	0xbd9b5f9c	-0.075865954
235	0xbbb2b8e6	-0.0054541705
236	0x3d7da681	0.06192637
237	0x3d80d002	0.06289674
238	0xbd249076	-0.04017683
239	0x3c6598bd	0.014013466
240	0xbb5385bb	-0.0032275754
241	0x3d4d099d	0.050057996
242	0xba279359	-0.0006392501
243	0x3d95f2ea	0.07321723
244	0x3dd87794	0.10569683
245	0x3d6b9818	0.057518095
246	0x3d42f53a	0.047597148
247	0x3c47cec0	0.012195289
248	0xbd134373	-0.035952996
249	0x3d8cbf6f	0.068724506
250	0xbd8ed9ea	-0.069751576
251	0xbdbfa7fa	-0.09358211
252	0xbda4e5d3	-0.08051648
253	0x3d952430	0.07282293
254	0xbdc11fea	-0.09429915
255	0xbccfc67c	-0.0253632

hidden.bias f4 [100]
0	0x3d0ecd14	0.034863546
1	0x3db7a85c	0.08967659
2	0xbcdf043b	-0.027223697
3	0xbcb256cc	-0.021769904
4	0x3da9d4e3	0.08292558
5	0x3da80e2c	0.08205828
6	0xbd8cea85	-0.068806686
7	0xbdb69a5b	-0.0891616
8	0x3dbb5736	0.091474935
9	0xbd91717f	-0.07101726
10	0x3d4a9603	0.04945947
11	0xbd247734	-0.040152743
12	0x3de723d3	0.1128613
13	0x3d8e8345	0.069586314
14	0xbb990205	-0.00466943
15	0xbd3681c5	-0.04455735
16	0xbdb8ea12	-0.0902902
17	0x3d3663ff	0.044528957
18	0x3c67dba2	0.014151486
19	0x3db5aa27	0.088703446
20	0x3d1bc0da	0.038025714
21	0xbda25f9a	-0.07928391
22	0xbd92a006	-0.07159428
23	0x3dd00dbb	0.10158869
24	0xbd07ac5b	-0.033123355
25	0xbcef51df	-0.029213844
26	0xbc804be1	-0.015661182
27	0x3da0f6e4	0.07859591
28	0x3d364c83	0.04450656
29	0x3db6084f	0.088883035
30	0x3caacd9b	0.020849993
31	0x3d462e52	0.04838402
32	0x3c3031a1	0.01075402
33	0x3d680aa8	0.056650788
34	0xbc9eb4be	-0.019373294
35	0x3cfcbe54	0.030852474
36	0xbce8056e	-0.028322902
37	0xbc9a320b	-0.01882269
38	0x3b365472	0.002782133
39	0x3ccddf55	0.025130907
40	0x3ccc16af	0.02491316
41	0xbd16760d	-0.036733676
42	0x3d83e65e	0.064404234
43	0xbcdae292	-0.026719365
44	0x3c2d8b8a	0.010592351
45	0x3db20e08	0.086940825
46	0xbae18f1c	-0.0017208788
47	0x3ca6f25e	0.020379242
48	0x3d653f4d	0.05596857
49	0xbd7806ce	-0.060553364
50	0x3d73cfbb	0.05952428
51	0x3dcc91d8	0.09988755
52	0xbb9a04d5	-0.004700283
53	0x3d4bb950	0.049737275
54	0xbc8b3e72	-0.01699755
55	0x3d8c7e3e	0.06860016
56	0xbdb71ced	-0.08941064
57	0x3d8610cf	0.06546175
58	0x3dab9383	0.08377745
59	0x3d43c1e2	0.047792323
60	0xbd212ca1	-0.039349202
61	0xbc0b0ca1	-0.008486898
62	0xbce8decf	-0.028426556
63	0x3db49766	0.088179395
64	0x3c687885	0.01418889
65	0xbc014b49	-0.007891485
66	0x39b16a2c	0.00033839175
67	0x3dc329c3	0.0952945
68	0x3cc70127	0.024292542
69	0x3d5df582	0.054189213
70	0x3dbfaad3	0.09358754
71	0x3d8a6ecc	0.06759414
72	0x3dca2239	0.09869809
73	0x3dbae04a	0.09124811
74	0xbcfa2161	-0.030533494
75	0x3db39ea1	0.087704904
76	0xbd14fabd	-0.036371935
77	0xbd7e5b1d	-0.06209861
78	0xbd6c3570	-0.05766815
79	0xbcc5f315	-0.024163762
80	0x3d2ba75c	0.041907653
81	0x3dbaf088	0.09127909
82	0x3dc2d7c1	0.09513808
83	0xbd8c2b88	-0.068442404
84	0x3c429a07	0.011877543
85	0x3cd1a94c	0.025593422
86	0x3d1f4d16	0.038891874
87	0x3de26d7b	0.11056038
88	0xbd081567	-0.033223536
89	0x3bbbd924	0.0057326723
90	0x3d65929d	0.056048024
91	0xbc1e5ec5	-0.0096661495
92	0x3d5578c2	0.052117117
93	0xbd681770	-0.056662977
94	0xbccf9ae9	-0.025342422
95	0xbd89d49b	-0.067300044
96	0x3ce10635	0.02746878
97	0x3b49c557	0.003078779
98	0x3c780788	0.015138514
99	0xbda3e1d4	-0.08002058

output.weight f4 [1, 100]
0	0xbdfc0b30	-0.12306821
1	0xbdf7cc0f	-0.12099468
2	0xbd7000a6	-0.05859437
3	0xbd62412c	-0.055237934
4	0x3dd0ef4a	0.10201891
5	0x3d611326	0.054949902
6	0x3dbaf531	0.09128798
7	0x3dd7ba56	0.10533588
8	0xbdb45b2f	-0.088064544
9	0xbdbd4a4a	-0.09242685
10	0x3da48245	0.080326594
11	0x3dbf1261	0.093296774
12	0xbe16e85b	-0.14737074
13	0xbdb8fe12	-0.09032835
14	0xbdcc3700	-0.09971428
15	0xbde6d0fa	-0.11270328
16	0xbce27003	-0.027641302
17	0x3dfd678e	0.12373267
18	0xbd2b1046	-0.041763566
19	0x3ddaf9cc	0.10692176
20	0xbd54c2f9	-0.051943753
21	0xbdf40cad	-0.1191648
22	0xbde31817	-0.11088579
23	0xbd9bf1af	-0.07614457
24	0x3e12a1a7	0.14319478
25	0xbde0645e	-0.109566435
26	0xbd49f122	-0.049302228
27	0xbd9937b2	-0.07481326
28	0xbe0b4e6d	-0.13604136
29	0x3d80919f	0.06277775
30	0x3d335335	0.043780524
31	0x3da513b4	0.08060399
32	0x3df63197	0.12021177
33	0x3d436fb0	0.047713935
34	0xbdeaf6ac	-0.1147283
35	0x3dcd64ce	0.100289926
36	0xbda525a8	-0.08063823
37	0xbd928f92	-0.0715629
38	0x3e097bcc	0.13426131
39	0x3d160381	0.036624435
40	0x3e093e08	0.1340257
41	0xbd783a12	-0.060602255
42	0x3de93d72	0.11388673
43	0xbd7f02f0	-0.06225866
44	0xbdba9088	-0.091095984
45	0xbd9ef9f4	-0.077625185
46	0xbdde78f7	-0.10862916
47	0xbda085e7	-0.0783804
48	0x3d41ac49	0.047283445
49	0xbe07ee78	-0.13274562
50	0xbced6134	-0.028977014
51	0x3d3ce936	0.046120845
52	0xbdee01bb	-0.11621424
53	0xbda8e88e	-0.08247481
54	0xbda37311	-0.079809316
55	0x3d187883	0.037224304
56	0x3db65736	0.08903353
57	0x3d99bf16	0.0750715
58	0x3d85ad90	0.06527245
59	0x3d892ab1	0.06697596
60	0xbd7cab8e	-0.061687045
61	0x3d80daa2	0.06291701
62	0x3da8b56a	0.08237727
63	0xbd6d980f	-0.058006343
64	0xbddfd843	-0.109299205
65	0xbda1c96a	-0.07899745
66	0xbd9c6123	-0.07635715
67	0xbd8be059	-0.068299
68	0xbdda1586	-0.106486365
69	0x3dc6b4f3	0.09702482
70	0xbd693927	-0.05693927
71	0x3dc1eb51	0.09468711
72	0xbd936694	-0.071972996
73	0x3e03d1a6	0.12872943
74	0x3df2fe06	0.118648574
75	0x3d640c36	0.055675708
76	0x3da34eff	0.07974052
77	0x3d6c15f8	0.05763814
78	0x3d9bec39	0.07613415
79	0x3dc555b3	0.096354865
80	0xbd96dcbf	-0.07366323
81	0x3dca0afd	0.09865377
82	0x3d239a2c	0.03994195
83	0xbda1a423	-0.07892635
84	0xbe0cc270	-0.13746047
85	0x3df1be16	0.11803834
86	0xbdd34c65	-0.103173055
87	0xbdc839f5	-0.097766794
88	0xbded6551	-0.1159159
89	0x3d665cb5	0.056240756
90	0x3de2e95a	0.110796645
91	0xbd13f9f8	-0.03612706
92	0x3e0ef4a2	0.13960508
93	0x3e073b18	0.13206136
94	0xbdca8bf0	-0.09889972
95	0xbd3ba4ff	-0.04581165
96	0xbdb18ef8	-0.08669847
97	0xbd688fbc	-0.0567777
98	0x3d2d12d3	0.04225428
99	0x3c9ad2b9	0.018899309
