data/model/sl_training/4/370.pth (torch, 44823 bytes, 5 tensors)

linear.weight f4 [100, 4]
0	0xbe294353	-0.16529588
1	0xbdcb333c	-0.099218816
2	0xbf13ab10	-0.57682896
3	0xbc02236d	-0.0079430165
4	0x3e5702eb	0.20997207
5	0xbee8f775	-0.45501295
6	0x3de0ce01	0.10976792
7	0x3ea00261	0.31251815
8	0x3eb647e3	0.3560172
9	0x3e663eea	0.22484937
10	0x3d5d14e7	0.053975012
11	0xbecb09c8	-0.396559
12	0xbd71d493	-0.059040617
13	0xbe98992e	-0.29804367
14	0xbd0cb160	-0.034348845
15	0xbe9948f5	-0.29938474
16	0x3e9b5278	0.30336356
17	0xbe90ff42	-0.28319746
18	0xbf0e8bd6	-0.5568212
19	0xbe7c6222	-0.2464681
20	0x3e9f90e9	0.31165245
21	0x3ef025df	0.46903893
22	0x3dfe19f3	0.12407293
23	0xbe8aa99b	-0.27082524
24	0x3ec202e7	0.3789284
25	0xbdedbafe	-0.116079316
26	0x3e08e545	0.1336871
27	0xbe1289b6	-0.14310345
28	0xbe8e5f4d	-0.27807084
29	0x3e405132	0.18780974
30	0x3e270f4e	0.16314432
31	0xbd46da86	-0.048548244
32	0xbdf07e22	-0.11742808
33	0x3ef9bfc4	0.48779118
34	0xbcdaa8b4	-0.026691772
35	0xbd4ddc56	-0.050258957
36	0xbea01907	-0.31269094
37	0x3d6df6fa	0.058096863
38	0xbefccaf1	-0.49373582
39	0xbed52e50	-0.41636896
40	0x3df1cab7	0.11806243
41	0xbee08017	-0.43847725
42	0x3dcc6d9d	0.099818446
43	0x3f091bb2	0.53557885
44	0xbe7ff866	-0.249971
45	0x3e08c34b	0.13355748
46	0xbe2fbdb9	-0.17162217
47	0xbe3a25e3	-0.18178515
48	0xbea9e135	-0.33179632
49	0x3e0f835d	0.14014955
50	0xbe046cb0	-0.12932086
51	0xbea46d2c	-0.32114542
52	0x3ebb3651	0.36564878
53	0x3eb1d1ec	0.3473047
54	0x3e4d779a	0.20065156
55	0x3ddf1dbb	0.108943425
56	0x3ee1ce9e	0.4410295
57	0x3e0258af	0.12729143
58	0x3e89b283	0.26894006
59	0xbe1364fb	-0.1439399
60	0xbefafe72	-0.4902225
61	0x3e7183a3	0.23585372
62	0xbd371035	-0.04469319
63	0xbec405a4	-0.38285553
64	0xbe9d5da3	-0.30735502
65	0xbe8f86fd	-0.28032675
66	0xbe07a8b0	-0.13247943
67	0x3ee27e36	0.44236916
68	0x3e3043bc	0.17213339
69	0xbe28c179	-0.16480054
70	0xbf153824	-0.5828879
71	0x3e03bcff	0.12865065
72	0x3e90b41d	0.28262416
73	0x3ef05fb6	0.46948022
74	0x382435b7	3.9150673e-05
75	0x3e04c83e	0.12967011
76	0xbd92097e	-0.07130717
77	0xbedc759c	-0.4305848
78	0xbec85ac2	-0.39131743
79	0xbe5aa21f	-0.21350907
80	0xbebbd404	-0.36685193
81	0xbeb88712	-0.3604055
82	0x3e8df910	0.27729082
83	0x3ef8f044	0.48620808
84	0x3d504f74	0.050857022
85	0x3e29bedb	0.16576712
86	0xbf0b0892	-0.5430995
87	0xbe8ada78	-0.27119803
88	0x3ed17b91	0.40914586
89	0xbe772c77	-0.24138056
90	0x3df7d420	0.121010065
91	0x3f054703	0.5206148
92	0xbada0ec9	-0.0016636486
93	0x3c82c010	0.015960723
94	0x3ec220e7	0.37915727
95	0xbe61234c	-0.21986121
96	0x3ec1caea	0.37850124
97	0xbe20fd9b	-0.15721743
98	0xbd2a4ac2	-0.0415752
99	0xbe1e8151	-0.15479018
100	0xbe47df92	-0.19518879
101	0xba888394	-0.001041519
102	0xbeef2bb3	-0.46713027
103	0xbcd8a9c9	-0.026448147
104	0x3e22fbb8	0.15916336
105	0x3ed05932	0.4069305
106	0x3eb392f5	0.35073057
107	0x3e8b556a	0.27213603
108	0x3e7c84ef	0.24660085
109	0x3ee9ed33	0.4568878
110	0x3e76da6d	0.2410676
111	0x3e96d4fa	0.29459363
112	0x3e34f7d0	0.17672658
113	0xbea37428	-0.31924558
114	0xbf150c97	-0.58222336
115	0x3ec8be91	0.3920789
116	0xbe3618e0	-0.17782927
117	0xbe99a6b8	-0.3001001
118	0xbe88e954	-0.26740515
119	0x3ef7819d	0.48341075
120	0xbeeca59c	-0.462201
121	0xbe6b1916	-0.22958788
122	0x3e8a0d76	0.26963395
123	0x3dc8f3d1	0.09812129
124	0x3ee53292	0.44765145
125	0xbee2f116	-0.4432456
126	0x3d3038f5	0.04302307
127	0x3ec05550	0.37565088
128	0x3eb5f599	0.3553894
129	0xbe9a847d	-0.30179206
130	0xbedd7ca2	-0.4325915
131	0x3e2a975c	0.16659302
132	0xbe08ccfa	-0.13359442
133	0x3df92c31	0.12166632
134	0xbe53bbd9	-0.20677127
135	0x3e8ef3de	0.2792043
136	0x3e96ee05	0.2947847
137	0xbeebd353	-0.46059665
138	0x3e05bf17	0.13061176
139	0xbe83e6e7	-0.25762102
140	0x3d522e3c	0.051313624
141	0xbdb313c9	-0.08744008
142	0x3edfe70d	0.43730965
143	0xbda73791	-0.08164895
144	0x3ecbd137	0.39808056
145	0xbe74e78a	-0.2391645
146	0x3f1bbb83	0.60832995
147	0x3de26c8f	0.11055862
148	0xbe8d4e5a	-0.2759884
149	0x3d13dd40	0.036099672
150	0x3e1ed980	0.15512657
151	0x3c64f062	0.013973327
152	0xbe515d9d	-0.20445867
153	0xbd2476b7	-0.040152278
154	0xbedd2647	-0.43193266
155	0x3e41f94b	0.18942754
156	0x3ed49439	0.41519335
157	0x3e6663cf	0.22499011
158	0xbd8867b0	-0.06660402
159	0xbe8b88b8	-0.27252746
160	0x3eeee82a	0.46661502
161	0xbebdd0ed	-0.3707346
162	0xbef556a3	-0.4791766
163	0xbee07f9e	-0.43847364
164	0xbd9593d1	-0.07303584
165	0xbed2f4f6	-0.41202515
166	0xbe22379b	-0.15841524
167	0x3ee70d6b	0.45127425
168	0xbe01e8be	-0.1268644
169	0x3ee0ede0	0.43931484
170	0x3ef779f5	0.48335233
171	0x3ed89944	0.42304432
172	0x3ed47a0a	0.41499358
173	0xbe3a33b8	-0.18183792
174	0xbe577483	-0.2104054
175	0x3c947407	0.018121732
176	0xbd47a251	-0.04873878
177	0xbd264dcd	-0.04060154
178	0xbe6a0640	-0.22853947
179	0x3d734685	0.059393425
180	0x3eee4f04	0.4654466
181	0xbed34a57	-0.41267654
182	0xbc529730	-0.012853429
183	0xbdc0ac7f	-0.09407901
184	0xbcee5ff7	-0.029098494
185	0x3e04986f	0.12948774
186	0xbf1845f5	-0.59481746
187	0xbeb60890	-0.35553408
188	0x3ead1ca2	0.33810908
189	0xbe5558b4	-0.20834619
190	0xbef44298	-0.47707057
191	0xbe1da17c	-0.15393633
192	0xbdc89b84	-0.09795287
193	0xbcbe72a1	-0.023248019
194	0xbed8dfe7	-0.42358324
195	0x3d8bf069	0.06832964
196	0xbed37bed	-0.41305485
197	0xbdf2d8f8	-0.1185779
198	0x3ee156f3	0.4401165
199	0x3e8a0c6e	0.26962608
200	0x3ecdb74a	0.401789
201	0x3e288bab	0.16459529
202	0x3e3b32c9	0.18281092
203	0xbecf6ce0	-0.40512753
204	0xbdc1effe	-0.09469603
205	0x3da174ca	0.07883604
206	0x3d9472da	0.07248469
207	0x3e54bf9f	0.20776223
208	0xbeb3a18c	-0.35084188
209	0x3ed91117	0.4239585
210	0xbe68e0a3	-0.22741942
211	0xbe42eab4	-0.19034845
212	0x3e9eb911	0.3100057
213	0xbdbc066b	-0.09180912
214	0x3ec41041	0.3829365
215	0xbf080fac	-0.53148913
216	0xbe9857e7	-0.29754564
217	0xbdba42d4	-0.09094778
218	0xbe534e95	-0.20635445
219	0xbee80ed0	-0.453238
220	0x3e7c183a	0.24618617
221	0x3ef3fa22	0.47651774
222	0xbf186efb	-0.5954434
223	0x3e55c679	0.20876493
224	0xbec4df2c	-0.38451517
225	0x3dd06a4a	0.10176523
226	0xbe90752b	-0.28214392
227	0x3e2dffca	0.16992107
228	0xbec7a2e9	-0.38991478
229	0xbe8dbbe3	-0.2768241
230	0xbecd65e5	-0.40116802
231	0x3da2a8fb	0.07942387
232	0x3db0f6ac	0.08640799
233	0xbc9c82d5	-0.019105354
234	0xbd8dcf4c	-0.06924304
235	0x3e7f0e16	0.24907717
236	0xbe9f0b07	-0.310631
237	0xbdc9dfe3	-0.09857156
238	0x3c8de4f9	0.017321097
239	0xbef2e87a	-0.4744299
240	0x3c9f3891	0.019436153
241	0x3e754b31	0.23954464
242	0x3ef97a04	0.48725903
243	0xbe872e81	-0.26402667
244	0x3e5319db	0.20615332
245	0xbda7b7a8	-0.081893265
246	0xbe9560d4	-0.29175436
247	0xbe522abc	-0.20524114
248	0xbdbff7f1	-0.09373463
249	0x3ef402a8	0.47658277
250	0xbe46b42b	-0.19404666
251	0xbdf45774	-0.11930743
252	0xbee35837	-0.4440324
253	0x3e8eac20	0.27865696
254	0xbe248219	-0.16065253
255	0x3e9c8c20	0.30575657

linear.bias f4 [100]
0	0xbe447a9a	-0.19187394
1	0xbc98fb17	-0.018674416
2	0xbee01b9d	-0.43771067
3	0xbea4d6e3	-0.32195196
4	0xbe5f0740	-0.2178011
5	0xbd678227	-0.056520607
6	0x3e9141c0	0.28370476
7	0xbecf751c	-0.40519035
8	0x3e8ab407	0.27090475
9	0x3eef0ae3	0.46687993
10	0x3e8f89c3	0.2803479
11	0x3b8bd375	0.004267151
12	0xbe3fa4d7	-0.18715225
13	0xbee77a5c	-0.4521054
14	0x3f0654b3	0.5247299
15	0xbebe35e2	-0.37150484
16	0x3ebbdfcc	0.3669418
17	0x3d05c75a	0.03266082
18	0xbc98b872	-0.018642638
19	0x3e8477e5	0.25872722
20	0xbc0a83eb	-0.008454303
21	0x3e5c3ab1	0.21506764
22	0x3e83b6e3	0.2572547
23	0xbef10389	-0.4707301
24	0x3e8eba12	0.27876335
25	0xbe056f37	-0.13030706
26	0xbe028463	-0.12745814
27	0x3e8ea183	0.278576
28	0xbe79f9eb	-0.24411742
29	0x3f0072dd	0.5017527
30	0xbe474ff2	-0.1946409
31	0x3e295edd	0.16540094
32	0x3e426916	0.189854
33	0x3cd0a6f8	0.025470242
34	0x3d816a43	0.06319096
35	0x3c2fa809	0.010721215
36	0x3e01a145	0.12659176
37	0xbe1c9820	-0.15292406
38	0x3ed36998	0.412915
39	0x3eaf3dd7	0.34226868
40	0xbed83472	-0.42227513
41	0x3e766023	0.24060111
42	0xbe4d997e	-0.20078084
43	0x3ee87870	0.45404387
44	0x3e0c61e9	0.13709225
45	0x3ed76a23	0.42073163
46	0x3ea68cd4	0.32529318
47	0x3e7acb9d	0.24491735
48	0x3ecc6528	0.39920926
49	0x3ef0b31e	0.47011656
50	0x3e33ab9e	0.17545936
51	0x3e38454f	0.17995189
52	0x3eae5df6	0.34056062
53	0xbea8ec20	-0.3299265
54	0xbe9866bc	-0.2976588
55	0xbdc78a65	-0.097431935
56	0x3ed5cf47	0.41759703
57	0xbeecba85	-0.46236053
58	0x3ed82728	0.42217374
59	0xbe717729	-0.23580612
60	0xbef19d93	-0.47190532
61	0x3e8798ea	0.26483852
62	0xbe874448	-0.26419282
63	0x3dc77207	0.09738546
64	0x3ea0c579	0.3140066
65	0x3ee7c7d0	0.45269632
66	0xbede4618	-0.43412852
67	0xbe80a7c2	-0.2512799
68	0xbebee07e	-0.3728065
69	0xbede11d6	-0.43372983
70	0x3e114643	0.14186959
71	0x3efa4341	0.48879436
72	0x3eb1c114	0.3471762
73	0x3d85fd50	0.06542456
74	0x3eed0ce1	0.46298888
75	0x3ea8a6e8	0.3293984
76	0xbe42868f	-0.18996643
77	0xbdbbf5fe	-0.09177779
78	0x3d9ea858	0.07746953
79	0x3d178fed	0.037002493
80	0xbe014982	-0.12625697
81	0xbdd04ff9	-0.101715036
82	0xbea5ab3a	-0.32357198
83	0xbf01904c	-0.50610805
84	0xbe30b838	-0.17257774
85	0x3eee2556	0.4651286
86	0xbda84a0c	-0.08217248
87	0x3eb6fe21	0.3574076
88	0x3e88a72d	0.26690045
89	0x3e184c8e	0.14872953
90	0xbd007d99	-0.03136978
91	0xbe7bef8b	-0.24603097
92	0x3eb77f1e	0.3583917
93	0x3e98ead7	0.2986667
94	0x3e132195	0.1436828
95	0xbe6db593	-0.23213796
96	0x3de88637	0.113537244
97	0xbed17bfc	-0.40914905
98	0xbb1f1d41	-0.0024278911
99	0xbe5f15e1	-0.2178569

hidden.weight f4 [100, 100]
0	0xbd9e490a	-0.07728775
1	0xbda5ba40	-0.08092165
2	0x3c92f10d	0.017937208
3	0xbc5da697	-0.013528488
4	0xbd905337	-0.07047122
5	0xbcfde0ea	-0.030991036
6	0xbd74e429	-0.059787903
7	0x3d7253dd	0.05916201
8	0xbd61d894	-0.055138186
9	0xbd3c4feb	-0.045974653
10	0x3d413a1f	0.04717457
11	0xbd683165	-0.05668773
12	0xbc2d57eb	-0.010580043
13	0x3a73be70	0.0009298092
14	0x3d7e8114	0.062134817
15	0xbd7cbd06	-0.061703704
16	0xbccba23b	-0.024857631
17	0x3d000071	0.03125042
18	0xbc74dec6	-0.014945691
19	0xbdf4a8de	-0.11946271
20	0x3d92b0c9	0.07162625
21	0xbd9a3c48	-0.07531029
22	0xbc3e967e	-0.01163256
23	0x3dbce15a	0.0922267
24	0xbdaa6377	-0.08319753
25	0xbd7510d1	-0.05983049
26	0xbd0232c0	-0.03178668
27	0x3df9b8f8	0.12193483
28	0x3d5d6cd5	0.05405887
29	0x3c969556	0.018381756
30	0x3d8653cf	0.06558954
31	0xbc0c32ad	-0.008557004
32	0xbdadf2b8	-0.084935606
33	0xbd5f28a0	-0.054482102
34	0x3d3ca91f	0.046059724
35	0x3d63412b	0.05548207
36	0x3da20d50	0.079126954
37	0xbd7b72da	-0.061388828
38	0x3bf043fd	0.0073323236
39	0x3d514354	0.0510896
40	0x3d96cab7	0.073628835
41	0x3d044aba	0.032297827
42	0x3d93878c	0.07203588
43	0x3d75b7e5	0.05998983
44	0xbd7d2c71	-0.06180996
45	0xbd9fbe8d	-0.078000166
46	0x3d350ca6	0.044201516
47	0x3d83bd02	0.06432535
48	0xbde4222b	-0.111393295
49	0xbd8cf41e	-0.06882499
50	0x3d9a9421	0.075477846
51	0x3da282d1	0.079351075
52	0x3dac3316	0.08408181
53	0x3cf6ce1c	0.030127577
54	0xbdaff0a8	-0.085908234
55	0xbd5330ac	-0.05156009
56	0x3cbd428f	0.023103027
57	0xbdccfd05	-0.10009197
58	0xbd7e124e	-0.062029175
59	0x3cdf3072	0.02724478
60	0x3dbfca6d	0.093647815
61	0xb760d781	-1.3401616e-05
62	0x3db15c88	0.08660227
63	0x3dbb116e	0.09134184
64	0xbd9fe3d0	-0.07807124
65	0x3d2841ca	0.041078366
66	0x3d7700c0	0.06030345
67	0xbd42dc72	-0.047573514
68	0xbd1a64d8	-0.03769383
69	0x3d47b964	0.048760787
70	0x3c563b7d	0.013075707
71	0x3da5c651	0.080944665
72	0x3d6651f3	0.056230497
73	0x3cd8c31f	0.026460228
74	0x3c3ef585	0.011655216
75	0x3da44b97	0.0802223
76	0xbd3632f9	-0.044482205
77	0x3e3cf4be	0.18452737
78	0x3dd788b3	0.1052412
79	0xbd92af27	-0.07162314
80	0xbd4c4c4a	-0.049877442
81	0x393a9a9c	0.00017795939
82	0xbd63f3c6	-0.055652402
83	0xbd4c21df	-0.04983699
84	0xbd0ff42a	-0.035144962
85	0x3da81dca	0.08208807
86	0xbc65acbc	-0.014018234
87	0x3d0e3a25	0.03472342
88	0x3dcb11ba	0.099154904
89	0x3d94bee3	0.07262971
90	0x3cadbdbe	0.02120864
91	0x3cd42329	0.025895672
92	0xbd7a3c79	-0.061092827
93	0xbd4d6d40	-0.050153017
94	0x3d8767d6	0.06611602
95	0x3c527eee	0.012847645
96	0x3d9acdf1	0.075588115
97	0x3c078aff	0.008272885
98	0xbcc5a37a	-0.024125803
99	0x3ca61fdb	0.020278862
100	0x3d380bb6	0.044933043
101	0xbd4aecd2	-0.049542256
102	0xbdd97d4b	-0.10619601
103	0xbda1f3a7	-0.07907801
104	0x3d15a06d	0.036529947
105	0x3bba5788	0.005686704
106	0x3d589295	0.052874167
107	0xbd5abe46	-0.053404115
108	0x3dbad338	0.09122318
109	0x3da6c6b1	0.08143366
110	0x3ca7d433	0.020486927
111	0x3d558dc2	0.052137144
112	0xbd42990e	-0.047509246
113	0xbc3b0bba	-0.01141637
114	0xbbdc4840	-0.00672248
115	0x3cec1a97	0.028821273
116	0x3d2c6f8a	0.04209856
117	0xbbf043a9	-0.0073322845
118	0xbceac666	-0.028659057
119	0x3cd44205	0.025910387
120	0x3d58dcc2	0.052944906
121	0x3d5d5ec5	0.054045457
122	0xbd45cae8	-0.04828921
123	0xbd215235	-0.03938504
124	0x3cbd68e4	0.023121305
125	0xbce7318f	-0.028221874
126	0xbd58b937	-0.05291101
127	0x3ca40e65	0.020026395
128	0xbd145bf4	-0.036220506
129	0x3c7d5893	0.015463012
130	0x3d445768	0.04793492
131	0x3d800c32	0.06252326
132	0x3d73b8d2	0.05950243
133	0xbdd04ef1	-0.10171307
134	0x3d80a8d8	0.062822044
135	0xbdc0bb09	-0.09410674
136	0xbd8ade73	-0.0678071
137	0xbccb3b8c	-0.024808668
138	0xbd3cc2e8	-0.046084315
139	0xbd69a173	-0.057038736
140	0x3d52ec20	0.051494718
141	0xbd81c85c	-0.06337044
142	0xbd4faa24	-0.050699368
143	0xbd4a08a4	-0.049324647
144	0xbd8cb700	-0.06870842
145	0x3d242602	0.04007531
146	0x3d4fa310	0.050692618
147	0x3d9715c3	0.073771976
148	0x3d49c74c	0.04926233
149	0xbd0229ee	-0.03177827
150	0x3cea86b7	0.02862869
151	0xbceab367	-0.028649999
152	0xbc9e27e0	-0.019306123
153	0x3db01ff9	0.08599848
154	0x3dc19029	0.094513245
155	0x3d710a5c	0.05884777
156	0x3d822953	0.06355538
157	0xbc65cf6e	-0.014026506
158	0xbd815fa3	-0.063170694
159	0xbd107a6e	-0.035273008
160	0xbcb69af6	-0.022290688
161	0x3cfbb559	0.030726122
162	0xbdc88ae1	-0.09792114
163	0x3d2f91d9	0.0428637
164	0x3d34889a	0.044075586
165	0xbda683b0	-0.08130586
166	0x3ce2baab	0.0276769
167	0xbc9f0f7d	-0.019416565
168	0xbd811157	-0.063021354
169	0xbd44ea1b	-0.048074823
170	0xbdac08b7	-0.084001
171	0xbb9dc470	-0.004814677
172	0xbdb77be2	-0.08959176
173	0xbd958341	-0.07300425
174	0xbd86f96d	-0.06590543
175	0x3dbbed21	0.09176088
176	0xbcc8d5df	-0.024516044
177	0xbda1248f	-0.07868301
178	0xbdbfddc2	-0.09368469
179	0x3dab5387	0.08365541
180	0xbd7e80bf	-0.0621345
181	0x3c49b95c	0.0123122595
182	0x3cd1a6a8	0.025592163
183	0xbdd4c580	-0.10389233
184	0xbcefd2ad	-0.029275263
185	0xbd923207	-0.07138448
186	0x3ce9b4be	0.028528567
187	0xbdc202c6	-0.09473185
188	0xbda475a5	-0.080302514
189	0xbd275281	-0.040850166
190	0x3d36e97f	0.044656273
191	0x3da35ef0	0.07977092
192	0x3db2ca8f	0.08730041
193	0xbce81734	-0.028331377
194	0xbd811654	-0.06303087
195	0x3dcb4f98	0.09927291
196	0xbcc722f7	-0.024308665
197	0xbdc5d19f	-0.09659123
198	0x3d103ec5	0.03521611
199	0xbc36098d	-0.0111106755
200	0xbb3731f3	-0.0027953356
201	0x3d81c20f	0.06335842
202	0x3dc2573d	0.09489296
203	0x3d8a3773	0.06748857
204	0xbd6ab415	-0.057300646
205	0xbd1baa04	-0.038003936
206	0xbda96521	-0.08271242
207	0x3d8ddb3d	0.06926582
208	0xbd688699	-0.056768987
209	0xbd0ca021	-0.0343324
210	0xbd1e7cfc	-0.038693413
211	0x3e002afd	0.12516399
212	0x3ba7805f	0.0051117386
213	0xbccb10a4	-0.024788208
214	0x3c9739b7	0.018460138
215	0x3c92642f	0.017870037
216	0xbdf345a2	-0.11878516
217	0xbd677339	-0.05650637
218	0xbd2c93f3	-0.042133283
219	0x3c4abe5a	0.012374485
220	0xbdb4a07c	-0.088196725
221	0x3d6bb7b1	0.05754823
222	0x3d862867	0.06550675
223	0x3dba511b	0.09097501
224	0xbd67a0b6	-0.05654975
225	0x3db8c3e8	0.09021741
226	0x3d2de9b8	0.04245922
227	0xbda33aaf	-0.079701774
228	0xbc8e7f7d	-0.017394776
229	0xbdb2b0c3	-0.08725121
230	0x3d54fb2e	0.051997356
231	0xbd5bd63f	-0.053671118
232	0xbd27e6fd	-0.040991772
233	0xbcecad0e	-0.028891113
234	0x3dcf840b	0.10132607
235	0xbdedc066	-0.11608963
236	0x3d04589c	0.032311067
237	0x3da78592	0.081797734
238	0xbd9fc27f	-0.07800769
239	0x3db533f6	0.088478014
240	0xbc9cec63	-0.019155687
241	0xbddc4921	-0.10756136
242	0x3b7899f2	0.0037933555
243	0xbb91a5d5	-0.0044448175
244	0xbca61078	-0.020271525
245	0xbd82fa6f	-0.06395423
246	0xbd006763	-0.031348597
247	0xba627eb9	-0.0008640099
248	0xbd89d2ad	-0.06729636
249	0xbd492770	-0.049109876
250	0xbd240b84	-0.040050045
251	0xbd8ef11d	-0.069795825
252	0x3c78132d	0.015141291
253	0xb9e1d19c	-0.00043071515
254	0x3c2adf2c	0.010429185
255	0xbd64f7e5	-0.055900473

hidden.bias f4 [100]
0	0x3d0291e4	0.031877413
1	0x3d114093	0.035461973
2	0x3d5137c1	0.05107856
3	0x3d3337c7	0.043754365
4	0x3ceb3b05	0.028714666
5	0x3cb48cdd	0.022039825
6	0xba897ef0	-0.0010490101
7	0xbd14128b	-0.036150496
8	0x3cb5261e	0.022112902
9	0x3dba6671	0.091015704
10	0x3d0d02f0	0.03442663
11	0xbd489ffb	-0.048980694
12	0x3d1ddf1a	0.038542844
13	0x3c75d6d7	0.015004835
14	0xbd9ef69a	-0.07761879
15	0xbd84a1e4	-0.06476191
16	0x3d54e070	0.051971853
17	0xbc8e293e	-0.01735365
18	0xbcbf6275	-0.023362378
19	0x3d33657b	0.04379795
20	0xbd8ea2aa	-0.069646195
21	0xbd0ad6ec	-0.03389637
22	0xbc3ff4d8	-0.01171609
23	0x3c9ddfc3	0.019271737
24	0xbba58fc7	-0.00505254
25	0x3dcb8395	0.09937207
26	0x3b5b08ae	0.0033421922
27	0xbdcdb54c	-0.10044345
28	0x3da86a69	0.08223421
29	0x3d769ae7	0.06020632
30	0x3d6e6762	0.058204062
31	0xbd9ca46f	-0.07648551
32	0xbd05d514	-0.03267391
33	0xbd0a4391	-0.033755843
34	0xbd081ed1	-0.033232514
35	0xbd7cde23	-0.061735284
36	0x3c0482e1	0.008087845
37	0xbd8f9ece	-0.070127115
38	0xbb9dbfc4	-0.00481412
39	0x3d66ef68	0.05638066
40	0x3b9d8f32	0.00480833
41	0x3db6fa9c	0.08934519
42	0x3c2be372	0.010491239
43	0x3dc537a6	0.09629755
44	0x3d2749a0	0.0408417
45	0x3c510af3	0.012758958
46	0xbce47622	-0.027888361
47	0x3d812b5f	0.063071005
48	0xbd52c4d0	-0.051457226
49	0x3db7a11e	0.089662775
50	0x3c69bab4	0.014265705
51	0x3d981680	0.074261665
52	0xbc2e5f58	-0.010642849
53	0xbd6e1ca9	-0.0581328
54	0x3db4f1ba	0.08835168
55	0x3c864cf7	0.016394122
56	0xbd2636df	-0.040579673
57	0xbc3d27ff	-0.01154518
58	0xbcb693ea	-0.022287328
59	0xbdb21f58	-0.086973846
60	0xbdaac212	-0.08337797
61	0x3d9b7d5f	0.07592272
62	0xbdb32337	-0.08746951
63	0x3daf5bc3	0.08562424
64	0x3c9a9876	0.018871527
65	0x3d3806e0	0.04492843
66	0x3da30660	0.079602
67	0xbdb811a7	-0.08987742
68	0xbd124329	-0.03570858
69	0xbd7a0627	-0.061041024
70	0xbc54d0a3	-0.012989196
71	0x3d32c818	0.043647856
72	0x3db7d67a	0.08976455
73	0xbd48af0f	-0.048995074
74	0xbd8ef091	-0.06979478
75	0xbd724461	-0.059147242
76	0x3ddc2e0b	0.107509695
77	0x3dbb7073	0.09152307
78	0xbcc48905	-0.023991117
79	0x3d760bc3	0.06006981
80	0xbd9ea1a7	-0.077456765
81	0xbd37e126	-0.044892453
82	0xbc9ac59b	-0.018893054
83	0x3c9e9334	0.019357301
84	0xbd18609a	-0.0372015
85	0xbb0257b5	-0.0019888703
86	0x3d13192e	0.035912685
87	0x3addfe00	0.001693666
88	0x3dcbae8b	0.09945401
89	0x3d846d1d	0.06466124
90	0x3bb02118	0.005375039
91	0xbbb73914	-0.005591521
92	0xbd307544	-0.043080583
93	0x3d888b04	0.0666714
94	0x3dcd421d	0.10022376
95	0xbd022b91	-0.03177983
96	0x3d733cca	0.059384145
97	0x3dcfaee6	0.10140781
98	0xbd9bc225	-0.076053895
99	0x3baf9f51	0.005359568

output.weight f4 [1, 100]
0	0x3d835793	0.06413188
1	0xbe364623	-0.17800193
2	0xbd8d9a7a	-0.0691423
3	0x3ca0e70b	0.01964142
4	0x3db33e9d	0.08752177
5	0xbdd972b3	-0.1061758
6	0x3dfd28f2	0.12361325
7	0x3d666765	0.05625095
8	0x3cf68fde	0.030097898
9	0x3ddb135c	0.10697052
10	0x3d6873e9	0.056751166
11	0x3dfe00fe	0.12402533
12	0x3d4f497e	0.050607197
13	0xbd905293	-0.07047
14	0x3d095f50	0.033538163
15	0x3df35925	0.11882237
16	0x3df62a01	0.1201973
17	0x3d19f46d	0.03758662
18	0x3db4f170	0.08835113
19	0x3dcb2a10	0.09920132
20	0xbdc5f0e5	-0.096650876
21	0x3de64143	0.112429164
22	0xbe1e3b22	-0.15452245
23	0x3d94b18d	0.072604276
24	0xbd21364b	-0.03935842
25	0xbda8e5d4	-0.08246961
26	0x3d6e4fd7	0.05818161
27	0x3dd6f774	0.10496417
28	0x3d17300b	0.03691105
29	0x3dc184d9	0.09449167
30	0x3dce1977	0.10063451
31	0x3d9b7cfb	0.075921975
32	0x3d38c950	0.04511386
33	0xbd1c5caf	-0.038174327
34	0xbd2bfb59	-0.04198775
35	0x3c91f0af	0.017814962
36	0x3d8dc0d8	0.06921548
37	0xbd2fbd3c	-0.042905077
38	0xbdb4fb5d	-0.08837006
39	0xbe3dbad1	-0.18528296
40	0x3d1808f9	0.037117932
41	0xbc848bd3	-0.016179955
42	0x3debc3fe	0.11511992
43	0x3dea2969	0.114336796
44	0x3dfeaeac	0.1243566
45	0xbe15a7e3	-0.14614825
46	0xbe31212a	-0.17297807
47	0x3d03021b	0.03198443
48	0x3d611da8	0.054959923
49	0x3d7a3880	0.06108904
50	0x3e1d12ea	0.15339246
51	0xbdd44bfe	-0.10366057
52	0x3e270407	0.1631013
53	0x3dafde49	0.085873194
54	0x3d80288a	0.06257732
55	0xbda69726	-0.08134298
56	0xbe018a11	-0.12650324
57	0xbd58e562	-0.05295313
58	0x3daf4b7c	0.085593194
59	0x3ca11ed1	0.019668015
60	0xbcd16e92	-0.02556542
61	0x3d1f9741	0.038962606
62	0x3d75c315	0.060000498
63	0x3d18f522	0.037343152
64	0x3e015b2b	0.12632434
65	0x3d961989	0.07329089
66	0x3b7f4012	0.00389481
67	0xbcf7238b	-0.030168315
68	0x3dca3a23	0.0987437
69	0x3dbf33ae	0.09336029
70	0x3e0279b0	0.12741733
71	0x3db42cd2	0.08797611
72	0xbd8030aa	-0.06259282
73	0xbd57711e	-0.05259811
74	0xbdecc61a	-0.115612224
75	0x3dc38a89	0.09547908
76	0xbd70d00c	-0.05879216
77	0x3dc9586e	0.0983132
78	0x3e0738e8	0.13205302
79	0xbd950c46	-0.072777316
80	0x3df872ec	0.121312946
81	0x3d9a965b	0.07548209
82	0xbda1186a	-0.07865985
83	0xbd8f8ab7	-0.0700888
84	0x3e0090c3	0.12555222
85	0xbd39d41f	-0.04536831
86	0xbd85d76c	-0.06535229
87	0x3d807bf2	0.06273641
88	0xbd88413c	-0.066530675
89	0xbdeddd50	-0.11614478
90	0x3d38fe81	0.04516459
91	0xbdc43a81	-0.09581471
92	0xbd9f9fe8	-0.077941716
93	0xbd981bf6	-0.07427208
94	0xbdc285dd	-0.09498189
95	0xbd338d42	-0.043835886
96	0xbd8bb075	-0.06820766
97	0xbdc04b36	-0.09389345
98	0x3dca6397	0.098822765
99	0xbd68bdc1	-0.05682159
