data/model/sl_training_liberal/3/720.pth (torch, 44823 bytes, 5 tensors)

linear.weight f4 [100, 4]
000000 d1 1d f6 3e 39 3c 45 3d c7 d8 98 3e 85 a5 55 be
       0.48069623 0.048153136 0.29852888 -0.20863922
000010 86 be a6 bc 79 b8 ea be 75 7f 7f be 44 12 cb be
       -0.02035452 -0.45843866 -0.24950965 -0.39662373
000020 c7 3a 16 ba c1 9a fe be e8 d8 15 be 04 cd ad be
       -0.00057308044 -0.49727443 -0.14633524 -0.33945477
000030 04 cf ee bd 18 f9 59 be d4 b3 89 3e 0f 5d b6 3e
       -0.11660579 -0.21286428 0.2689501 0.35617873
000040 f6 36 98 be 59 ae 0b 3d 1a b0 18 3e 33 86 05 3e
       -0.29729432 0.034101818 0.14910927 0.13039474
000050 74 86 d2 be 70 9e d2 be 29 3a 0c 3f c9 99 34 3e
       -0.41118205 -0.41136503 0.54776245 0.1763679
000060 12 0b b1 be 86 24 fe be 15 33 93 bd 82 88 ad be
       -0.34578758 -0.4963724 -0.071874775 -0.3389321
000070 98 29 85 be d1 df de bb 02 6c fc be aa 78 5d be
       -0.26008296 -0.0068015833 -0.49301153 -0.21628061
000080 4a fc c6 3e a4 42 eb 3e 90 da b6 3e c3 cb 01 bd
       0.38864356 0.4594928 0.35713625 -0.031688463
000090 06 fa b7 3e ec 5b e2 3e 92 4d 52 be 97 91 f8 3e
       0.3593294 0.44210756 -0.20537403 0.48548576
0000a0 77 4b f6 be f6 78 a7 be 39 05 ce be 84 8e c9 be
       -0.4810445 -0.32709473 -0.4023836 -0.39366543
0000b0 98 b0 04 3f 6a 13 ff 3e cb b6 bf 3e 93 91 07 bf
       0.5183196 0.498195 0.37444147 -0.52956504
0000c0 8a 6e 3e 3e 8d 3e 5e bd d2 ed 20 be b6 dc 0b bf
       0.18596855 -0.05425887 -0.15715721 -0.54633653
0000d0 a6 9d 91 3e 26 d3 a9 be 42 f1 5a 3e 13 bc 72 be
       0.2844059 -0.33168906 0.21381095 -0.23704557
0000e0 cb 09 f6 be 34 4b 76 be c7 c5 90 bc c5 9d c8 be
       -0.48054346 -0.24052125 -0.017672433 -0.3918287
0000f0 7b 37 92 be 63 0d 53 3d d8 fe 45 be 98 50 15 be
       -0.28557953 0.05152644 -0.19335496 -0.14581525
000100 60 04 2d be 77 79 f0 3d 3c e0 f4 bd d1 3a 04 3f
       -0.168962 0.117419176 -0.11956832 0.51652247
000110 5d f2 a3 be 81 47 d5 3c b7 70 8f be ba 59 b8 bd
       -0.32020846 0.026035072 -0.28015682 -0.09001489
000120 16 64 ca be 54 3d d9 bd a8 2a f1 3e 72 d3 79 be
       -0.39529485 -0.106074005 0.47102857 -0.24397066
000130 79 06 e9 3e bb 4f d7 be 07 7e f6 3c 85 67 c4 3e
       0.4551275 -0.42053017 0.030089391 0.3836023
000140 e0 a9 b5 be 4f c5 ca be 46 88 b0 bd a9 3d 23 be
       -0.35481167 -0.3960366 -0.08619742 -0.1594149
000150 87 2c 24 bc 62 d6 f8 bd 78 44 03 bf c4 e5 1c be
       -0.010020382 -0.12150265 -0.5127635 -0.15322024
000160 65 5f db 3e 61 86 d9 be f7 a9 7d be a7 ae 8c 3e
       0.42846218 -0.42485335 -0.24771868 0.27477
000170 ae 3a f4 be 79 e5 d3 3e 81 6e 86 bd 58 e9 e7 be
       -0.4770102 0.4138601 -0.06564046 -0.45295215
000180 66 99 f1 bd ae 1a ca be c9 7e df bd 15 01 b4 3e
       -0.117968366 -0.3947348 -0.10912854 0.35157076
000190 c3 c7 20 bd df a8 68 3e 8f 2b 13 3f d7 49 2f be
       -0.039253008 0.22720669 0.5748834 -0.17118011
0001a0 84 c8 05 3e a4 68 15 be 46 88 ea bd be 74 91 be
       0.13064772 -0.14590698 -0.11451773 -0.2840938
0001b0 37 b1 93 3e b9 cb 78 3e 36 76 18 bf 41 9f 83 be
       0.28846142 0.24296464 -0.59555376 -0.2570744
0001c0 f5 6f 9f be a7 89 86 be 03 72 bf be ab 6d 93 be
       -0.31140104 -0.26276895 -0.37391672 -0.28794608
0001d0 3c e7 1c 3e dd 2b 5d be 55 bd fd bd be ae c7 bd
       0.15322584 -0.21598764 -0.12389628 -0.09750126
0001e0 13 56 67 be ff 14 ef 3e e7 18 64 be 19 15 fc bd
       -0.22591428 0.46695706 -0.22275124 -0.123087116
0001f0 5b a3 bf be 0a 4c 9a be ca 33 b0 bd 5b bf 01 3f
       -0.37429318 -0.30136138 -0.08603628 0.5068261
000200 a9 10 cf be f3 ff a8 be 58 2d e7 be 9c 22 ef 3e
       -0.40442398 -0.33007774 -0.45151782 0.46706092
000210 ba 0c d7 3d d5 92 29 3e c1 4b ca 3e 7c 55 ba bc
       0.10500474 0.16559918 0.3951092 -0.02274584
000220 23 fa d9 be 60 59 7f be 60 7e 8c 3e 28 ce 46 bd
       -0.42573652 -0.24936438 0.27440166 -0.04853645
000230 54 b9 9b 3e c8 aa 92 bb 15 4e 90 3e 23 a0 02 3e
       0.30414832 -0.004475925 0.28184572 0.127564
000240 c7 8f 9f bc 48 1d a2 bd d8 47 03 3f 92 5d 9c 3e
       -0.019477738 -0.07915741 0.512815 0.30540138
000250 89 7d b1 bd 89 b7 7a be 76 83 1b 3f 0b 9c 4e 3e
       -0.08666522 -0.24484076 0.6074747 0.20176713
000260 57 a8 b7 3e ed cb ef 3e 67 e5 72 3e 93 55 b3 3e
       0.3587062 0.4683527 0.23720323 0.35026225
000270 c5 86 af bc 04 ed 9e 3e 0b be 37 be a2 a1 8b ba
       -0.021426568 0.31040204 -0.1794359 -0.0010653029
000280 16 0d 92 3e c5 4d f5 be c4 49 0d be ac a9 df 3e
       0.2852561 -0.47910896 -0.1379767 0.43684137
000290 3f 5a b2 be a9 c2 f9 be be 9b ba 3d 26 81 0c bf
       -0.34834477 -0.48781326 0.09111737 -0.54884565
0002a0 e1 83 3b 3e 6f b4 84 3d 7d 9a a9 3e 46 90 34 3e
       0.18312027 0.064797275 0.33125678 0.17633161
0002b0 d5 b1 49 3e 13 d4 b2 3e a0 01 46 be 8c a4 c7 3e
       0.19696744 0.34927425 -0.19336557 0.38992727
0002c0 a4 4f cd bd c8 3f 0b 3e dd dd f9 3e 46 e7 02 3e
       -0.10024956 0.1359855 0.4880208 0.12783536
0002d0 57 57 e1 be 0c 19 d1 bd e6 91 3c 3c 81 69 cb be
       -0.44011948 -0.102098554 0.011509394 -0.3972893
0002e0 05 f0 9d 3e 8f 06 28 be 00 00 17 bd 0a 51 b2 be
       0.30847183 -0.16408752 -0.036865234 -0.34827453
0002f0 bc e6 83 3e fa 16 ea 3d d4 0a aa be e7 12 84 be
       0.25761974 0.11430164 -0.33211386 -0.2579567
000300 d6 53 c5 3d e2 05 0d be 24 80 00 3f ae 99 f4 be
       0.09635131 -0.13771775 0.5019553 -0.47773498
000310 f3 c0 d7 be d8 6e a9 be c8 16 27 3e f5 ac 41 bd
       -0.42139396 -0.3309238 0.16317284 -0.047284085
000320 63 6b 93 3e 9b 71 ee 3d 62 91 e3 3e a3 4c d8 3d
       0.28792867 0.11642762 0.44446856 0.10561492
000330 6d ca a4 3e 89 e2 aa 3e 68 1b bd 3d 26 18 ed be
       0.3218569 0.33375958 0.09233743 -0.46307486
000340 1f 52 3e 3e ac c0 41 3e 09 c9 87 3e ed ea 27 3e
       0.18586014 0.18921155 0.26520565 0.16398211
000350 26 77 7a be f1 04 0b be fb c2 5c 3d 43 83 cf bd
       -0.24459514 -0.13576104 0.053896885 -0.10132458
000360 02 16 6f 3e 2a 67 ca be 85 5e 63 3e 25 c0 04 3e
       0.23348239 -0.39531833 0.22204025 0.12963922
000370 f2 c6 a5 3d 4a 8d 0f 3e 2d 3e 04 3f 17 d1 b0 3d
       0.080945864 0.14018741 0.5165737 0.08633631
000380 c5 18 1f 3d 83 0d e7 bd e8 be 11 3e 3f 9f eb be
       0.03884198 -0.11281874 0.14232981 -0.46019933
000390 1d b8 05 be 9c 62 cd be a6 35 74 3e 83 30 ea be
       -0.13058515 -0.40114295 0.2384859 -0.45740137
0003a0 01 98 1a 3e cb c8 d2 be 97 fb 08 3f 8c 5a 81 3e
       0.15097047 -0.41168818 0.53508896 0.25264394
0003b0 a6 43 87 3e ac 5f c7 be 1f 57 96 be 87 1d f2 3e
       0.264188 -0.3894018 -0.29363343 0.47288153
0003c0 c2 86 a6 3c df d0 c4 be 74 25 67 3b 77 9a fb be
       0.02032793 -0.38440606 0.0035270127 -0.49141285
0003d0 0a d4 a6 bd ae 12 7f be cc 08 07 bf c5 67 30 3e
       -0.08145912 -0.2490947 -0.527478 0.17227085
0003e0 bd f0 d9 be fc 38 f9 be 61 3b 19 3d 1f a5 f6 be
       -0.4256648 -0.48676288 0.037410144 -0.48172852
0003f0 a2 99 9a bd c4 b8 a9 3e d8 b1 06 3f 94 02 93 be
       -0.075488344 0.33148777 0.5261512 -0.28712904

linear.bias f4 [100]
000000 78 cc f9 3e f4 f3 0c be 5d 78 9b be c8 6f a8 be
       0.4878881 -0.13764936 -0.30365267 -0.32897782
000010 9f e4 fc 3d 6d ba 69 3e dd df 34 be ec 69 8c 3e
       0.123482935 0.22825022 -0.17663522 0.27424562
000020 f2 c9 66 3e 7f f6 97 3e c7 b3 86 3e 51 1c 52 3e
       0.22537974 0.2968025 0.26309034 0.20518614
000030 5c 35 69 be 6f 4c d0 3e cc 38 61 3e 0f 77 c7 3d
       -0.22774261 0.40683314 0.21994323 0.097395055
000040 1f 81 22 be 01 62 c4 be 4e 1d 12 3e cc db eb 3e
       -0.15869568 -0.3835602 0.14268991 0.4606613
000050 eb 35 af 3c 15 96 e1 bd 28 98 bb 3e af 9a 9f bd
       0.021388015 -0.11014954 0.36639524 -0.077931754
000060 76 e7 b4 3e 30 9c f3 bd c8 7d 1b be e2 0a 22 bc
       0.3533284 -0.11895025 -0.151847 -0.00989029
000070 80 98 72 3c 78 ad db 3e 3a 2a b7 3d 3e 73 2c 3d
       0.014806867 0.42905784 0.08943601 0.04210209
000080 f0 7c 86 3e f5 b8 63 3e 02 df bb 3e 67 de 58 bd
       0.26267195 0.22238524 0.3669358 -0.052946474
000090 8e e5 31 3c 8d 14 fc 3d dd 6c 58 3e 62 22 48 3d
       0.010857953 0.12308607 0.21135278 0.048860915
0000a0 be 94 a3 3d a8 e1 2a be fa 2e ae be 16 c9 5f be
       0.07987355 -0.16687644 -0.34020215 -0.21854052
0000b0 69 81 e2 3e 76 d6 f9 3d 00 69 3a 3e 73 28 da 3e
       0.44239357 0.12199108 0.18204117 0.42608985
0000c0 69 a6 82 be 41 6a 3e 3e fd 63 ef bd e4 6a d1 be
       -0.25517586 0.1859522 -0.11688993 -0.40901864
0000d0 59 ed de be b4 a5 cd 3e b6 4d ee be 8d 42 d5 3e
       -0.43540457 0.40165484 -0.46543664 0.41652337
0000e0 3a c3 9f be 21 75 9c 3c cc 16 51 3e 67 33 48 be
       -0.31203634 0.01909882 0.20418853 -0.19550858
0000f0 71 79 d4 bd 5d 02 f6 be 75 74 9f 3e 65 3d 5e be
       -0.103747256 -0.48048678 0.31143537 -0.21703108
000100 ec 37 a7 3e be f9 d8 3d 4e d2 d5 be cb 60 e3 3e
       0.32659853 0.105945095 -0.41762012 0.44409785
000110 50 98 8d 3d 35 1d 96 3e e4 b4 24 3e ce 8a 96 3e
       0.06913817 0.29319158 0.1608463 0.29402775
000120 65 f0 8e bd fb 34 95 3e 0f 60 a4 3d b7 46 23 bd
       -0.06979445 0.29141983 0.08026134 -0.03986236
000130 7d 75 7f 3d fd 42 0f be c4 33 8e be cf 11 03 bf
       0.062367905 -0.13990398 -0.2777387 -0.5119905
000140 7b 60 8f be f9 85 59 be 76 27 e7 be cd 8d 40 3e
       -0.28003296 -0.21242513 -0.45147294 0.18804093
000150 08 9a c4 3e 5b 6a 61 3e 7b 03 12 bd 36 6e 60 3c
       0.38398767 0.22013228 -0.03564785 0.013698151
000160 ed af 2c 3e 9c cb 8e be ab c7 54 be 9b 00 98 bd
       0.16863985 -0.27889717 -0.20779292 -0.074219905
000170 99 dc ac 3e 3a c8 77 3e c3 ad cd be a0 fb cf be
       0.33762053 0.24197474 -0.40171632 -0.40621662
000180 46 8c ee 3e e5 9b de bd fb db ef 3e 9c a4 a8 be
       0.46591395 -0.10869578 0.4684752 -0.32938087

hidden.weight f4 [100, 100]
000000 c5 a9 3d 3d 5a 83 04 be 83 3b a7 ba 60 e3 a2 3b
       0.046304483 -0.12940732 -0.0012758825 0.004970953
000010 0e 40 81 bd 92 ad 78 3d 51 ac 6f 3c 03 1e 17 be
       -0.063110456 0.060712405 0.014628486 -0.14757542
000020 91 d2 c7 3c 26 42 95 3d ee 8d 97 3b 42 54 6f bc
       0.024392398 0.072880074 0.0046250736 -0.014607491
000030 7b 8b aa bd ed f4 6e 3d 25 82 a2 bd 07 d3 a6 bd
       -0.08327385 0.05833905 -0.07934979 -0.08145719
000040 1b 28 8c 3d 3e a9 98 bd 40 1a 0f bc 3a ef 85 3d
       0.06843587 -0.074541554 -0.008734286 0.065397695
000050 51 32 b2 3d 38 c6 cd bd db e3 94 bd 83 da 87 3d
       0.08701003 -0.10047573 -0.072700225 0.06633475
000060 02 78 86 3d 90 3f 26 3c 47 4f 0e be 8d 47 fa bd
       0.065658584 0.01014699 -0.1389743 -0.122206785
000070 ab 0a 48 bc c7 4d 50 3d d7 3b ca bd 30 f0 33 bd
       -0.012209575 0.050855424 -0.09874695 -0.043930233
000080 9b 65 4f bd 8e 6f 9a 3d e1 9d ab 3d fe 89 d6 3d
       -0.050634008 0.075408086 0.083797224 0.10475539
000090 cd 2a b4 3d 54 bc 1b 3e 58 b6 94 bd d0 05 8f bd
       0.08797226 0.1520856 -0.07261342 -0.069835305
0000a0 0d b3 69 3c 42 c8 96 bd d6 c6 36 3b 68 8c c5 bb
       0.01426388 -0.07362415 0.0027889512 -0.0060287006
0000b0 a5 c5 b6 3d 32 30 a1 bd c2 60 96 bd de dc 07 3c
       0.089244165 -0.07870521 -0.07342674 0.008292405
0000c0 ec 95 a9 3d 6c a5 6a 3d 8d 75 95 3d 1f 91 ab 3d
       0.082805485 0.057286665 0.07297812 0.08377289
0000d0 64 3e 89 bd c5 31 d3 bc 18 c9 b1 bd a0 34 e8 3c
       -0.06701353 -0.025780568 -0.08680934 0.028345406
0000e0 74 3e ae bd 0f 0d 6e 3d da 8f a1 3d 7c 29 d5 bd
       -0.08508006 0.058117922 0.07888766 -0.10408303
0000f0 15 38 f4 bd 43 dd 6c bd 56 32 1f bb 96 7e 97 3d
       -0.11924759 -0.0578282 -0.0024291477 0.07397191
000100 9f 08 12 3c 43 28 a5 bc c2 12 1b 3d 06 38 c5 bd
       0.008913188 -0.0201608 0.037859686 -0.09629826
000110 a0 2b a4 3c c0 75 30 bd dd 73 93 3d c4 18 86 3b
       0.020040333 -0.043081045 0.071998335 0.0040923078
000120 40 c8 6e bb e8 37 41 3b cd 54 de bd 87 9a 86 bd
       -0.0036435276 0.0029482786 -0.10856018 -0.065724425
000130 1f eb 39 bd a8 8f 31 3d f9 46 2c 3d b8 24 6c bd
       -0.045390245 0.043349892 0.042059872 -0.057652205
000140 7d c2 78 3d 75 ca 1e 3d 53 c2 e5 3c 0b 4b 66 b9
       0.060732353 0.038767297 0.028046763 -0.00021962465
000150 25 28 11 3b bd c1 4a bd 45 83 85 3d 41 7a 4d 3c
       0.0022149172 -0.04950117 0.06519178 0.012541355
000160 d1 62 2a bc 03 2f b9 bd bb cc d5 bd b3 79 97 3d
       -0.010399536 -0.0904217 -0.1043944 0.07396259
000170 eb 22 92 bd 64 86 1b bc be 04 06 bd db ac af bc
       -0.07135566 -0.00949249 -0.032719366 -0.021444729
000180 00 b2 52 bd 47 77 c5 3b ed aa 6b bc 92 1a 6b bd
       -0.051439285 0.006026182 -0.014384014 -0.057398386
000190 9f 28 8f 3d 93 17 74 bc 8c 49 c7 bd 65 4e 07 3d
       0.0699017 -0.014898199 -0.09730825 0.033033747
0001a0 15 fe a9 3c 5b 6c 57 3d 3e 24 74 3d 8b 8b d6 bd
       0.020751039 0.05259357 0.059604876 -0.104758345
0001b0 80 d8 83 bd 3a e9 92 3d f2 9d 5a 3d 5a ac 04 3d
       -0.064377785 0.07173391 0.053373285 0.03239093
0001c0 df 42 7b 3d 29 b4 b3 bd cb a6 8e 3c 1d bf 82 3d
       0.06134307 -0.08774597 0.017413517 0.06384108
0001d0 86 f7 1f 3d 0f 55 15 bc 2d 1a 81 3a 45 6f 8b bd
       0.039054416 -0.009114518 0.000984972 -0.06808332
0001e0 1d d9 dc 3c 21 6c 92 bd bb b1 0f bd 1b 39 8c 3d
       0.026958996 -0.0714953 -0.035081606 0.068468295
0001f0 7c ea 34 bd 99 74 9a 3d b4 3e 4e 3d ae a6 bd 3d
       -0.044168934 0.075417705 0.050352767 0.09260307
000200 12 33 60 bd fb f8 6d bc d8 ad 9a bd df e3 6b 3c
       -0.054736204 -0.014524694 -0.07552689 0.01439759
000210 9b b0 5a bd 45 40 e8 3d 4f ea fd b9 9c da 71 bd
       -0.05339108 0.113403834 -0.00048430494 -0.059046373
000220 00 e4 45 3d 99 62 0d bb 7e 44 06 3d 77 6e 4e 3c
       0.04831314 -0.0021573661 0.032780163 0.012599579
000230 57 fa 34 3c d9 04 cb bd 76 ca 4f 3d 98 85 a5 bd
       0.011046014 -0.09913034 0.05073019 -0.080821216
000240 ef 15 f0 3d 12 af d8 bd 03 f9 9e 3b d1 bf 9c 3d
       0.117229335 -0.10580267 0.004851462 0.076537736
000250 ac 00 96 bd 1d eb 89 bd a3 90 0b 3e 89 7b 63 3c
       -0.07324347 -0.067342974 0.13629393 0.013884434
000260 6a b7 78 bc 8c 56 ba bc 00 1c 11 bd 05 88 ed ba
       -0.015180448 -0.022746347 -0.035427094 -0.0018122202
000270 fc 6f af bd 4b 74 a5 bc b6 ae 67 bb 1a 85 a4 bd
       -0.08566281 -0.020197054 -0.0035351939 -0.080331996
000280 3a ef 8a bc c5 d5 2f bc 4f 82 1b 3d b2 5f 4b bc
       -0.016959775 -0.010732119 0.03796607 -0.012412952
000290 04 92 be 3d 6e 83 f7 bd 07 6f 65 3d 85 0b 35 3d
       0.09305194 -0.12085615 0.056014087 0.04420044
0002a0 9f 49 1f be 2a db 05 3d 86 bc 96 3b 53 cd 8a 3d
       -0.15555428 0.032679714 0.0046001105 0.06777444
0002b0 d0 48 3a 3d 48 7a 29 39 5a c4 b9 bc d4 4f 92 3b
       0.045479596 0.00016162649 -0.022676636 0.0044650827
0002c0 ec 7a 16 bd ff 1d c5 3d aa 8e b9 3d ce 2d 63 bd
       -0.03673832 0.09624862 0.09060414 -0.055463605
0002d0 7f b3 bb bc 85 28 d7 3c 95 21 a7 3d 3e 86 a8 bc
       -0.022912739 0.026264438 0.08160702 -0.020571824
0002e0 7c ee 5c bd 00 f6 b1 3b aa 45 04 3c 2f a1 ad 3d
       -0.053938374 0.005430937 0.00807325 0.08478009
0002f0 9e 5b 6f 3d f2 9c 58 3c d0 55 0c 3d 3a 3d 6c 3d
       0.058436982 0.013221012 0.034261525 0.057675578
000300 ee e6 02 be 86 1a 31 bd 14 9b 5e bc ae 22 87 3d
       -0.12783405 -0.043238185 -0.013586778 0.065984115
000310 4b 57 bb bc 91 af b0 bd 58 54 0a bd 20 0e 7c bd
       -0.022868773 -0.08627237 -0.033771843 -0.06153691
000320 fd dc 89 3d 5d b9 1e 3d 03 10 ab 3d 7c c2 96 3c
       0.06731603 0.038750995 0.08352663 0.018403284
000330 ec b9 18 bd c2 3a 86 3d c8 ac ce bc 00 00 01 3e
       -0.037286684 0.06554176 -0.025228873 0.12597656
000340 9c 51 94 3d 08 93 44 3d 1e 5f 1d bc e5 29 d1 ba
       0.07242128 0.047991782 -0.009605197 -0.001595792
000350 51 a5 bd bd 78 b1 92 3d 4d b9 21 3d a0 25 b4 3d
       -0.09260047 0.07162756 0.039483357 0.08796239
000360 71 a4 83 bd 4a 68 c4 3d ac 29 92 bd 52 fe 2c 3d
       -0.06427849 0.09590204 -0.071368545 0.042234726
000370 df 7d 6d 3d 3d b5 8c 3d 88 6a 53 bd 36 10 a9 3d
       0.05798137 0.06870506 -0.051615268 0.08255045
000380 0b e5 63 bd 43 b9 2c 3d a0 38 d3 3d 6f e0 1a bd
       -0.055638354 0.042168867 0.10313535 -0.037811693
000390 18 82 dd 3c 38 e8 93 3d 1a 56 b6 3c 46 37 aa bd
       0.027039573 0.072220266 0.022257853 -0.08311324
0003a0 0c fc 84 3c 96 ca 89 bd cd cb 22 bc 5b 0e f4 3c
       0.016233467 -0.06728093 -0.009936285 0.029792001
0003b0 74 05 68 bd 0e d5 6e 3d 16 c3 8a 3d 38 fd 46 bd
       -0.056645826 0.058308654 0.06775491 -0.048581332
0003c0 7e 27 16 bd 80 7d 94 3d 98 b3 05 be fa 27 11 bd
       -0.036658756 0.072505 -0.13056791 -0.035438515
0003d0 4a 05 f3 bd 67 3b d5 3d 44 97 2e bd 06 7e 8c 39
       -0.11866243 0.10411721 -0.042624727 0.00026796776
0003e0 ee 66 89 bd 47 90 83 bd 0b 9b 95 3c 46 08 63 bd
       -0.067090854 -0.06424003 0.018262407 -0.055427812
0003f0 9d 38 f7 bd c7 57 1b bb b4 76 06 3d 12 0d 9a 3b
       -0.12071345 -0.0023703442 0.032828048 0.004701265

hidden.bias f4 [100]
000000 f5 d7 73 bd e8 fe bd bd f2 84 f7 bc 54 cc f0 bc
       -0.059532125 -0.09277135 -0.03021476 -0.029394306
000010 81 1a 86 bc 76 d4 8f 3d 48 ca d7 bc d8 85 27 3d
       -0.01637006 0.070229456 -0.026341572 0.040899128
000020 c2 48 90 3d 5d 44 85 3d 8b 12 9d 3d c4 08 df 3d
       0.070451275 0.0650718 0.076695524 0.10890344
000030 9e 82 25 bd 1e a7 b3 bd 9d 00 89 bd d1 7c 9a bd
       -0.04040777 -0.087721094 -0.0668957 -0.07543338
000040 13 41 1a bd 40 b3 8c bc 26 a2 42 bd f4 b4 55 bb
       -0.037659716 -0.017175317 -0.047517918 -0.0032609077
000050 34 94 05 3c 7d 08 57 bd 2a 34 4d 3d 97 3d 75 3d
       0.00815301 -0.05249833 0.050098576 0.05987319
000060 40 6d 17 bd 49 01 14 3d ca 5b 3e bd c4 6c ba bb
       -0.036969423 0.036134038 -0.046474256 -0.0056892354
000070 a0 ea 2c 3c 1d 36 a6 3c 58 14 2b 3b d7 ae a9 3d
       0.010553986 0.020289475 0.0026104655 0.08285301
000080 f5 2c 9d 3d 63 6a c4 3d 6f 10 23 bd 4a b3 24 bd
       0.076745905 0.09590604 -0.039810594 -0.040210046
000090 64 f2 15 3d e6 5d 1a bd 0d d8 f0 bb d1 c4 80 3d
       0.036608115 -0.037687205 -0.007349974 0.0628754
0000a0 12 a9 2e b9 ac 89 66 3d 82 6c e2 3d 8a 90 98 3c
       -0.00016656917 0.056283638 0.110558525 0.01862361
0000b0 88 f4 55 bd c3 a8 a2 3d 9c 4e af bd 3b be 0b bd
       -0.052235156 0.07942345 -0.085599154 -0.034116965
0000c0 52 24 86 3d a3 6a ab bc 5b 6f 78 bd f0 e2 6a 3d
       0.06549896 -0.020924872 -0.06065307 0.05734533
0000d0 e1 e5 ea 3c 49 aa 65 3d 55 72 70 3b 34 fb 83 ba
       0.028674068 0.0560706 0.003668924 -0.0010069371
0000e0 06 b6 b2 3d ef 43 a9 bd b9 26 0c 3d 38 ba 31 3d
       0.087261245 -0.082649104 0.034216616 0.043390483
0000f0 91 bd 2a bc f5 1d 5d bd e6 a9 d5 3c 23 d3 9c bd
       -0.010421173 -0.053983647 0.02608199 -0.07657459
000100 83 af c4 3b f4 34 09 3c 0a 2e b7 3c e8 97 8a 3d
       0.006002368 0.008374441 0.02236082 0.06767255
000110 9b dc 80 bb 09 1b e2 bc 6d 1b 51 bd 56 d9 82 bb
       -0.003932548 -0.027600782 -0.051051546 -0.0039931936
000120 15 86 81 3d 69 f0 a0 3d cb 6e 59 3b 15 c0 ac bc
       0.06324402 0.078583546 0.003317761 -0.021087686
000130 bd 64 ca 3d 4b b5 90 bd fd af 13 bc e5 05 f5 3c
       0.098824956 -0.07065829 -0.009014127 0.029910037
000140 a4 09 b9 bd f5 2d 57 bd 55 b6 74 bd 3b 1a 90 3d
       -0.09035042 -0.052534062 -0.059744198 0.07036253
000150 30 58 7f bd f8 5f bb 3d 2e e8 a5 bd e4 43 1b 3d
       -0.06233996 0.09149164 -0.081009254 0.037906542
000160 78 ab bc 3d 4a 1f 15 3d 0f b0 a7 3c 9b 48 37 bd
       0.092123926 0.036406793 0.020469693 -0.044746976
000170 1b 54 89 3d 87 6e 6d 3d f7 9d 7a 3c 9a 53 1a 3d
       0.06705495 0.057966735 0.015296451 0.037677385
000180 63 23 3d 3d f4 02 ce 3d a6 73 d9 3c 20 42 97 bd
       0.046176326 0.10059157 0.026544403 -0.07385659

output.weight f4 [1, 100]
000000 7a 35 88 3d b3 68 bf 3d 84 65 a1 bd 92 07 f9 bd
       0.06650825 0.09346142 -0.07880691 -0.12159647
000010 f5 c3 b2 3d d4 99 9c bd 76 82 78 3d 77 8f e7 bd
       0.08728782 -0.07646528 0.060671292 -0.113066606
000020 8c 61 0e be 1e 60 b7 bd 24 9b a3 bd 71 b5 34 3e
       -0.13904399 -0.0895388 -0.07988575 0.1764734
000030 bd 55 f3 3d 27 12 f1 3d 0b 5a 7d bd 72 51 8b bd
       0.11881588 0.117710404 -0.06185345 -0.06802644
000040 2f 7f 0b 3d 1b 09 25 be d4 95 a5 bd 78 0b 39 3e
       0.03405684 -0.16116755 -0.08085218 0.18070781
000050 43 28 39 bd 6c 32 db bd ec 7b b7 bd ae cc 49 3d
       -0.045204412 -0.107029766 -0.08959183 0.049267463
000060 84 10 49 3d 22 00 ff 3d f6 e2 01 be 2b fe f8 3d
       0.049088016 0.12451197 -0.12684235 0.12157854
000070 4a ef 8b bd 64 b4 06 be 53 03 8c 3d 93 6c b9 bc
       -0.0683275 -0.13154751 0.068365715 -0.02263478
000080 81 14 09 be ec 6a 36 be 15 50 7c 3c e6 b9 8b 3d
       -0.13386728 -0.17814225 0.015399952 0.06822567
000090 1a 57 e9 bd ba 5f 3b bd c9 f1 70 3d c2 c7 bb 3d
       -0.113935664 -0.04574559 0.058824334 0.0916896
0000a0 8e ba 0c bd 28 b5 69 3d a8 c1 fa bd 04 fc 0a 3e
       -0.0343576 0.05705753 -0.12243968 0.13572699
0000b0 3a d6 4a 3e 74 51 e0 bc 71 f4 a8 3d 87 0a df bd
       0.19808283 -0.02738259 0.082497485 -0.1089068
0000c0 00 7b 46 bd 89 9d cc 3d c0 5e c1 bd b7 64 9c bd
       -0.048457146 0.09990985 -0.094419 -0.07636397
0000d0 5e 7c bf 3d 01 7d 5a bd 7b a7 6a bd da 56 bc 3d
       0.09349893 -0.05334187 -0.057288628 0.09196253
0000e0 0e f4 39 3d 36 e5 a7 3d 4e 94 a9 bd 34 80 ac 3d
       0.045398764 0.081980154 -0.0828024 0.0842289
0000f0 e8 0b 77 3d 1f 44 e6 bd 55 0a d6 3c 0f 77 85 3d
       0.06031409 -0.11243462 0.026127974 0.06516849
000100 ab a6 aa 3d 9e c9 77 3d f9 89 3a 3d dd ad dc 3d
       0.08332571 0.06049501 0.045541737 0.10775349
000110 0b 02 c1 bd 91 eb 10 3e 48 88 fe 3d b1 1b e0 3d
       -0.09424218 0.14152361 0.12428337 0.10942782
000120 a1 8d 09 3e 6f bf 6a bd 08 a3 95 3d 5e 61 fc bd
       0.13432933 -0.05731147 0.07306486 -0.12323259
000130 1f 83 0f be 61 75 f2 bc 58 9c ef bd a8 bb af bd
       -0.14014862 -0.029596986 -0.11699742 -0.085807145
000140 4c 2d 26 3e 78 5b 62 3d ba 9d 68 3d ba 56 d8 bd
       0.16228217 0.055263013 0.056791045 -0.10563417
000150 5b 16 ba 3d 38 3a be 3d c0 60 62 3d 34 6a 05 be
       0.09086295 0.09288448 0.05526805 -0.13028795
000160 c5 92 f4 3d f6 ee 08 be d8 c6 cf 3c 75 3f de 3d
       0.119420566 -0.13372406 0.02536337 0.10851947
000170 19 24 45 bd 56 00 67 3d da 56 07 be 27 67 a6 bd
       -0.04813013 0.056396805 -0.13216725 -0.081251435
000180 61 f3 85 bd 5f 40 ea bc 07 c3 8f bd 0f e0 a6 3d
       -0.065405615 -0.028595148 -0.070196204 0.081482045
