data/model/bc_training/101/3.pth (torch, 44823 bytes, 5 tensors)

linear.weight f4 [100, 4]
-4.7512917e-06 -4.289032e-06 6.779787e-07 -3.3598421e-06 -0.004119231 -0.0055969907 -0.0034763813 -0.0076189283
-0.5920351 0.6654541 0.63571066 0.8151847 -0.14191186 -0.06489564 -0.09134454 -0.09230903
0.115657724 -0.0087628225 0.035423975 0.032814883 0.0013556007 0.0017400701 -0.0018555074 -0.006088051
0.19334652 0.05149366 0.11076319 0.10302855 0.49720865 -0.19972426 0.28240302 0.16459174
0.38299966 -0.1349392 0.27405345 0.17970431 0.00026637455 0.00038568428 -6.950408e-06 0.00039213573
-0.3088432 -0.16935243 -0.2830677 -0.24023864 -0.09940279 -0.16552006 -0.31143653 -0.2512572
-0.0015098507 0.010792768 0.0144787235 0.009875514 -0.08284747 -0.024248606 -0.03475033 -0.036487363
0.00015592003 0.00020196119 -4.002577e-05 0.00015345658 0.20997667 0.034216225 0.08484244 0.07235031
0.0078751985 0.0061195707 0.0033081772 0.006412959 0.0070399097 -0.018759428 0.0028733131 -0.021538258
0.00034419194 0.0005486098 0.00040117948 0.0005304062 -1.2456716e-09 9.496905e-09 -2.530542e-09 9.188975e-09
-0.0054545314 -0.0058981134 -0.003252724 -0.006132601 0.00013081636 0.00019289597 -3.0862062e-05 0.0001647029
-0.1670219 -0.090584576 -0.13423698 -0.12481612 0.27846068 -0.053691808 0.087322526 0.0532906
0.5046341 -0.49538958 0.41241693 0.21483803 -0.3526577 -0.25643244 -0.40306142 -0.3491758
0.09748588 0.012460479 0.033194948 0.02699302 0.29449463 -0.07277071 -0.22651345 -0.16115677
-0.41287047 0.5112997 0.4988383 0.57376105 0.26609823 -0.058792766 0.28161943 0.2877934
-0.24583715 0.07395686 0.0558772 0.1142925 2.255984e-05 3.287063e-05 -6.1456376e-06 1.9614406e-05
0.17834206 -0.0064475485 0.050966952 0.037735917 0.097884946 -0.04609585 -0.13723487 -0.12829214
-0.0012840127 -0.0020073415 -0.0007357098 -0.0011153708 -0.060066707 -0.032413587 -0.057119705 -0.03965306
0.09183941 0.011900699 0.03660207 0.031947736 0.069158986 -0.02734535 0.06468415 0.08632908
-0.14147542 0.18007801 0.2244654 0.31337795 -2.6204114e-07 9.487252e-07 -5.940942e-07 -5.027879e-07
-0.033835538 -0.017318621 -0.021741634 -0.020165138 -1.6731501e-10 1.814651e-10 6.7263695e-11 3.8302547e-10
0.3430379 -0.032224353 0.18919128 0.14203958 0.101336 0.0009825309 0.022489669 0.014428625
0.0066278935 0.0033736064 0.0017914528 0.0027239427 0.0031653713 0.0024076847 0.00026808502 0.0024355936
-0.00032653706 -0.00036437713 4.6061195e-05 -0.00031062175 9.211585e-06 -3.203069e-05 1.2654126e-06 -3.9445757e-05
-0.0802801 -0.024918724 -0.027891178 -0.010968586 6.64238e-10 8.174234e-10 7.107711e-10 1.0770217e-09
-0.0031179788 0.006328356 -0.0026379542 0.0055499445 0.22398537 0.040897403 0.13171464 0.111677215
0.2754367 -0.067381896 0.3214102 0.33847573 0.21876042 0.0001403006 0.062298756 0.044350423
-0.019252516 -0.16772224 -0.3105026 -0.26907173 0.10074879 -0.0025507892 0.025769144 0.021566492
0.2836868 -0.043979436 0.082394935 0.05109282 -0.055771198 -0.024436194 -0.033754434 -0.03136164
-0.18843433 -0.063729264 -0.07269104 -0.075352855 -2.2262663e-08 1.6037669e-07 -1.2651083e-06 -2.1652436e-06
1.98401e-05 2.8731334e-05 -5.518396e-06 1.7857148e-05 -0.4176593 0.5433482 0.3555212 0.38452068
0.19797759 -0.043086156 0.084782846 0.08857234 0.00044551995 0.0003408623 -6.31118e-05 0.00023988115
00000000: 496d 9fb6 81ea 8fb6 57fe 3535 a679 61b6
00000010: 9dfa 86bb f666 b7bb 00d4 63bb 34a8 f9bb
00000020: 9d8f 17bf 335b 2a3f efbd 223f f2af 503f
00000030: 5851 11be 01e8 84bd d912 bbbd 840c bdbd
00000040: f5dd ec3d f191 0fbc bb18 113d e668 063d
00000050: 69ae b13a 1013 e43a 7f34 f3ba 467e c7bb
00000060: a1fc 453e 04eb 523d d0d7 e23d a200 d33d
00000070: 2292 fe3e 8484 4cbe 2197 903e bd8a 283e
00000080: 8818 c43e 802d 0abe bc50 8c3e 6804 383e
00000090: 30a8 8b39 ab35 ca39 8d37 e9b6 9197 cd39
000000a0: b220 9ebe b96a 2dbe 40ee 90be 1e01 76be
000000b0: b193 cbbd 177e 29be 9c74 9fbe c9a4 80be
000000c0: 2fe6 c5ba 26d4 303c 2b38 6d3c e8cc 213c
000000d0: efab a9bd 03a5 c6bc 5d56 0ebd c673 15bd
000000e0: 777e 2339 8bc5 5339 58e1 27b8 30e9 2039
000000f0: 2004 573e 5026 0c3d e0c1 ad3d 662c 943d
00000100: fa06 013c ae86 c83b 01ce 583b cd23 d23b
00000110: 0baf e63b 5fad 99bc 324e 3c3b 0071 b0bc
00000120: a974 b439 95d0 0f3a 6655 d239 f50a 0b3a
00000130: 2c34 abb0 d427 2332 c4e5 2db1 8add 1d32
00000140: edbb b2bb f644 c1bb a72b 55bb fcf3 c8bb
00000150: c02b 0939 1e44 4a39 e371 01b8 19b4 2c39
00000160: ca07 2bbe 6884 b9bd 6b75 09be 989f ffbd
00000170: 6692 8e3e f1eb 5bbd 27d6 b23d 3f47 5a3d
00000180: b32f 013f b4a3 fdbe 5028 d33e 80fe 5b3e
00000190: 8d8f b4be 1d4b 83be 115e cebe 2cc7 b2be
000001a0: ada6 c73d 0927 4c3c 6df7 073d 7720 dd3c
000001b0: 00c8 963e cf08 95bd 24f3 67be 4806 25be
000001c0: c263 d3be 8ae4 023f bc67 ff3e 01e2 123f
000001d0: 073e 883e afd0 70bd 6c30 903e a859 933e
000001e0: bcbc 7bbe b276 973d 7edf 643d 3012 ea3d
000001f0: e33e bd37 92de 0938 a036 ceb6 9e89 a437
00000200: 4d9f 363e f545 d3bb b9c2 503d fa90 1a3d
00000210: e777 c83d 01cf 3cbd 4c87 0cbe 045f 03be
00000220: 514c a8ba 9a8d 03bb a6dc 40ba a231 92ba
00000230: 8208 76bd 1cc4 04bd 5af6 69bd 3f6b 22bd
00000240: 4d16 bc3d 26fb 423c 0dec 153d a1db 023d
00000250: 3aa3 8d3d 5b03 e0bc 2079 843d 4dcd b03d
00000260: efde 10be 5f66 383e 42da 653e 1373 a03e
00000270: a9ae 8cb4 e6ab 7e35 d879 1fb5 52f7 06b5
00000280: 2297 0abd c8df 8dbc 831b b2bc 5c31 a5bc
00000290: fdf6 37af e385 472f 18ea 932e 0b92 d22f
000002a0: aaa2 af3e affd 03bd 5cbb 413e d372 113e
000002b0: 4089 cf3d 44c8 803a 413c b83c 0a66 6c3c
000002c0: cd2e d93b b917 5d3b 2ecf ea3a 2d84 323b
000002d0: 1e72 4f3b 3fca 1d3b c38d 8c39 7b9e 1f3b
000002e0: 1033 abb9 df09 bfb9 d531 4138 f2da a2b9
000002f0: 758b 1a37 b158 06b8 3fd7 a935 8f72 25b8
00000300: e569 a4bd 5a22 ccbc 0a7c e4bc 96b5 33bc
00000310: 9895 3630 0fb1 6030 1260 4330 5506 9430
00000320: 0157 4cbb 195e cf3b 87e1 2cbb 4fdc b53b
00000330: 6c5c 653e 0984 273d 34e0 063e 06b7 e43d
00000340: 0a06 8d3e 85ff 89bd e18f a43e b14c ad3e
00000350: bb02 603e a81d 1339 fb2c 7f3d caa8 353d
00000360: 74b7 9dbc 61bf 2bbe 32fa 9ebe c5c3 89be
00000370: 6255 ce3d 242b 27bb d019 d33c 36ac b03c
00000380: 653f 913e c823 34bd adbe a83d b446 513d
00000390: 5770 64bd 6a2e c8bc 1742 0abd 1075 00bd
000003a0: eef4 40be 7d84 82bd 0adf 94bd 9952 9abd
000003b0: 1d3c bfb2 0234 2c34 cacc a9b5 9a4e 11b6
000003c0: 4a6e a637 1204 f137 a92a b9b6 efcb 9537
000003d0: 71d7 d5be de18 0b3f e006 b63e e5df c43e
000003e0: a3ba 4a3e 1c7b 30bd a1a2 ad3d 6a65 b53d
000003f0: ad94 e939 c3b5 b239 e45a 84b8 9b88 7b39

linear.bias f4 [100]
4.839268e-06 0.0058242823 0.0072266078 0.15044081 0.07222417 -0.0023363836 0.0960126 0.0066711013
0.109501764 -0.0003652428 0.41463363 0.4545286 -0.07827434 0.041894708 -0.00018569986 0.08491453
-0.009326381 -0.010208203 -0.0004881386 1.5910067e-09 0.0065372176 -0.0001756665 0.22033887 -0.17487043
-0.090526015 0.4967851 -0.098498866 0.4692204 0.14577748 0.020750301 0.22510165 -2.6701578e-05
0.040223666 0.25510538 0.0018331729 0.20588784 -0.14596035 0.07462233 0.13848887 2.2995832e-07
0.039712567 3.95589e-10 0.20970702 -0.030367857 -0.010655217 -0.00372178 0.0003924485 -1.2567361e-05
0.14269406 -8.5106e-10 0.0042670625 0.1752241 -0.019043379 -0.17882888 0.41361746 0.0061679394
-0.22830415 0.06440427 0.09307658 -1.5243563e-07 -2.459198e-05 0.016701452 -0.14742596 -0.0005983534
0.3596129 -0.16547504 0.005953039 0.016836135 0.23402746 0.35110596 -0.07172284 -0.099926375
0.06530543 -0.12442981 3.6155683e-08 -0.024604434 0.34490347 -5.4614634e-06 -6.485705e-06 -0.001547947
0.0020569297 1.883174e-05 0.020360624 -0.006816324 -0.115318455 0.050105646 -0.04636586 0.418426
-0.08076887 0.26152304 0.18285866 0.24267426 0.0005973801 0.35200173 -0.12347165 0.14084168
-0.001772216 -0.015185278 -7.053127e-06 0.277573
00000000: ff60 a236 9fd9 be3b 2ecd ec3b 280d 1a3e
00000010: 44ea 933d 031e 19bb 41a2 c43d 4199 da3b
00000020: 7642 e03d 0f7e bfb9 dc4a d43e f9b7 e83e
00000030: 4c4e a0bd c999 2b3d 6db8 42b9 abe7 ad3d
00000040: adcd 18bc 4f40 27bc dbec ffb9 92aa da30
00000050: 2836 d63b 1e33 38b9 83a0 613e 3c11 33be
00000060: b465 b9bd 9e5a fe3e c6b9 c9bd a83d f03e
00000070: b146 153e 89fc a93c 0c81 663e 34fd dfb7
00000080: 92c1 243d 2c9d 823e 1347 f03a 43d4 523e
00000090: a176 15be 98d3 983d 07d0 0d3e 76ea 7634
000000a0: a5a9 223d 347a d92f 70bd 563e 03c6 f8bc
000000b0: 3893 2ebc 1be9 73bb 8cc1 cd39 68d8 52b7
000000c0: 641e 123e 06f0 69b0 b7d2 8b3b f26d 333e
000000d0: dc00 9cbc eb1e 37be abc5 d33e 6d1c ca3b
000000e0: 90c8 69be 63e6 833d ef9e be3d 30ad 23b4
000000f0: e04a ceb7 7cd1 883c d5f6 16be d1da 1cba
00000100: 2f1f b83e 4a72 29be b611 c33b efeb 893c
00000110: e5a4 6f3e 29c4 b33e 6de3 92bd 33a6 ccbd
00000120: dabe 853d 0ed5 febd 9849 1b33 3d8f c9bc
00000130: 3097 b03e 9d41 b7b6 c89f d9b6 7be4 caba
00000140: 8ecd 063b dbf8 9d37 53cb a63c 785b dfbb
00000150: 152c ecbd 943b 4d3d 21ea 3dbd ef3b d63e
00000160: 266a a5bd 59e6 853e 4d3f 3b3e 9a7f 783e
00000170: 8099 1c3a 9239 b43e b4de fcbd cd38 103e
00000180: b449 e8ba accb 78bc e6a9 ecb6 0c1e 8e3e

hidden.weight f4 [100, 100]
2.1571482e-06 -0.0006829308 -0.15114298 0.0347507 -0.008038847 -0.0012847958 -0.030534511 -0.07152134
-0.04674781 2.3905748e-05 0.10540577 0.09628115 -0.010647618 0.012315021 -1.8522898e-05 -0.010098085
-0.0007675529 0.0028943692 5.2700467e-05 1.0113679e-10 0.00027980524 4.5616607e-06 0.05054377 -0.04032594
-0.106289744 0.14208326 -0.015463383 0.08428919 -0.09033787 -0.06268111 0.014545613 -3.7247983e-06
-0.021590432 0.037392676 -3.848801e-05 0.03408768 -0.019960731 -0.005746517 -0.028026097 -2.1749426e-07
0.006005331 4.178398e-11 0.0011247031 -0.006521612 -0.001673592 -0.0003432027 4.3882643e-05 2.4553992e-06
0.022268811 1.4408606e-10 -0.0014958465 -0.007424327 -0.071117885 -0.031726122 0.09428255 -0.002084202
-0.04094412 0.011240422 0.029875465 -5.8109904e-08 -1.8600022e-06 -0.08547163 -0.03342458 -0.0001201946
0.08028623 -0.058081694 0.0010111756 0.0036637231 0.0012672779 0.08517358 -0.021678923 -0.025284195
0.0154621955 -0.06863539 -7.642384e-09 -0.014618257 0.0017594836 -1.4199972e-05 -4.6887374e-07 -0.00013851552
6.098643e-05 2.328871e-06 0.015942754 -0.00032708177 -0.016988872 -0.051843032 -0.0066544716 -0.06972464
-0.012189861 -0.06834913 0.0011712532 -0.02482589 3.3677192e-05 0.061911795 -0.018284408 0.02735329
-0.00034036062 0.0027475883 -1.79184e-06 0.058903452 -3.3852006e-09 9.530299e-05 -0.06847189 0.010844244
-0.003210136 -0.001136261 -0.008801223 -0.031696174 -0.03159422 5.547831e-07 0.035966694 0.03502348
-0.001805649 0.0037530453 8.825247e-06 -0.005652498 0.00028282672 0.0018252372 -6.618362e-05 -5.0939482e-11
-0.00039275113 3.4788625e-06 0.015989356 -0.01339471 -0.052082807 0.04996922 -0.004198052 0.0075108707
-0.043227397 -0.024727957 0.0024607836 8.231862e-07 -0.0047337296 0.014061749 0.00036409972 0.008492716
-0.0052102176 -0.0037993717 -0.012810746 -2.5829095e-07 0.00079089584 3.5279925e-11 -0.025531534 -0.003162059
-0.00012936538 0.000107700725 -1.8762095e-05 6.0659477e-07 0.005188045 1.2735525e-10 -0.001383119 -0.008187826
-0.028511083 -0.009841358 0.03194514 -0.0025976768 -0.013586132 0.0025463158 0.009755037 -8.062708e-08
6.151673e-07 -0.03630225 -0.011018871 1.3947432e-05 0.026457878 -0.021926899 5.794286e-05 0.0004345178
-0.002860756 0.029021405 -0.0046890895 -0.0069417804 0.0046483986 -0.022869824 -5.3789613e-09 -0.005544424
0.026789915 -1.0084016e-05 2.2387513e-07 5.3620974e-05 -0.0001300689 -6.181369e-07 0.004800766 0.0003770861
-0.004462517 -0.026806312 -0.0012786234 -0.040645782 -0.003031924 -0.03199483 -0.0028322733 -0.013574328
-7.817034e-06 0.021544244 -0.004911994 0.007892687 1.116095e-05 0.002780489 2.4534455e-07 0.019019641
1.3111833e-06 -0.0006646409 -0.13566093 0.029728143 -0.009117124 -0.0011974619 -0.027049614 -0.056244694
-0.05975636 2.5747167e-05 0.091823846 0.0935032 -0.008633164 0.010626629 -1.1851934e-05 -0.011887526
-0.0005445417 0.0028777637 4.4902015e-05 -6.4706164e-11 0.00012462627 6.7793358e-06 0.043300986 -0.034879725
-0.09913479 0.12510748 -0.013009923 0.016266404 -0.082400106 -0.052054457 0.01054937 -2.5277814e-06
-0.017553277 0.034085758 -1.5933441e-05 0.025662452 -0.01670637 -0.007116823 -0.025533797 -1.9638888e-07
0.004868742 3.8267355e-11 -0.018482564 -0.012548218 -0.0012740574 -0.00024321598 2.8547647e-05 2.1301096e-06
0.018878687 1.2221003e-10 -0.001404966 0.0015765462 -0.05742494 -0.02745693 0.08716706 -0.0061506857
00000000: 86c3 1036 b606 33ba 3ac5 1abe c056 0e3d
00000010: 5eb5 03bc 9866 a8ba 8323 fabc c879 92bd
00000020: a27a 3fbd 3489 c837 fbde d73d 0d2f c53d
00000030: 5973 2ebc f1c4 493c 9f61 9bb7 7072 25bc
00000040: 9a35 49ba 75af 3d3b b20a 5d38 f466 de2e
00000050: d3b2 9239 5e10 9936 fc06 4f3d d02c 25bd
00000060: 70ae d9bd 467e 113e 215a 7dbc d09f ac3d
00000070: 1003 b9bd f45e 80bd b950 6e3c 8cf7 79b6
00000080: 6bde b0bc 1029 193d 306e 21b8 869f 0b3d
00000090: b084 a3bc 474d bcbb fc96 e5bc 5e88 69b4
000000a0: 5ec8 c43b 94c4 372e c66a 933a 3fb3 d5bb
000000b0: 6e5c dbba e3ef b3b9 a10e 3838 70c7 2436
000000c0: 156d b63c 9f6c 1e2f 4810 c4ba c547 f3bb
000000d0: 41a6 91bd 40f3 01bd 3617 c13d 1b97 08bb
000000e0: 06b5 27bd bf29 383c 64bd f43c 8494 79b3
000000f0: 30a5 f9b5 c00b afbd 36e8 08bd fc10 fcb8
00000100: 1b6d a43d 12e7 6dbd 6c89 843a 131b 703b
00000110: ca1a a63a 7c6f ae3d ff97 b1bc cd20 cfbc
00000120: 2655 7d3c b690 8cbd 8f4b 03b2 6a81 6fbc
00000130: 799e e63a 6a3c 6eb7 84b9 fbb4 7a3e 11b9
00000140: aecb 7f38 b349 1c36 619a 823c 2c7c abb9
00000150: 3f2c 8bbc 5c59 54bd c10d dabb cbcb 8ebd
00000160: fcb7 47bc a1fa 8bbd bc84 993a aa5f cbbc
00000170: 9c40 0d38 3997 7d3d 2fc9 95bc 0214 e03c
00000180: 6e72 b2b9 e210 343b 277f f0b5 bf44 713d
00000190: 14a1 68b1 67dd c738 fe3a 8cbd 0eac 313c
000001a0: 2561 52bb 98ee 94ba 0133 10bc d9d3 01bd
000001b0: f168 01bd 68ec 1435 d051 133d c874 0f3d
000001c0: 87ab ecba a7f5 753b 2610 1437 9738 b9bb
000001d0: 5c48 9439 cc3c ef3a 0fcc 8ab8 c208 60ae
000001e0: 2aea cdb9 6776 6936 1cfc 823c 7c75 5bbc
000001f0: c854 55bd 86ac 4c3d d08f 89bb c01d f63b
00000200: 360f 31bd 4992 cabc 1945 213b edf8 5c35
00000210: 671d 9bbb 4063 663c a3e4 be39 0825 0b3c
00000220: 79ba aabb e1fe 78bb 2ae4 51bc 3dab 8ab4
00000230: 1f54 4f3a aa29 1b2e 8227 d1bc 8c3a 4fbb
00000240: 41a6 07b9 63dd e138 4b63 9db7 e0d4 2235
00000250: 7a00 aa3b 5107 0c2f c649 b5ba 3b26 06bc
00000260: 1390 e9bc a63d 21bc e8d8 023d c93d 2abb
00000270: 5e98 5ebc 17e0 263b 97d3 1f3c 3525 adb3
00000280: fa21 2535 abb1 14bd 7f88 34bc c4ff 6937
00000290: 31be d83c 0aa0 b3bc ac07 7338 fecf e339
000002a0: 857b 3bbb 4cbe ed3c efa6 99bb e077 e3bb
000002b0: 9851 983b 7f59 bbbc d8d1 b8b1 00ae b5bb
000002c0: 8676 db3c 852e 29b7 5462 7034 15e7 6038
000002d0: 1b63 08b9 0bee 25b5 be4f 9d3b a4b3 c539
000002e0: 4e3a 92bb e998 dbbc 7b97 a7ba 317c 26bd
000002f0: 3eb3 46bb 030d 03bd a99d 39bb dc66 5ebc
00000300: e825 03b7 8e7d b03c cbf4 a0bb 5450 013c
00000310: ea3f 3b37 dd38 363b e6b7 8334 14cf 9b3c
00000320: eafb af35 4c3b 2eba b3ea 0abe 6f88 f33c
00000330: fd5f 15bc 27f4 9cba 2797 ddbc d660 66bd
00000340: 16c3 74bd 9ffb d737 240e bc3d 9b7e bf3d
00000350: 1d72 0dbc 501b 2e3c abd7 46b7 e6c3 42bc
00000360: 93bf 0eba dd98 3c3b 2c55 3c38 554a 8eae
00000370: 1cae 0239 0d7a e336 605c 313d 0bde 0ebd
00000380: 2e07 cbbd 2d1c 003e 9227 55bc 1f41 853c
00000390: 63c1 a8bd 0e37 55bd 44d7 2c3c f4a2 29b6
000003a0: e4cb 8fbc 829d 0b3d cea8 85b7 103a d23c
000003b0: ccdb 88bc 3d34 e9bb 412c d1bc f7de 52b4
000003c0: f889 9f3b 364d 282e bf68 97bc 0a97 4dbc
000003d0: 46fe a6ba cb07 7fb9 9b79 ef37 01f3 0e36
000003e0: 7aa7 9a3c 115f 062f d626 b8ba 1da4 ce3a
000003f0: 6a36 6bbd 5bed e0bc a584 b23d b18b c9bb

hidden.bias f4 [100]
0.05962371 0.062120568 0.03998378 -0.015964204 0.020444622 8.702872e-11 0.024131168 0.057132702
0.06594673 0.019633224 0.06604154 0.022824744 0.03701987 0.0070044766 0.014649826 0.05368051
0.03744268 0.07242287 0.0054725017 0.020235766 0.051556733 -1.7757442e-05 -0.0032671418 -0.0029718836
0.054718178 0.053328842 0.033004977 0.0325719 0.05095033 0.029037524 0.011678342 0.04312478
-3.89668e-10 0.033165235 0.02271638 0.03717378 0.026775641 0.16678317 0.06053349 0.02970057
-0.0053781327 0.037201565 0.042471506 0.07033849 0.09592386 0.054576885 0.026337326 0.057738338
0.07315275 0.053367313 0.06108598 0.08279982 0.042533975 0.023242453 0.024943655 0.044475924
0.08288786 0.03620903 0.042911574 0.037193347 0.05793964 0.06567911 -0.012781248 0.025894461
0.0031971377 0.006891307 0.01888175 0.11474777 0.04585652 -0.00072400644 0.002469682 0.11134406
0.018005019 0.07366438 0.00041739718 0.08818041 -0.00049573526 0.03270653 0.092166424 0.049705576
0.038047235 0.0357703 0.010257543 0.0525033 0.00372982 0.0024514163 0.13090873 0.035694867
0.08008924 0.026615763 6.165629e-38 0.06723743 0.0017543919 0.009881468 0.09637166 0.030084988
-0.0075610215 0.04554575 0.022522112 0.01851295
00000000: fe37 743d 2372 7e3d 08c6 233d 5dc7 82bc
00000010: 7b7b a73c d060 bf2e baae c53c fb03 6a3d
00000020: 140f 873d dbd5 a03c c940 873d f5fa ba3c
00000030: 26a2 173d cf85 e53b d305 703c 18e0 5b3d
00000040: 7f5d 193d 7152 943d ac52 b33b 7ac5 a53c
00000050: 272d 533d d1f5 94b7 8b1d 56bb efc3 42bb
00000060: 2b20 603d 586f 5a3d 3a30 073d 1d6a 053d
00000070: 4bb1 503d 1ae0 ed3c 8456 3f3c 9ca3 303d
00000080: e538 d6af 45d8 073d b417 ba3c 8943 183d
00000090: 9758 db3c 35c9 2a3e f7f1 773d 9c4e f33c
000000a0: 0c3b b0bb ab60 183d 9af6 2d3d a00d 903d
000000b0: bb73 c43d 038c 5f3d 60c1 d73c 097f 6c3d
000000c0: 1cd1 953d af97 5a3d 4b35 7a3d f492 a93d
000000d0: 1b38 2e3d f566 be3c a356 cc3c 632c 363d
000000e0: 1cc1 a93d eb4f 143d 0cc4 2f3d 0d58 183d
000000f0: 1e52 6d3d c582 863d 7168 51bc 9f20 d43c
00000100: 1287 513b 79d0 e13b e6ad 9a3c e100 eb3d
00000110: 0cd4 3b3d 40cb 3dba 63da 213b 5b08 e43d
00000120: 437f 933c 5add 963d 1ad6 da39 ee97 b43d
00000130: 3bf4 01ba 48f7 053d c0c1 bc3d 1398 4b3d
00000140: 6bd7 1b3d e183 123d 410f 283c b30d 573d
00000150: ff6f 743b f1a7 203b f00c 063e c834 123d
00000160: d405 a43d 4d09 da3c 2ad8 a701 c7b3 893d
00000170: a0f3 e53a e1e5 213c 815e c53d cb74 f63c
00000180: 72c2 f7bb 2e8e 3a3d 4b80 b83c 78a8 973c

output.weight f4 [1, 100]
-0.38544956 -0.15618029 -0.34511873 0.24817346 0.23387666 -2.1858128e-11 -0.25105903 -0.3078882
-0.26631898 -0.15825702 -0.32949626 0.18205272 0.35727918 -0.042334516 -0.045180567 -0.19870874
-0.2817724 -0.18406387 -0.17168368 -0.105810486 -0.17150286 0.00012084098 0.35655186 0.1790317
0.3130895 0.38001776 0.28097844 0.24630153 -0.1793953 -0.059840444 -0.11316092 0.17208548
1.3455778e-10 -0.19346681 0.16110328 0.19586676 0.24178582 -0.46994427 0.33538136 0.38514373
0.29333663 -0.32697836 -0.2963535 -0.2614164 -0.37009954 0.22225447 0.103097014 -0.36673266
0.32550076 0.25069824 0.3495948 -0.2667562 -0.25350675 0.29689112 0.2750581 -0.15405254
-0.2605069 -0.26321104 -0.08715108 -0.24736542 -0.15855017 0.37497216 0.16745707 0.2815258
0.06309896 -0.028961087 -0.08029175 -0.42789763 -0.22009857 0.29113865 0.21902145 -0.32855
-0.11206251 -0.19674143 0.1579879 -0.25965548 2.1692927e-07 0.17385304 -0.4753838 -0.25853413
-0.12348083 -0.30452928 0.2624934 0.4804016 0.04960833 -0.08616971 -0.40762058 -0.07409262
0.42989042 0.10019838 -1.4965666e-37 0.29659426 -0.048669472 0.1113059 -0.2668304 0.18763576
0.29274938 -0.2627949 -0.30596322 -0.11603586
00000000: a559 c5be baed 1fbe 67b3 b0be 2f21 7e3e
00000010: 5d7d 6f3e 2144 c0ad cf8a 80be 86a3 9dbe
00000020: f65a 88be 210e 22be bcb3 a8be 076c 3a3e
00000030: 4ced b63e f566 2dbd 420f 39bd 4e7a 4bbe
00000040: 7944 90be 3d7b 3cbe d9cd 2fbe 2bb3 d8bd
00000050: 729e 2fbe 026c fd38 f78d b63e 1654 373e
00000060: 444d a03e b091 c23e 68dc 8f3e 7836 7c3e
00000070: 67b3 37be 411b 75bd eac0 e7bd 2d37 303e
00000080: a6f2 132f 2a1c 46be 42f8 243e 4c91 483e
00000090: b496 773e 899c f0be 1bb7 ab3e 8f31 c53e
000000a0: 3830 963e b569 a7be a5bb 97be 5fd8 85be
000000b0: b07d bdbe ad96 633e 8724 d33d 62c4 bbbe
000000c0: 09a8 a63e 855b 803e 17fe b23e 4594 88be
000000d0: a3cb 81be 1d02 983e 6ad4 8c3e f3bf 1dbe
000000e0: 2961 85be 99c3 86be 447c b2bd 5c4d 7dbe
000000f0: fa5a 22be 5afc bf3e de79 2b3e 2624 903e
00000100: 073a 813d cd3f edbc 0070 a4bd 6615 dbbe
00000110: 8561 61be 2010 953e 2947 603e b537 a8be
00000120: 0781 e5bd 9676 49be 94c7 213e 90f1 84be
00000130: 10ed 6834 8806 323e 8165 f3be 965e 84be
00000140: 84e3 fcbd 43eb 9bbe 8965 863e 33f7 f53e
00000150: 1b32 4b3d bf79 b0bd a5b3 d0be dfbd 97bd
00000160: 991a dc3e cf34 cd3d bcb3 4b82 34db 973e
00000170: a459 47bd 59f4 e33d ff9d 88be 9723 403e
00000180: 3fe3 953e 0e8d 86be 36a7 9cbe 35a4 edbd
