data/model/sl_training/1/330.pth (torch, 44823 bytes, 5 tensors)

linear.weight f4 [100, 4]
00000000: 17de c73e c5ca 4fbc af4e f73e 6443 ff3e
00000010: eb11 c6be a6a6 51be 201f 5cba c120 01bf
00000020: 5466 61bd 62f2 24bc 7b5e 103f b5d1 b13e
00000030: 31cd e0be d522 5f3d 2a25 e6be 4ea7 663e
00000040: bdc2 f63e 9f0b 3c3d eb18 42be 47bb 10be
00000050: 63e9 c8be cc18 39be e387 be3d ba92 b0be
00000060: f8c6 95be eb31 a23e 7890 ee3e 5349 50be
00000070: 2115 bb3d 54ec c5be 053a 033f 11a7 893d
00000080: e5d1 54be 317f 293e 3835 c1be 6a96 d1be
00000090: cd41 dbbe 8549 603e 63c4 77be 971c a7bd
000000a0: f648 c63e ee1a e6be 6f6a e9bd 9607 8f3d
000000b0: e3eb 24be daf6 763e 75ec ce3e 8db8 50be
000000c0: c819 543e 4911 f0be ffdb 873c e62a d3bd
000000d0: 4aa9 c8be e70c d8bc 5bd6 dabd be23 793e
000000e0: 9d02 b03e 0f23 ec3e 9827 bdbe 7f92 a5be
000000f0: 6703 82bd b137 c5bd d575 093f 2272 8f3e
00000100: 98a2 c5be 69c2 50be fc5c 0d3f dd0d 1cbe
00000110: 951b 70bd b4e6 203e 84c3 5a3e 18dd f33e
00000120: 1228 dfbe 838b aa3d 98c2 11bd 03f0 913e
00000130: 5c12 68be 8f46 e53e 28e4 fcbe b7e9 0dbe
00000140: 4485 f0bd 5e84 c53e e2cb 42be 9525 a0bc
00000150: a8aa ccbe 0684 fc3e 35bc 0bbe 7705 753e
00000160: e7ef afbe 5139 efbe 55df 563c 1dc7 dfbe
00000170: e8b9 253e 39dc f13d 3fca 03bf 7a25 f03d
00000180: 952a 8dbc 9059 a13e 8b52 0fbf 0da6 813e
00000190: d6e4 953c e33d 88be 9710 71be d7f2 b1be
000001a0: a5aa 863e 13ef e6be 6946 a93e a786 223e
000001b0: b6a6 e0be d1a1 bc3e c2da d13c 8176 68bd
000001c0: bad4 bf3e b281 ee3e d9f9 96be f402 e7bd
000001d0: 8129 97be 6010 6ebd 5b4e 373e 81e2 e5be
000001e0: 4f89 ad3e 923f 7f3e 13ca af3e d21b 14be
000001f0: 1f98 a2be b2e8 093e c6d9 25be 6dcc d3be
00000200: 0a4a 7d3e cac1 49be 7d28 68be 10ad c83d
00000210: d2f5 b03e 6958 333c 409e ab3e 3ac2 633e
00000220: b85c 803e e000 54be fb26 013f 5757 9cbe
00000230: 706e 093e 5d75 573e 0972 cf3e 410a 7f3e
00000240: f843 35be b328 703d b43a fa3e e9c7 a63e
00000250: 55c5 93be 0b66 c3be 65a0 d6be 3815 823e
00000260: d202 a1be aad1 a2be 0a49 bbbe d1f7 c03e
00000270: 68fa 6b3e 2f34 943e 3e71 143f da9b 1dbe
00000280: 3c15 1fbe 392e 973e 4996 1bbe 1320 bd3e
00000290: 5518 d3be 947f 28bd d7de a43e a627 81be
000002a0: 865e f6bb 06d1 8abe 6b8d 13bf 3529 6ebe
000002b0: 917a f2be 8014 eabe c2d8 05be 8231 9ebe
000002c0: 9df2 f8bd 0e48 84be 03a9 ff3e 7ee7 01be
000002d0: 62bc a3be e0f3 883e f501 423c 1b15 023f
000002e0: 3db5 403d 44b1 8f3e 2b3c 043f a2e0 bcbe
000002f0: feee f8be 9405 ebbe 209e c8be 5ef5 50be
00000300: 8297 debe 665c 3cbe 54ec 66be cd0f 873e
00000310: 32a5 18bd c031 98be 5ad7 b43e 0feb ebbd
00000320: 4caa f23e 5bd8 c4be e7f8 bebe 2693 8fbe
00000330: cd9c f5be 37df 63be ddea 333e 3abd 963c
00000340: bb27 adbe 2250 e33e 5f90 043e 7e3e 4ebe
00000350: fa42 f1bd ae28 a5be 2edd 113f d445 97b9
00000360: bc53 a0be ed78 703e 0a61 073f 9b91 413e
00000370: c46f 6fbe 0fde acbe c7a0 0e3f 906e e73e
00000380: a90b 95be a2df d13e 4585 933e e515 15be
00000390: 3b0e 993e 0c81 e23d 1cd3 d8be 1bd7 b83e
000003a0: 0280 ebbd d380 d43c 21a4 93be fcdf 39be
000003b0: b252 b1bd 099d 11bd e206 b73e dce0 a33e
000003c0: f98d 143d 141f f6be f072 053f 9030 f63e
000003d0: 5a63 1b3e 98c8 043e 301e 9b3e a19c 023f
000003e0: 1f57 5a3e abc7 993d 99aa 753d 841d 033f
000003f0: d838 b0be 324d 7dbe 9507 64be 61a2 df3e
0.3903663 -0.012682621 0.48302218 0.49856102 -0.38685545 -0.20473728 -0.0008396972 -0.50440603
-0.05502923 -0.010067554 0.56394166 0.34730306 -0.4390655 0.054476578 -0.4495023 0.22524759
0.4819545 0.04590952 -0.18954818 -0.1413394 -0.3924056 -0.18075866 0.09303262 -0.34486943
-0.29253364 0.3167871 0.46594596 -0.20340471 0.091348894 -0.38656867 0.51260406 0.067213185
-0.20783193 0.16552426 -0.37735915 -0.4093507 -0.4282364 0.21903045 -0.2419601 -0.0815975
0.3872754 -0.4494242 -0.11397254 0.06983869 -0.16105609 0.24117604 0.40414777 -0.203829
0.2071296 -0.46888188 0.016584394 -0.103109166 -0.39191657 -0.02637334 -0.10685416 0.24330041
0.34376994 0.46120498 -0.3694427 -0.3233833 -0.06348305 -0.09629763 0.5369542 0.28016764
-0.38600612 -0.20386662 0.5522001 -0.15239663 -0.058620054 0.15713006 0.21363646 0.4762962
-0.4358526 0.08327391 -0.03558597 0.28503427 -0.22663254 0.44780394 -0.4939282 -0.13858686
-0.117441684 0.3857755 -0.19023088 -0.01954917 -0.3997395 0.49319476 -0.13646014 0.23927866
-0.34362718 -0.46723416 0.01311477 -0.437066 0.16184199 0.11809582 -0.5148048 0.11725898
-0.017232219 0.31513643 -0.55985326 0.25322 0.018297594 -0.26609716 -0.23541485 -0.34755585
0.26302066 -0.45104274 0.3306153 0.15871678 -0.4387719 0.36842206 0.025617007 -0.05675364
0.37466985 0.46583325 -0.29487494 -0.1127986 -0.29523852 -0.058121085 0.17900984 -0.4489937
0.3389382 0.24926594 0.34333858 -0.14463738 -0.31756684 0.13467672 -0.16196355 -0.41366902
0.24735275 -0.19702831 -0.22671695 0.09798634 0.34562546 0.010946372 0.33519173 0.2224206
0.2507074 -0.20703459 0.50450104 -0.30535385 0.13421035 0.21040864 0.4051669 0.24906255
-0.1770171 0.058632564 0.48872912 0.32574394 -0.2886149 -0.3816379 -0.41919246 0.25406814
-0.31447464 -0.31800586 -0.36579162 0.3768907 0.23044741 0.28946063 0.57985294 -0.15391484
-0.15535444 0.29527453 -0.15194048 0.36938533 -0.412295 -0.041137293 0.32201263 -0.25225562
-0.0075185923 -0.27112597 -0.5763766 -0.23257907 -0.47359136 -0.45718765 -0.13070968 -0.30897146
-0.1215565 -0.25836223 0.49933633 -0.12685964 -0.31979662 0.26748562 0.011841287 0.50813454
0.047047842 0.2806493 0.5165431 -0.3689013 -0.48619837 -0.45902693 -0.3918314 -0.204061
-0.43474966 -0.18394622 -0.2255109 0.26379243 -0.037266918 -0.29725456 0.3532055 -0.11519443
0.4739555 -0.38446316 -0.37299272 -0.28041953 -0.47971192 -0.22253118 0.17570062 0.018400777
-0.33819374 0.44397074 0.12945698 -0.20141026 -0.11780353 -0.322576 0.5697812 -0.0002885299
-0.31313884 0.2348363 0.52882445 0.189032 -0.23382479 -0.33763167 0.55714077 0.4520154
-0.29110458 0.4099093 0.28812614 -0.14559133 0.2989367 0.1105977 -0.42348564 0.36101612
-0.11499025 0.025940334 -0.28836158 -0.1815185 -0.08658351 -0.03555015 0.3574744 0.32007492
0.03626821 -0.48070586 0.52128506 0.48083925 0.15174618 0.12967145 0.3029647 0.51020247
0.21322297 0.07508787 0.059977148 0.5121691 -0.34418368 -0.24736479 -0.22268517 0.43678573

linear.bias f4 [100]
00000000: c63a fb3d 642f 763e ffa8 a7bb d432 00be
00000010: 54fb 823e 9bdb ab3e 8036 88be d17e 8dbe
00000020: 7e20 f4be 5fdd d5be 7589 b4be c027 f73e
00000030: 55b3 6bbe 20bf b73d 33c3 babe 862f f9bb
00000040: 2912 8e3e 4faf 9ebd 8a05 92be 2965 b0be
00000050: 100d fcbe 02ad af3e 24d8 143d 137b 9e3c
00000060: 0727 d43d eb8b f2bd c185 39bd 87ad ee3e
00000070: 0b7a 20be b92c 2b3e 4448 88be a66c 3abd
00000080: 0680 ba3e bf6a 263e 8b24 eabe f9a5 babd
00000090: 6284 ec3e 11c7 d9be da47 02be 2603 b53e
000000a0: 80a6 d0be dcb7 78be 9052 e5bd f548 a8be
000000b0: dd6b 62be cb90 c0be 3407 edbe 66b5 b3bd
000000c0: 81ab 63be b13a c13e abc6 e6bd da77 d33e
000000d0: 6b43 ed3e 0bde 9cbd a27d fb3e b828 9abe
000000e0: 477a dcbe 2ba8 7f3e 6ddf cf3e 8900 f1be
000000f0: f58e 40bd 6f3f 7dbe 3027 d0bc 679c b03e
00000100: 8b85 50be 5ab4 94be a301 86be dcf2 c53e
00000110: f0ae fa3d f928 44bd 51e3 003e d8f7 b6bd
00000120: c479 cbbe 57be a7be 9885 20be 8200 31bc
00000130: 7bc7 5ebd e010 493e 2671 d3be 8f05 f43e
00000140: 78c9 84bc a5b0 04be 4238 adbe 1b65 ccbd
00000150: 306d bc3e a491 c9be 5ce8 55bd cc6c e2be
00000160: 5416 023f 51f9 fa3d 2760 ddbe 3bcc af3d
00000170: 376a cb3e 2721 1b3c 8ed0 f43e 492c 2cbd
00000180: 86bb aabe 367d c9be 6af1 da3e 1355 943e
0.122670695 0.24041516 -0.0051165815 -0.1251939 0.25582373 0.33565983 -0.2660408 -0.27635816
-0.4768104 -0.41770455 -0.3526112 0.48272514 -0.23017628 0.08972001 -0.3647705 -0.007604542
0.2774823 -0.07748281 -0.2851985 -0.3445218 -0.49228716 0.34311682 0.03633894 0.019345796
0.103590064 -0.118430935 -0.045293573 0.46616766 -0.15671556 0.16716279 -0.26617634 -0.04551377
0.364258 0.16251658 -0.45731005 -0.09113688 0.4619475 -0.42534688 -0.12722722 0.35353965
-0.4075203 -0.24288887 -0.11197388 -0.32868162 -0.22111459 -0.37610468 -0.46294558 -0.087748334
-0.22233392 0.3774009 -0.11268362 0.41302377 0.46340498 -0.07659539 0.49119288 -0.3010919
-0.4306204 0.24966495 0.40600148 -0.4707072 -0.047011334 -0.24731229 -0.025409311 0.34494326
-0.20363443 -0.29043847 -0.26173124 0.3866185 0.12240398 -0.047890637 0.12586714 -0.08933991
-0.39741337 -0.32762405 -0.15675962 -0.010803344 -0.05438946 0.19635344 -0.41297263 0.4766049
-0.016209349 -0.1295801 -0.33831984 -0.09980222 0.36802053 -0.39368927 -0.05222355 -0.4422363
0.5081532 0.122545846 -0.4323742 0.08583876 0.39729473 0.009468353 0.47815365 -0.04203442
-0.33346194 -0.3935334 0.4276231 0.28971156

hidden.weight f4 [100, 100]
00000000: dc09 2bbd f972 0abd 631d 2fbb fcda 20bd
00000010: d83b 6bbd 2b46 33bc 2616 703d fd27 a1bd
00000020: 5c9a dabd 5f00 a23d 15f8 cabc d6b0 9dbd
00000030: 2e4c 823d 7c1c e7bc ac45 5bbd be12 be3c
00000040: 0493 eabc a3b3 cb3d 3f29 383c c1a0 9bbc
00000050: 7898 b33d 7db8 af3c 1b18 4fbd 2cb4 a43b
00000060: b7b5 233d d4ff 0cbe 089b 75bd 28ce 9c3d
00000070: a73b 08bd aab6 9cbd b486 633d da91 1bbd
00000080: 0b68 a23d 3833 663c d20b d3bc a219 053e
00000090: d1c0 e73d 19d6 ccbb c040 f5ba 4c50 cf3d
000000a0: 768e 5d3d 57fe 86bb e71c ad3c 8d23 9a3d
000000b0: 7f53 e83c dd7e 56bd 3140 d03d e953 223d
000000c0: ab01 833d 6fdb 1a3d 0e2a a7bd a106 9c3d
000000d0: 584b 8f3d 61f0 493d b179 263d 30b6 b93d
000000e0: d1dc cb3d b817 4b3d 0e65 073d 4068 c73d
000000f0: ca61 f23d 6b2f dfbc bb8e ea3d 8a8a cb3d
00000100: 89d0 b5bd a69d 7f3d 5db6 8ebd a371 f33a
00000110: fc89 8dbd 48ff 4e3d e314 0e3e f07d 4e3d
00000120: 9fe0 5e3d 7523 25bd 78b5 86bc fac5 333d
00000130: fcb5 3dbd f42f 673d eff4 acbc d608 a9bd
00000140: 78e2 19bd a4f2 863d 3857 bbbc 00d7 71bd
00000150: 6e87 d63d 051d 263d 499a 1d3d ab91 4f3c
00000160: 4e67 943d 7568 a3bd e34e e93c 30f4 e2bc
00000170: 7a86 893d 3d8e f0bc 333e 3b3b aefa b9bc
00000180: 2e66 e0bc a4c6 87bd 6b1a 3fbc 0b9d 8abc
00000190: fe52 0f3e 0c80 ccbd 9c9c 093d 7ae2 933c
000001a0: 93cd 883d 5fa3 a4bc 79ad 95bc 3fb0 70bd
000001b0: a368 d2bd 64ad c93c cfd0 3fbd 147f 3fbd
000001c0: 0f90 2c3c a54f c63c 29ea 053d 51cc b83d
000001d0: e50b 5d3d e6d7 1d3e deff 953d 107e bdbc
000001e0: 1426 9b3d 2055 91bd 56bc 2abd dc6f a9bd
000001f0: 910c dfbb 6e76 17be fd02 943d 463b d33d
00000200: 5ae3 b63c 44d5 b63b 1e9a 8b3c 2041 373d
00000210: 641e 88bc ed04 e73c 6d45 14bd 94da 153c
00000220: 11e6 6e3d 4933 61bd cff3 4e3d 7b0a 4e3b
00000230: 9ea2 2c3d c389 8cbc 646f b9bd 1bbc b23d
00000240: e2b4 cc3c 81f2 863c 9eee 5f3d d957 a4bd
00000250: 82d2 3d3c 2add 4bbd c056 f1bd 9bdd 383d
00000260: ef41 e6bc fc5f 393d 6b87 0c3d dd86 5dbc
00000270: 212c 9fbc 436c 6dbd f943 53bd afd9 5a3d
00000280: 6bde f8bc 5ec9 363c ba9e f53d 518c 083d
00000290: 95cd bdbd 11fa 283a ca59 5bbd e429 b03a
000002a0: acdc c23d 125f 9abd 2714 0c3d 4558 9b3d
000002b0: 02af e43c 6e41 4bbd 50f8 833d 5efb 02bd
000002c0: 83ee debc 3cf7 d73d 96f7 a6bd 61d1 983d
000002d0: ad1a 133d 7a0a 3c3d 3e30 293d 0f02 16be
000002e0: 009d 43bd 1b07 df3d 8a67 063e 87fc 7f3d
000002f0: bcfd bd3d 6191 02be 76eb 5cbd 6167 acbd
00000300: 50ac 79bd 5f8f 1abd 4b42 f23b c848 d53d
00000310: 36da afbc d283 c9bd 8d4e b83b 2f9b 9cbd
00000320: d90e 423d 603e bdbc eefa 57bc c5e4 203a
00000330: 431f 7abd 89b6 703d 9776 35bd 50f0 a33d
00000340: fd02 bcbd f741 163c de30 bcbd 0724 673d
00000350: 6989 80bd 87b9 abba 2e21 afbc d4a3 d13d
00000360: b9eb d03d 7ece 9b3d e3d2 4bbd d66e b73d
00000370: 7dc8 bbbd 0caa 03bd dac0 83bb 3d2f 4fbd
00000380: f713 e43c 7146 98bc 6aa0 a03c 4bae 5cbd
00000390: 0db0 063c 923f 90bd b281 9b3d 4bbf 86bd
000003a0: 7d7a 18bc 1811 713d c64d 493d 0f99 3b3d
000003b0: 7caa c63d 8334 8cbc a881 a23d de99 bbbd
000003c0: dfed 9abc 7041 b7bd 1200 a9bc e039 84bd
000003d0: e776 80bd 1835 51bd a701 1fbd db09 1f3d
000003e0: ae40 d43d ed2d 9dbc 8eae 603c 3a2b 4cbc
000003f0: 95ac 76bb bd31 ec3d 77ed a5bc f812 74bd
-0.04175745 -0.033801053 -0.0026720397 -0.03927134 -0.05743012 -0.010942022 0.058614872 -0.07868955
-0.10673973 0.07910227 -0.024776498 -0.076997444 0.06362186 -0.028211825 -0.05353324 0.023202296
-0.028634556 0.09946372 0.011240303 -0.018997552 0.087693155 0.021450276 -0.0505601 0.005026361
0.03996822 -0.13769466 -0.059962302 0.07656509 -0.033260014 -0.07652028 0.055548385 -0.03798089
0.07930001 0.014050297 -0.025762472 0.1299806 0.11316074 -0.0062511084 -0.0018711314 0.10122737
0.05409094 -0.004119675 0.021131946 0.07526312 0.028360127 -0.05236708 0.101684935 0.039630804
0.063968025 0.037806924 -0.08162318 0.07618452 0.069967926 0.04930151 0.040643398 0.09067953
0.09954227 0.049583167 0.033055358 0.09736681 0.11835058 -0.02724429 0.11453005 0.099385336
-0.088776655 0.062406205 -0.06968377 0.0018573295 -0.06911084 0.050536424 0.13875155 0.050413072
0.054413434 -0.040317018 -0.016443953 0.043889977 -0.046316132 0.056442216 -0.021112887 -0.082536384
-0.037569493 0.06589249 -0.022868738 -0.05904293 0.1047505 0.04055502 0.038477216 0.012669007
0.07246266 -0.07978908 0.028479999 -0.027704328 0.067151025 -0.0293647 0.002857101 -0.022702541
-0.027392473 -0.066296846 -0.011664013 -0.016920587 0.13996503 -0.099853605 0.03359662 0.018052328
0.06679835 -0.020097433 -0.018271195 -0.05876183 -0.10273864 0.024618812 -0.046829995 -0.04675205
0.010532393 0.0242079 0.032694016 0.09023345 0.05396642 0.1541439 0.073241934 -0.0231314
0.07575622 -0.070963144 -0.041683517 -0.082732886 -0.006806918 -0.14791271 0.072271325 0.1031404
0.022325207 0.0055796225 0.017041262 0.044739842 -0.016616054 0.028200591 -0.036199022 0.009146351
0.058324877 -0.05498055 0.050525483 0.0031439352 0.04214727 -0.017155534 -0.09054449 0.087272845
0.024988595 0.016473057 0.054670922 -0.08024568 0.0115858335 -0.049771465 -0.117841244 0.045133214
-0.028107611 0.045257553 0.034308832 -0.013520923 -0.019430222 -0.057964575 -0.051578496 0.053430256
-0.030379495 0.011156408 0.11993165 0.03333694 -0.09267727 0.0006445954 -0.053552426 0.0013440219
0.09514746 -0.075376645 0.034198906 0.075851955 0.027915481 -0.049622945 0.06443846 -0.031978004
-0.02721334 0.10545203 -0.08152692 0.07461811 0.035914112 0.04590843 0.041305773 -0.14649223
-0.04775715 0.10890027 0.13125435 0.06249669 0.092769116 -0.1275077 -0.05393549 -0.084181555
-0.060955346 -0.037734386 0.0073931566 0.104142725 -0.021466356 -0.09839596 0.0056245984 -0.076467864
0.04737744 -0.023101032 -0.013182385 0.0006137605 -0.06106497 0.05876783 -0.04430255 0.0800482
-0.091802575 0.009171001 -0.09189008 0.056430843 -0.06276209 -0.0013101556 -0.021378126 0.10236326
0.102012105 0.07607745 -0.049761664 0.08956687 -0.091690995 -0.03214459 -0.0040207924 -0.05058216
0.027841551 -0.018588277 0.019607741 -0.053877156 0.008220685 -0.07043375 0.07593097 -0.06579455
-0.009306547 0.058854192 0.049146436 0.045800265 0.09700486 -0.017114883 0.07934886 -0.09160207
-0.018912254 -0.08948028 -0.020629916 -0.06456351 -0.06272679 -0.051076025 -0.038819935 0.03882776
0.10363899 -0.019186938 0.013713492 -0.012461478 -0.0037639488 0.11532924 -0.020254834 -0.059588403

hidden.bias f4 [100]
00000000: e8ae 58bd d0e2 9f3d 05b2 bb3d c6ae f33c
00000010: 38f5 9d3d ed89 8d3c be92 943d 2388 c13d
00000020: 7c2a c13d 5781 1abd 14c0 0e3d c3f2 373d
00000030: 31fa 43bd 18a6 9a3d 1325 61bd a48c d13d
00000040: bc33 b13d f855 333d ef8a b83c abcd 5ebd
00000050: b416 a8bd f0f9 663c 9352 92bd 1587 503d
00000060: c7b8 8cbd 47aa 2b3d 1f17 7f3c f7e7 b3bc
00000070: 2283 03bd f3ba 0f3d 3af4 cb3b 8859 79bd
00000080: 88ef 92bd 5c50 853c 6aa7 9b3d 4c83 83bd
00000090: 6792 aa3d 6fc3 acbc cf71 b93d 6f56 2dbd
000000a0: c547 4f3d 0108 52bd 1f65 e5ba 70d5 37bd
000000b0: 95d2 973d d055 10bc e8dc 863d 2b3d 40bd
000000c0: f389 a33d f999 12bd 8424 ba3d 52d4 c8bc
000000d0: d8f3 f63c 52d5 3cbc 89a0 91bd a876 a23d
000000e0: c4fc aa3d 5f77 b23d 0fa5 913d e6e3 a8bd
000000f0: f3c7 9cbd cd62 86bd 31a1 83bc dbd0 5e3d
00000100: 8b77 df3c 026d 883d 6c59 16bd 878c 3cbd
00000110: 4db6 fa3c 5c10 a33b 69ed ae3d f7bd cf3b
00000120: 55e4 1e3d b8c9 be3b f235 d43b bd2b a73d
00000130: a6d2 ab3c 3904 aebd 00f4 bc3d f1f9 c53d
00000140: 8396 5d3d 7a55 e73c 058c 2d3d eea2 a4bd
00000150: dc0f 6f3d 61f4 9e3d af89 b8bd 3853 d93d
00000160: cc60 c53b f78e 5cbd df8e ba3d b19f 8f3d
00000170: 11c5 253d c8ab bfbc 257f 423d 0ee3 123c
00000180: eada 063c b687 bcbd 1a77 6fbd ca8f 8b3d
-0.05290118 0.07806933 0.09164814 0.029746424 0.077127874 0.017277682 0.07254551 0.09449794
0.094319314 -0.037721004 0.03485115 0.04490925 -0.047846023 0.07551211 -0.054966997 0.10231903
0.08652446 0.043783158 0.022527186 -0.05439536 -0.08207455 0.014097676 -0.07144656 0.050910074
-0.06871181 0.041910436 0.015569477 -0.021961195 -0.03210748 0.035090398 0.0062241824 -0.0608764
-0.07174593 0.01627367 0.07600291 -0.06421527 0.08328705 -0.021089284 0.090549104 -0.042318758
0.050605554 -0.051277164 -0.001750145 -0.044881284 0.07413212 -0.008809522 0.06585103 -0.046933334
0.07985296 -0.03579137 0.09088996 -0.024515305 0.03014557 -0.011525469 -0.07110698 0.07932788
0.083489925 0.087141745 0.071115606 -0.08246593 -0.07655325 -0.065618135 -0.016068073 0.0543984
0.027278682 0.066614166 -0.036706373 -0.046032455 0.030604506 0.0049763154 0.08541376 0.0063397842
0.038791973 0.0058223866 0.0064761573 0.08162639 0.020974468 -0.08496899 0.09226227 0.09666813
0.054098617 0.028239 0.04236986 -0.08038889 0.058364734 0.07761455 -0.09010636 0.10611576
0.006023502 -0.05384728 0.09109282 0.070128806 0.04047114 -0.023397341 0.047484536 0.008965267
0.008230904 -0.09205572 -0.058463193 0.06814535

output.weight f4 [1, 100]
00000000: a24c 473d 7a02 a63d 6c9a 283d 17be f8bd
00000010: b563 903d 7964 a13d 2e25 3e3d b7b0 cdbd
00000020: aab5 38be eef4 9b3d 3d07 81bd d417 ac3d
00000030: 5bef eabd 2e86 ce3d 4ddf 863d 5d07 9d3d
00000040: 7ee2 bfbd f649 083e 9af3 3dbd 4b80 81bd
00000050: 2c7d 09be 286e ecbd 8185 e1bd 8873 7a3d
00000060: fc09 5d3d 3e50 5b3d 6beb 1cbd 2d5e bdbd
00000070: a67d e4bd 3228 8a3d babd a4bd 32f9 043e
00000080: 9922 2bbd 9b69 2ebd ede3 593d a0c9 afbd
00000090: f8db 943d b52a 01be cf0f 0a3e e7cd b23d
000000a0: 77e0 46bd 2ab0 05be 7df2 9f3d 12a5 b03d
000000b0: 3148 76bd 03df 9e3d fcec 9ebd 24b7 e93d
000000c0: fa87 303d d01c debd dae5 95bd 3272 6f3d
000000d0: 4ab3 03be bab5 a83d ed55 afbd 72fa d4bd
000000e0: 2b00 a63d ef93 af3d 6299 923d dce0 f3bd
000000f0: 08ee a3bd 6ecb 20be f566 71bd 4408 d5bd
00000100: 2d79 763d ee41 b73d a929 c73d 7c74 0bbd
00000110: 5d89 473d bee6 49bd bbde 283d 3685 1abe
00000120: 7c80 ad3d e2dc 453d 966a 003e 7d48 e3bd
00000130: b1e0 13be c336 b83d 385b a3bd b9ae b4bd
00000140: c690 9abd 6a80 e7bd e802 d3bd a50b febd
00000150: 0cd7 9abd 73c0 c7bd 70e3 a63d 20e5 94bd
00000160: 82ef dc3d 3879 f53d 1eee 4fbd 485b 183e
00000170: c5f9 103e 27e4 fd3c 2775 e3bd 2562 bfbd
00000180: 5b37 a2bd b9a2 a43d b960 a7bd 15be 78bd
0.048657067 0.08105941 0.041162893 -0.12145632 0.070502676 0.07880492 0.046422176 -0.10043471
-0.1803805 0.07615076 -0.06300209 0.08402982 -0.11471435 0.100841865 0.0658556 0.0766742
-0.09369372 0.13309464 -0.046374895 -0.06323298 -0.13426656 -0.11544448 -0.11011792 0.061145335
0.0539646 0.05354332 -0.03831045 -0.09246478 -0.11156778 0.06745948 -0.08044 0.12985685
-0.04178104 -0.042581182 0.053195883 -0.08583379 0.07268518 -0.12613948 0.13482593 0.08730679
-0.04855391 -0.13055483 0.07809923 0.08625235 -0.06012744 0.0775738 -0.07760045 0.114118844
0.043098427 -0.10845339 -0.07319231 0.058458515 -0.12861362 0.082377866 -0.08561311 -0.10399331
0.08105501 0.08573138 0.07158162 -0.11908123 -0.08004385 -0.15702602 -0.058936078 -0.10401967
0.060174156 0.08948122 0.09724743 -0.034046635 0.048714984 -0.04929232 0.041228037 -0.15089878
0.08471772 0.048306353 0.1254066 -0.110978104 -0.14441182 0.0899482 -0.07976383 -0.08822388
-0.075471446 -0.1130379 -0.10303289 -0.12404565 -0.07560548 -0.09753504 0.08148849 -0.072702646
0.1078787 0.11986011 -0.050764196 0.14878571 0.1415778 0.03099258 -0.111063294 -0.093448915
-0.079207145 0.080388494 -0.08172745 -0.06072815
