data/model/sl_training/1/340.pth (torch, 44823 bytes, 5 tensors)

linear.weight f4 [100, 4]
000000 41 77 c8 3e 20 b6 37 bc c4 1b fd 3e f3 c9 fe 3e
       0.39153484 -0.011212856 0.49435246 0.4976345
000010 45 fc c5 be 3a 35 52 be cf b5 0a bc 73 7e 01 bf
       -0.3866903 -0.20528117 -0.008466198 -0.5058357
000020 5c c0 63 bd 86 fb 18 bc 58 0f 13 3f e2 bf b2 3e
       -0.05560337 -0.009337312 0.5744529 0.3491202
000030 12 61 df be 33 3c 60 3d 15 5d ea be a2 63 63 3e
       -0.43628746 0.05474491 -0.4577414 0.22205976
000040 48 e0 f5 3e a0 e5 38 3d 2f 46 4c be d5 03 10 be
       0.48022676 0.045140862 -0.19948648 -0.14063962
000050 0f b6 c8 be 09 7a 39 be 9a a9 ad 3d 31 6f b1 be
       -0.392014 -0.18112959 0.084796146 -0.34655145
000060 63 4f 95 be 8d 39 a2 3e 59 ed f1 3e 4e 86 4f be
       -0.2916213 0.31684533 0.47251394 -0.20266077
000070 44 3b bc 3d 9e 0d c5 be ba 72 05 3f 49 bd 8b 3d
       0.091909915 -0.38486952 0.52128184 0.06823213
000080 7b 41 51 be 84 1a 2d 3e 8c 2e c3 be f1 34 d4 be
       -0.20435135 0.16904646 -0.3812145 -0.4144664
000090 12 41 da be 27 17 61 3e 1c c3 7e be 86 99 ab bd
       -0.4262777 0.21981488 -0.24879116 -0.08378892
0000a0 41 51 c5 3e e3 3a e7 be 80 31 fe bd f1 c9 92 3d
       0.38538554 -0.45162115 -0.12411785 0.071674235
0000b0 b8 f7 23 be 5c 8b 77 3e e0 be d3 3e 32 2d 50 be
       -0.16012466 0.24174255 0.41356564 -0.2032974
0000c0 a9 77 52 3e b3 1c f1 be 9d 54 ef 3b ca af d1 bd
       0.20553459 -0.47092208 0.007303788 -0.10238607
0000d0 24 a1 c9 be d5 20 d3 bc f9 1c c8 bd f0 71 7b 3e
       -0.39380753 -0.025772491 -0.09771151 0.24555182
0000e0 6f a4 b1 3e fa fc ec 3e b8 f7 b8 be 98 8b a6 be
       0.34695765 0.46286756 -0.36126494 -0.32528377
0000f0 29 02 83 bd 4b 78 c3 bd 71 0d 0c 3f a6 62 90 3e
       -0.063968964 -0.095444284 0.5470801 0.28200263
000100 15 ca c5 be 33 cd 4f be 58 c4 0f 3f 92 b8 19 be
       -0.3863074 -0.20293121 0.5615897 -0.15011814
000110 dd c0 74 bd 58 26 21 3e 5d 8a 66 3e 92 8f f4 3e
       -0.05975424 0.15737283 0.22513719 0.47765785
000120 b7 4a e0 be bd 2b ab 3d ab bb db bc c9 3c 93 3e
       -0.43807003 0.08357952 -0.026822885 0.28757313
000130 45 b1 68 be f0 30 e5 3e 7b 23 00 bf df f1 0d be
       -0.22723873 0.447639 -0.5005414 -0.13861798
000140 19 5d ee bd 55 8e c5 3e 86 10 3a be d0 1e a1 bc
       -0.11638851 0.38585153 -0.18170366 -0.019668013
000150 38 50 cd be 95 5c fc 3e 35 39 01 be 4f a1 76 3e
       -0.40100265 0.49289384 -0.12619479 0.24084972
000160 6e 98 af be 91 b9 ef be 0f 92 d2 3b 34 23 e1 be
       -0.34295982 -0.46821263 0.006426103 -0.4397217
000170 95 0b 25 3e ee 9e f0 3d 8e 9b 06 bf 54 6a f1 3d
       0.161177 0.117490634 -0.5258111 0.117878586
000180 7a 6c 88 bc ce 5e a1 3e 00 3c 12 bf ef 90 81 3e
       -0.016653288 0.31517643 -0.571228 0.25305888
000190 f4 00 8d 3c 36 d6 88 be 37 1d 7a be 2b 07 b2 be
       0.017212369 -0.2672593 -0.24425207 -0.34771094
0001a0 d2 f3 86 3e 7d 70 e6 be 0e 76 ae 3e 29 94 23 3e
       0.26357895 -0.45007697 0.34074444 0.15974487
0001b0 45 68 e0 be 2a a8 bc 3e 1c 53 75 3c be 39 6c bd
       -0.4382955 0.3684705 0.014973428 -0.057672255
0001c0 5a d8 c0 3e 15 bf ee 3e 75 64 92 be b3 be e8 bd
       0.37665063 0.4663016 -0.28592268 -0.11364498
0001d0 5b 5e 97 be dc 7e 6f bd f6 1c 2f 3e b9 6b e6 be
       -0.29564175 -0.058470592 0.17100891 -0.4500406
0001e0 67 d5 ae 3e c2 ea 7f 3e d0 37 b4 3e 3e af 14 be
       0.34147188 0.24991897 0.35198832 -0.14519975
0001f0 ac 97 a2 be d7 bf 09 3e c6 65 2d be 11 41 d4 be
       -0.3175634 0.13452087 -0.16933355 -0.41455892
000200 fb 35 7c 3e 4f 23 4b be 2f e0 72 be 85 55 ca 3d
       0.24629967 -0.19837688 -0.23718332 0.09879593
000210 15 d0 b1 3e a6 51 4b 3c ab 3e b1 3e d0 d2 62 3e
       0.34729066 0.012409603 0.34618124 0.22150731
000220 21 09 82 3e a0 59 52 be fe f6 02 3f e2 a1 9c be
       0.2539759 -0.20542002 0.5115813 -0.30592257
000230 d4 9f 0a 3e 1b 23 58 3e 25 f2 d4 3e 8d f7 7e 3e
       0.13537532 0.21107142 0.41590992 0.2489912
000240 7b cf 35 be 63 dc 72 3d 1d 86 ff 3e a1 9d a7 3e
       -0.17754929 0.05929221 0.49907008 0.3273745
000250 79 c4 94 be da 78 c2 be 49 fe d1 be da 45 82 3e
       -0.29056147 -0.37982827 -0.41014317 0.25443918
000260 00 fb a1 be ef 0d a2 be 64 32 b6 be 87 46 c1 3e
       -0.3163681 -0.31651255 -0.3558532 0.3774912
000270 1d d0 6d 3e 19 61 94 3e c4 d4 16 3f 2d 92 1d be
       0.2322392 0.2898033 0.58918405 -0.15387793
000280 84 32 21 be 90 c7 96 3e 51 9b 0f be b6 d2 bd 3e
       -0.15741926 0.2944913 -0.14024092 0.37074822
000290 7e 7f d2 be d9 a6 28 bd d4 9c a0 3e 36 59 82 be
       -0.41112894 -0.041174743 0.3136965 -0.25458688
0002a0 3a 70 fe bb 0b 71 8b be 50 04 16 bf c5 0f 6e be
       -0.0077648433 -0.27234682 -0.5860033 -0.23248203
0002b0 72 cf f1 be 90 d7 ea be e4 38 0b be 03 20 9f be
       -0.4722858 -0.45867586 -0.13595921 -0.3107911
0002c0 be ef f8 bd d9 87 83 be cd ad 01 3f 2c 55 ff bd
       -0.12155102 -0.2568958 0.50655824 -0.12467417
0002d0 f2 25 a5 be 36 be 88 3e c9 6e b7 3c 86 bf 02 3f
       -0.32255512 0.2670762 0.022391694 0.5107349
0002e0 68 20 4b 3d a5 fd 8f 3e 47 c3 05 3f e9 f8 bc be
       0.049591452 0.28123203 0.52251095 -0.36908653
0002f0 32 01 f8 be 24 9e eb be 24 dc cb be 9a 01 53 be
       -0.48438412 -0.4601909 -0.3981639 -0.2060608
000300 30 c0 df be d4 bb 3b be f6 2d 5e be 76 5a 88 3e
       -0.43701315 -0.1833337 -0.2169722 0.26631516
000310 7d b6 1c bd f5 da 97 be d9 90 b9 3e 80 80 e6 bd
       -0.038259972 -0.29659238 0.36243322 -0.11254978
000320 58 96 f1 3e 63 bd c5 be 44 d0 c3 be 67 dd 8e be
       0.47185016 -0.38621053 -0.38244832 -0.27903292
000330 8c 91 f5 be 4a 26 63 be 43 f9 40 3e 00 d9 99 3c
       -0.47962606 -0.22182575 0.18845086 0.018780231
000340 1a 12 ad be 4c 30 e3 3e b8 2a 0d 3e b1 51 4d be
       -0.33802873 0.44372785 0.13785827 -0.20050694
000350 eb e1 f1 bd 74 a4 a4 be 2e 1d 14 3f ba bb 13 3b
       -0.118106686 -0.32156718 0.57857025 0.0022542314
000360 55 a3 a0 be 1e b5 70 3e 4c d7 09 3f 81 92 43 3e
       -0.31374612 0.2350659 0.5384414 0.19098856
000370 4b b0 70 be ec 2f ac be 98 f1 10 3f 1e 3a e8 3e
       -0.2350475 -0.3363031 0.5661864 0.4535684
000380 7a b0 94 be a3 e7 d1 3e 74 06 97 3e 22 95 14 be
       -0.2904089 0.40997037 0.2949711 -0.14510015
000390 15 79 98 3e 0d 2e e0 3d c4 65 de be e1 73 b9 3e
       0.29779878 0.109462835 -0.43437016 0.3622122
0003a0 42 7a ec bd 3a 03 d0 3c 20 92 98 be 87 2f 3a be
       -0.11546756 0.025392164 -0.29798985 -0.18182193
0003b0 70 11 b4 bd 87 e3 0e bd 73 51 bc 3e b5 df a4 3e
       -0.087923884 -0.034884956 0.3678089 0.32201925
0003c0 1f e2 10 3d eb a0 f5 be 73 18 08 3f 36 04 f7 3e
       0.035371896 -0.47974333 0.53162307 0.482454
0003d0 52 4c 1b 3e 28 7a 05 3e 2f 42 a1 3e cb a3 02 3f
       0.15165833 0.1303488 0.31495807 0.5103118
0003e0 cb 59 5a 3e 68 99 9b 3d 96 4a 93 3d 67 05 03 3f
       0.21323316 0.07597619 0.071919605 0.5118012
0003f0 db 6a b1 be ee ac 7d be 03 84 59 be 33 69 e1 3e
       -0.34651837 -0.24772999 -0.21241765 0.44025573

linear.bias f4 [100]
000000 aa f1 fb 3d 84 62 77 3e 7b 9b 94 bb f4 a6 fc bd
       0.12301953 0.24158674 -0.0045351363 -0.12336531
000010 be 69 83 3e 59 6b ac 3e bf 3a 88 be db ac 8d be
       0.25666612 0.3367565 -0.2660732 -0.2767094
000020 34 e8 f2 be cd 58 d5 be c1 19 b4 be b0 58 f7 3e
       -0.47442782 -0.41669312 -0.351759 0.4830985
000030 fb c0 6a be 6b 55 b6 3d 90 0d ba be fd fc ef bb
       -0.22925179 0.08903011 -0.36338472 -0.0073238597
000040 41 b4 8e 3e bc ab 9e bd 48 3a 92 be 06 1b b0 be
       0.27871898 -0.077475995 -0.2856009 -0.34395617
000050 d6 5c fc be b5 92 af 3e 9f f2 1b 3d 69 b0 a9 3c
       -0.49289578 0.34291616 0.03807318 0.020714002
000060 3c c3 d6 3d 83 34 ef bd 84 31 38 bd ae 24 ee 3e
       0.10486457 -0.11679938 -0.044969097 0.4651236
000070 85 0d 21 be 64 ba 2b 3e 4c fd 87 be 7d 9e 35 bd
       -0.15727814 0.16770321 -0.26560438 -0.0443406
000080 59 fe ba 3e 1a dc 26 3e c2 dc e9 be bc d3 b9 bd
       0.36522177 0.162949 -0.45676237 -0.09073588
000090 db 7f ec 3e 43 98 da be eb 08 03 be 08 2a b5 3e
       0.46191296 -0.4269429 -0.1279637 0.3538363
0000a0 3c 27 d1 be f1 62 79 be 2d 82 e0 bd 98 66 a7 be
       -0.40850246 -0.2435415 -0.10962329 -0.3269546
0000b0 1e 1b 63 be b9 97 c0 be 81 d0 ec be ef 36 b0 bd
       -0.22178313 -0.37615755 -0.46252826 -0.08604228
0000c0 b2 52 64 be 0c c9 c1 3e 01 ee e3 bd 97 d5 d5 3e
       -0.22297171 0.378487 -0.1112938 0.4176452
0000d0 3a ea ec 3e 30 3e 9b bd 64 7e fb 3e 41 9a 99 be
       0.4627245 -0.07580221 0.49119866 -0.300005
0000e0 9e 59 dc be 29 6d 80 3e 6c 86 d0 3e 41 a5 f0 be
       -0.43037122 0.25083283 0.40727556 -0.4700108
0000f0 01 dd 3b bd 5b e4 7c be b1 dd d1 bc 16 87 b0 3e
       -0.045865063 -0.24696486 -0.025618406 0.34478062
000100 43 6e 50 be d5 54 95 be 69 e4 85 be 8c e8 c5 3e
       -0.20354562 -0.29166284 -0.26150826 0.38653982
000110 bf 31 fd 3d 24 fb 41 bd 00 df 00 3e 09 70 b6 bd
       0.12363004 -0.047358647 0.12585068 -0.08908088
000120 6a 03 cb be d7 58 a7 be 86 f8 20 be 55 2b 32 bc
       -0.39651042 -0.32684967 -0.15719804 -0.010874589
000130 ed dd 67 bd 4a 3a 49 3e 46 ed d2 be 9a 32 f4 3e
       -0.05660813 0.19651142 -0.4119665 0.47694856
000140 b8 98 ac bc 67 c6 06 be 06 08 ad be 4f e7 c7 bd
       -0.021068916 -0.13161622 -0.33795184 -0.097609155
000150 d1 2f bc 3e da de c8 be 7a a8 53 bd eb c7 e0 be
       0.3675523 -0.39232522 -0.051674344 -0.43902525
000160 4d a2 02 3f a1 b8 fd 3d 5c 5c dd be 88 dc b2 3d
       0.510289 0.12388731 -0.43234527 0.08733469
000170 2d 58 ca 3e c5 60 3b 3c aa a4 f5 3e 9c 8a 2f bd
       0.39520398 0.011436646 0.4797719 -0.042856798
000180 e8 70 aa be 5b c9 c8 be cd 15 da 3e 89 48 95 3e
       -0.33289266 -0.39216122 0.42594758 0.29156902

hidden.weight f4 [100, 100]
000000 54 ad 20 bd 9d 78 0e bd d7 a3 14 3b 86 85 1f bd
       -0.0392278 -0.034782995 0.0022680664 -0.038945697
000010 5c 06 6a bd 83 2b 35 bc 23 73 74 3d 83 cd 9f bd
       -0.05713497 -0.011057737 0.059680115 -0.0780287
000020 0d a0 dc bd c2 19 a2 3d a0 b7 da bc 15 b0 9a bd
       -0.10772715 0.07915069 -0.026698887 -0.07553116
000030 be 45 7c 3d 91 37 df bc 4c 00 5a bd 26 de da 3c
       0.06158995 -0.027248176 -0.05322294 0.026717257
000040 87 53 de bc 02 30 d4 3d 9d 19 57 3c 0d f4 a3 bc
       -0.027139438 0.10360719 0.013128665 -0.020013833
000050 c9 7e b2 3d ff 85 b8 3c c4 e7 53 bd f4 a7 b2 3a
       0.087155886 0.022524832 -0.0517347 0.0013630376
000060 22 ab 15 3d 8a ec 11 be bc 1c 76 bd 7b 81 9e 3d
       0.036540158 -0.14250389 -0.060085997 0.0773954
000070 c7 3b 07 bd 55 eb 9c bd 0d a2 6a 3d 0f f0 1e bd
       -0.033015992 -0.076620735 0.05728345 -0.038803156
000080 07 41 9f 3d b8 3c 87 3c b7 2e c4 bc af 03 0b 3e
       0.07776075 0.016508445 -0.023948057 0.13575624
000090 14 31 ed 3d 70 8f f3 bb df 85 20 bb 3d f2 d2 3d
       0.115816265 -0.0074328706 -0.0024493856 0.103001095
0000a0 d0 a4 5e 3d 35 7c 49 bb 5e ae 72 3c d9 ad 98 3d
       0.054356396 -0.00307442 0.01481208 0.07455034
0000b0 28 ee f1 3c 0d c9 4c bd 80 ec d1 3d e0 a9 1e 3d
       0.029532507 -0.049996424 0.10250187 0.038736224
0000c0 91 d3 83 3d d6 53 1d 3d eb 74 aa bd 23 a5 9d 3d
       0.064368375 0.03841003 -0.083230816 0.07697513
0000d0 00 91 90 3d f6 86 4f 3d 63 c1 32 3d 78 4f bc 3d
       0.070589066 0.05066582 0.04364146 0.09194845
0000e0 3c b1 cc 3d 55 93 43 3d 1b f9 00 3d dd 68 ca 3d
       0.09994742 0.04774793 0.031487565 0.09883282
0000f0 02 6b f3 3d 5b 1b c7 bc fa 79 eb 3d 69 c8 cb 3d
       0.118856445 -0.024305036 0.114978746 0.099503346
000100 ff 81 b1 bd 00 3b 7f 3d d2 1f 89 bd 9c 36 4e 3b
       -0.08667373 0.062312126 -0.06695522 0.0031465655
000110 22 20 8e bd 37 e4 4f 3d a6 aa 10 3e a3 5c 51 3d
       -0.069397226 0.050754752 0.14127597 0.051113736
000120 a9 27 6a 3d 87 ef 27 bd 45 58 78 bc 64 65 3a 3d
       0.05716673 -0.040999915 -0.015157764 0.04550685
000130 bb 66 42 bd 2f 8f 6e 3d db 93 b7 bc 1d ee a7 bd
       -0.047461253 0.05824202 -0.02240937 -0.081997134
000140 52 6a 17 bd 32 b0 87 3d a0 dd a5 bc 0d 45 86 bd
       -0.03696663 0.066254035 -0.02024728 -0.06556139
000150 4e 48 d9 3d e3 9a 27 3d d9 9c 2d 3d 97 16 2a 3c
       0.10609494 0.040919196 0.04238591 0.010381362
000160 06 57 94 3d 9a d0 a6 bd 67 34 ea 3c 9e a2 f8 bc
       0.07243161 -0.08145256 0.02858944 -0.03035098
000170 0e 72 89 3d 8b 23 fa bc 9b 33 8d 3b 04 6c c3 bc
       0.06711207 -0.030534526 0.0043091304 -0.023855217
000180 03 4d cf bc 46 f2 8b bd 42 7c 37 bc 2d 35 92 bc
       -0.025305277 -0.06833319 -0.011199059 -0.017847622
000190 64 49 12 3e e3 17 cf bd 58 47 1d 3d a4 db 91 3c
       0.14285809 -0.10111978 0.038398117 0.017804928
0001a0 98 cb 8a 3d 51 05 a7 bc f5 c1 8d bc c4 19 6d bd
       0.06777114 -0.020388277 -0.0173044 -0.0578859
0001b0 ff 92 d4 bd 8c 3e c5 3c f8 cb 45 bd d0 95 38 bd
       -0.103796 0.024077676 -0.048290223 -0.045064747
0001c0 65 a9 12 3c fb 44 cc 3c 67 7c 09 3d a5 19 c0 3d
       0.00895152 0.024935236 0.033565905 0.09379891
0001d0 2c 77 63 3d 3f f6 20 3e 5f 91 98 3d 8a 24 c6 bc
       0.055533573 0.15718935 0.07449602 -0.024187345
0001e0 2d c7 99 3d a8 de 8f bd 05 75 30 bd 0e 69 af bd
       0.07508693 -0.0702489 -0.04308035 -0.085649595
0001f0 d0 8f 27 bc a6 0c 1c be b6 ef 94 3d 39 a6 d4 3d
       -0.010227159 -0.152392 0.07272284 0.10383267
000200 de 7f bd 3c a6 ed af 3b cb e7 9e 3c ea 54 33 3d
       0.02313226 0.005368906 0.019397637 0.043782152
000210 16 c6 8e bc 43 ce fe 3c 20 83 0a bd d4 14 81 3c
       -0.01742844 0.031104213 -0.033816457 0.015757002
000220 be de 7a 3d 4e d7 65 bd 70 b7 4c 3d ec 04 b1 3b
       0.06124758 -0.056113534 0.049979627 0.005402198
000230 e6 b1 2a 3d 53 04 89 bc 6d 12 c6 bd d8 f8 b0 3d
       0.041673563 -0.016725695 -0.09671483 0.08641213
000240 28 ea d3 3c fb c9 91 3c 50 27 65 3d dd 59 a6 bd
       0.02586849 0.017796507 0.055945694 -0.08122609
000250 85 52 43 3c e9 66 47 bd ca 35 f2 bd 6e 78 3c 3d
       0.01192153 -0.048682127 -0.11826666 0.04601329
000260 e7 26 e0 bc dc 9a 3f 3d 33 59 19 3d f1 b4 42 bc
       -0.0273623 0.046778545 0.037438583 -0.01188396
000270 15 85 9c bc d7 32 72 bd 0f 6a 58 bd bc c9 5e 3d
       -0.019106427 -0.059130516 -0.05283552 0.054391608
000280 0a ac ef bc be 5b 61 3c c1 fc f6 3d 64 a4 09 3d
       -0.02925684 0.013754783 0.12059928 0.03360404
000290 0f f2 ba bd a0 fa 9c 3a 78 12 50 bd c1 33 47 3b
       -0.091282 0.0011976548 -0.050798863 0.0030395838
0002a0 30 2f c2 3d 5f a4 99 bd 22 bd 14 3d 11 ef 9d 3d
       0.094816566 -0.075020544 0.036313184 0.07711614
0002b0 4c 53 f4 3c 3d 21 4f bd 34 96 86 3d 14 26 f4 bc
       0.029824875 -0.050568808 0.06571618 -0.029803313
0002c0 ec 06 ec bc 4b b0 dc 3d 73 9b a8 bd 2b b2 9a 3d
       -0.028811894 0.10775813 -0.082327746 0.07553514
0002d0 72 4c 19 3d 27 e3 3c 3d 39 0b 30 3d bd 6d 1c be
       0.03742642 0.046115067 0.042979453 -0.15276237
0002e0 41 15 3d bd c6 39 e0 3d 40 cd 0a 3e 4c fd 75 3d
       -0.046162847 0.109485194 0.13554859 0.060056016
0002f0 a9 d0 bd 3d 31 f4 03 be 5b c9 5c bd 62 4e b1 bd
       0.092683144 -0.1288612 -0.053902965 -0.086575285
000300 6f e7 78 bd 96 21 20 bd e9 3b 14 3c 54 15 d2 3d
       -0.060767587 -0.03909453 0.009047487 0.10257974
000310 3b 92 a0 bc 39 99 cd bd 04 45 d9 3b ee 5d 9f bd
       -0.019600978 -0.100389905 0.0066305418 -0.077815875
000320 27 3e 4d 3d e5 a5 ca bc b8 1f e2 bb 11 e9 1a 3a
       0.0501081 -0.024737308 -0.006900754 0.00059093634
000330 7e 3c 79 bd 88 fb 6d 3d 0b 6a 2f bd c4 2e a7 3d
       -0.060848705 0.058101207 -0.04282574 0.08163217
000340 e9 29 bd bd 6f 55 19 3c d6 18 be bd 2b de 6c 3d
       -0.09236509 0.009358748 -0.09282081 0.057829063
000350 55 d9 82 bd 70 54 f4 b9 9b 31 ab bc 6a d4 da 3d
       -0.06389109 -0.00046602217 -0.020897677 0.10685046
000360 46 dd d3 3d ba 28 a6 3d 72 81 44 bd 6a e6 b4 3d
       0.10344939 0.08113237 -0.04797501 0.088330105
000370 cf 05 bc bd 8b 94 01 bd b8 18 b9 bb ad d7 5e bd
       -0.091807954 -0.031635802 -0.0056486987 -0.054404903
000380 09 67 bf 3c 22 cb bc bc d7 92 a6 3c 78 bf 5a bd
       0.02336456 -0.02304608 0.02033369 -0.053405255
000390 b7 58 09 3c 03 2c 91 bd 37 e0 a0 3d 6a 25 89 bd
       0.008382968 -0.07088473 0.078552656 -0.06696589
0003a0 6f b6 2b bc 55 49 7a 3d ac ef 53 3d 53 f2 56 3d
       -0.010480507 0.06110509 0.05174224 0.052477192
0003b0 39 34 cc 3d cd 1f 95 bc d5 12 a1 3d f6 49 b7 bd
       0.09970898 -0.01820364 0.0786492 -0.08949654
0003c0 3a 4c 98 bc 72 57 b5 bd ea 1c dc bc 95 de 85 bd
       -0.018591035 -0.088545695 -0.026869256 -0.06536595
0003d0 2d eb 79 bd fe b4 48 bd 99 8f 17 bd 2e d8 19 3d
       -0.061015297 -0.049000733 -0.03700218 0.03755968
0003e0 09 e1 d4 3d 72 51 97 bc c6 88 4e 3c ab cf 40 bc
       0.103944845 -0.018471453 0.0126058515 -0.011768262
0003f0 b4 47 5f bb 24 1b f0 3d f0 c6 8d bc df 79 6c bd
       -0.0034069838 0.11723927 -0.017306775 -0.057733413

hidden.bias f4 [100]
000000 ba f9 57 bd 6b f8 a0 3d e4 4e bb 3d 82 68 00 3d
       -0.052728392 0.07859882 0.091459066 0.031349666
000010 b0 03 9f 3d 6d 05 8f 3c b6 0b 95 3d bc 3f c4 3d
       0.07764375 0.017458642 0.07277624 0.09582469
000020 bb ee c4 3d 5f b5 1a bd d4 60 14 3d 27 07 39 3d
       0.09615847 -0.037770625 0.036225155 0.045172837
000030 51 c6 3d bd 58 72 9a 3d 7b 95 5f bd 13 b5 d2 3d
       -0.046331707 0.075413406 -0.054585915 0.102884434
000040 03 dc b3 3d 52 ee 34 3d e2 7c c3 3c 87 ff 57 bd
       0.08782198 0.044172592 0.02386326 -0.052733924
000050 00 d8 a4 bd e7 6f 7c 3c 1c a5 8e bd d2 11 50 3d
       -0.08049011 0.015407539 -0.06965086 0.050798245
000060 40 e8 8b bd bf 5e 2c 3d 81 e6 8b 3c e4 29 a8 bc
       -0.068314075 0.042082544 0.017077686 -0.020527788
000070 c0 76 fd bc 32 93 10 3d 69 f3 f3 3b 59 e0 77 bd
       -0.030940413 0.035296626 0.0074447882 -0.06051669
000080 01 18 90 bd 4b 54 8e 3c eb 9c 9c 3d 5a 81 80 bd
       -0.070358284 0.017374178 0.07647117 -0.06274672
000090 34 29 ab 3d 2c 58 a1 bc 94 3c ba 3d 21 43 2e bd
       0.08357468 -0.019695364 0.090935856 -0.042544488
0000a0 5f 1d 55 3d ff 41 4b bd a3 1f c0 ba b5 08 38 bd
       0.052029964 -0.049623486 -0.0014657866 -0.04493018
0000b0 73 b6 99 3d 88 7a 0a bc 23 35 8a 3d 35 d9 3e bd
       0.075055026 -0.008452065 0.06748416 -0.046593864
0000c0 ee 98 a3 3d 94 ac 09 bd a0 56 bc 3d 0b 11 c8 bc
       0.079881534 -0.03361185 0.0919621 -0.02442219
0000d0 c8 44 01 3d b2 19 3c bc 32 a6 8e bd a2 83 a5 3d
       0.031559736 -0.011480736 -0.06965293 0.080817476
0000e0 77 8c aa 3d 7e 95 b2 3d 33 46 92 3d 1f c2 a5 bd
       0.08327573 0.087199196 0.07142296 -0.08093666
0000f0 8c e8 99 bd 3d 5d 83 bd f2 7c 72 bc 5b 09 64 3d
       -0.07515058 -0.06414268 -0.014800297 0.055672985
000100 88 08 dd 3c 51 50 88 3d 94 20 16 bd 3e 52 37 bd
       0.026981607 0.06655944 -0.036652163 -0.044756167
000110 2f 97 fb 3c d5 80 cc 3b b4 58 af 3d 80 ef 07 3c
       0.030711738 0.006240944 0.08561841 0.008296847
000120 22 f0 1e 3d 5d ed c9 3b 71 13 e0 3b 80 97 a9 3d
       0.038803227 0.006162329 0.006838255 0.082808495
000130 b0 f6 b8 3c f6 be ad bd 6b b9 bf 3d 32 06 c9 3d
       0.022578567 -0.084836885 0.093615375 0.09815635
000140 43 f8 62 3d 5e 98 f0 3c ea c9 32 3d 90 35 a1 bd
       0.055412542 0.02936953 0.04364959 -0.07871544
000150 66 92 73 3d 70 90 a1 3d cb 9d b7 bd 2c 5f dc 3d
       0.05946579 0.078888774 -0.089656435 0.1076034
000160 6e 2f d1 3b 9f 6a 5a bd 81 1b bd 3d 75 ac 90 3d
       0.006383828 -0.053324338 0.092337616 0.070641436
000170 5b 01 27 3d 6e df bd bc 64 2d 48 3d 79 a1 2f 3c
       0.040772777 -0.023177829 0.048871413 0.01071965
000180 ba 10 1c 3c 9e 99 bb bd db 7d 68 bd 5b 4d 8e 3d
       0.009525472 -0.091601595 -0.05676065 0.06948348

output.weight f4 [1, 100]
000000 03 b6 55 3d c4 ac b1 3d 3d dd 32 3d 39 0e 07 be
       0.052175533 0.086755306 0.04366802 -0.1318902
000010 cb 18 96 3d 80 0d a9 3d e7 c9 50 3d e1 73 d8 bd
       0.07328948 0.08254528 0.0509738 -0.10568977
000020 b2 0b 46 be 2b e2 9e 3d 5f a2 89 bd 67 62 b7 3d
       -0.19340399 0.07757982 -0.06720423 0.08954316
000030 5b 41 00 be 8d ef d3 3d 0a 4c 8f 3d 5f 76 a6 3d
       -0.12524931 0.10348425 0.06996925 0.08128046
000040 26 63 ca bd d1 2e 0e 3e f6 53 55 bd 3f 21 8a bd
       -0.09882192 0.13885047 -0.052082025 -0.067446224
000050 55 99 10 be 05 d4 f6 bd 93 64 eb bd 5f 52 83 3d
       -0.14120992 -0.12052158 -0.114937924 0.064121954
000060 28 07 6d 3d 7e 10 6b 3d 0d 3e 2d bd 40 89 c3 bd
       0.057868153 0.057388775 -0.042295504 -0.09547663
000070 1e 67 e9 bd 8c 98 91 3d 76 d7 aa bd b5 72 08 3e
       -0.11396621 0.07109174 -0.08341877 0.13325007
000080 67 f1 39 bd f5 79 37 bd aa e4 6b 3d 55 bd b9 bd
       -0.045396235 -0.04479404 0.057591118 -0.09069315
000090 e4 d1 9a 3d ac 7a 07 be 28 0f 0f 3e 0b f1 b6 3d
       0.07559565 -0.1323039 0.13970625 0.08932694
0000a0 aa fd 5e bd c4 0c 0e be 79 50 a5 3d a6 f1 b4 3d
       -0.05444113 -0.13872057 0.080719896 0.08835153
0000b0 aa d0 7f bd 02 ab ac 3d f7 ba a9 bd 4a 90 f3 3d
       -0.062454857 0.08431055 -0.08287614 0.11892755
0000c0 92 77 3a 3d 2d c6 ef bd d5 aa 9d bd df a9 77 3d
       0.045524187 -0.11707721 -0.07698599 0.060464736
0000d0 90 40 08 be 7a cf b1 3d e0 20 b9 bd a7 13 dd bd
       -0.13305879 0.08682151 -0.090394735 -0.10794764
0000e0 4d 4c a7 3d 56 a9 b6 3d eb 19 a0 3d fc 44 00 be
       0.0816885 0.08919017 0.078174435 -0.12526315
0000f0 8e a7 ab bd 08 f4 28 be 49 fc 8b bd a7 f3 e4 bd
       -0.08381568 -0.1649934 -0.06835229 -0.111792855
000100 30 6c 7d 3d bf d1 bd 3d 7c 4e d3 3d 14 e7 17 bd
       0.061870754 0.092685215 0.10317704 -0.037085608
000110 20 e6 54 3d a4 6a 59 bd 4b c0 38 3d 75 8a 23 be
       0.051977277 -0.053080216 0.04510526 -0.15970786
000120 b0 63 b1 3d 42 6a 55 3d 85 0b 05 3e 03 54 e9 bd
       0.08661592 0.05210329 0.12992676 -0.11392977
000130 98 7d 1b be 8c 86 c7 3d 3e e3 b0 bd 0d 4a c1 bd
       -0.15184629 0.0974246 -0.08637093 -0.09437952
000140 e4 f3 a1 bd 0d 34 ed bd 70 1c de bd 6f 00 07 be
       -0.079078466 -0.115821935 -0.10845268 -0.13183759
000150 ee 06 a2 bd 16 e1 d1 bd 66 f0 ae 3d 69 57 9d bd
       -0.07911478 -0.1024801 0.08541946 -0.07682688
000160 f7 30 e7 3d 5a 36 00 3e 1b 35 6f bd c1 6d 1e 3e
       0.11288636 0.12520733 -0.058400255 0.15471555
000170 4c c2 1e 3e 9f 62 0f 3d 80 27 ea bd f7 cb d0 bd
       0.15503806 0.03500616 -0.11433315 -0.10195153
000180 a7 a3 a8 bd e2 73 b5 3d c6 8d b6 bd fc 88 85 bd
       -0.08234339 0.088599935 -0.0891376 -0.06520268
