data/model/hg_dagger_training_noisy_liberal/1/110.pth (torch, 44823 bytes, 5 tensors)

linear.weight f4 [100, 4]
000000 d1 22 c7 bc 11 4b 22 3c 76 a5 ab 3c 1f aa 5d bc
       -0.024308594 0.009905593 0.020952921 -0.01352933
000010 df c7 99 3b a7 62 0d bc 6d 4b a8 bc 2a 36 80 3c
       0.004693016 -0.008629478 -0.020543778 0.015650827
000020 1e 71 10 bf a5 6e 19 3f f0 79 0b 3f 91 0e 4c 3f
       -0.56422603 0.59934455 0.54482937 0.79709727
000030 f2 4e 28 be 8a 7e 96 bd 16 0b b9 bd 6d 66 c8 bd
       -0.16436365 -0.07348354 -0.090353176 -0.09785161
000040 d7 31 1f 3e 73 54 82 bc 86 50 83 3d 50 ff dd 3c
       0.15546356 -0.01590941 0.06411843 0.027099282
000050 d1 1f 90 bb 60 47 0a 3c c9 fe a6 3c 1b 02 7d bc
       -0.004398324 0.008439869 0.020385163 -0.0154423965
000060 60 5a 59 3e ed cf 0c 3e 69 23 08 3e c2 c3 d9 3d
       0.21225882 0.13751192 0.13294758 0.10633041
000070 2b 19 00 3f c2 49 49 be 8d 2e 8b 3e a7 9a fe 3d
       0.50038403 -0.19657043 0.27183953 0.12431841
000080 a1 f7 c4 3e ac ae 08 be af 3b 8d 3e e3 56 0f 3e
       0.38470176 -0.13347882 0.27584597 0.13997988
000090 9a 93 d7 3c ec b1 63 ba 85 07 98 bb 24 7d de 3c
       0.0263155 -0.0008685875 -0.0046395683 0.027159281
0000a0 c9 1b a3 be 2e a2 0e be c1 49 61 be f5 f1 63 be
       -0.31857136 -0.13929054 -0.22000791 -0.22260268
0000b0 96 08 b2 bd f4 fc 3c be 1c 17 95 be 2b 64 7c be
       -0.08693044 -0.18455869 -0.29119194 -0.24647586
0000c0 3d c3 02 bd 75 73 9e 3c 15 1c 28 3d 97 9c 86 3c
       -0.031924475 0.019342164 0.041042406 0.01643209
0000d0 09 22 ee bd db 64 75 bd 32 d7 7a bd 48 4c 7d bd
       -0.116275854 -0.059910636 -0.061240382 -0.061840326
0000e0 16 5c 84 3c 0b 5d c5 bb 40 69 5b bc ee 2b a1 3c
       0.016157191 -0.0060230545 -0.013391793 0.019674268
0000f0 0a 59 75 3e e1 81 03 3e a8 70 d2 3d 36 5e 84 3d
       0.23959747 0.12842514 0.10275394 0.06463282
000100 9b 33 3d 3d 6f fb fd ba 09 14 73 bb ed 2b d5 3c
       0.046191793 -0.0019377301 -0.00370908 0.026021922
000110 08 24 90 bb 01 3b 0a 3c 78 01 a7 3c c9 01 7d bc
       -0.0043988265 0.008436919 0.020386443 -0.01544232
000120 7f 63 90 bb 60 17 0a 3c 3f d2 a7 3c ad e9 7b bc
       -0.004406392 0.008428425 0.020485995 -0.015375537
000130 33 06 9e bb 91 4b 04 3c 31 18 a9 3c da 5b 7b bc
       -0.0048225163 0.008074657 0.020641418 -0.015341723
000140 43 4b 42 bd 69 cf bc bb 03 0b 0c ba 14 49 ec bc
       -0.047435056 -0.00576203 -0.0005342217 -0.02884344
000150 25 ea fa 3c 8a 52 d1 ba cf 42 d5 bb 6e ea cc 3c
       0.030629227 -0.0015970033 -0.0065082083 0.025014129
000160 3d be 38 be ac 23 bc bd 9b 3d eb bd 36 4d ed bd
       -0.1804132 -0.09186491 -0.1148636 -0.115869924
000170 63 2c 9c 3e 66 61 ab bd 93 40 c2 3d 7b 36 e6 3b
       0.30502614 -0.08368187 0.09484973 0.0070255375
000180 be 1c fb 3e 80 49 06 bf 2b ef c8 3e ac ec 1e 3e
       0.49045366 -0.524559 0.3924497 0.1551997
000190 d3 54 b5 be 57 46 6d be 51 b0 b0 be cc b1 ab be
       -0.35416278 -0.23171364 -0.3450952 -0.33534086
0001a0 fd c4 26 3e 17 2e 0b bb 7d 67 5d 3c 85 98 e1 3c
       0.16286083 -0.0021237188 0.013513443 0.027538547
0001b0 8f ce a7 3e ac 17 f0 bd 74 69 7c be 3a 68 1e be
       0.3277478 -0.11723265 -0.24649602 -0.15469447
0001c0 15 57 d1 be 97 c0 00 3f fd 53 da 3e a6 0f 0e 3f
       -0.4088675 0.5029387 0.42642203 0.5549263
0001d0 02 26 87 3e d1 6b 2c bd da c4 9b 3e ba 8a 99 3e
       0.26396185 -0.04209501 0.30423623 0.29988652
0001e0 9e bd 9f be 60 8f 21 3e 83 13 0c 3e a4 94 4a 3e
       -0.31199354 0.1577735 0.13679318 0.19783264
0001f0 66 c6 85 3c cf ca cf bb ea a6 7d bc bd c7 97 3c
       0.016329955 -0.0063413153 -0.01548169 0.01852786
000200 38 16 64 3e a5 0d 2c 3c 3b c7 86 3d f5 0c 5b 3c
       0.22274101 0.0105013 0.06580969 0.013369788
000210 a2 07 ff 3d 7a 5e 9c bd 93 ff 2d be 3b 4d 16 be
       0.12452628 -0.076352075 -0.16992025 -0.14677899
000220 e7 29 9d 3b 8a 0e 0c bc c0 27 a8 bc 41 ea 80 3c
       0.004796255 -0.008548388 -0.020526767 0.015736701
000230 16 ad 81 bd da 21 a8 bc f9 97 35 bd 9f ed a6 bc
       -0.06331842 -0.020523954 -0.044334386 -0.020376978
000240 94 3f e4 3d 5d 7a 24 bd e3 4b 0b 3d fc b5 8d 3d
       0.11144939 -0.040155757 0.034007918 0.069194764
000250 86 7d 95 3d 08 f2 9c bd 2c 33 f6 3d 2b 35 10 3e
       0.07299332 -0.07663351 0.12021479 0.14082782
000260 de 32 20 be 2d 76 70 3e 3f fe 91 3e 7a e6 bd 3e
       -0.15644404 0.2348258 0.28514287 0.37089902
000270 f2 88 3a 3c 2d 4e d6 bb 4f e6 89 bc b7 cd 99 3c
       0.011385189 -0.006540081 -0.016833453 0.01877485
000280 01 32 ae bd 2a 13 cd bb 15 40 e6 3a 98 e9 99 bc
       -0.08505631 -0.006258388 0.0017566705 -0.018788144
000290 d9 d9 9a 3b ba c8 0b bc cf eb a8 bc 2f 0b 80 3c
       0.0047256765 -0.008531744 -0.020620255 0.015630333
0002a0 48 5f b6 3e 06 8d 3e bb 05 13 45 3e ae fb ed 3d
       0.3561957 -0.0029075756 0.19245537 0.1162027
0002b0 13 2b 37 3e 79 4c 0a bb 1c e4 dd 3c 31 bf 8f bc
       0.17887525 -0.002110271 0.02708631 -0.017547222
0002c0 c6 72 79 ba 6c ba 56 3b 7e fb 05 3c 06 cd 81 3c
       -0.0009515699 0.0032764925 0.008177636 0.015844833
0002d0 ea 17 e5 3c eb 31 9a bb 9d 5f e9 bb 9d b6 b8 3c
       0.027965505 -0.0047056577 -0.0071219937 0.022548014
0002e0 b9 85 40 bd 59 be 95 3b 46 b4 77 3c 28 f9 7d bc
       -0.047002528 0.0045698103 0.015118664 -0.015501298
0002f0 5e 0f ec bb 37 83 e5 3b ce c4 99 3c fc 22 8a bc
       -0.0072039803 0.0070041674 0.018770602 -0.016862385
000300 3a 06 05 be 75 d6 9f 3c a3 16 81 3d 0d 4f a3 3d
       -0.12990656 0.01951144 0.06303146 0.07974062
000310 1d ae f3 bb 24 ae f0 3b db 10 a2 3c 33 40 81 bc
       -0.0074365274 0.007344978 0.019783428 -0.015777683
000320 73 b5 99 3b 02 71 0d bc c5 f9 a7 bc d0 7d 80 3c
       0.00469082 -0.0086329 -0.020504842 0.015684992
000330 bc 79 77 3e e2 07 ed 3d 1e 42 17 3e 70 80 ba 3d
       0.24167532 0.11573769 0.14771315 0.09106529
000340 fd bb 8a 3e c0 84 42 bd a5 df b3 3e 24 28 b5 3e
       0.2709655 -0.04748988 0.35131565 0.35382187
000350 cd b9 85 3e 05 bd 22 3d 9a 51 85 3d 51 c1 64 3c
       0.26118317 0.039731044 0.06509705 0.013962106
000360 d7 34 1f bb 77 f3 4f be 31 bd 9f be c8 8a 8e be
       -0.002429297 -0.20307718 -0.3119903 -0.27840257
000370 01 2a 1e 3e 7f 75 46 ba 01 2b 4b 3d 43 f8 f9 3b
       0.1544571 -0.0007570609 0.04960156 0.007628472
000380 00 14 a1 3e fc 65 7b bd 7c 1a b1 3d 28 9d a4 3b
       0.3146057 -0.061376557 0.086476296 0.0050236173
000390 ab 73 c8 bd 3b 90 06 bc 67 ca 6e bc 9f 7f 1d bd
       -0.09787687 -0.008213098 -0.014574624 -0.038451787
0003a0 44 58 6c be a4 03 ae bd ce 09 a1 bd a3 24 b4 bd
       -0.23080546 -0.08496788 -0.07863198 -0.087960504
0003b0 24 2c 94 3c 36 d2 bc bb ff a1 76 bc c4 d9 9d 3c
       0.018087454 -0.005762364 -0.015053271 0.019268878
0003c0 84 db af 3c d4 6c 00 bc 60 b4 80 bc 05 19 9b 3c
       0.021466978 -0.007838447 -0.01571101 0.018932829
0003d0 1c a1 d2 be c8 6e 11 3f 1d 5b a0 3e 4d a0 b5 3e
       -0.41138542 0.56809664 0.31319514 0.35473862
0003e0 46 79 5a 3e a2 5b b0 bd fe d0 eb 3d 06 c6 f5 3d
       0.21335325 -0.086112276 0.115144715 0.120006606
0003f0 cb 4f 4f 3d b9 d1 19 bc 99 3d 80 bc 38 de 8e 3c
       0.050613206 -0.009388381 -0.015654372 0.017439947

linear.bias f4 [100]
000000 d8 ba 60 bb 86 d1 fe bb 8b 6e bd bb d4 8c 21 3e
       -0.0034291055 -0.007776442 -0.005781 0.15776378
000010 d0 84 02 3e 53 0f 06 3c 4c 6f 00 3e 07 04 76 3c
       0.12745976 0.0081823645 0.12542456 0.015015609
000020 da 5a fd 3d 54 13 10 bd 1a 11 d2 3e 52 f1 e8 3e
       0.12370844 -0.035174683 0.41028672 0.45496613
000030 21 d0 1e be f3 0e f7 3c 5a 2e 2c bd 32 ea f3 3d
       -0.15509082 0.030158496 -0.04203639 0.119099036
000040 72 c5 a3 bd 02 23 06 3c 1f 28 06 3c 7d b1 0f 3c
       -0.07996644 0.008187057 0.008188277 0.008770344
000050 7c 2a 71 3d f1 fe 1e bd 51 33 6d 3e dc 31 42 be
       0.058878407 -0.03881735 0.23164107 -0.18964332
000060 e6 62 b8 bd 29 c6 f6 3e 85 49 17 be 79 50 fa 3e
       -0.090032384 0.4819806 -0.14774139 0.4888952
000070 91 66 27 3e 6b d3 d3 3c b7 5b 99 3e 8c 64 06 bd
       0.1634772 0.025857648 0.29952785 -0.032810733
000080 b2 fd a5 3d 7c 61 8b 3e 04 4e 01 bc 1e 25 82 3e
       0.08105029 0.27222812 -0.0078921355 0.25418943
000090 2a 91 5d be ba bd d5 3d 47 32 28 3e 55 a0 7b bc
       -0.21637407 0.10436578 0.1642543 -0.01535805
0000a0 2c c3 dd 3d 8e 12 02 bc 7b 49 74 3e f9 ee bb bb
       0.10828242 -0.007938994 0.23856156 -0.005735275
0000b0 ac 5e a4 bd 8b 87 92 bd 5e 6f 0c 3d 04 c7 3c 3c
       -0.0802587 -0.07154759 0.034285896 0.011522058
0000c0 24 81 94 3e ec 37 43 3c 92 0b ff bb 73 b0 56 3e
       0.29004776 0.011915188 -0.0077833617 0.20965748
0000d0 04 7f 97 bc b2 4f 53 be f7 80 d3 3e 20 73 24 3d
       -0.018493183 -0.2063587 0.4130933 0.040148854
0000e0 e5 01 83 be 5f 00 ea 3d 1a 98 a9 3d a3 50 bc bc
       -0.25587383 0.11425852 0.08280964 -0.02298767
0000f0 d4 59 93 bc 53 2a 00 3d d8 6c 24 be 27 f0 ad bc
       -0.01798717 0.031290364 -0.16057146 -0.021232678
000100 47 9b bb 3e 51 d2 37 be 7a 35 81 3d 6d 73 00 bc
       0.36641905 -0.17951323 0.06309028 -0.00784002
000110 75 9f 91 3e 59 73 b2 3e 97 55 a5 bd 1f 9c e5 bd
       0.2844197 0.34853628 -0.080729656 -0.11211418
000120 31 e3 82 3d bc 96 02 be f4 22 7b bc f1 36 51 bc
       0.063909896 -0.12752813 -0.015328158 -0.012769447
000130 13 f4 ba 3e 89 ae fe bb 87 35 f6 bc 72 0f 85 bc
       0.3651434 -0.007772271 -0.03005482 -0.016242716
000140 bc 0d 1b 3d 8f 56 02 3d 9d 92 eb bb 79 57 84 bd
       0.037854895 0.03182083 -0.0071891085 -0.064619966
000150 33 3d 39 be 00 d8 6e 3d 68 b6 ca bd b8 1c e4 3e
       -0.18089752 0.058311462 -0.098980725 0.4455316
000160 4b 15 0b be 0f 32 91 3e b6 30 77 3e 3a 7a 8c 3e
       -0.13582341 0.28358504 0.24139675 0.27437
000170 3c e6 10 bc db 74 ba 3e 2c 45 3e be f6 77 31 3e
       -0.008843955 0.3641728 -0.18581074 0.17330918
000180 b7 f8 2a bd 9e 16 06 3c 32 6b c6 bc 6b 76 91 3e
       -0.0417411 0.008184103 -0.024221037 0.28410658

hidden.weight f4 [100, 100]
000000 74 eb 0b bb 7b 9d a9 3c 33 25 0e be 27 e5 c2 3c
       -0.0021350058 0.020704975 -0.13881378 0.023790909
000010 19 ef 8c bc 30 56 ab bc 72 89 35 bd 6a 6d 87 bd
       -0.017203854 -0.02091512 -0.04432053 -0.06612666
000020 c5 58 2e bd 20 20 48 3c de 4a 99 3d e9 92 9a 3d
       -0.042565126 0.01221469 0.07484983 0.07547552
000030 54 2e 29 bc b8 19 62 3c c8 3a 8f 3c ee 29 2c bc
       -0.010325987 0.013800077 0.017484084 -0.010508044
000040 c7 6e 37 3c 0f 55 ab bc ce 9e aa bc c4 3a a3 bc
       0.011195845 -0.020914583 -0.020827677 -0.019925483
000050 ad 4d b5 bb ed 75 2d 3c cd f3 04 3d f3 1d 11 bd
       -0.0055329413 0.010587198 0.03245907 -0.035428952
000060 4d 4f c5 bd 6f ed dc 3d a4 c6 29 bc 71 2e b3 3d
       -0.09634266 0.10787474 -0.010362301 0.08749092
000070 91 54 ac bd 02 f5 85 bd ba 3a ac bb f3 fa a1 3c
       -0.08414567 -0.06540872 -0.005256024 0.019772982
000080 6e 07 05 bd bd a5 02 3d 01 7f a8 3c 90 56 e1 3c
       -0.03247779 0.03189634 0.020568373 0.027507097
000090 f7 54 d3 3b 73 ea 00 bc ff fc 44 bd eb 39 8d 3c
       0.0064493376 -0.007868397 -0.04809284 0.017239532
0000a0 f9 3d 81 b8 b3 a9 a8 3c d2 f7 1d 3c c8 8a 1e ba
       -6.162743e-05 0.020588731 0.0096416045 -0.00060479017
0000b0 45 9e 0b bb d8 a8 48 3c 6d c3 2f bb 9d a7 9d bc
       -0.0021304053 0.012247287 -0.0026819364 -0.019244963
0000c0 5b 84 bd 3b 8a 1b 99 bc 69 10 aa 3c a4 12 07 bc
       0.0057836003 -0.01868989 0.020759778 -0.00824419
0000d0 d5 de 92 bd b3 34 dc bc 02 11 b0 3d 76 32 96 3b
       -0.07171408 -0.026880598 0.08596994 0.004583652
0000e0 57 84 f1 bc d7 1b 0a 3b a8 df ed 3c 29 9d 69 3c
       -0.02948205 0.0021073723 0.029037312 0.014258661
0000f0 a0 2c 25 3c 61 80 a8 bd 86 9a cb bc 59 c3 85 3b
       0.01008144 -0.08227611 -0.024853956 0.004082125
000100 b1 14 44 3d 0c 38 66 bd a3 07 60 ba 42 13 a9 3c
       0.047871295 -0.056205794 -0.000854606 0.020639066
000110 52 8a a5 bc bc 76 72 3d 70 34 05 bd 50 6c f2 bc
       -0.020207558 0.059195265 -0.03252071 -0.029592663
000120 ce bc 58 3c aa d6 98 bd 87 8a 8f 3c c8 d0 44 bc
       0.013228608 -0.07462819 0.01752211 -0.012012668
000130 52 5b 49 bc 92 c4 a9 3c 8c c7 70 3c 20 55 10 3b
       -0.012289839 0.020723615 0.014696013 0.0022023395
000140 d6 de bc bb 7c f0 0e bc 68 2f bf 3c 60 74 bc 3b
       -0.005763869 -0.008724328 0.023338035 0.0057511777
000150 ad 1d d6 bb 2e e9 3e bd d4 8c bb ba c2 03 a6 bd
       -0.0065342993 -0.046609096 -0.0014308938 -0.081061855
000160 31 4e 93 bb 02 b6 95 bd 5c c4 c3 bb c6 38 5d bd
       -0.004495405 -0.07310106 -0.0059743356 -0.05400922
000170 66 59 73 bb 3e 5d 46 3d c8 b8 0e bc c1 7f e2 3b
       -0.0037132143 0.048428766 -0.0087110475 0.006912202
000180 b9 b8 43 bb c0 46 ab bc e0 67 91 3c d0 cb 34 3d
       -0.0029864742 -0.02090776 0.017749727 0.044139683
000190 4e 0f 35 bb 63 c7 aa 3c 6e aa 87 bd 96 17 bb 3a
       -0.002762753 0.020847028 -0.06624304 0.0014273997
0001a0 54 5a ea bb 23 54 ac bc 5d 93 31 bc 59 91 c6 bc
       -0.0071518812 -0.021036213 -0.010838357 -0.024239229
0001b0 34 2e 0c bd 05 71 75 3c ef 0d 8d 3c de b6 da 3c
       -0.03422375 0.014980559 0.017218558 0.026698526
0001c0 e4 d7 9f 3a 56 20 03 3b 12 25 b1 3c b5 76 40 bb
       0.0012195078 0.0020008287 0.021624122 -0.002936763
0001d0 ad 52 93 3c 22 51 ac bc 89 9b ab bc e3 ff a5 bc
       0.017983759 -0.02103478 -0.020948188 -0.020263618
0001e0 3c e4 2b bc c8 7d 5e 3c 6d d0 4c 3b f0 09 b1 bb
       -0.010491427 0.013579793 0.003125216 -0.005402796
0001f0 1b ab 41 bd c7 65 01 3d b8 2e 84 3b f9 d9 2e 3b
       -0.04728232 0.031591203 0.0040338896 0.0026680215
000200 dc ed 3c bd 37 61 aa bc 00 6d 80 bc 29 19 c2 3c
       -0.046125278 -0.020798309 -0.015676975 0.023693638
000210 2f eb 11 bb f5 b1 94 3c f9 c0 a9 3c 0f 1e b2 ba
       -0.0022265424 0.018151263 0.0207219 -0.001358928
000220 a9 f2 c8 3c e2 b7 8a bb b9 fb ea bc 3c 82 94 3c
       0.024529772 -0.0042333463 -0.028684484 0.018128507
000230 10 c0 0e bc 92 d1 a9 3c 40 f6 04 bd d2 96 74 bb
       -0.008712783 0.020729814 -0.032461405 -0.0037321341
000240 18 d3 95 3b 0c ff 97 3c fb ff f1 bb 63 f0 a0 bc
       0.0045722835 0.018554233 -0.0073852516 -0.019645875
000250 88 d4 2f bc 4d 9b 9f bc ce 3f ab 3c fe 36 0c bc
       -0.010731824 -0.019483233 0.020904448 -0.008558033
000260 92 d4 c5 bc dd e0 62 bb 1c 15 ea 3c 9f fc 94 ba
       -0.024149213 -0.0034618892 0.028574519 -0.0011366791
000270 de 44 6b bb 2d ab 08 bc 74 4b c0 3b ac 67 83 3c
       -0.0035899202 -0.008341593 0.0058683697 0.016040646
000280 b7 2a 40 3c 5e b8 1e bd 34 c0 fb 39 61 07 bd 3b
       0.011728934 -0.038750045 0.00048017653 0.005768702
000290 dd 58 23 3b 87 fd db bc 88 95 a0 ba a9 55 aa 3c
       0.0024924793 -0.02685429 -0.0012251595 0.0207928
0002a0 40 bd 93 bc 71 81 44 3c d8 4f 16 bc 7a 17 36 bc
       -0.018034577 0.011993752 -0.00917431 -0.011113996
0002b0 66 0d 77 39 08 20 d9 bc 88 0c 99 3c 9f e7 fc ba
       0.00023560747 -0.026504532 0.018682733 -0.0019295103
0002c0 69 dd 19 3d a7 0a ab 3c c9 cf 8d 3c bc a0 94 3b
       0.03756467 0.020879103 0.017310994 0.0045357626
0002d0 b7 40 0f bc 3d 72 3f bc da 14 a5 3b b5 c6 31 3c
       -0.008743457 -0.011684951 0.005037886 0.010850598
0002e0 96 c8 f1 3b b4 52 c7 bc 42 0d f7 3b 97 9f 73 bd
       0.007378648 -0.024331428 0.0075394223 -0.05947837
0002f0 11 a8 e0 3b d1 24 04 bd 8a 59 e8 bb f5 a7 1c bd
       0.0068559726 -0.032261673 -0.007090752 -0.038246114
000300 18 39 f4 ba d7 bb 91 3c 79 0c bc 3b 3c af 4e bc
       -0.0018632738 0.017789764 0.0057387915 -0.012615021
000310 4f 31 8d 3a d4 40 ac bc f4 bb 9b 3c b2 38 0f 3c
       0.0010772141 -0.021027006 0.019010521 0.008741545
000320 31 11 57 bb c2 83 aa 3c d7 4d fe bd c0 36 a7 3c
       -0.0032816643 0.02081478 -0.124171905 0.020411849
000330 5e 09 9e bc 0c 41 ac bc 10 f6 21 bd 44 9f 40 bd
       -0.019291576 -0.02102711 -0.039541304 -0.047026888
000340 7d 8c 7d bd bc c2 52 3c da 68 85 3d 3a e6 ac 3d
       -0.06190156 0.012863811 0.065141395 0.0844235
000350 b6 0f 0c bc d5 ab 4c 3c e3 cc 91 3c cb 7d 5b bc
       -0.008548668 0.01249214 0.017797893 -0.013396691
000360 5a bd 4b 3c 40 3f ac bc 1e 8a ab bc 90 79 a7 bc
       0.012435282 -0.021026254 -0.020939883 -0.020443708
000370 cb 46 d9 bb f0 7f 39 3c f8 02 e5 3c 36 d0 eb bc
       -0.0066307536 0.011322007 0.027955517 -0.028785806
000380 78 c1 b8 bd 9b 10 cb 3d cb 5b 03 bc 2a 25 c7 3b
       -0.09021276 0.099152766 -0.008017491 0.0060774283
000390 e3 49 9f bd 53 46 4d bd 75 23 60 bc 8a e3 ac 3c
       -0.07777765 -0.050115895 -0.013680329 0.021104593
0003a0 48 0e d3 bc 60 c2 fd 3c 31 6c a9 3c 86 b1 2d 3c
       -0.025763646 0.030976474 0.020681472 0.010601407
0003b0 08 41 0a 3c 61 01 4a bc 02 b4 3e bd 54 ac 8f 3c
       0.008438356 -0.01232943 -0.046558388 0.017538227
0003c0 20 57 e5 ba a4 70 a9 3c fb 2a 81 bc 5d 75 c8 bc
       -0.0017497279 0.020683594 -0.015767565 -0.024470026
0003d0 96 57 56 ba d8 77 55 3c 61 6b 6b bb 67 32 9f bc
       -0.00081765035 0.013029061 -0.0035922157 -0.019433213
0003e0 2e ea be 3b dd a7 9b bc 4b f7 aa 3c 27 ba d8 3b
       0.0058262562 -0.019000942 0.020869872 0.006613988
0003f0 e9 10 50 bd 85 32 bd bc 61 65 ac 3d 67 c8 f9 bb
       -0.050797377 -0.023095379 0.08417774 -0.007622767

hidden.bias f4 [100]
000000 6f 95 01 3d 61 f8 77 3d 98 bd 4c 3c 3e 66 9a bc
       0.03163665 0.060539607 0.012496375 -0.018847581
000010 03 ce f2 3c 48 d3 01 3c 05 19 b0 ba ca eb 0f 3d
       0.02963925 0.0079239085 -0.0013435191 0.035136975
000020 3d ea 4c 3d 9f cf e8 3a 24 fe 32 3d 47 90 14 3d
       0.050028075 0.0017762071 0.0436994 0.036270406
000030 be ee 2e 3d 2d ae b5 bb 78 f1 13 3c e1 c4 2b 3d
       0.04270815 -0.005544445 0.009029739 0.041935805
000040 6f 4b 60 3c cc ae 8d 3d 5e 17 a0 bc 7c 4e fe 3b
       0.01368986 0.069181055 -0.019542392 0.007760821
000050 f3 07 33 3d df d5 43 3c 76 b0 00 bc 16 a1 0b 3b
       0.043708753 0.011952846 -0.007854572 0.0021305731
000060 e5 a3 7a 3d 2b 7f 6a 3d 1b af 27 3d 9e a2 34 3d
       0.06119146 0.057250183 0.040938478 0.044100396
000070 85 01 2b 3d 02 d8 06 3d 8b 10 8b bb c4 ec 81 3d
       0.041749496 0.032920845 -0.0042439154 0.063439876
000080 db 09 e9 3b 09 af 8a 3c 26 f9 1a 3d 5c cb 4e 3d
       0.0071117706 0.016929166 0.037835263 0.050486907
000090 01 ff 17 3d 1f aa 13 3e 6a 68 89 3d d2 7e 01 3d
       0.037108425 0.14420365 0.067093685 0.031615086
0000a0 27 a6 c0 bb 66 d8 27 3c 91 10 9a 3c f2 02 64 3d
       -0.005879182 0.0102444645 0.018806728 0.05566687
0000b0 9c d0 97 3d 44 f4 8d 3d 97 12 51 3d 43 7f fe 3c
       0.07412836 0.069313556 0.05104312 0.031066542
0000c0 61 ea a5 3d 84 4f 87 3d 75 a0 8b 3d 7e 19 8f 3d
       0.08101345 0.06606963 0.06817714 0.06987284
0000d0 92 30 ba 3c b4 59 d3 3c 8d fd fe 3c e8 21 13 3d
       0.022728238 0.02579961 0.031126762 0.035921007
0000e0 0b 11 91 3d de cb 68 3c 69 55 4a 3d b2 ed 87 3c
       0.07083329 0.014208762 0.04939786 0.016592834
0000f0 ac d4 5f 3d 45 26 9d 3d 96 97 27 bc dc da eb 3c
       0.05464618 0.07673315 -0.010229012 0.028790884
000100 4a 0e a2 3c 00 1b 56 bb 11 ab 2b 3c f1 9b b9 3d
       0.019782204 -0.0032669902 0.010477797 0.090629466
000110 58 5b f3 3c 72 93 1d bb 8a de bc 3b c5 29 c5 3d
       0.029706642 -0.0024044183 0.0057638334 0.096271075
000120 69 d6 98 3b fe 4e 8c 3d 3a 1a 08 3c 3f a1 9e 3d
       0.0046642316 0.06851004 0.008307034 0.07745599
000130 ac d9 b7 bb e9 8d 44 3d 99 20 7e 3d 18 68 ff 3c
       -0.0056106653 0.0479869 0.062042806 0.031177565
000140 96 1a 07 3d c1 b5 24 3c f4 93 83 3c 60 30 57 3d
       0.03298434 0.010053099 0.01606176 0.05253637
000150 2a 28 b2 3c dd 3b 8f bc 48 c4 e2 3d f3 ee 28 3d
       0.021747667 -0.0174846 0.11072594 0.041243505
000160 ce 3f b7 3d 8c cf 54 3d 00 ac 01 3c b9 ca 9f 3d
       0.08947717 0.051955745 0.007914543 0.07802338
000170 bb 75 8a bc dd e9 cd 3c b6 30 b0 3d 2f 93 2f 3d
       -0.016901841 0.025135929 0.08603041 0.042864975
000180 96 23 16 bc 53 52 cc 3c 7e bf bb bb 50 05 75 3b
       -0.009163758 0.024941599 -0.0057296148 0.00373872

output.weight f4 [1, 100]
000000 b8 61 a3 be 88 09 03 be 14 4f 98 be ce 2d 6d 3e
       -0.3191049 -0.12796605 -0.29747832 0.23162004
000010 64 d0 65 3e 9e 89 93 3c af de 6b be c4 76 81 be
       0.22442776 0.018009957 -0.23034166 -0.25285923
000020 44 b2 63 be cd e1 12 be 72 72 8a be 4c 6f 35 3e
       -0.22235972 -0.14343949 -0.2704044 0.17718238
000030 4b 88 aa 3e 37 c7 8f bd 5c c9 87 bd a9 56 2d be
       0.33307108 -0.07020419 -0.06630203 -0.1692759
000040 f3 10 77 be a2 55 20 be 87 0d 31 be 6c 09 db bd
       -0.2412756 -0.15657666 -0.17290317 -0.106951565
000050 a4 40 15 be ef 64 10 3d 5f 40 a5 3e b7 7a 30 3e
       -0.1457544 0.035252508 0.32275674 0.17234312
000060 95 5f 91 3e fc 6b ae 3e 2f 73 85 3e 6e f7 75 3e
       0.28393236 0.3406676 0.2606444 0.24020168
000070 0a 19 18 be 47 56 85 bd 28 73 f4 bd a8 e3 2c 3e
       -0.14853302 -0.06510597 -0.11936027 0.16883719
000080 f4 84 93 3c d5 fe 29 be 2d b5 23 3e e9 62 3d 3e
       0.018007733 -0.16601117 0.15987082 0.18494762
000090 16 ff 6e 3e 19 34 c8 be 0b b7 9c 3e 5a 26 b2 3e
       0.23339495 -0.39102247 0.306084 0.34794885
0000a0 da 0b 8f 3e ed b5 8c be 91 b0 7a be d2 61 5a be
       0.2793873 -0.27482548 -0.24481417 -0.21326378
0000b0 04 32 99 be 8d 25 56 3e 3a 01 e1 3d d3 ba 9b be
       -0.2992097 0.20912762 0.10986562 -0.30415973
0000c0 18 95 9a 3e 86 53 6a 3e b2 a0 a4 3e 91 38 62 be
       0.30191875 0.22883424 0.3215385 -0.22091891
0000d0 92 66 5c be ff 71 8b 3e 7e ea 81 3e c8 72 0c be
       -0.21523502 0.2723541 0.25374216 -0.1371566
0000e0 04 c6 57 be e5 bc 64 be 70 a9 ad bd 1b 61 51 be
       -0.2107163 -0.22337683 -0.08479583 -0.20447199
0000f0 ca ca 0a be ee 93 b1 3e 56 42 23 3e ac 9a 85 3e
       -0.1355392 0.34683174 0.15943274 0.26094568
000100 40 60 a1 3d bb eb 78 bd 1d 51 b4 bd 1d bb b7 be
       0.07879686 -0.060771685 -0.08804534 -0.35884944
000110 81 f2 3d be 41 b0 89 3e 28 33 51 3e 3b 98 88 be
       -0.18549539 0.26892284 0.20429671 -0.26678643
000120 b7 7d e2 bd 3a 4d 21 be 90 43 32 3e da 10 54 be
       -0.110591345 -0.15752116 0.17408586 -0.20709553
000130 76 92 c2 3c 8b fa 29 3e 1d 08 ce be 2b ff 5d be
       0.023751479 0.16599481 -0.40240565 -0.2167937
000140 8c 7a e4 bd 4a 85 81 be 7f d0 84 3e 35 b9 d9 3e
       -0.111561865 -0.25297004 0.2594032 0.42524114
000150 80 a1 a4 3d 9b 46 d0 bd 23 22 ad be 5e 6c 95 bd
       0.08038616 -0.10169717 -0.33815107 -0.0729606
000160 01 df c6 3e 6e 16 d9 3d e1 c9 93 3c 0a 8f 8a 3e
       0.38842013 0.10599981 0.0180406 0.27062255
000170 f0 bd a1 bd 9a bb f8 3d 1d f7 66 be 38 19 36 3e
       -0.07897556 0.12145157 -0.22555204 0.17783058
000180 c6 e0 86 3e 49 f2 63 be 9d 48 87 be 31 7d ee bd
       0.26343364 -0.22260393 -0.26422587 -0.11644972
