data/model/expert_training/5/12640.pth (torch, 44823 bytes, 5 tensors)

linear.weight f4 [100, 4]
00000000: 89cc b7be 0179 ac3e b89f 2a3e eb8b 5ebe
00000010: 8a83 e43d ba0d f9be d477 b53e 2724 74be
00000020: fb3d b8bb 13be 83be 352e 5bbe a79d e9be
00000030: 6585 5bbe e82c 3bbe 0fc8 393e 60ef c7be
00000040: bdcd 9f3e 8d0c e93e 5718 a4bd c167 1c3e
00000050: ef6a 08bf 6c47 67be 944a 283e f786 703e
00000060: 03c1 9dbc 6765 d1be 3f63 d2be 4b4e d0bd
00000070: aa66 d5be 7652 91be df75 083f 1e27 e53e
00000080: 4b2a afbe 319b 7bbe d1cc 03bf f3d0 a43e
00000090: bb1e 613e b9ca 86be 21dd 093f 88c0 c63e
000000a0: d7a4 5e3d 65eb 303e f249 213f 8556 8a3d
000000b0: c529 8bbe 06ab 47be 01e2 373f 9271 233e
000000c0: fc61 653e 639b dd3e 4e31 19be 896d b6be
000000d0: 227b 8ebe 3d80 87be 2589 3ebf e7c6 383d
000000e0: 8e28 933d b350 963e e717 82be 2eb9 f6be
000000f0: 04d5 7dbe 1a3e c13d d24a 473e d821 613e
00000100: dd38 07bf 28fa 11bd 1b58 3f3e d072 aa3e
00000110: dd8b 1e3e c010 83be c3ca f3bd 3706 9c3d
00000120: 8ee0 f2be da5e ff3e 6fda 603e 0108 3d3e
00000130: 0cff ed3e 2b1a 8dbe dec7 b33d 595d 0bbe
00000140: 98a6 073e d6a6 c2be f148 123f f0d7 933d
00000150: 5eb3 11be 35d0 99bc 2530 3cbf b785 a83b
00000160: 704a cfbe d413 d23e 386e e23e 1041 1abf
00000170: 5c78 153e 1eef e5be 1ff1 f8be fedd 8cbe
00000180: d6af e1bd 85ea b1be 2bb4 9abe b1e1 ee3e
00000190: ba08 803e 4760 33bd aaac 26bf 6f45 52be
000001a0: 6780 043f 9b4d 853d b4a1 663d 291c ec3e
000001b0: 06a7 dbbc f98c 72be 93b2 6ebe ede1 7cbe
000001c0: d0d1 513e 494a 97be 125e 163f 8afa d73e
000001d0: 93c7 b6be a742 e7bd d75c 263f f9bf de3e
000001e0: 4492 c23e 9292 b63e 2536 eabe cd32 8ebe
000001f0: e9e9 82be 5c52 393d fc7e 1a3f f2eb 013f
00000200: 6649 9e3e cffd ba3d 89f6 a63e 5b5a a53e
00000210: 9f4c 8fbd 20d1 debe 8972 fd3e 6a3e 583c
00000220: a8e9 a23d cbae 983e bed6 08bf 1005 efbd
00000230: 612c f23e 7f97 203d d4fa ddbe 7993 39be
00000240: 8ca8 de3e 3589 5fbd 751f 3a3f cbbf 1cbe
00000250: fded 47be 5a2f 95be 12ec 8b3d 4082 bfbd
00000260: 0a0d 8bbe c82c eabc 3aa7 2e3f df05 adbd
00000270: 31af eebd 7443 70bd ea33 2cbc 9c50 ee3e
00000280: fe69 fc3d 52fb 783e 5a39 083f e5b1 f63e
00000290: fe32 c33e b6ce 7cbe ea82 773e 64f4 9fbc
000002a0: 278d 58be 3e12 c9bc 99a5 97be 898a dfbe
000002b0: 6481 2b3e 2531 613e 88e8 e9be 9269 23be
000002c0: 62b4 c13e 04cb a13e 91ce 8bbd b4a1 45be
000002d0: ad4b 233d 74d3 e2bd bd46 01bc 08cc bf3e
000002e0: ab88 00bf e7d9 0cbc 84f6 0e3f 5f2d bb3d
000002f0: ae7f 933e 1638 0dbb 16b9 223c 6716 dbbe
00000300: 3359 febe 63f3 693e d0a8 193f e03d a63e
00000310: b17a 8abd ad9a cebe 60ef 1ebf 36d3 8fbe
00000320: 1e9d cf3e da89 b23d 10dc 34bf 653e b9be
00000330: 03de d3be 8163 32be 8fd4 84be 081b 7bbe
00000340: b92b eb3e a2f2 5ebe 93a4 853d 4ecb c7be
00000350: 9bdf b2be 5e21 4c3e c098 793d 8b4d 2ebe
00000360: 7cf1 c4bc 617a b4be f56e 063f bcd1 a63e
00000370: 1475 fd3e 1ac3 8dbe 3439 3f3e 655a e13d
00000380: f1b1 a8be db72 253e 24d7 153f d373 e93e
00000390: 3dc1 e43e 9fc3 b83d f391 703e c931 7bbe
000003a0: 028c 82be 3c00 29be 7b50 9ebc ee71 d7be
000003b0: 5086 19be 2c24 033f 3ddf d5bd 03ff 363e
000003c0: 74e1 ba3e 89b9 7dbe cd8d b83d c76f 86be
000003d0: ccc4 54bd 5899 93bd a552 503e 432b c5be
000003e0: 95cc 8dbe 2c5f 6b3e 0a95 26bf 2e85 acbe
000003f0: 38de 9ebe 5501 723d a007 58be f608 e7be
-0.35898235 0.3368607 0.1666249 -0.21733062 0.111579016 -0.48643285 0.35442984 -0.23841916
-0.005622623 -0.25730953 -0.21404345 -0.45628092 -0.21437605 -0.18278849 0.18142723 -0.39049816
0.31211653 0.45517388 -0.08012455 0.15273954 -0.5328817 -0.22585839 0.164347 0.23488985
-0.019257074 -0.40897676 -0.41091344 -0.10171183 -0.4167989 -0.28383225 0.53304857 0.44756407
-0.34211954 -0.2457092 -0.514844 0.32190666 0.21984379 -0.2632654 0.5385304 0.38818765
0.054356422 0.17277296 0.63003457 0.067547835 -0.27180305 -0.19498834 0.7182923 0.15961292
0.2240066 0.43282613 -0.14960214 -0.35630444 -0.27828318 -0.26465026 -0.74428016 0.045111563
0.071854696 0.29358444 -0.2540886 -0.48188156 -0.2478829 0.09435673 0.19462135 0.21985567
-0.5282114 -0.03563896 0.18685953 0.3329072 0.15483041 -0.25598717 -0.11903908 0.07618373
-0.47436947 0.49877053 0.21958326 0.18460084 0.46483648 -0.27559027 0.08778356 -0.13609828
0.13247144 -0.3801791 0.5714255 0.07218921 -0.1422858 -0.018776039 -0.7351096 0.005142893
-0.4048648 0.41030753 0.44224715 -0.6025553 0.14596695 -0.44908994 -0.4862146 -0.27513117
-0.11019866 -0.34749237 -0.30215582 0.46656564 0.25006658 -0.04379299 -0.65107214 -0.205343
0.51758426 0.06508943 0.056306556 0.46115234 -0.026813041 -0.2368659 -0.23310308 -0.24695559
0.20490193 -0.29548863 0.5873729 0.42183334 -0.35699138 -0.1129201 0.6498541 0.4350584
0.38002217 0.356587 -0.45744434 -0.27773133 -0.25569084 0.04524456 0.6035001 0.5075065
0.30915374 0.091304414 0.32609966 0.32295498 -0.06997036 -0.43518925 0.49501446 0.013198474
0.07954723 0.29820856 -0.5345267 -0.116708875 0.47299483 0.039206978 -0.4335543 -0.18122663
0.43487966 -0.05457421 0.7270425 -0.15307538 -0.19524379 -0.2913769 0.06832136 -0.09351015
-0.27158386 -0.028585806 0.6822392 -0.084483854 -0.11654509 -0.05865808 -0.010510424 0.46545875
0.12324904 0.24314621 0.5321251 0.48182598 0.3812484 -0.24688229 0.24171034 -0.019525714
-0.21147595 -0.024544831 -0.29618528 -0.4366038 0.16748577 0.21991403 -0.4568522 -0.1595824
0.37832934 0.316002 -0.06826509 -0.19299966 0.039867092 -0.11075488 -0.0078904005 0.3746035
-0.5020854 -0.008596874 0.55844903 0.09139513 0.2880835 -0.0021548322 0.009931823 -0.4279053
-0.4967743 0.22846751 0.6002321 0.32469082 -0.06761683 -0.40352383 -0.6208401 -0.2809083
0.40549558 0.08717699 -0.7064829 -0.36180416 -0.4138032 -0.1742077 -0.2594342 -0.2452203
0.45931795 -0.21772245 0.06525531 -0.39022297 -0.34936222 0.19934604 0.06093669 -0.17021768
-0.02404093 -0.35249618 0.52513057 0.3258189 0.49503386 -0.27687913 0.18674165 0.110035695
-0.3294826 0.16157095 0.58531404 0.4559618 0.4467868 0.09021687 0.23493175 -0.2453071
-0.25497442 -0.16503996 -0.019325485 -0.4207911 -0.14992642 0.5122707 -0.1044297 0.17870717
0.36500132 -0.24777807 0.09011421 -0.26257154 -0.051945493 -0.072069824 0.20344026 -0.3850957
-0.27695146 0.22985524 -0.65071166 -0.33695358 -0.31028914 0.0590833 -0.21096659 -0.45124024

linear.bias f4 [100]
00000000: 8f2f 4f3c 563b d7bd d76b 70bd e1c8 8b3d
00000010: 7198 a0be 3c24 aebe 7881 89be 5011 183e
00000020: 7886 943e 0d2b e4bd 3d58 a1be bc51 963e
00000030: 0a3a cabc 4cf0 e73e 1ebd c53d bea5 ee3e
00000040: 7989 cc3e 0819 c53d 0328 fcbd 8717 373e
00000050: 8fe4 b1be 9719 fa3e c7c7 403e a69d 933d
00000060: a9fd 9c3d 4df7 36be 72c1 be3e d051 823e
00000070: e6af cbbd 0658 8e3e b2e6 68bd 380c 45bd
00000080: f8aa b5be e166 93be fa58 a43d 9ccc dc3e
00000090: 665d f2be 846a d4be d346 b5be e357 3fbc
000000a0: 33df 823e 129d e9be 8954 88be d43f 883e
000000b0: 19a3 563d 6e53 d33e 7516 243c c4ea b4be
000000c0: d291 0abe de5f 513e 9028 78be 7874 b33e
000000d0: 1234 923e 2989 cdbe 92b6 9abe 392a 98be
000000e0: 786e fd3d 74af 6ebd 602c 973e 14e2 bebe
000000f0: fd57 d2be 0cd0 de3d b1a7 47be bdd8 863a
00000100: 35ee adbe fddd 093e 204c 743e 0945 bd3d
00000110: 0bf5 6dbd c36f 8bbe 2071 a0be c955 bebe
00000120: c053 8a3e 085a b63e 439a ae3d bd51 cd3e
00000130: 0f80 bdbd 5eae fc3e 7377 053f c6a9 a33d
00000140: 0b6b e7be 6b0d 96bc 3142 cbbe 2a1a a83e
00000150: 6807 d6be 3563 24be ac69 c7be 8fef aa3c
00000160: ef82 54bd 6cbf 953e 1deb 6f3d 9ed2 d4be
00000170: 7ef5 3abe b975 403e 9b01 f23e 3089 65be
00000180: bd71 a03e 43b6 d23e d595 debe 2814 c9be
0.012645616 -0.10509364 -0.058696594 0.06825424 -0.31366304 -0.3401202 -0.2685659 0.14850354
0.29008842 -0.11141024 -0.31512633 0.29359233 -0.024685878 0.4530052 0.09655212 0.46610826
0.39948633 0.09623915 -0.12312319 0.17880069 -0.3474469 0.48847649 0.18826209 0.072078034
0.07665569 -0.17867775 0.37256962 0.25453043 -0.09945659 0.27801532 -0.056860633 -0.048107356
-0.35482 -0.28789428 0.080247834 0.43124855 -0.47336882 -0.41487515 -0.35405597 -0.011678669
0.25560912 -0.45627648 -0.26626995 0.26611197 0.052401636 0.4127459 0.01001512 -0.35335362
-0.13532189 0.20446727 -0.24234223 0.35049796 0.28555351 -0.40143707 -0.30217415 -0.29719713
0.12374586 -0.058272794 0.29526043 -0.3728186 -0.41082755 0.108795255 -0.19497563 0.0010287982
-0.339708 0.13463588 0.23857164 0.09241683 -0.05809502 -0.27233705 -0.31336308 -0.37174824
0.2701702 0.35615563 0.08525517 0.40101424 -0.09252941 0.49351782 0.5213539 0.07991366
-0.45198855 -0.018316945 -0.39698938 0.32832462 -0.41802526 -0.1605347 -0.3894781 0.020866184
-0.05188268 0.29247606 0.05857383 -0.41566938 -0.1825771 0.18794908 0.4726685 -0.22415614
0.31336775 0.4115468 -0.43473688 -0.3927319

hidden.weight f4 [100, 100]
00000000: 78a9 073e 95be 643c a379 cf3c 91c5 82bd
00000010: 3673 9a3d 5c58 2e3c bbba 98bd b550 18bc
00000020: e755 793b 0bc4 ac3d ad4b 7c3d dceb 213e
00000030: 999b 9d3d 6781 59bc 2c9c d2bd a3f8 ed3d
00000040: 8813 af3d b107 83bd 65f1 4f3d c4ed 44bc
00000050: c1a5 a93d 2deb fbbd b994 c93d 0b34 c8bc
00000060: aaef 4c3c b5c1 b7bd bc67 7abd 7dbf b1bd
00000070: be7f ad3d f8e6 0d3e 06da 17bd 6902 033e
00000080: 935e 9e3b e178 8d3b 9845 a83c e233 c6bd
00000090: d8e5 5b3d df3c a3bc 3f25 9fbc 2f0e f9bc
000000a0: ff15 d93b 9bed aa3b 3c67 453c dcba 22bd
000000b0: 4cfc 2d3d 9174 47bd 4ffc af3c 03d4 8ebd
000000c0: 2f69 bc3d 771c 17bd e4ef 1fbd 75f6 da3c
000000d0: 9f5d a53c 110b 82bd a5c7 0b3d 2c26 3bbc
000000e0: 97ec 653d 2863 8c3d af49 a1bd 15bb 7b3d
000000f0: fc0c 84bd e141 813c cc1d 5fbd 49ed 53bc
00000100: b73d 22bd 0438 0c3d 07c0 e73b f7c9 8f3c
00000110: 49ff d4bd e178 dc3d 609e 813d 3939 57bd
00000120: a055 06bb d8c4 efbc d455 0dbe 8c6b d93d
00000130: 2db0 ac3d e12e 403c bc1a a0bd b87f 403c
00000140: dafe 2a3d fb29 1ebd a5df bb3d 5e33 773d
00000150: 31a1 fbba 759d febc 3abc 713d 91fc a53d
00000160: 5992 733d d5ef ff3d 70b4 8cbd 35dc 7a3d
00000170: 2450 fa3d 3b9b 69bd 2dd8 96bd 363c 87bb
00000180: ea0e bf3d f24b 803c df3b 90bd fe97 d0bd
00000190: d23d 68bd 4658 0abd d66f bc3c 92b0 c33d
000001a0: d8c3 dabd c400 7bbc 99d3 83bd a488 bebc
000001b0: ef26 b5ba 04d4 93bc 6c41 8bbd 6c14 0bbe
000001c0: 8198 6bbd 0248 173e 6a96 293d a696 b03d
000001d0: e7fc 963d 92f3 293c 501c 25be 2693 a5bc
000001e0: 7fd8 f2bd 005b a33d de98 0d3c 4293 843c
000001f0: b7e7 7cbd d17f ab3c 09fd 7e3d f25c 433d
00000200: bad2 09be a186 76bd 6b3c 83bd 3f1d 06be
00000210: 4637 04be 7b3b 3c3d 2d90 ef3d 4b16 e53d
00000220: 2e5c 06be d074 3cbd cf61 8cbd fdd0 8ebd
00000230: e594 c9bc cbae 183d 68af 7d3d a1b3 0a3d
00000240: 6edd 273d 0434 dabc 77b0 f5bd 2df6 003d
00000250: 2a22 dabd 073e 153d d797 9f3d 35e1 093e
00000260: 3c26 af3d aaed 4abd f01d f5bc 5662 c03c
00000270: 1b10 c2bc 6a02 90bc 2929 153c db07 90bd
00000280: 0f29 b7bd 02db 1cbc 5628 ba3d c2c7 b13d
00000290: eb97 03bd 8014 9bbd eba8 563d 0c40 3a3d
000002a0: ad56 943d 199e 0fbd 0d0a 43bd 580e a7bd
000002b0: f7bc a83d bd71 9fba 8eff 1b3e 9503 9b3d
000002c0: f526 74bd 9fa3 05bc 0740 383a 6f1e ddbc
000002d0: 3e67 ba3b d20d d13c 79b4 1b3c f42c bf3d
000002e0: ba65 1abe b8a3 743d f26c 923c 333b dfbd
000002f0: d10b 1a3b 36a7 54bd 27df a43d 651d 5abc
00000300: 76b9 f3bc 2f3e 4a3c f836 03bd e623 b2bd
00000310: 904c cbbc d46d 403d 66aa e239 df00 74b9
00000320: f027 fb3c 0513 5f3d 9319 37bd 2d2f 2cbd
00000330: df94 a8bc 1618 15bd a23c 863b eb68 e83d
00000340: 5c30 9b38 227f 9a3c cbce d63c 685a 923d
00000350: 31ca f83c 1cae 0a3d 7344 a9bd db82 c03d
00000360: d1e3 ff3d ff16 983c 952d fb3d 09f2 aebd
00000370: 5389 f4bc e855 dfbd 9f09 f83d bcc4 12be
00000380: d2cf 9fbd 9936 cbbc 29bf 96bd 0f0c a1bd
00000390: 0c08 1b3d 0709 383e 3f9a dfbd 8aa2 943d
000003a0: 59ee 3a3d e2c5 b23b 9a57 b9bd 2453 31bc
000003b0: f71e ac3d 3a28 623c f38f 583d 34d8 963d
000003c0: 4475 043d bcf6 77bc 1a90 88bd 8e25 c9bd
000003d0: aec5 90bd 325a b33c 8c24 713d db64 17bc
000003e0: d5fa 453e 6808 41bd 3d9d a7bd 3d1b 5dbd
000003f0: bea1 dcbd 478e 98bd 88b0 e7ba 846d 983d
0.13248241 0.013961454 0.025326556 -0.06385339 0.07541506 0.010641184 -0.07457491 -0.009296586
0.0038045587 0.0843583 0.061595608 0.1581263 0.076956935 -0.013275481 -0.10283694 0.11619689
0.08548647 -0.063979514 0.05076732 -0.012019578 0.08283568 -0.123007156 0.0984282 -0.024438879
0.012508312 -0.089724936 -0.061134085 -0.086791016 0.084716305 0.13857639 -0.037073158 0.12793888
0.0048330515 0.0043173884 0.020540997 -0.096778646 0.053685993 -0.019926487 -0.01942694 -0.030402271
0.0066249366 0.005216313 0.012048539 -0.039728984 0.042476937 -0.04869515 0.021482615 -0.06974032
0.0919975 -0.03689238 -0.039047137 0.026728848 0.020186244 -0.06349767 0.034125943 -0.011422675
0.056133833 0.0685485 -0.07875382 0.061457712 -0.06447789 0.015778484 -0.054471776 -0.012934991
-0.039609637 0.03423311 0.007072452 0.017552359 -0.10400254 0.10765243 0.06329036 -0.052544806
-0.0020497814 -0.029268667 -0.13802272 0.10616216 0.0843204 0.011729927 -0.07817599 0.0117492005
0.04174695 -0.038614254 0.09173516 0.060351722 -0.0019197819 -0.03108094 0.059017397 0.08104814
0.05946574 0.12496916 -0.06870353 0.061245162 0.12222317 -0.057032805 -0.07365451 -0.0041270507
0.093290165 0.015661214 -0.070426695 -0.1018524 -0.05669958 -0.03377559 0.023002546 0.095551625
-0.106818855 -0.015320007 -0.064368434 -0.023258515 -0.0013820807 -0.018045433 -0.067995876 -0.13582009
-0.057518486 0.14773563 0.04140321 0.08622484 0.07372456 0.010373013 -0.16124082 -0.020211767
-0.118576996 0.07976341 0.008642403 0.0161835 -0.061744418 0.020934971 0.062253032 0.04769606
-0.13459292 -0.060186986 -0.06408008 -0.13097094 -0.1291171 0.045955162 0.11697421 0.11185893
-0.13121101 -0.04600984 -0.06854593 -0.06973455 -0.024607131 0.03727607 0.06193486 0.033862714
0.040982656 -0.026636131 -0.119965486 0.03148477 -0.106510475 0.036436107 0.07792633 0.13464816
0.085522145 -0.04954306 -0.029921502 0.02348439 -0.02368932 -0.017579276 0.009104052 -0.07032748
-0.08943378 -0.0095737 0.09089725 0.08680679 -0.032127302 -0.075722694 0.052407186 0.045471236
0.072430946 -0.035062883 -0.047617007 -0.08157033 0.08239167 -0.0012164634 0.15234205 0.075690426
-0.059607465 -0.008156686 0.0007028584 -0.02699205 0.005688577 0.025519285 0.009503477 0.09334746
-0.15077868 0.059726447 0.017874215 -0.10899963 0.0023505578 -0.051917277 0.080503754 -0.013312672
-0.02975152 0.012343927 -0.032034844 -0.08698253 -0.024816781 0.04697974 0.00043233036 -0.00023269978
0.030658692 0.054461498 -0.044702124 -0.042037178 -0.0205788 -0.036399923 0.0040965835 0.113481365
7.3999836e-05 0.01885945 0.026221653 0.0714615 0.03036985 0.03385745 -0.08265009 0.09399959
0.124946244 0.018565653 0.122645535 -0.08542258 -0.029850638 -0.10905057 0.1211121 -0.1433286
-0.078033105 -0.024806308 -0.0736068 -0.07863628 0.03784947 0.17972194 -0.10918092 0.07257564
0.045637462 0.0054557184 -0.09049912 -0.010823045 0.084043436 0.013803536 0.052871656 0.07365456
0.032338396 -0.01513451 -0.0666811 -0.09821616 -0.070689544 0.021893594 0.058872744 -0.009240354
0.19333966 -0.047127157 -0.08184288 -0.053981055 -0.107730374 -0.07449012 -0.0017676512 0.074427634

hidden.bias f4 [100]
00000000: 0abb 5e3d e234 50bd 2a97 4fbd dd6b da3c
00000010: caed 9dbd 2618 4bbd 5df6 3f3d d131 60bc
00000020: f18e 503b 9e17 6e3d da46 183d d874 4f3d
00000030: c0cd 3a3d 635b dd3d 8a99 f83c 4fc4 1ebb
00000040: ce27 8bbd 69ab 39bc 9c71 0fbb 6d38 74bd
00000050: 339a 9dbd 17e7 1cbd 1393 0bbd 7592 54bd
00000060: bb41 fc3d e2ff 683d 6e38 1a3d 8b9a 593d
00000070: 0594 28bd d55b 253b 3e28 2a3d 832e 093e
00000080: bd88 a13b edbc d63d fbef fc3c 6e73 32bd
00000090: e270 bbbc 1060 223b 746a 8aba b926 b83d
000000a0: 99ea 3abd a2c0 c7bd cee1 bb3d fb82 4f3d
000000b0: 710a 9c3d c158 babd 9a28 e93b 06c0 823d
000000c0: b74e aebc 1b4a a63d e03d 5fbd 80a7 45bd
000000d0: 90b5 063d bc9a e33d 3b81 f33c 98ca 413d
000000e0: 5ecd 8abd 9dce 31bc 9513 97bd ea85 83bd
000000f0: 12a3 a73b 0d3f b53d 6907 80bd 579b 523c
00000100: ad3a 813d 74f8 a9bd 300b a4ba da4c 8fbd
00000110: 1e49 8ebd d50f 133d af7a f93d 2ecc e03d
00000120: 1e02 f53d f6a5 a8bb 3d09 bc3d 3c3e f13d
00000130: ecd5 82b9 2d82 b83d f282 96bb 4b30 a73d
00000140: 36c2 873d 6e90 c43d b98b 60bd eb75 a2bd
00000150: 0d38 a33d 15aa fb3d 2615 aab8 74c6 d93d
00000160: 5644 d73d e06c ee3c 5bff 6d3c 82ef 0e3d
00000170: 43da b9bd 0d4d 603d 61fa 833c ebfb 073c
00000180: 8f2e d53c 60aa 34bd af66 92bd d149 d03d
0.054377593 -0.050831683 -0.05068127 0.026662761 -0.0771137 -0.049583577 0.04686581 -0.013683752
0.003182348 0.05812799 0.037176944 0.05064854 0.045606375 0.10808446 0.03034665 -0.0024225896
-0.067947015 -0.011332371 -0.0021887785 -0.059624124 -0.07695427 -0.038306322 -0.034075808 -0.051897485
0.123172246 0.056884654 0.03765147 0.0531259 -0.041156787 0.0025231738 0.041542284 0.13396649
0.0049296306 0.104852535 0.03087615 -0.043567114 -0.022880975 0.0024776496 -0.001056029 0.08991761
-0.045633886 -0.09753539 0.09173928 0.050662022 0.07619179 -0.0909896 0.007115436 0.06384282
-0.021277769 0.08119603 -0.054502368 -0.048255444 0.032887995 0.111134976 0.029724708 0.04731235
-0.06777452 -0.010852483 -0.07376782 -0.064220265 0.005115875 0.088499166 -0.062514134 0.012854419
0.0631002 -0.08299342 -0.0012515541 -0.0699708 -0.0694754 0.03590377 0.12181603 0.10976444
0.119632944 -0.005146737 0.091814496 0.117794484 -0.00024954916 0.09009204 -0.0045932466 0.08163508
0.0662884 0.0959786 -0.05482075 -0.07932647 0.07969675 0.122883 -8.110171e-05 0.10633555
0.10511081 0.02910465 0.0145262135 0.03489638 -0.09074833 0.05476098 0.0161106 0.008299808
0.026023177 -0.044107795 -0.071484916 0.10170329

output.weight f4 [1, 100]
00000000: bdca 043e c3b3 05be be51 213e 9e69 8cbe
00000010: f014 c93d bc17 26be 39e4 503e ab15 8cbe
00000020: e3a1 26be 4167 5a3e cd39 f53d cff9 14be
00000030: 5f23 36be ee3a 09be 04d7 13be 7a59 0b3e
00000040: d4c8 523e a516 53be fc5a 103e 902b 483e
00000050: f642 853e d67c 0f3e 7ece 003e 3d50 613e
00000060: 258c 03be a3ce 3b3e e63a 133e 6809 413e
00000070: 5f17 5f3e 38e3 383e d077 2b3e a730 38be
00000080: 8e9b 623e 221f f33d 3d90 1fbe 3c21 4dbe
00000090: 6497 1a3e 3532 b63d 02c2 1dbe f7c7 5d3e
000000a0: 2f76 90be 970b 763e 70a4 363e c010 5cbe
000000b0: 046a 34be ee1c 0c3e 9443 833e 5ea5 0b3e
000000c0: c781 51be e33c 183e e9e9 3d3e d1b0 343e
000000d0: b16e 28be 6369 08be a329 e53d b89d c9bd
000000e0: e6e2 223e 3c08 95be fbed 573e b7bd 623e
000000f0: 8b0d 1a3e df73 81be 18f7 32be 6d50 f0bd
00000100: 64ae 4e3e 06cf 613e 488b 0fbe 4c06 913e
00000110: 1746 ec3d d5d5 673e f0a9 f0bd ae0a 15be
00000120: 9b8d 53be 37b3 be3d c17c 00be 02fa 88be
00000130: a792 653e d24e 5e3d 6d40 293e c978 01be
00000140: c4f0 62be 4cc3 de3d aac4 103e 5bca 143e
00000150: 1f38 923d a1bf 23be 442e 663e de3b 0c3e
00000160: 94c7 58be ed8c 36be 9449 2f3e 2ccf 533e
00000170: 595f ec3d 5246 5d3e d10c 723e 1bdd 25be
00000180: c184 1a3e 0ab5 0cbe 416e 323e 60a6 28be
0.12967964 -0.13056855 0.15753838 -0.2742433 0.09818447 -0.16219991 0.2039956 -0.2736028
-0.16272692 0.2132845 0.11973915 -0.1454842 -0.1778693 -0.13401386 -0.1443749 0.13608351
0.20584422 -0.20614107 0.14097208 0.19547868 0.2602765 0.14012465 0.1257877 0.22003265
-0.1284643 0.18340544 0.14377937 0.18851244 0.21786259 0.18055427 0.16744924 -0.1798731
0.22129652 0.118711725 -0.15582366 -0.20032209 0.15096813 0.08896295 -0.1540604 0.21658312
-0.28215167 0.24027859 0.17836165 -0.21490765 -0.17618567 0.13682911 0.25637496 0.13637301
-0.20459662 0.14866976 0.18546261 0.17645575 -0.16448475 -0.13321452 0.11189582 -0.098445356
0.15906867 -0.29107845 0.21086876 0.22142683 0.15044229 -0.25283715 -0.17477071 -0.1173409
0.20183712 0.2205163 -0.14017975 0.28325117 0.11536806 0.22640164 -0.11751163 -0.14554855
-0.20659487 0.09311526 -0.1254759 -0.2675324 0.22419225 0.054274388 0.16528483 -0.12643732
-0.22162157 0.10877094 0.14137521 0.14530317 0.071396105 -0.1599107 0.22478586 0.13694713
-0.21169883 -0.17827196 0.17117912 0.20684499 0.115416236 0.21608856 0.23637702 -0.16197626
0.15089704 -0.13740936 0.17424871 -0.16469717
