data/model/expert_training/5/12710.pth (torch, 44823 bytes, 5 tensors)

linear.weight f4 [100, 4]
000000 31 9c b0 be 1b ca ac 3e a4 43 4a 3e 13 71 5c be
       -0.34494165 0.33747944 0.19752365 -0.2152751
000010 34 58 f0 3d ac 7a f2 be 37 76 c9 3e 04 46 70 be
       0.117355734 -0.47359216 0.39348003 -0.23464209
000020 ab 11 5b bc 91 10 8a be 27 63 84 be b7 d1 e5 be
       -0.013370912 -0.26965764 -0.25856897 -0.44886562
000030 ed ab 63 be 42 56 3e be 3c 9c 0a 3e 74 ad c5 be
       -0.22233553 -0.18587592 0.13536161 -0.38608897
000040 ee 1c a6 3e 2e 22 f5 3e aa 23 03 bd c9 af 09 3e
       0.32443947 0.4787764 -0.032016434 0.13445963
000050 1f 5c 10 bf 6b e1 89 be 3f e1 3a 3e ac 73 81 3e
       -0.56390566 -0.26929793 0.18249987 0.25283563
000060 86 6d c6 bc 3e 47 d4 be 4f f0 e4 be aa 89 d5 bd
       -0.024222147 -0.41460603 -0.4471459 -0.10426648
000070 fd 55 d6 be f0 f8 9c be a5 56 10 3f 36 45 ec 3e
       -0.4186248 -0.30658674 0.5638221 0.46146554
000080 bb 72 b0 be 84 6c 71 be 76 52 0c bf cd 5e 9e 3e
       -0.34462532 -0.23576552 -0.54813325 0.30931702
000090 71 06 6a 3e 40 72 79 be 4c 08 16 3f 7e 27 c5 3e
       0.2285402 -0.24359989 0.5860641 0.38506693
0000a0 af fd 87 3d a3 fd 40 3e f3 71 2b 3f 3d 55 74 3d
       0.06640183 0.18846755 0.6697075 0.059651602
0000b0 8d 99 87 be be 0c 4c be 7d 3e 41 3f e8 fe 2b 3e
       -0.26484337 -0.19926736 0.75485975 0.16796458
0000c0 dd 0b 73 3e a9 a3 e8 3e 32 ab c9 bd e7 26 bc be
       0.23734994 0.45437363 -0.09847106 -0.3674843
0000d0 9c 98 90 be 7a 16 86 be b7 b0 48 bf 00 72 1c 3d
       -0.28241432 -0.26189023 -0.78394645 0.038194656
0000e0 c2 16 ab 3d 51 b3 95 3e 93 01 79 be ec 7a ea be
       0.0835395 0.2923837 -0.24317007 -0.45796907
0000f0 12 f5 6b be 52 6f cd 3d d1 93 64 3e 6c d7 61 3e
       -0.23042706 0.10030998 0.22322012 0.22054833
000100 65 6f 06 bf aa 12 53 bd ff 92 61 3e f8 ab b0 3e
       -0.52513725 -0.05153147 0.22028731 0.34506202
000110 96 1b 18 3e 86 88 89 be b9 cb 28 be 0f f2 9d 3d
       0.14854273 -0.26861972 -0.16483964 0.07712185
000120 8f 70 eb be 75 9b fc 3e f1 10 7e 3e 43 48 42 3e
       -0.45984313 0.49337354 0.2481115 0.18972878
000130 8a 8e f3 3e 77 69 5d be cb 97 d2 3d 51 63 12 be
       0.47569686 -0.21622263 0.102828585 -0.14295699
000140 50 cd 0d 3e 29 f2 b9 be 8f 96 1b 3f 8c ae 90 3d
       0.13847852 -0.36317566 0.6077661 0.07064542
000150 d7 bb 18 be bb 8a cd bc ad 8f 46 bf 79 bd 9c 3b
       -0.14915405 -0.025090566 -0.7756298 0.004783329
000160 7a 0a c7 be 2d 45 d3 3e 9d 8e f0 3e f7 21 1a bf
       -0.3887518 0.41263714 0.46983805 -0.60208076
000170 03 04 0f 3e 19 45 ed be d9 b8 08 bf 0b 38 8b be
       0.13966374 -0.4634178 -0.53407055 -0.27191195
000180 49 81 ed bd 39 3c b2 be 7f e2 ad be 35 b4 e7 3e
       -0.11596925 -0.3481157 -0.33961865 0.45254675
000190 4b 40 77 3e 09 41 85 bd 87 9c 31 bf 8c 79 45 be
       0.2414562 -0.06506545 -0.69379467 -0.19284648
0001a0 9d 4c 07 3f fc f4 b2 3d f8 98 d9 3d 91 2f e6 3e
       0.5285128 0.08738133 0.106248796 0.44958165
0001b0 15 6f 09 bd 55 df 7b be 31 1d 8e be 73 29 7a be
       -0.0335532 -0.24596913 -0.27756646 -0.24429874
0001c0 fc 51 5a 3e 0b 5f 8d be aa 76 22 3f 6d 81 d6 3e
       0.21320337 -0.27611575 0.63462317 0.4189562
0001d0 52 84 b3 be dd 58 f9 bd a0 82 2f 3f d2 07 e4 3e
       -0.3506189 -0.121751525 0.6855869 0.44537216
0001e0 f8 b8 c4 3e e6 ff ac 3e ae ea db be 7f 23 83 be
       0.3842237 0.33788985 -0.42952484 -0.2561302
0001f0 3d b3 7d be 5d a8 20 3d 1a b0 23 3f d1 3f 04 3f
       -0.24775405 0.039223064 0.63940585 0.51659876
000200 4a 95 a3 3e dd c6 ed 3d 95 2a c0 3e 38 08 9f 3e
       0.31949836 0.11610196 0.37532488 0.31060958
000210 91 1c 8b bd e3 55 df be f7 c6 04 3f 32 48 a9 3c
       -0.06792558 -0.43620214 0.51866096 0.020664308
000220 ed f6 90 3d 79 c7 91 3e 32 f8 10 bf a7 db db bd
       0.07078347 0.28472498 -0.56628716 -0.10735255
000230 fb 5d ee 3e 49 a6 ce 3c a7 0f f2 be a2 c2 30 be
       0.46556076 0.025225775 -0.47277567 -0.17261747
000240 db 3c e4 3e d8 af c3 bc bb a1 46 3f 01 02 2f be
       0.4457768 -0.02388756 0.7759053 -0.17090608
000250 05 ae 60 be 7f 84 9c be d2 9a 7b 3d 7e fb 7e bd
       -0.21941383 -0.30569836 0.061426945 -0.06225156
000260 0c 5b 87 be 1e d6 1c bd dc 9a 33 3f 2b 95 96 bd
       -0.2643665 -0.038290136 0.7015817 -0.0735267
000270 1b 8a 1e be 03 dd c3 bd b9 36 04 3c 0f f0 ea 3e
       -0.1548237 -0.09563639 0.0080696875 0.45886275
000280 b0 0c 0a 3e 1a fd 84 3e f6 5c 13 3f 1f a8 f3 3e
       0.13481402 0.2597435 0.5756372 0.47589204
000290 09 8c c7 3e 0f 6d 5d be 00 d9 95 3e a6 fb 06 bd
       0.38974026 -0.21623634 0.2926712 -0.032954834
0002a0 76 bd 60 be f2 f7 d6 bc e6 7c a7 be 02 c7 dc be
       -0.21947274 -0.026241276 -0.32712477 -0.4312058
0002b0 d6 51 23 3e e6 b2 53 3e 19 eb fc be 34 e6 1a be
       0.15949187 0.20673713 -0.49398115 -0.15126878
0002c0 71 87 c8 3e c0 9f af 3e b1 ec 7e bc de cb 54 be
       0.39165834 0.34301567 -0.015559361 -0.20780894
0002d0 d5 cd 95 3d ea c8 43 bd 0d e1 09 3d bc 7f ad 3e
       0.0731465 -0.04779903 0.03366189 0.33886516
0002e0 7b 91 00 bf 7e ca e2 bc ed f0 15 3f 27 50 d9 3d
       -0.50221986 -0.027684446 0.5857075 0.10610991
0002f0 f6 c2 98 3e 16 d5 c0 3c 9e 48 74 3d 66 e5 e2 be
       0.29836243 0.023539107 0.059639566 -0.44315642
000300 74 bc fc be 5f da 59 3e d2 bb 20 3f c2 de ac 3e
       -0.49362528 0.21274708 0.6278659 0.337637
000310 78 ba 94 bd eb d7 d1 be 3d 5a 2a bf 59 29 90 be
       -0.072621286 -0.40985045 -0.6654394 -0.28156546
000320 bc 73 cb 3e e8 6f 85 3d 0c 13 3c bf 62 41 af be
       0.39736736 0.06515485 -0.73466563 -0.3422957
000330 a6 35 d6 be 65 99 2a be d8 0a 97 be c9 fe 80 be
       -0.41837806 -0.16660078 -0.2950046 -0.25194386
000340 c4 4b e7 3e af 43 6c be 7c 28 8b 3c 42 51 c2 be
       0.45174992 -0.23072694 0.016987078 -0.3795262
000350 2f 3e c0 be 60 45 18 3e 8c 68 4a 3d a7 2d 01 be
       -0.37547442 0.14870214 0.04941611 -0.12615071
000360 97 71 a3 bc e2 9c b3 be 49 74 0e 3f 55 32 a9 3e
       -0.019951625 -0.3508063 0.5564619 0.33046213
000370 70 0e 01 3f e1 52 7c be a8 9f 76 3e 70 18 c8 3d
       0.50412655 -0.24640991 0.24084342 0.09770286
000380 d2 bf a3 be 2b 2c 21 3e cb ef 1e 3f 46 ad ed 3e
       -0.31982285 0.15739505 0.62084645 0.4642126
000390 06 72 ea 3e 18 7b eb 3d 15 a6 8e 3e 34 fe 84 be
       0.45790118 0.11498088 0.27861086 -0.25975192
0003a0 69 fa 85 be 82 06 29 be 39 7a 73 bd c4 20 d6 be
       -0.2616761 -0.16506389 -0.059442732 -0.41821873
0003b0 99 00 0a be 2c 65 04 3f 55 a3 87 bd 5f d0 2e 3e
       -0.1347679 0.51716876 -0.0662295 0.17071675
0003c0 50 f5 be 3e 0c b5 5e be 28 54 11 3e 4e 87 8d be
       0.37296534 -0.21748751 0.1419226 -0.27642292
0003d0 b8 f8 27 bd 3b 4e 70 bd fe 4f 7a 3e 14 64 c6 be
       -0.04100868 -0.058668356 0.24444577 -0.3874823
0003e0 28 35 93 be ff 4d 69 3e e3 b3 2c bf 74 91 aa be
       -0.28751493 0.2278366 -0.67461985 -0.33314097
0003f0 86 71 a3 be 54 ec 6e 3d ed 85 77 be 5e 42 e4 be
       -0.3192255 0.05833085 -0.24172182 -0.44581884

linear.bias f4 [100]
000000 c4 d6 8d 3c b4 d6 cc bd 9b 2f 83 bd 08 07 82 3d
       0.017314322 -0.10001889 -0.064055644 0.06348997
000010 a4 7c 9c be dc 1b b0 be d6 b6 8b be b7 15 1b 3e
       -0.30563843 -0.34396255 -0.2728793 0.15145002
000020 33 0f 94 3e 86 ee d4 bd 0a 5c 9d be dd f2 98 3e
       0.28917846 -0.10397057 -0.30734283 0.2987279
000030 3c f3 7e bc 24 2d e7 3e 37 64 e6 3d fc 94 f5 3e
       -0.015560921 0.45151627 0.11249583 0.4796523
000040 1b e9 cd 3e 17 f4 bc 3d 32 ff f8 bd 45 ab 43 3e
       0.40216908 0.09226244 -0.1215805 0.19108303
000050 c5 f8 ae be 82 a9 f8 3e c6 39 46 3e e9 5b 8a 3d
       -0.3417417 0.48566824 0.19357976 0.06755812
000060 ba ac 91 3d d8 19 3c be 55 a6 c2 3e b4 5f 80 3e
       0.07113023 -0.18369234 0.38017526 0.25073016
000070 8a 2c bd bd 82 d5 90 3e 93 41 47 bd 7f 7c 2e bd
       -0.09237011 0.28287894 -0.04864652 -0.042599197
000080 89 c3 b1 be d4 99 91 be 2a 13 9e 3d 14 6b db 3e
       -0.34719494 -0.28437674 0.07718499 0.42855132
000090 47 b4 ed be 48 b3 d8 be f8 81 b2 be cd 0a 9f bc
       -0.46426603 -0.4232428 -0.34864783 -0.01941433
0000a0 fd fb 86 3e 8a dd e5 be 19 c7 89 be b9 a9 86 3e
       0.26364127 -0.44895583 -0.26909712 0.26301363
0000b0 97 db 80 3d c3 31 eb 3e 16 c6 47 3c f5 2a b1 be
       0.062918834 0.45936403 0.012193223 -0.34603086
0000c0 5f c8 08 be c4 6c 4e 3e 8e 43 7b be 06 88 b2 3e
       -0.13357686 0.20158678 -0.24537489 0.34869403
0000d0 32 3a 90 3e 21 96 d1 be b1 f5 97 be 77 38 94 be
       0.281694 -0.40934852 -0.29679635 -0.2894933
0000e0 42 53 04 3e 68 df 4e bd a8 b2 95 3e aa ee bb be
       0.12922385 -0.050506026 0.29237866 -0.36705524
0000f0 0e 0f cf be aa 6f ee 3d 9e 33 49 be 3e 29 bc ba
       -0.40441173 0.11642392 -0.19648597 -0.0014355553
000100 8d 99 b8 be de 20 10 3e 74 c7 7b 3e 86 a2 be 3d
       -0.3605465 0.14075038 0.24587804 0.09308343
000110 34 5f 82 bd 4b c6 87 be 1d 68 9c be 08 bb bd be
       -0.06365815 -0.26518473 -0.30548182 -0.37056756
000120 47 8d 88 3e 11 89 b5 3e 5d f5 a9 3d c1 01 d6 3e
       0.26670286 0.35456136 0.082987525 0.41798213
000130 ce ef cb bd 98 7a fa 3e 9f e2 04 3f 58 0e b3 3d
       -0.099578485 0.48921657 0.51908296 0.0874297
000140 f9 cd e6 be 5f ce 94 bc 02 96 c8 be b3 07 a7 3e
       -0.4507902 -0.018164812 -0.39176947 0.32623062
000150 d2 ad d2 be ac d0 23 be 85 9a ca be 28 77 e5 3c
       -0.4114824 -0.15997571 -0.39571014 0.02801092
000160 05 48 4b bd d3 a7 98 3e 03 1f 5e 3d 0a 2a d5 be
       -0.04962923 0.2981554 0.054228794 -0.41633636
000170 a1 f9 35 be 97 b3 3f 3e 09 e9 f9 3e a6 c6 61 be
       -0.17771007 0.18720852 0.48810604 -0.22048435
000180 6b 75 a4 3e 26 5c d3 3e 89 8f e3 be c3 0a cb be
       0.32120833 0.4128124 -0.44445446 -0.39656648

hidden.weight f4 [100, 100]
000000 a2 4f f6 3d 6d a0 71 3c af e7 32 3c 58 ac 90 bd
       0.120269075 0.014747721 0.0109194955 -0.07064122
000010 8f f8 bc 3d 14 0b 00 3c a9 84 a9 bd 0a 39 d1 bb
       0.09227096 0.007815141 -0.08277256 -0.0063849734
000020 a7 bd 7c bb c4 4e c3 3d 4c 5d 81 3d 26 b5 23 3e
       -0.003856519 0.09536508 0.06316623 0.15987071
000030 16 ca b6 3d 76 7b db bc 78 80 be bd 9a a5 f1 3d
       0.089252636 -0.02679227 -0.09301847 0.11799164
000040 7e 25 a6 3d 95 f1 65 bd ce 06 22 3d fd 7b b6 ba
       0.0811262 -0.056138594 0.03955727 -0.001392245
000050 ee c4 9f 3d 96 89 fb bd a8 fa b7 3d f0 81 ca bc
       0.07801233 -0.12282102 0.08983356 -0.024720162
000060 67 99 10 3c a4 44 ae bd 5b ec 4b bd 51 43 aa bd
       0.0088256365 -0.08509186 -0.049785953 -0.08313621
000070 55 19 c4 3d d4 82 0e 3e 94 f3 cd bc 25 c9 fc 3d
       0.09575144 0.13917094 -0.025140561 0.12343053
000080 68 6a b3 3c 4f 77 e4 39 ec 18 d2 3c 73 ce b2 bd
       0.021901324 0.0004357644 0.02564665 -0.08730783
000090 be e8 8c 3d 38 0f d8 bc ef 42 cf bc 2b 81 0c bd
       0.068803295 -0.026374444 -0.025300471 -0.03430287
0000a0 0b 20 a6 3c ca 6e 39 3c 71 21 ad 3a 6c 8c 02 bd
       0.020278951 0.011317918 0.0013208819 -0.031872198
0000b0 a7 2b 60 3d 84 e7 20 bd 29 39 8a 3c 9c b4 63 bd
       0.05472913 -0.03928329 0.01687296 -0.055592164
0000c0 32 35 ad 3d 3c d0 61 bd 88 e8 f4 bc 7a 16 76 3c
       0.08457412 -0.05513023 -0.029896036 0.015020007
0000d0 1b c6 f8 3c 52 5f 93 bd 05 2f fd 3c 80 e8 9a ba
       0.030367902 -0.07195915 0.03090621 -0.0011818558
0000e0 2d f3 57 3d 28 64 a7 3d b1 8e b2 bd de b0 53 3d
       0.052722145 0.081734 -0.087186225 0.051682346
0000f0 81 7f 6a bd 76 68 b6 3c 00 e1 8a bd 1a d8 d2 bc
       -0.057250503 0.022266608 -0.067811966 -0.02573781
000100 95 72 3b bd 29 df f3 3c d5 ca 9a 3c 79 55 0b 3c
       -0.04576357 0.029769497 0.018895546 0.008504265
000110 53 c8 e3 bd b4 19 01 3e e5 10 a9 3d f5 8d 76 bd
       -0.11122193 0.12607461 0.082551755 -0.060193975
000120 95 01 1a bb c9 a2 21 bd 2d b6 1d be b4 2a ed 3d
       -0.0023499478 -0.039461885 -0.15401526 0.115804106
000130 7d 4f a1 3d 57 38 91 3c a3 9b 90 bd 90 4b d4 3c
       0.07876489 0.01772706 -0.07060935 0.025914937
000140 ad f5 20 3d 53 12 30 bd 22 9b ad 3d 7a 54 55 3d
       0.039296795 -0.042986225 0.08476855 0.052082516
000150 8a 43 cb 3b 6e 76 1c bd 17 a4 4b 3d 9a ed bb 3d
       0.0062031196 -0.03819888 0.049717035 0.09176178
000160 1a 9a 4c 3d 77 65 fa 3d c4 b7 b9 bd 84 80 6b 3d
       0.04995165 0.12226384 -0.09068254 0.05749561
000170 da a6 e3 3d 89 12 94 bd 39 22 81 bd ca 23 15 bc
       0.11115809 -0.07230098 -0.063053556 -0.009102771
000180 b0 8b d8 3d b0 b9 be 3b 3b 41 a0 bd 6d 6d de bd
       0.10573518 0.0058204755 -0.07824942 -0.10860715
000190 a9 95 45 bd a4 49 fd bc c7 29 04 3d 19 6b cb 3d
       -0.04823843 -0.030918904 0.032266404 0.09932537
0001a0 71 e9 f7 bd a6 aa 7a bc 75 b6 6b bd ad b7 c4 bc
       -0.12105072 -0.015299475 -0.05754705 -0.024013365
0001b0 74 ab 01 3c 4a a6 d0 bc 59 64 99 bd 5c 87 09 be
       0.007914413 -0.025469918 -0.07489843 -0.13430542
0001c0 67 70 8a bd f8 14 2b 3e 67 a4 0b 3d 31 d0 b3 3d
       -0.0675972 0.16707218 0.034092333 0.08779944
0001d0 94 aa a0 3d a0 36 fe 3b c0 94 1b be 38 83 d7 bc
       0.07845035 0.0077579767 -0.15193462 -0.026307687
0001e0 c9 b5 eb bd 83 2d b0 3d a0 63 82 3c 59 41 9e 3c
       -0.11509282 0.08602431 0.015916646 0.01931827
0001f0 c5 e4 59 bd e2 c5 99 3c 73 ae 63 3d f8 cb 50 3d
       -0.053196687 0.018771116 0.05558629 0.05097577
000200 21 26 0f be d1 c8 71 bd a9 a8 93 bd 2f 19 03 be
       -0.13979389 -0.059029404 -0.07209904 -0.12802576
000210 61 7f 11 be 39 cf 3e 3d f3 28 e5 3d 3c 4d da 3d
       -0.14208747 0.04658434 0.11189451 0.106592625
000220 57 88 13 be fd 4f 30 bd 55 8b 86 bd 46 65 83 bd
       -0.14407478 -0.043045033 -0.06569544 -0.06415801
000230 9d 56 08 bd 41 11 01 3d 2a 2b 89 3d d3 ff f2 3c
       -0.033285726 0.031510595 0.06697686 0.029663002
000240 6f 85 03 3d 28 90 f2 bc e3 6e ed bd ec 6e 94 3c
       0.032109674 -0.029609755 -0.115934156 0.018119298
000250 be 37 d0 bd 5f 9c 80 3d 7c dc 91 3d fb 54 13 3e
       -0.10166882 0.062798254 0.07122132 0.14387886
000260 c7 59 a2 3d 4b 3e 36 bd 11 db ec bc 1b 23 85 3c
       0.0792728 -0.044493 -0.028913053 0.016252091
000270 29 64 a6 bc e9 a1 dd bc b8 68 ab 3c 21 4b 85 bd
       -0.020311432 -0.027054744 0.020923957 -0.0650847
000280 d5 c5 bf bd 2e 57 70 bc 37 05 cb 3d 6c d7 c1 3d
       -0.09363905 -0.014669223 0.09913104 0.094649166
000290 f3 d2 ee bc 15 54 8f bd 9d 90 37 3d 93 2e 51 3d
       -0.029153323 -0.06998459 0.04481565 0.051069807
0002a0 a3 92 9f 3d 72 73 69 bd e0 11 85 bd f3 23 9d bd
       0.077916406 -0.056994863 -0.0649755 -0.076728724
0002b0 e7 bb af 3d 36 87 2f 3c 8b a7 28 3e 1e 51 91 3d
       0.085807614 0.010713389 0.16470163 0.0709555
0002c0 ff a5 69 bd e6 ef 1a bc ee 53 22 39 85 af 10 bd
       -0.05704307 -0.00945661 0.0001548079 -0.03532364
0002d0 81 e4 9d 3b 89 33 e8 3c 27 86 33 3c df f5 d5 3d
       0.0048184996 0.028344886 0.010957277 0.10447287
0002e0 c2 a4 24 be b8 a8 81 3d 72 a3 b2 3c a6 d8 eb bd
       -0.16078475 0.06331009 0.021806452 -0.11515932
0002f0 ce b6 fb 3b 27 f2 43 bd e0 cb c7 3d a0 ae 57 bc
       0.007681704 -0.047838356 0.09755683 -0.013164192
000300 51 c0 c8 bc 87 ae d3 3c 65 98 1b bd 6f 28 ab bd
       -0.024505766 0.025840057 -0.03798713 -0.083573215
000310 f5 c4 07 bd 8f 7c 69 3d 92 1d 8b 3b 62 cf 9b 3b
       -0.033146817 0.057003554 0.0042454684 0.0047549466
000320 e1 91 ba 3c f6 22 93 3d 58 1e 3c bd 2b 34 f0 bc
       0.022774639 0.07184403 -0.045927376 -0.02932175
000330 01 a8 bf bc 0e c1 c3 bc fc 7d 8e 3b 1b e6 0d 3e
       -0.02339554 -0.023895767 0.0043485146 0.1385731
000340 bb 29 80 3c c8 d2 2b 3d a7 1b c3 3c dc 2d bb 3d
       0.015644899 0.041949064 0.023816897 0.09139606
000350 9b 19 b1 3c 97 c9 29 3d 6d f9 bd bd 52 e0 cc 3d
       0.021618655 0.041452017 -0.0927609 0.10003723
000360 fc ea 0d 3e f6 48 ef 3c 15 16 e9 3d d9 e0 9b bd
       0.1385917 0.029209595 0.11381165 -0.07611246
000370 0b 05 a4 bc 6f 3f db bd ce 00 ea 3d c5 96 03 be
       -0.020021936 -0.107054584 0.11425935 -0.12850483
000380 13 44 65 bd ee d0 03 bd 53 76 88 bd 34 96 88 bd
       -0.055973124 -0.032181673 -0.066631936 -0.06669274
000390 a1 64 7c 3d f8 12 4a 3e d6 6a e4 bd e8 ed bb 3d
       0.061619405 0.19733799 -0.1115319 0.091762364
0003a0 e0 3d 4d 3d 31 16 81 3c 4f b7 d4 bd 3c 59 13 bc
       0.050107837 0.015757652 -0.10386526 -0.008993443
0003b0 21 0d b6 3d 73 21 69 3c d2 e8 5b 3d 17 68 b4 3d
       0.08889223 0.014229166 0.05368883 0.08808916
0003c0 09 42 22 3d 06 ad 21 bc dd 9f 93 bd 52 26 cf bd
       0.039613757 -0.009867912 -0.07208226 -0.10114731
0003d0 22 36 90 bd 02 46 00 3d 3c b3 9c 3d 30 bd 39 bc
       -0.07041575 0.031316765 0.07651374 -0.01133661
0003e0 1a ea 4a 3e 59 3a 0a bd 2b 17 ab bd 92 db 2f bd
       0.19815865 -0.03374705 -0.08354028 -0.042934008
0003f0 04 90 cd bd cc cf 9e bd 6a f1 3b 3c d1 0d a9 3d
       -0.100372344 -0.07754478 0.011471132 0.082545884

hidden.bias f4 [100]
000000 f0 7b 7e 3d 74 5c 5b bd 35 9a 38 bd a7 b5 cd 3c
       0.062129915 -0.053554967 -0.04506894 0.025111033
000010 8a 5b 8c bd 08 76 56 bd 92 31 62 3d 6a 2a 72 bc
       -0.06853397 -0.052358657 0.055223055 -0.01478062
000020 4a 06 88 3a ec 6f 87 3d d7 74 36 3d 57 ab 41 3d
       0.0010377851 0.06613144 0.04454502 0.047282543
000030 5a 5f 31 3d 10 8d d6 3d 93 9a e5 3c 09 3d a1 3b
       0.043303825 0.10476124 0.028027808 0.004920606
000040 e9 84 76 bd 15 f0 52 bc a1 05 b9 3b 2b c4 52 bd
       -0.060185347 -0.012874623 0.005646423 -0.05145661
000050 20 cc 8b bd ea 31 f9 bc ec 54 d5 bc 89 45 31 bd
       -0.06826043 -0.030419309 -0.02604147 -0.043279205
000060 f9 8c f5 3d 3b f1 83 3d ea b5 3a 3d 7d 3d 7b 3d
       0.11989779 0.064424954 0.045583643 0.061337937
000070 03 2e 04 bd c3 85 28 3c e4 77 4b 3d b1 d1 06 3e
       -0.032270443 0.0102857975 0.049674883 0.13165928
000080 18 ba 58 3c 47 2c e6 3d 1f 4d e9 3c 68 5d 39 bd
       0.013227962 0.11238914 0.028479157 -0.045255095
000090 75 d8 6c bc 79 85 1c 3c d4 30 6e bb be 6c be 3d
       -0.014455904 0.009553307 -0.0036345022 0.09298085
0000a0 2e 6a 40 bd 40 6b b7 bd 12 c2 ca 3d ae c1 47 3d
       -0.04697626 -0.08956003 0.09900297 0.04876869
0000b0 d3 eb 95 3d 5d 85 a9 bd 53 a0 7f 3c ec 15 92 3d
       0.073203705 -0.0827739 0.015602189 0.071330875
0000c0 61 f8 c1 bc 77 d7 b6 3d 4a 22 3d bd 05 06 22 bd
       -0.023678007 0.089278154 -0.04617528 -0.039556522
0000d0 1e b2 f4 3c 42 85 dc 3d 68 02 18 3d 05 fa 34 3d
       0.02987009 0.107676044 0.03711167 0.04418375
0000e0 69 8c 77 bd e4 a0 4d bc 84 3c 86 bd e3 f1 63 bd
       -0.06043664 -0.012550566 -0.06554511 -0.055650603
0000f0 38 3e 57 3c 22 f6 b1 3d 12 e0 84 bd 85 03 1e 3c
       0.013137393 0.08689524 -0.064880505 0.009644394
000100 9a 23 92 3d 5e f9 97 bd 66 37 8e bb 2d ce 7d bd
       0.07135697 -0.0742061 -0.0043401 -0.061964203
000110 73 86 7a bd 5e 95 34 3d 2e 3d f2 3d 72 df da 3d
       -0.061163377 0.04408776 0.11828075 0.1068715
000120 00 02 f0 3d e0 18 39 3b bd d5 b6 3d 75 33 ee 3d
       0.117191315 0.0028243586 0.08927486 0.116309084
000130 fe bf 02 3c 90 9b c5 3d 02 6b 17 3b 9a a4 a1 3d
       0.007980345 0.09648812 0.0023104553 0.078927234
000140 be 33 83 3d f1 ee d3 3d 83 ae 3c bd 43 c7 90 bd
       0.064063534 0.10348309 -0.046064865 -0.07069256
000150 c7 4f b2 3d f1 2c f7 3d f8 8a 03 3c 6e b2 e8 3d
       0.087066226 0.12069119 0.008028738 0.11362158
000160 49 40 d2 3d 80 12 d9 3c 2c c4 b8 3c 41 bf 31 3d
       0.10266168 0.02649808 0.02255448 0.043395285
000170 a3 9a a9 bd 09 72 7c 3d 07 b3 c3 3c 8b d6 c2 3b
       -0.08281448 0.06163219 0.023889078 0.0059459857
000180 b6 47 0a 3d e4 20 3e bd b1 8c 81 bd bb ab ca 3d
       0.033759795 -0.046418086 -0.06325663 0.09896036

output.weight f4 [1, 100]
000000 e6 7e 1b 3e d2 a0 0c be b8 3d 21 3e 49 9c 94 be
       0.15185127 -0.13733223 0.157462 -0.29025486
000010 4b 92 ee 3d 9e d8 2b be 75 e0 6c 3e 18 f3 9e be
       0.11648997 -0.16781852 0.23132499 -0.3104484
000020 28 d7 32 be dd ef 6b 3e b9 eb 0c 3e ba 81 16 be
       -0.17464888 0.2304072 0.13761796 -0.14697924
000030 e0 c7 3d be fa 95 0b be 4a 1b 1d be 85 eb 2b 3e
       -0.18533278 -0.1363143 -0.15342441 0.16789062
000040 53 35 74 3e ec 62 62 be f2 20 21 3e 77 3a 5e 3e
       0.23848467 -0.22108048 0.15735224 0.2170199
000050 55 89 94 3e 36 2b 1d 3e c6 f2 15 3e d5 42 8c 3e
       0.29011026 0.15348515 0.14643392 0.2739474
000060 e5 dd 06 be fd cb 41 3e f9 41 25 3e 3f 74 61 3e
       -0.13170584 0.18925472 0.16138448 0.22017
000070 0d 5f 81 3e ff 05 52 3e d0 da 3d 3e 4d 9c 40 be
       0.2526783 0.205101 0.18540502 -0.18809624
000080 4a a6 81 3e 9a 91 08 3e 0b df 27 be a7 ca 5f be
       0.2532218 0.13336793 -0.16393678 -0.2185465
000090 ae a8 34 3e 32 5e e8 3d 40 5c 24 be 41 2c 60 3e
       0.17642471 0.11346091 -0.16050816 0.21891882
0000a0 6e d1 a5 be c2 0d 8c 3e 35 8b 46 3e d9 97 6a be
       -0.32386345 0.27354246 0.19389041 -0.22909488
0000b0 a9 15 39 be 77 d9 1d 3e 10 21 96 3e 21 79 29 3e
       -0.18074669 0.15414988 0.293221 0.16550113
0000c0 e7 73 63 be 99 eb 31 3e 9d 1c 51 3e 91 ba 48 3e
       -0.22212182 0.1737503 0.20421071 0.1960242
0000d0 e3 ed 2b be c9 60 0d be a0 cc 03 3e 23 6c ce bd
       -0.16789965 -0.13806452 0.12871027 -0.10079219
0000e0 7c 8d 2a 3e af 65 a4 be b4 e9 76 3e 7c a2 8d 3e
       0.16655535 -0.32108828 0.24112588 0.27663028
0000f0 7a 92 2f 3e 5a e7 8a be ca 2f 46 be 79 c1 f3 bd
       0.1714572 -0.27129632 -0.19354168 -0.11902136
000100 f8 23 61 3e 0c a0 7e 3e 8e 21 12 be 18 04 a7 3e
       0.21986377 0.2486574 -0.14270613 0.3262031
000110 32 3a 07 3e b0 11 84 3e c6 b2 f3 bd 70 80 19 be
       0.13205793 0.25794744 -0.11899333 -0.14990401
000120 5c 33 5d be 82 f6 dd 3d 42 1e 09 be 07 a7 8f be
       -0.21601623 0.10838033 -0.13390449 -0.2805712
000130 65 1e 7c 3e 6d c3 92 3d bb 0c 31 3e 3f 19 09 be
       0.2462097 0.07166181 0.17290013 -0.13388537
000140 e8 02 6d be a6 fe 00 3e 4a 1d 2d 3e 76 e5 27 3e
       -0.2314564 0.1259714 0.16905704 0.16396126
000150 88 8b b3 3d 00 c4 30 be 3c e9 81 3e 9d 48 1c 3e
       0.08766848 -0.17262268 0.25373256 0.15262075
000160 10 d2 61 be 01 33 42 be 9a 71 42 3e 7a 5b 6b 3e
       -0.22052789 -0.18964769 0.18988648 0.22984114
000170 35 17 13 3e 50 30 62 3e b1 cf 8b 3e bc 65 2d be
       0.14364322 0.22088742 0.27306893 -0.1693334
000180 89 00 28 3e d5 81 14 be 41 20 46 3e 8d 36 30 be
       0.16406454 -0.14502652 0.19348241 -0.1720831
