data/model/expert_training/5/12720.pth (torch, 44823 bytes, 5 tensors)

linear.weight f4 [100, 4]
00000000: e645 b0be b133 af3e d64f 523e 79bd 5dbe
00000010: 3e03 ef3d 7377 f0be aead cc3e abfb 6ebe
00000020: 16a7 4dbc 45e3 8bbe 6507 88be 48d9 e5be
00000030: ed9b 63be fbff 42be 2044 023e 9d3b c5be
00000040: cf71 a53e f47c f63e cfda d1bc 9ab6 093e
00000050: 68e1 0ebf a510 87be 1523 403e e600 813e
00000060: 1a02 c0bc e9ff d5be f421 e8be 4615 d8bd
00000070: 0339 d5be cfe9 99be 205f 123f 9915 ec3e
00000080: 7686 b0be ce9f 76be 3b3f 0ebf 0a3e 9e3e
00000090: 2072 693e 6a2f 75be e2c5 173f e78c c53e
000000a0: b04b 873d e53b 453e 014f 2d3f 69e9 713d
000000b0: 8d0f 87be 5801 46be 6b67 433f d31a 2b3e
000000c0: 5ef8 713e b03e ea3e 4baa bbbd bc3f bcbe
000000d0: 9d6a 90be 304a 88be 2397 4abf 9d42 1b3d
000000e0: 6069 a83d 36eb 963e 49d5 70be 0eb5 e9be
000000f0: 87c0 6abe e8b7 d93d ee82 6d3e 7d47 603e
00000100: d4d8 05bf a902 39bd aaba 6a3e 0cf1 af3e
00000110: 4607 193e b823 8bbe b775 2fbe 7d85 9b3d
00000120: 1d92 eabe bc51 ff3e 7735 833e 4e4c 403e
00000130: 24ed f23e 7849 5abe 9c81 df3d 066b 11be
00000140: ff2c 0d3e 7cd6 b7be 0100 1d3f c97a 923d
00000150: 320a 18be e1ce ebbc 9e5e 48bf d5d7 943b
00000160: 01c1 c6be 6c9a d53e 976c f43e 7f72 1abf
00000170: f018 103e e2c3 eebe 8a64 0abf 44ce 8bbe
00000180: 0028 edbd f0a1 b4be 5b73 b1be 5def e63e
00000190: 58a2 783e f369 8abd 6429 33bf c22b 46be
000001a0: 1b0e 073f 0cac b93d 8099 e73d f662 e63e
000001b0: 6e53 06bd 7591 7fbe c6bd 91be c66f 7abe
000001c0: 24c7 593e 8832 8bbe 622f 243f c6ea d63e
000001d0: c7b3 b2be 658a ecbd d4b8 313f 7f76 e33e
000001e0: 3fc9 c33e 5fe9 ad3e 0e95 d7be 5b69 82be
000001f0: 3a29 7cbe 7679 393d a3e0 253f 96fa 033f
00000200: b60a a33e 1851 f43d 0284 c33e 7341 9f3e
00000210: 07fa 8abd 3df7 dcbe d2ed 053f 1ed4 af3c
00000220: f9f7 923d 681c 903e f185 12bf f9cb dbbd
00000230: 3cd7 ee3e dceb b43c 1735 f5be d309 31be
00000240: 3493 e33e 5108 adbc 3337 483f d091 2ebe
00000250: abda 60be a627 9fbe bf54 503d 683c 76bd
00000260: 354c 86be e837 04bd 8f76 353f 24f7 99bd
00000270: 3b1f 1ebe bb60 cebd 5127 5f3a 2712 ea3e
00000280: 44a8 093e ac2c 873e 5c45 153f eb7e f33e
00000290: 0fca c63e d505 5bbe 08c7 983e ffbf 01bd
000002a0: 6d6c 60be 075a f8bc 623c abbe cd52 dcbe
000002b0: 223f 243e 573d 503e d515 00bf 16e9 1abe
000002c0: aaf2 c73e 4138 b13e cdd8 10bc 3bdc 54be
000002d0: 9869 953d 3488 2fbd 51e7 2a3d 6e11 ad3e
000002e0: d37f ffbe c7c2 adbc 981b 183f a176 d53d
000002f0: bffc 973e 1db8 d33c 5ebf 863d a8a2 e2be
00000300: edd7 fabe b893 603e 7eef 223f 399f ab3e
00000310: 0404 93bd d5a3 d3be ba21 2cbf 4686 90be
00000320: b02d cc3e 2184 803d 1c5d 3dbf 5f65 afbe
00000330: 2f58 d6be 0183 2fbe 151d 9bbe a5a4 80be
00000340: f485 e73e 12b1 6fbe 0a0e 1e3c 2f13 c2be
00000350: d58f c0be b40b 123e 5458 243d 9c38 fcbd
00000360: be57 a2bc 274f b1be 10e5 0f3f f581 a93e
00000370: a8b2 003f d9f1 79be 29b3 7c3e d406 cb3d
00000380: d4f9 a2be b540 273e 5829 213f a3f9 ec3e
00000390: 3bcd e93e fe4d f13d 64e3 913e fddb 84be
000003a0: 69d6 85be d73f 2dbe a03d 89bd 1bd3 d5be
000003b0: 035b 0abe 4a38 053f f086 71bd a8da 2d3e
000003c0: 9d14 be3e 7cba 5cbe 0313 173e c1d5 8cbe
000003d0: 3c83 29bd 600f 5fbd 2704 813e cc8f c6be
000003e0: 7305 93be 0066 653e a577 2ebf d722 aabe
000003f0: 5f63 a3be 70d7 5d3d b51b 7fbe febb e3be
-0.34428328 0.34219125 0.20538267 -0.2165431 0.1167054 -0.46966133 0.39976257 -0.23338191
-0.012552043 -0.2732183 -0.26568142 -0.44892335 -0.2222745 -0.19042961 0.127213 -0.38522044
0.32313392 0.48142207 -0.025617031 0.13448563 -0.5581269 -0.26379886 0.18763383 0.25195998
-0.023438502 -0.41796806 -0.45338404 -0.105509326 -0.4164506 -0.30061194 0.571764 0.46110228
-0.34477586 -0.24084398 -0.5556523 0.30906707 0.22797441 -0.23943868 0.5928632 0.38584062
0.06606233 0.19261129 0.67698675 0.059060488 -0.26379052 -0.1933645 0.7632968 0.16709451
0.23629901 0.45750952 -0.0916334 -0.36767375 -0.2820634 -0.266191 -0.79136866 0.037905324
0.08223224 0.29476327 -0.23518862 -0.45645946 -0.22925006 0.106307805 0.23194477 0.2190227
-0.5228398 -0.045168553 0.22922769 0.34363592 0.14944181 -0.2717569 -0.17134748 0.0759382
-0.458146 0.49867046 0.25626728 0.18779108 0.4744655 -0.21317089 0.10913393 -0.14200982
0.13786696 -0.35905826 0.6132813 0.07152326 -0.14847639 -0.028785171 -0.78269374 0.0045423307
-0.38819125 0.41719377 0.47739097 -0.6033096 0.14072013 -0.46633822 -0.5405966 -0.27305806
-0.11579895 -0.35279799 -0.34658322 0.45104495 0.24280679 -0.067584895 -0.6998503 -0.1935263
0.527559 0.090660185 0.11308575 0.44997376 -0.03279441 -0.24957831 -0.28465098 -0.244567
0.21267372 -0.2718699 0.641348 0.41975993 -0.34902784 -0.11549834 0.6942265 0.44426343
0.38239476 0.3396711 -0.42105907 -0.25471005 -0.24625102 0.04528185 0.64795893 0.5155424
0.3184411 0.1192953 0.3818665 0.3110462 -0.0678597 -0.43157378 0.5231601 0.02146345
0.07176203 0.28146672 -0.5723563 -0.10732264 0.46648586 0.022085123 -0.47892067 -0.17288904
0.44448245 -0.02112213 0.7820923 -0.1704781 -0.21958415 -0.31084937 0.05086207 -0.0601162
-0.26230016 -0.03227988 0.7088403 -0.075178415 -0.15441601 -0.100770436 0.00085126335 0.45716974
0.13443094 0.2640127 0.5830896 0.47557768 0.38826033 -0.21388943 0.2983935 -0.031677242
-0.21916361 -0.030316366 -0.33444506 -0.43031922 0.16039708 0.203359 -0.50033313 -0.15127978
0.39052325 0.3461323 -0.008840752 -0.20787136 0.07295531 -0.042854503 0.041724507 0.3380236
-0.4990221 -0.021211041 0.59417105 0.10423017 0.29685017 0.025844628 0.06579469 -0.44264722
-0.48992863 0.2193135 0.63646686 0.33519915 -0.071785 -0.4133593 -0.6723896 -0.28227443
0.39878607 0.062752016 -0.739702 -0.34257028 -0.41864154 -0.17139818 -0.30295625 -0.25125614
0.45219386 -0.2340739 0.009646902 -0.3790526 -0.37609735 0.14262277 0.0401233 -0.12315485
-0.01981723 -0.346307 0.56208897 0.33106962 0.5027261 -0.24408664 0.24677719 0.09913412
-0.3183123 0.16333278 0.6295371 0.46284208 0.4566439 0.11782454 0.28493798 -0.25949088
-0.26140144 -0.16918884 -0.06701207 -0.41762623 -0.1351128 0.52039015 -0.058966577 0.16977942
0.37125102 -0.21555513 0.14753346 -0.2750683 -0.04138492 -0.054458022 0.2519848 -0.38781583
-0.28715095 0.22402191 -0.68151313 -0.33229706 -0.31911752 0.054160535 -0.24912913 -0.44479364

linear.bias f4 [100]
00000000: 649c c73c e33f c2bd 76db 8dbd 23eb 693d
00000010: 6f63 9abe fa7c abbe 7a3c 8ebe 7939 233e
00000020: d2b0 903e a572 cabd 8d63 9abe ddb2 9c3e
00000030: dfc0 32bc 4419 e43e 74e3 ed3d 9987 f93e
00000040: 3917 d23e 70d1 b23d 6e3b e9bd 36bf 473e
00000050: d85d acbe 03d4 f53e f149 4d3e 4f27 813d
00000060: 4680 853d 5326 40be b806 c53e c04c 7b3e
00000070: a6ac b2bd 2fc2 943e 3499 3abd 865e 0fbd
00000080: 6d80 afbe c070 8ebe 3aee 933d 87f0 d83e
00000090: 99c2 ebbe 2f01 dcbe 3f75 aebe 7b26 cabc
000000a0: c3ee 893e 8d27 e4be cff7 8cbe b512 843e
000000b0: 65e5 893d 4f44 ee3e 88d2 a83c 0f50 afbe
000000c0: ea04 00be cf27 493e cef5 7ebe b60e af3e
000000d0: 4b5a 8d3e 786e d5be 02cd 94be db7f 92be
000000e0: 0827 0c3e b6f1 3dbd e892 923e efed b8be
000000f0: e485 cdbe 0a85 fa3d 287c 4fbe 68a2 00bc
00000100: 35a7 bcbe 313a 173e ce34 803e 77d8 b03d
00000110: 59bf 8dbd d339 85be 2d0e 9abe 62c3 b9be
00000120: e1e7 853e 0a22 b23e 17aa 9d3d 0afa d83e
00000130: a61d dcbd 1ec9 f73e 7ba3 033f 2b46 be3d
00000140: aa47 e2be 1b33 ccbc f8fe c4be e401 a43e
00000150: b26f d0be be11 2bbe 3e11 cebe 296a 053d
00000160: bf0f 2bbd e998 9c3e a3c4 473d 49aa d0be
00000170: dae6 2ebe bebc 383e 6e92 fc3e 9d3d 5bbe
00000180: a7e4 a63e a120 d03e 56b7 e6be 9785 cdbe
0.024366565 -0.09484842 -0.069266245 0.05710901 -0.30153987 -0.33493787 -0.27780515 0.15939893
0.28259903 -0.09885148 -0.30154076 0.30605212 -0.010910242 0.44550526 0.11615649 0.48736265
0.41033342 0.08731353 -0.113882884 0.19506535 -0.33665347 0.48013315 0.20047738 0.06306326
0.06518607 -0.1876462 0.38481688 0.24540997 -0.08724336 0.290544 -0.045556262 -0.035002254
-0.3427767 -0.27820396 0.072231725 0.42371008 -0.46046904 -0.42969653 -0.34073827 -0.024676552
0.26939973 -0.44561425 -0.27532813 0.25795522 0.06733207 0.4653649 0.020608202 -0.34240767
-0.12501875 0.19644092 -0.24898455 0.3419091 0.2760795 -0.41685843 -0.2906266 -0.2861317
0.13686764 -0.04637309 0.28627706 -0.3611903 -0.40141213 0.122324064 -0.20262206 -0.007851221
-0.3684632 0.14768292 0.25040287 0.086350374 -0.06921262 -0.2602068 -0.3008894 -0.36281878
0.26153472 0.34791595 0.07698458 0.42378265 -0.107478425 0.48395628 0.51421326 0.09290727
-0.441953 -0.024926713 -0.38475776 0.32032692 -0.40710217 -0.16705987 -0.4024753 0.032571945
-0.041763064 0.3058541 0.04877151 -0.40754917 -0.1708025 0.1804075 0.49330467 -0.21410222
0.32596323 0.40649894 -0.4506175 -0.40140983

hidden.weight f4 [100, 100]
00000000: 8248 013e a4fc 0c3c 29ce 483b ed90 90bd
00000010: 1315 b83d 081f 2e3b cace b6bd 1e53 b0bb
00000020: ecbb 073a ff56 ba3d dff2 6d3d 8b2e 2c3e
00000030: 323c bb3d 8bc8 9bbc 3ca8 b7bd afcf 013e
00000040: 2ed6 b83d 84db 6abd ca53 2e3d e2d2 ebb9
00000050: 167c 923d 20e0 edbd 4e81 c63d 068c f9bc
00000060: 31f1 ca3b ad99 c0bd b649 3fbd f846 a0bd
00000070: b224 bc3d da5d 163e f2a3 cabc 3818 fd3d
00000080: 54c3 493c b3a4 a3bb 4b2c e63c 92de adbd
00000090: 7227 713d 4c5d 03bd 678a f3bc b211 15bd
000000a0: a721 dc3c 079d 1f3b 44eb 88bb c248 e9bc
000000b0: f488 683d a338 08bd 2eb0 8c3c 5323 84bd
000000c0: 17a1 ab3d aad3 67bd 9d42 13bd c66c c63c
000000d0: 763f 023d 3f04 9dbd ed2f d13c e273 14bc
000000e0: 0ead 7a3d 0bb7 a73d 21b3 9ebd f623 463d
000000f0: 7487 88bd b5bd ed3c 1196 92bd e0f8 d1bc
00000100: 2c77 51bd 910c 1e3d e75a b23c 0a2a 9f3b
00000110: 2d9d f0bd e353 ff3d d8a7 a53d 63d7 82bd
00000120: 5d5c 023b e21b 00bd da91 19be 0d5b f63d
00000130: 14ae 983d 652c bd3c ec26 84bd e4c5 e53c
00000140: 2a30 0a3d 06fb 3fbd 4210 a33d 3466 793d
00000150: 4cef 12bb 0eef 2fbd 62a4 333d 0991 bd3d
00000160: f780 4a3d 4970 073e 9eb5 b8bd f005 553d
00000170: a6c5 df3d 2afc 83bd 9929 6ebd 01f9 62bc
00000180: 8591 df3d 554b 7e3c a19d aabd 7b56 ebbd
00000190: 3903 5cbd 4314 d2bc 1709 213d 4961 c93d
000001a0: 35eb f1bd 0a7a 38bc b16a 54bd bf43 d0bc
000001b0: 1f4f 5e3b bbe4 b3bc 9228 91bd 3dbd 11be
000001c0: 1680 8cbd c309 233e 0747 033d 554c a23d
000001d0: 1738 8e3d a127 173c f828 1ebe c8b3 d7bc
000001e0: b067 e0bd b4dc a43d 096b 1a3c 3df7 c63c
000001f0: d3b5 51bd d8e7 dc3c 18f2 5b3d 5a99 413d
00000200: 58a9 0bbe 8a34 88bd 5a54 92bd 0eda 03be
00000210: 22b3 07be b60c 503d 9426 e23d ffc3 d73d
00000220: 667a 09be d978 1dbd 9f5c 7fbd 6099 80bd
00000230: da10 1fbd 18fd 223d 08cc 913d 60cc e13c
00000240: dd8b ff3c 0a3b 0dbd 65c6 eebd c104 da3c
00000250: 20fc cfbd aff1 823d 7412 9d3d 6be2 093e
00000260: 414d a13d c31f 27bd 21fc c9bc d800 be3c
00000270: 6ca2 e5bc 6b08 d8bc 5f7a 3e3c dec2 7fbd
00000280: 5bda acbd 8365 a8bc c0c4 d03d 0737 c03d
00000290: cbd8 cbbc 9855 a0bd cfbd 303d e6a7 5a3d
000002a0: 6d71 aa3d e814 62bd 4b71 80bd c760 97bd
000002b0: a01a a93d d96e 343b 9117 253e 2187 893d
000002c0: ae64 5dbd 8992 5ebc e4b6 9fbb f465 17bd
000002d0: 0d7b 173c 12f9 fe3c 35cc 703c de47 c43d
000002e0: 9c38 1cbe a4d1 883d 8415 d83c e28d ebbd
000002f0: a9de ec3b 75e1 6bbd d591 c73d d9f8 10bc
00000300: 26b0 c2bc 5652 9a3c 2a33 2abd 9383 a3bd
00000310: e3ab 10bd 9392 423d ece1 093c 2a66 263c
00000320: ac7b ee3c 59ab 833d ecc4 5fbd 2de8 01bd
00000330: a801 ccbc 35ae ffbc 3c91 85bb e26f 0e3e
00000340: 1ae0 a53c e5ff 183d 73a5 863c b336 cb3d
00000350: 6daa e23c 5bed 483d 4f86 afbd 0794 df3d
00000360: cc85 163e 4949 f23c eaad eb3d 3afa 92bd
00000370: 79d2 e7bc 4676 c9bd e38e fa3d 667b 08be
00000380: 5198 6fbd 08d2 2bbd ab90 76bd 50ec 73bd
00000390: cfc1 6b3d 0d5c 513e 8afa dabd 0e70 b83d
000003a0: d982 253d 467a 053c ebed c6bd 4225 34bb
000003b0: f702 a23d d940 c83b 03fe 3c3d b930 ab3d
000003c0: e969 443d e2ad 9ebc d310 a3bd 7105 c0bd
000003d0: 3678 83bd 2152 203d d434 993d 1339 a7bc
000003e0: 78a6 463e 8fcc 08bd f9f7 babd 44fe 0abd
000003f0: d2ed c2bd 6ed8 adbd 2286 873b 0454 963d
0.12625316 0.008605156 0.003064046 -0.070588924 0.089883946 0.002656879 -0.08926161 -0.005381002
0.0005177844 0.090986244 0.058092948 0.1681463 0.09142341 -0.019016525 -0.08967635 0.12676881
0.090252265 -0.057338253 0.042560376 -0.00044979813 0.07152574 -0.11615014 0.09692632 -0.030462276
0.006193303 -0.09404311 -0.046701156 -0.07826036 0.091866866 0.14684239 -0.024736378 0.12358135
0.012314636 -0.004993999 0.028097292 -0.084897175 0.05887551 -0.032071397 -0.029729081 -0.03639383
0.026871515 0.002435507 -0.0041784365 -0.028477076 0.056771234 -0.033257138 0.017173853 -0.0645205
0.08380335 -0.056598343 -0.0359522 0.02422179 0.031798802 -0.076668255 0.025535548 -0.009060832
0.061200194 0.081892096 -0.0774901 0.04837414 -0.06666461 0.029021123 -0.07157529 -0.025631368
-0.05113904 0.038586203 0.021771861 0.0048573064 -0.11748729 0.12467172 0.08088654 -0.06388738
0.0019891479 -0.03127659 -0.14997044 0.12029085 0.07455078 0.023092458 -0.06452736 0.028048463
0.03373734 -0.046870254 0.07962085 0.060888484 -0.0022420464 -0.04295259 0.04385794 0.09256179
0.049439397 0.13226427 -0.09019016 0.052007616 0.1092637 -0.06444581 -0.05814514 -0.0138533125
0.109164275 0.01552089 -0.083308466 -0.11491104 -0.05371401 -0.025644427 0.03931531 0.09833009
-0.1181244 -0.011259565 -0.05185956 -0.025422929 0.0033921672 -0.021959653 -0.07087816 -0.14232345
-0.06860368 0.15921693 0.03205016 0.079247154 0.06944292 0.009225757 -0.15445316 -0.026330844
-0.10957277 0.08049908 0.009424933 0.024287814 -0.05119879 0.02696602 0.053697675 0.047265388
-0.13638818 -0.06650646 -0.07144995 -0.1287615 -0.13251927 0.050793372 0.110425144 0.1053543
-0.13425598 -0.038445327 -0.06234419 -0.06279254 -0.03883443 0.03979215 0.07118994 0.027563274
0.031194622 -0.034480132 -0.116589345 0.026613595 -0.10155511 0.06393754 0.07669535 0.13465278
0.07876063 -0.040801775 -0.024656357 0.023193762 -0.02803155 -0.026371202 0.011625855 -0.0624417
-0.084400855 -0.020556217 0.10193777 0.09385496 -0.024883648 -0.07828826 0.043149766 0.053382777
0.083224155 -0.05519572 -0.06271609 -0.07391506 0.082570314 0.002753189 0.16122271 0.06715227
-0.054051094 -0.013584741 -0.004874097 -0.036962464 0.009245646 0.031124625 0.014697124 0.0958402
-0.1525597 0.06680611 0.026377447 -0.115016714 0.0072286916 -0.05758806 0.09744612 -0.008848392
-0.023765635 0.018838089 -0.0415527 -0.0798408 -0.035320174 0.047503065 0.00841568 0.010156194
0.029111706 0.06429166 -0.05463116 -0.03171556 -0.024903134 -0.031210998 -0.004076151 0.13909867
0.020248462 0.037353415 0.016436314 0.099225424 0.027669156 0.049054485 -0.08570539 0.10916906
0.14699477 0.02957596 0.11507781 -0.07176633 -0.028298603 -0.09837012 0.12234285 -0.13328323
-0.05849487 -0.04194835 -0.06019656 -0.059551537 0.057557877 0.20445271 -0.10692318 0.09005748
0.04040799 0.008146828 -0.09713348 -0.0027488028 0.07910722 0.006111246 0.046140682 0.083589025
0.047952566 -0.019370023 -0.07962193 -0.09376038 -0.06419413 0.039140824 0.07480779 -0.020412957
0.1939944 -0.033398207 -0.09129328 -0.033933893 -0.09518017 -0.08488546 0.004135863 0.073402435

hidden.bias f4 [100]
00000000: 1f5c 8c3d 410f 71bd 5219 16bd 821e a13c
00000010: eff4 82bd 824a 6cbd 5c3d 793d 5578 a6bc
00000020: 5072 94bb 7c0e 923d e699 4c3d 9a4f 2c3d
00000030: 7dbe 1a3d 5bc4 cb3d 1c80 b93c ab4d 353c
00000040: 2324 5ebd 4240 96bc fc93 2d3c 6b63 3cbd
00000050: 9a24 80bd 88bd d3bc 2677 a6bc 139d 19bd
00000060: c736 ea3d 58a1 923d e505 503d d3ee 893d
00000070: e44d dcbc 8d60 863c e748 613d c341 013e
00000080: 2877 9b3c 26ba f03d ef2d bc3c 4575 50bd
00000090: 0ca9 14bc 3c5f 803c 9ca0 14bc 5f1a d03d
000000a0: 211e 57bd cf40 acbd ed1f d83d b971 303d
000000b0: badd 8a3d 98f4 9ebd 7294 ae3c a62d 9e3d
000000c0: de44 eebc 4ce8 c23d 25ef 28bd 2132 0dbd
000000d0: 6f06 ca3c d61e d13d 5a31 303d 2553 1f3d
000000e0: c132 59bd 94cf 93bc 32f2 76bd 32b7 4bbd
000000f0: abe4 9a3c 4372 a63d 2f19 90bd 1ea9 963b
00000100: 2ee7 9c3d e629 8dbd 4ef9 1bbc af08 65bd
00000110: 34b0 65bd 55b5 4d3d 285a e73d bc2a d03d
00000120: f6b9 e43d ded5 fa3b 57e5 ab3d 11dd e23d
00000130: 4694 5b3c 97cf d13d 7cbc 173c 1ebf 963d
00000140: 4eea 6f3d 312e df3d a04e 28bd 2e6d 87bd
00000150: f4d6 bc3d e204 ec3d 4a0f 623c 455a f43d
00000160: 47e5 c63d b131 ab3c b5a9 e33c 3110 4a3d
00000170: 1074 9ebd 7d43 8c3d 0d4a f53c cf5f 303a
00000180: c790 1d3d 674e 53bd ffc2 6dbd d895 bf3d
0.06853508 -0.058852438 -0.03664524 0.019667868 -0.063943736 -0.057688244 0.060849532 -0.02032105
-0.0045302287 0.07131669 0.049951456 0.0420681 0.03777932 0.09949561 0.022644095 0.011065881
-0.05423368 -0.018341187 0.010594364 -0.04599325 -0.06256981 -0.025847211 -0.020320486 -0.037503313
0.11436229 0.0715968 0.05078687 0.06735005 -0.02689261 0.01640346 0.055001166 0.12622742
0.018977717 0.11754255 0.022971122 -0.050893087 -0.009073507 0.015670411 -0.009071495 0.1016128
-0.052518968 -0.08410799 0.10552964 0.043077204 0.06780572 -0.07761496 0.021311019 0.077235505
-0.029085573 0.09516963 -0.04124369 -0.034471635 0.02466127 0.102109596 0.043015815 0.038897652
-0.05302692 -0.018043317 -0.06028957 -0.049735256 0.018907866 0.081272624 -0.070360534 0.004597797
0.076612815 -0.06892757 -0.009519888 -0.055916484 -0.056076244 0.05022176 0.11296493 0.10164401
0.11168282 0.0076548895 0.083933525 0.11077321 0.01340205 0.10244673 0.009261247 0.073606715
0.05857306 0.10897482 -0.041090608 -0.06612621 0.092206866 0.11524369 0.0137975905 0.1193128
0.097117 0.020897718 0.027790884 0.049331848 -0.07736981 0.0684881 0.029942537 0.0006728144
0.03846815 -0.051588442 -0.05804729 0.09354752

output.weight f4 [1, 100]
00000000: d214 253e 650c 09be 0025 223e 0d4c 92be
00000010: 817a ef3d 0fca 27be f445 723e 43a3 9cbe
00000020: 4c76 2dbe 9c57 6f3e e31c 113e f4bd 12be
00000030: 2198 38be 11be 07be bbde 18be b837 343e
00000040: 7590 7b3e b9d0 5dbe b559 233e 1234 623e
00000050: 714e 973e e6fe 1d3e a7dc 1b3e dc47 8f3e
00000060: dea1 01be 83fd 4b3e 3e43 283e 77fa 683e
00000070: 52d4 823e 77ef 593e 0b07 423e 32eb 3bbe
00000080: 9cae 843e b83e 0c3e 01d8 22be eb1e 5abe
00000090: 774c 383e 53bd f73d 5199 1fbe ffae 663e
000000a0: 859c a3be 5f54 8c3e f44f 503e f191 64be
000000b0: 81a1 34be be42 203e 80e7 983e 9061 303e
000000c0: fdc5 60be 57ba 383e a939 523e 2513 4b3e
000000d0: 8e96 28be 1558 08be 517b 0a3e aada c5bd
000000e0: 5905 323e 535f a2be 234c 763e 805e 913e
000000f0: 1cc5 353e 551d 88be f622 42be 4dbe edbd
00000100: 45b3 643e 1aa0 803e e486 0ebe 2504 ab3e
00000110: c90d 0a3e 0f23 883e 6448 ebbd 99d8 15be
00000120: 603a 58be 7518 e23d fe2e 05be 1a0e 8dbe
00000130: 8417 803e de42 a13d 5da8 3a3e e352 05be
00000140: 3e22 68be e2f7 053e d337 2d3e c7ca 233e
00000150: af79 ba3d 6b5c 2cbe 2c0f 853e 3530 223e
00000160: 77a0 5cbe 8eb4 3cbe 6ad2 453e 7b4b 723e
00000170: 0704 153e 9f66 693e 40de 8f3e ed9d 29be
00000180: 48a5 293e d65a 11be 75fd 483e 50de 2bbe
0.16121224 -0.13383634 0.15834427 -0.28573647 0.11693288 -0.16385673 0.23659497 -0.3059331
-0.16939658 0.23373264 0.14171176 -0.14330274 -0.18026783 -0.13256098 -0.14928715 0.1759938
0.24566825 -0.21661653 0.1595219 0.22090176 0.29552034 0.15429267 0.15220891 0.27984512
-0.12659404 0.19920926 0.16431901 0.22751795 0.25552613 0.21282755 0.18947999 -0.18351439
0.25914466 0.136958 -0.15902711 -0.21300857 0.17997919 0.120966576 -0.1558583 0.22527693
-0.31955352 0.2740812 0.20343 -0.22321297 -0.17639734 0.1565046 0.2986412 0.17224717
-0.21950527 0.18039833 0.20529808 0.19831522 -0.16463682 -0.1331485 0.13523604 -0.096608475
0.17384852 -0.31713352 0.24052481 0.2839241 0.17750973 -0.2658488 -0.18958649 -0.116085626
0.22334011 0.25122148 -0.13918644 0.334016 0.13481821 0.26589248 -0.11488417 -0.14633407
-0.21116018 0.11039821 -0.13006207 -0.2754982 0.2501794 0.07874082 0.18228288 -0.130199
-0.22669312 0.13082841 0.16915826 0.15995322 0.091052406 -0.1683213 0.25988138 0.15838702
-0.21545587 -0.18428251 0.19318548 0.23661606 0.14552318 0.22793053 0.2809925 -0.1656415
0.16566956 -0.14194807 0.19627936 -0.16784024
