data/model/expert_training/5/12730.pth (torch, 44823 bytes, 5 tensors)

linear.weight f4 [100, 4]
-0.34754637 0.33995903 0.20633514 -0.21759976 0.115600236 -0.4708948 0.39880583 -0.2354907
-0.011865748 -0.2713862 -0.26669303 -0.44706935 -0.22021729 -0.18845189 0.12628601 -0.383261
0.32363626 0.47924447 -0.02265437 0.13386844 -0.56620526 -0.26457098 0.18321732 0.24878652
-0.022968087 -0.4165529 -0.45263624 -0.103053145 -0.42064273 -0.30168927 0.5689598 0.45806968
-0.34155974 -0.2387615 -0.55509573 0.31137165 0.22816476 -0.24062283 0.59280616 0.38301054
0.06540498 0.1906631 0.6782679 0.057427745 -0.26629162 -0.1948062 0.7621586 0.16447812
0.23672616 0.4553295 -0.088694066 -0.3679973 -0.27945146 -0.2640785 -0.7917033 0.039971583
0.08680477 0.29367012 -0.23041007 -0.45536876 -0.22989552 0.10536229 0.23081617 0.21611542
-0.5269753 -0.04658012 0.22764397 0.34083557 0.15082048 -0.26972756 -0.17183733 0.07794225
-0.46306512 0.49632734 0.25680995 0.186405 0.47564197 -0.21458246 0.11076647 -0.14379047
0.13714366 -0.36022028 0.61179703 0.068992294 -0.146382 -0.026548337 -0.78380287 0.00622872
-0.39124238 0.414879 0.47841826 -0.60381454 0.14118005 -0.46461806 -0.5413177 -0.27095738
-0.11466495 -0.3512892 -0.3455912 0.45372045 0.2428635 -0.06549234 -0.7016412 -0.19219638
0.52786607 0.08891805 0.11492694 0.4479697 -0.031290293 -0.24752554 -0.28564015 -0.24273057
0.21276878 -0.27304918 0.64115536 0.41688442 -0.3520417 -0.11691565 0.6928197 0.4414332
0.3857493 0.33812532 -0.41432145 -0.25507376 -0.24923575 0.043829937 0.6466598 0.5126556
0.31895065 0.11752417 0.3836822 0.30902165 -0.070709124 -0.43255928 0.5196835 0.01904411
0.073697664 0.28416318 -0.5738751 -0.106525525 0.4687606 0.024832984 -0.48035696 -0.17174982
0.44586733 -0.022722233 0.7841261 -0.17194559 -0.22090498 -0.30883217 0.05042233 -0.057141133
-0.26628378 -0.033918664 0.7063414 -0.07741487 -0.15447791 -0.0974005 -0.0020948988 0.45629534
0.13421376 0.26233715 0.58419126 0.47334617 0.38911143 -0.21544379 0.2999794 -0.03360782
-0.21642627 -0.028083619 -0.33531523 -0.42903042 0.162379 0.20599584 -0.50181794 -0.15017521
0.39159825 0.3441868 -0.0060948706 -0.20869805 0.07516073 -0.04343788 0.04206691 0.33483025
-0.50424343 -0.0227163 0.5920702 0.101626806 0.297385 0.023731321 0.06853426 -0.44308296
-0.4956016 0.21760821 0.6348575 0.33253625 -0.0703719 -0.41141066 -0.67305094 -0.28028595
0.39963838 0.06542181 -0.74119055 -0.3419151 -0.41512227 -0.1692553 -0.3031038 -0.2493188
0.4555222 -0.23137964 0.008272461 -0.37724146 -0.3729769 0.14410564 0.03840991 -0.12143208
-0.021514561 -0.34707594 0.55917007 0.3280474 0.5037363 -0.24548891 0.24845405 0.09694344
-0.32144743 0.16169219 0.62885845 0.460194 0.45721617 0.11582035 0.2872665 -0.26038662
-0.25863698 -0.1669104 -0.06789928 -0.41591153 -0.13781598 0.51750803 -0.056376208 0.16904593
0.37169126 -0.21751982 0.14975868 -0.27612644 -0.042003047 -0.05618806 0.2530532 -0.38943774
-0.2837487 0.22649297 -0.6828364 -0.33173862 -0.31588036 0.056539774 -0.25017837 -0.44366315
00000000: 99f1 b1be 1c0f ae3e 8549 533e 79d2 5ebe
00000010: d1bf ec3d 2019 f1be 4730 cc3e 7924 71be
00000020: 8e68 42bc 22f3 8abe fd8b 88be 46e6 e4be
00000030: a480 61be 88f9 40be 1f51 013e c93a c4be
00000040: a7b3 a53e 885f f53e a895 b9bc cf14 093e
00000050: d4f2 10bf d975 87be 529d 3b3e e5c1 7e3e
00000060: 9227 bcbc 6c46 d5be f0bf e7be 870d d3bd
00000070: 7c5e d7be 0477 9abe 59a7 113f 1c88 ea3e
00000080: ebe0 aebe e57d 74be c11a 0ebf 1b6c 9f3e
00000090: 06a4 693e d565 76be 25c2 173f f519 c43e
000000a0: 0cf3 853d 303d 433e f7a2 2d3f 5b39 6b3d
000000b0: 6057 88be 477b 47be d31c 433f f46c 283e
000000c0: 5868 723e f320 e93e 3ca5 b5bd 246a bcbe
000000d0: 4314 8fbe 4c35 87be 11ad 4abf 3eb9 233d
000000e0: b3c6 b13d ee5b 963e 9ef0 6bbe 1826 e9be
000000f0: bb69 6bbe 2fc8 d73d 135b 6c3e 5c4d 5d3e
00000100: dae7 06bf ccca 3ebd 801b 693e 0082 ae3e
00000110: af70 1a3e bb19 8abe 20f6 2fbe 30a0 9f3d
00000120: df16 edbe 9e1e fe3e 987c 833e f4e0 3e3e
00000130: 5887 f33e 81bb 5bbe 88d9 e23d cf3d 13be
00000140: 636f 0c3e cb6e b8be bb9e 1c3f d54b 8d3d
00000150: 2ae5 15be e67b d9bc 4ea7 48bf 4a1a cc3b
00000160: ec50 c8be 056b d43e 3df3 f43e 9793 1abf
00000170: 8191 103e 6be2 edbe cc93 0abf edba 8abe
00000180: 75d5 eabd 2edc b3be 54f1 b0be 0c4e e83e
00000190: 36b1 783e d920 86bd c29e 33bf 21cf 44be
000001a0: 3b22 073f ab1a b63d d15e eb3d 495c e53e
000001b0: 402a 00bd 5677 7dbe 6d3f 92be 5d8e 78be
000001c0: 0fe0 593e 1acd 8bbe c222 243f e071 d53e
000001d0: cf3e b4be 7971 efbd a25c 313f 8803 e23e
000001e0: ef80 c53e c31e ad3e f121 d4be 0799 82be
000001f0: a837 7fbe 0587 333d 7f8b 253f 663d 033f
00000200: 804d a33e 83b0 f03d fe71 c43e 1638 9e3e
00000210: f2cf 90bd 6978 ddbe fa09 053f 6502 9c3c
00000220: cdee 963d d67d 913e 7be9 12bf 0e2a dabd
00000230: 6401 f03e 8b6e cb3c 59f1 f5be 2fdf 2fbe
00000240: b948 e43e fa23 babc 7dbc 483f 8112 30be
00000250: ea34 62be 401f 9ebe a587 4e3d d20c 6abd
00000260: 5956 88be 4cee 0abd cad2 343f b08b 9ebd
00000270: 752f 1ebe ea79 c7bd 924a 09bb 8b9f e93e
00000280: 556f 093e 0e51 863e 8f8d 153f 6e5a f23e
00000290: 9d39 c73e 4c9d 5cbe e696 993e 5aa8 09bd
000002a0: d99e 5dbe 9e0f e6bc 70ae abbe e0a9 dbbe
000002b0: ae46 263e 93f0 523e 2477 00bf 88c7 19be
000002c0: 917f c83e 4139 b03e 7bb7 c7bb f1b4 55be
000002d0: deed 993d ebeb 31bd 5a4e 2c3d df6e ab3e
000002e0: 1916 01bf 8917 babc ea91 173f b721 d03d
000002f0: d942 983e 3068 c23c b15b 8c3d c5db e2be
00000300: 7ebf fdbe b0d4 5e3e 0586 223f 3142 aa3e
00000310: 251f 90bd 6ba4 d2be 114d 2cbf a481 8fbe
00000320: 679d cc3e dffb 853d aabe 3dbf 7f0f afbe
00000330: e88a d4be 4351 2dbe 6c30 9bbe 6d4d 7fbe
00000340: 353a e93e c9ee 6cbe 3789 073c cb25 c1be
00000350: d4f6 bebe 6e90 133e b653 1d3d 62b1 f8bd
00000360: 4e3f b0bc f0b3 b1be c525 0f3f d4f5 a73e
00000370: ddf4 003f 7261 7bbe bd6a 7e3e 488a c63d
00000380: c294 a4be a392 253e defc 203f 8c9e eb3e
00000390: 3d18 ea3e 3833 ed3d 9814 933e 6551 85be
000003a0: 116c 84be 8fea 2abe c70e 8bbd 5bf2 d4be
000003b0: a21f 0dbe 687b 043f bdea 66bd 601a 2d3e
000003c0: 514e be3e 84bd 5ebe 575a 193e 7260 8dbe
000003d0: 630b 2cbd 7425 66bd 3090 813e 6264 c7be
000003e0: 8247 91be c6ed 673e 5ece 2ebf a5d9 a9be
000003f0: 12bb a1be 4096 673d 6117 80be d127 e3be

linear.bias f4 [100]
0.01723002 -0.10204007 -0.0627671 0.06429576 -0.30658656 -0.34387204 -0.27103207 0.15099108
0.29064125 -0.10521671 -0.30784458 0.29840106 -0.015942203 0.4532091 0.11534968 0.4809612
0.4022576 0.09451428 -0.121481955 0.19006456 -0.34362307 0.48742136 0.19363467 0.06964867
0.07244966 -0.1818002 0.3790673 0.25249496 -0.09369315 0.28267476 -0.04789493 -0.042879634
-0.3484314 -0.28635758 0.079143025 0.43102852 -0.46519825 -0.4243076 -0.34871164 -0.01921441
0.2631918 -0.45099035 -0.26815182 0.26503026 0.06263716 0.46073452 0.01229683 -0.34755218
-0.1332209 0.20356973 -0.24289471 0.34981617 0.28409308 -0.4103557 -0.29832324 -0.29141924
0.12913205 -0.051558334 0.2938816 -0.36811408 -0.40689567 0.116029836 -0.19551285 -0.00053037587
-0.36070898 0.14060624 0.24489059 0.09451267 -0.06250943 -0.26603228 -0.3062256 -0.37072554
0.2685325 0.35583997 0.08427604 0.4180996 -0.10229018 0.49108675 0.5217811 0.08643992
-0.4505378 -0.016812116 -0.39257604 0.32800233 -0.41309103 -0.15872175 -0.39513788 0.02679862
-0.050357983 0.2981878 0.055621777 -0.41646656 -0.17831065 0.18825561 0.4882446 -0.22200236
0.32054877 0.4147486 -0.45058033 -0.39454195
00000000: f925 8d3c 62fa d0bd 0a8c 80bd 7fad 833d
00000010: eaf8 9cbe ff0f b0be b7c4 8abe 689d 1a3e
00000020: eece 943e dc7b d7bd ce9d 9dbe 06c8 983e
00000030: 3999 82bc 060b e83e 743c ec3d 8c40 f63e
00000040: b5f4 cd3e b490 c13d 88cb f8bd 49a0 423e
00000050: 5def afbe 4b8f f93e 2b48 463e f6a3 8e3d
00000060: 7d60 943d d529 3abe 1c15 c23e 0547 813e
00000070: 32e2 bfbd bfba 903e 792d 44bd 8ea2 2fbd
00000080: 9a65 b2be 769d 92be bd15 a23d c5af dc3e
00000090: 772e eebe d93e d9be 558a b2be 8a67 9dbc
000000a0: 13c1 863e 35e8 e6be 324b 89be 0cb2 873e
000000b0: e947 803d 65e5 eb3e a578 493c 5cf2 b1be
000000c0: 0f6b 08be 9574 503e 64b9 78be 1b1b b33e
000000d0: a674 913e 241a d2be d3bd 98be e734 95be
000000e0: 313b 043e d52e 53bd a677 963e 7379 bcbe
000000f0: a154 d0be 0da1 ed3d 8534 48be ec08 0bba
00000100: d9ae b8be 15fb 0f3e 99c4 7a3e dc8f c13d
00000110: f204 80bd 6235 88be 9ac9 9cbe bdcf bdbe
00000120: 187d 893e a830 b63e eb98 ac3d 2711 d63e
00000130: 847d d1bd b96f fb3e 7293 053f 6a07 b13d
00000140: e4ac e6be 90b9 89bc baff c8be ecef a73e
00000150: ab80 d3be f487 22be 834f cabe c888 db3c
00000160: 2c44 4ebd 12ac 983e a9d3 633d 1b3b d5be
00000170: 1197 36be 14c6 403e 32fb f93e 9654 63be
00000180: f81e a43e ee59 d43e 77b2 e6be 6701 cabe

hidden.weight f4 [100, 100]
0.12644891 0.013264568 0.009122671 -0.06946136 0.09530209 0.0078038876 -0.083728574 -0.0072620176
-0.0058955434 0.09371893 0.06621842 0.16088024 0.09059467 -0.028215041 -0.09208228 0.11857689
0.08322168 -0.0603767 0.04609694 -0.0024732237 0.077732936 -0.12423712 0.09423126 -0.031030357
0.004592376 -0.08654606 -0.050289385 -0.0858079 0.093953066 0.14044346 -0.02486411 0.12423891
0.02239426 -0.0001734542 0.025110217 -0.088403136 0.06946543 -0.026307348 -0.02389979 -0.03591425
0.0214184 0.011788902 0.001845692 -0.032626368 0.055410635 -0.039966058 0.0190175 -0.054809634
0.087517686 -0.06349498 -0.030553963 0.0165324 0.02918695 -0.07042661 0.030002348 -0.0015100995
0.05647131 0.08262838 -0.085767426 0.05487809 -0.056958385 0.024406698 -0.06607619 -0.02278103
-0.0456864 0.032965448 0.018950751 0.0061889677 -0.11221952 0.13084486 0.086709775 -0.05773757
-0.0052917493 -0.03935346 -0.15185402 0.11409385 0.0780664 0.016429601 -0.07194254 0.024837965
0.038875233 -0.044879507 0.0855993 0.052093737 0.0066703446 -0.03907943 0.049652334 0.09060089
0.05096533 0.12503481 -0.092849225 0.057235826 0.113647394 -0.06844337 -0.06280751 -0.009592852
0.106346235 0.00814058 -0.07645373 -0.10943807 -0.054409925 -0.031111024 0.03261015 0.09613038
-0.12255291 -0.017206367 -0.057997495 -0.024738248 0.009485095 -0.02523222 -0.079286836 -0.13501555
-0.06668713 0.16879469 0.035521947 0.08778797 0.07606243 0.012726418 -0.15842254 -0.023461059
-0.11650058 0.08899714 0.012390295 0.025349205 -0.05034982 0.02027693 0.05797628 0.055178132
-0.13888973 -0.06055746 -0.07007245 -0.13078071 -0.1427728 0.045022678 0.11425133 0.109650984
-0.14507191 -0.044796124 -0.0686559 -0.06438715 -0.03279781 0.030016415 0.06464885 0.032542333
0.033592254 -0.027336843 -0.11947401 0.016811462 -0.10608238 0.07115938 0.072538525 0.14197782
0.08215298 -0.047425512 -0.03011704 0.016210828 -0.024528405 -0.025923144 0.020352947 -0.06918498
-0.094308175 -0.015186868 0.09606821 0.09037223 -0.030962486 -0.07228626 0.04681115 0.050862957
0.07727952 -0.06105543 -0.06779104 -0.080402195 0.090169735 0.010924013 0.16294047 0.07358252
-0.058580898 -0.006458303 0.002939509 -0.033580996 0.0032347501 0.027966836 0.008075763 0.1049372
-0.1617328 0.06197378 0.019944832 -0.11224204 0.0044306316 -0.050533295 0.10089128 -0.014894978
-0.028883386 0.022215318 -0.036130216 -0.08494377 -0.031628393 0.05495325 0.0012726174 0.003992081
0.03166271 0.06729563 -0.047234453 -0.028530978 -0.019744923 -0.024857868 0.0023082073 0.13709573
0.015222957 0.0374696 0.024989333 0.09314785 0.025966503 0.041365813 -0.0887376 0.101249754
0.14112891 0.024289256 0.120949306 -0.077433184 -0.022119794 -0.10677953 0.12103234 -0.1352165
-0.059899736 -0.0356928 -0.06704883 -0.067481026 0.05727685 0.19892892 -0.10847724 0.091019206
0.048267417 0.01346299 -0.10060366 -0.0093494225 0.08751234 0.013512024 0.05400422 0.08406906
0.040371004 -0.011368748 -0.071544774 -0.099927425 -0.06769311 0.031056318 0.07764265 -0.012384867
0.19973959 -0.03908682 -0.08634317 -0.039724775 -0.101209514 -0.07667125 0.008731177 0.077728644
00000000: d37b 013e a153 593c 4177 153c c241 8ebd
00000010: be2d c33d c1b7 ff3b e379 abbd 38f6 edbb
00000020: 672f c1bb b6ef bf3d 869d 873d cabd 243e
00000030: b389 b93d 3b23 e7bc a295 bcbd 71d8 f23d
00000040: 2170 aa3d 8f4d 77bd 25d0 3c3d cf15 22bb
00000050: 7232 9f3d 0870 febd 52fc c03d 6033 febc
00000060: a47b 963b 103f b1bd 3efc 4dbd 0dbc afbd
00000070: 776a c03d 69d0 0f3e d1af cbbc f870 fe3d
00000080: 2b74 b73c 42e1 35b9 f1b3 cd3c b40c b5bd
00000090: e443 8e3d 8282 d7bc 7ec9 c3bc d21a 13bd
000000a0: a475 af3c 3d26 413c 26eb f13a 3aa3 05bd
000000b0: 43f6 623d 73b3 23bd 97ca 9b3c 1180 60bd
000000c0: 793c b33d a809 82bd 4e4c fabc f56e 873c
000000d0: 7819 ef3c d43b 90bd 7cc7 f53c 88ee c5ba
000000e0: 764e 673d 1139 a93d d5a6 afbd d9c7 603d
000000f0: 324d 69bd 8ef0 c73c f452 87bd 489f babc
00000100: aa21 3bbd c706 073d 9b3e 9b3c d3cc ca3b
00000110: 59d3 e5bd 32fc 053e e594 b13d 3b7e 6cbd
00000120: 6966 adbb 1831 21bd 9f7f 1bbe 09aa e93d
00000130: 47e1 9f3d 5f97 863c 9c56 93bd fd78 cb3c
00000140: a33b 1f3d 93d3 37bd b04e af3d 3e60 553d
00000150: e892 da3b c111 20bd 3f60 4b3d f68c b93d
00000160: 06c1 503d 2009 003e bc27 bebd 1d70 6a3d
00000170: f7bf e83d 0a2c 8cbd 39a1 80bd 562b 1dbc
00000180: 0ecc d93d 1160 053c c693 9cbd 1121 e0bd
00000190: f1dc 5ebd 8cdc febc 3892 053d 01e0 c43d
000001a0: 05fd fabd 5ef4 8cbc c88e 6dbd dea7 cabc
000001b0: 5f67 1b3c cdb3 cebc 2361 a2bd 8441 0abe
000001c0: 4393 88bd 84d8 2c3e 767f 113d 2eca b33d
000001d0: 9fc6 9b3d 7782 503c 8539 22be 6831 c0bc
000001e0: db97 eebd 2244 b63d aa00 4b3c 23a9 cf3c
000001f0: 9d3b 4ebd ce1b a63c 8978 6d3d 7702 623d
00000200: 1c39 0ebe 190b 78bd 2582 8fbd 61eb 05be
00000210: 0833 12be b369 383d 9afc e93d b290 e03d
00000220: bb8d 14be 247c 37bd 779b 8cbd 69dd 83bd
00000230: ff56 06bd fce4 f53c 9e66 843d 1c4b 053d
00000240: 0898 093d 84f1 dfbc caae f4bd 31b8 893c
00000250: b841 d9bd 02bc 913d 148f 943d a262 113e
00000260: d23f a83d 4141 42bd 03b8 f6bc 92cc 843c
00000270: cbef c8bc c65c d4bc 39bb a63c dbb0 8dbd
00000280: a524 c1bd 57d2 78bc 69bf c43d 1315 b93d
00000290: 0aa5 fdbc d20a 94bd 0cbd 3f3d ad55 503d
000002a0: ba44 9e3d 4215 7abd 07d6 8abd e8a9 a4bd
000002b0: e9aa b83d a2fa 323c ded9 263e 6fb2 963d
000002c0: 86f2 6fbd 2ca0 d3bb c7a4 403b 3a8c 09bd
000002d0: 1afe 533b b51a e53c 3450 043c 51e9 d63d
000002e0: 489d 25be 38d8 7d3d 5863 a33c 28df e5bd
000002f0: d52e 913b 00fc 4ebd 16a0 ce3d 110a 74bc
00000300: da9c ecbc e6fc b53c 47fd 13bd 00f7 adbd
00000310: c68c 01bd a916 613d f4cd a63a 01d0 823b
00000320: c2b0 013d 4bd2 893d ea78 41bd ccb9 e9bc
00000330: 1bc0 a1bc baa2 cbbc 4b45 173b d362 0c3e
00000340: b669 793c b979 193d 6eb6 cc3c 4dc4 be3d
00000350: b4b7 d43c 336f 293d 0fbc b5bd 085c cf3d
00000360: 1984 103e 43fa c63c 45b4 f73d 4a95 9ebd
00000370: 9234 b5bc 3aaf dabd cedf f73d 3276 0abe
00000380: 6d59 75bd 9d32 12bd e650 89bd 7e33 8abd
00000390: 219b 6a3d 06b4 4b3e 5129 debd 4768 ba3d
000003a0: 0eb4 453d df93 5c3c 4b09 cebd 522e 19bc
000003b0: ab39 b33d 8961 5d3c 8733 5d3d 662c ac3d
000003c0: 115c 253d fc43 3abc 1186 92bd c0a6 ccbd
000003d0: afa2 8abd d269 fe3c 1c03 9f3d e6e9 4abc
000003e0: 8988 4c3e 8019 20bd b0d4 b0bd 72b6 22bd
000003f0: ef46 cfbd d105 9dbd 360d 0f3c 3230 9f3d

hidden.bias f4 [100]
0.061749592 -0.051594965 -0.04469202 0.027197836 -0.06921411 -0.050450336 0.05475043 -0.012820189
0.0029600905 0.06549622 0.043897044 0.049170494 0.04514559 0.10667599 0.030001769 0.0044091693
-0.06048273 -0.0108308345 0.0050447346 -0.05199057 -0.06866121 -0.031432904 -0.026605794 -0.043530226
0.12171396 0.06441105 0.044810757 0.060985956 -0.0326433 0.009853871 0.049001426 0.13363335
0.012866144 0.11160452 0.030399349 -0.043341212 -0.014902562 0.008924522 -0.0017451062 0.093447566
-0.044917636 -0.09025703 0.09874009 0.05062893 0.07501742 -0.08355697 0.015181226 0.07072371
-0.02167587 0.088823505 -0.046856664 -0.040134795 0.031775605 0.1094246 0.036465213 0.046062
-0.060488407 -0.010553287 -0.06623635 -0.056013145 0.012614868 0.088802285 -0.06294245 0.01166182
0.07065387 -0.0747079 -0.0024058137 -0.062239747 -0.061969496 0.043701414 0.12009389 0.10882458
0.119077876 0.0019791937 0.09127787 0.118224554 0.007409298 0.095868126 0.0020567318 0.08082412
0.065932766 0.10278223 -0.046443645 -0.07140089 0.08632307 0.122655466 0.007607977 0.11303186
0.104506746 0.028353581 0.021949142 0.04305192 -0.08359272 0.06131608 0.02344295 0.007896981
0.032797262 -0.04433129 -0.06392215 0.100904845
00000000: 24ed 7c3d 3e55 53bd fb0e 37bd ffcd de3c
00000010: 21c0 8dbd 03a5 4ebd fd41 603d c50b 52bc
00000020: 14fe 413b e222 863d 63cd 333d 0067 493d
00000030: 95ea 383d f178 da3d 45c6 f53c cb7a 903b
00000040: bdbc 77bd d073 31bc 4d4e a53b 10f4 54bd
00000050: 409e 8cbd cabf 00bd 65f4 d9bc c04c 32bd
00000060: 2b45 f93d f1e9 833d 7c8b 373d 69cc 793d
00000070: fbb4 05bd 2172 213c b8b5 483d 2ed7 083e
00000080: 85cc 523c e990 e43d 0e08 f93c 8e86 31bd
00000090: e029 74bc 2938 123c 0cbc e4ba 7061 bf3d
000000a0: 8efb 37bd aed8 b8bd 3f38 ca3d 4860 4f3d
000000b0: bca2 993d eb1f abbd adba 783c 98d7 903d
000000c0: 9891 b1bc 19e9 b53d c6ec 3fbd 6264 24bd
000000d0: 2327 023d 011a e03d 8c5c 153d 82ab 3c3d
000000e0: b1c2 77bd b2e7 2cbc eca6 87bd 0a6e 65bd
000000f0: 97ae 4e3c f9dd b53d f9e7 80bd 3811 3f3c
00000100: fab2 903d 7500 99bd dbaa 1dbb 1bef 7ebd
00000110: bad3 7dbd 4100 333d c9f3 f53d 6cdf de3d
00000120: 1adf f33d 5cb5 013b e4ef ba3d b71f f23d
00000130: b2c9 f23b 8256 c43d 3cca 063b 1e87 a53d
00000140: c207 873d 7d7f d23d b13b 3ebd a13a 92bd
00000150: 26ca b03d ca32 fb3d 564c f93b 3f7d e73d
00000160: a207 d63d c545 e83c b0ce b33c 3657 303d
00000170: a932 abbd 9226 7b3d 6e0b c03c 5762 013c
00000180: 6c56 063d ba94 35bd 9ee9 82bd 33a7 ce3d

output.weight f4 [1, 100]
0.15621601 -0.14236489 0.15984473 -0.29510778 0.119323015 -0.17210707 0.23589112 -0.3156508
-0.17865711 0.23346406 0.14098261 -0.15088697 -0.18874972 -0.1404019 -0.1577723 0.17177492
0.24939573 -0.22601452 0.16052696 0.22181158 0.2947313 0.15484582 0.14920166 0.2831187
-0.13507451 0.19428797 0.16395637 0.22487555 0.25984 0.20824304 0.18747292 -0.19220275
0.25948036 0.13500711 -0.16798511 -0.2224549 0.18218195 0.11545106 -0.16441113 0.22294046
-0.33005324 0.2808388 0.1988051 -0.23262297 -0.18451372 0.15664184 0.2990203 0.1692435
-0.22980262 0.17727663 0.2080492 0.19996287 -0.17216744 -0.1418542 0.13015383 -0.104341485
0.16998632 -0.3275791 0.2469182 0.28538373 0.17475939 -0.27536923 -0.199919 -0.123449095
0.2226434 0.25437978 -0.14679497 0.33391884 0.13379614 0.261846 -0.122577935 -0.15427527
-0.21999757 0.11001885 -0.13880247 -0.28427047 0.25070456 0.07387314 0.17700525 -0.1384227
-0.23541787 0.12808728 0.17540602 0.16808572 0.0896324 -0.17747091 0.25919113 0.15502797
-0.22425404 -0.19385812 0.19338098 0.23337679 0.14789243 0.22556897 0.277805 -0.17371401
0.16544889 -0.15024894 0.19688843 -0.1766786
00000000: 17f7 1f3e 1ac8 11be 56ae 233e 5e18 97be
00000010: a05f f43d d63c 30be 718d 713e fb9c a1be
00000020: e4f1 36be 3411 6f3e bf5d 103e 1d82 1abe
00000030: 9b47 41be 84c5 0fbe 108f 21be c4e5 2f3e
00000040: 9861 7f3e 5a70 67be 2e61 243e 9322 633e
00000050: 05e7 963e e78f 1e3e 52c8 183e eff4 903e
00000060: f950 0abe 6df3 463e 2ee4 273e c745 663e
00000070: c009 853e aa3d 553e e7f8 3f3e ccd0 44be
00000080: 9cda 843e 4e3f 0a3e 4a04 2cbe 38cb 63be
00000090: e88d 3a3e 9b71 ec3d 645b 28be 814a 643e
000000a0: bdfc a8be 1aca 8f3e 9093 4b3e b734 6ebe
000000b0: 2af1 3cbe b866 203e 3019 993e 2b4e 2d3e
000000c0: 6151 6bbe 0188 353e d90a 553e 11c3 4c3e
000000d0: a94c 30be 3a42 11be 0c47 053e fdb0 d5bd
000000e0: e510 2e3e 73b8 a7be 20d8 7c3e d11d 923e
000000f0: 20f4 323e 32fd 8cbe 91b7 4cbe e1d2 fcbd
00000100: a2fc 633e 113e 823e 6c51 16be 69f7 aa3e
00000110: db01 093e ae10 863e 240a fbbd 56fa 1dbe
00000120: 0b47 61be 9051 e13d 3c22 0ebe e68b 91be
00000130: 595c 803e cd4a 973d dd40 353e aebe 0dbe
00000140: 6211 71be 5029 033e a39d 333e aa1e 2c3e
00000150: 3191 b73d efba 35be b3b4 843e a7bf 1e3e
00000160: daa2 65be be82 46be aa05 463e 53fa 6e3e
00000170: 1d71 173e 8dfb 663e 753c 8e3e 16e2 31be
00000180: 6f6b 293e dcda 19be 1f9d 493e 3ceb 34be
