data/model/expert_training/5/12770.pth (torch, 44823 bytes, 5 tensors)

linear.weight f4 [100, 4]
000000 9c a1 b1 be 95 fe ae 3e 63 c4 57 3e de 8f 5f be
       -0.3469361 0.34178606 0.2107101 -0.21832225
000010 b5 17 fc 3d f6 c3 f1 be c5 89 ca 3e d6 fd 6d be
       0.12309209 -0.4721982 0.39558235 -0.23241362
000020 9b 70 a6 bc b5 f2 8a be 47 cc 89 be 2c 92 e4 be
       -0.020317366 -0.27138296 -0.26913664 -0.4464277
000030 93 81 66 be cf 2a 41 be 11 10 f7 3d 1e a5 c3 be
       -0.22510366 -0.18863986 0.12063611 -0.38211912
000040 0d ef ab 3e bd ec f6 3e a6 5b 7d bc 5b c9 04 3e
       0.3358082 0.48227492 -0.015463745 0.12967436
000050 c6 92 14 bf da 9e 89 be 11 87 37 3e ca 3c 81 3e
       -0.5803646 -0.26879007 0.17922617 0.2524169
000060 e2 1e 03 bd 7c 94 d3 be 36 24 e5 be 29 04 d6 bd
       -0.032011874 -0.41324222 -0.4475419 -0.10450012
000070 9c 33 d8 be 46 1c 9c be 7e 0f 11 3f 1e bd eb 3e
       -0.42226875 -0.3049032 0.56664264 0.46042722
000080 72 ec af be 10 a7 71 be 27 fd 0d bf c7 dc 9d 3e
       -0.3436008 -0.23598886 -0.55464405 0.30832502
000090 b9 33 74 3e 09 f3 76 be 1c 8a 17 3f db 09 c4 3e
       0.23847856 -0.24116148 0.59195113 0.3828877
0000a0 eb 91 96 3d 05 72 45 3e 6e 53 2e 3f 43 36 62 3d
       0.073520504 0.19281776 0.68096054 0.05522753
0000b0 7d d4 86 be 5d 44 48 be cb 2e 43 3f b2 97 29 3e
       -0.2633399 -0.19557329 0.76243275 0.16561773
0000c0 3a d2 7e 3e 09 d3 ea 3e 9c 83 a4 bd 61 f0 bd be
       0.24884883 0.45864132 -0.08032915 -0.37097457
0000d0 dd db 90 be 46 2a 86 be dc 2a 4b bf 41 73 1a 3d
       -0.28292742 -0.26204127 -0.79362273 0.03770757
0000e0 b9 d8 f8 3d 18 93 9b 3e 1c 9a 4f be b2 1e e8 be
       0.121507116 0.3038566 -0.20273632 -0.4533592
0000f0 6a 5e 62 be 4d 13 dd 3d a3 ea 69 3e e8 24 59 3e
       -0.22106329 0.10794697 0.22843413 0.21205485
000100 60 58 07 bf e7 01 43 bd 7e 0a 6a 3e 86 e8 ae 3e
       -0.52869225 -0.047609236 0.22855565 0.34161776
000110 57 9d 15 3e 53 31 88 be 77 69 2e be d2 26 99 3d
       0.14610802 -0.2660013 -0.17032419 0.074781075
000120 ff 65 ef be f8 e9 fe 3e 4f e4 85 3e 11 a7 3d 3e
       -0.46757504 0.4978788 0.26150748 0.18520762
000130 a7 86 fa 3e 28 0f 59 be 50 1b e5 3d f3 81 14 be
       0.48930857 -0.21197188 0.1118685 -0.14502697
000140 eb 9b 14 3e 0a 40 b9 be 3b c7 1a 3f ca 00 91 3d
       0.14512603 -0.3618167 0.6046025 0.070802286
000150 4e c5 1a be 9f 2f d3 bc a2 65 49 bf 00 1a a0 3b
       -0.15114328 -0.025779543 -0.78670704 0.004885912
000160 f6 bc c7 be c0 a8 d5 3e 8b e2 f6 3e a8 c1 1a bf
       -0.39011353 0.4173031 0.48219714 -0.60451746
000170 c4 8d 07 3e aa d9 ec be 1f b4 0a bf 50 70 8b be
       0.13237673 -0.46259815 -0.5418109 -0.27234125
000180 60 69 f9 bd 02 48 b2 be 89 84 af be d7 c7 e6 3e
       -0.12178302 -0.34820563 -0.34280804 0.4507434
000190 93 63 6e 3e 3f c5 86 bd d6 9a 33 bf 54 41 44 be
       0.23280172 -0.065805905 -0.70158136 -0.19165546
0001a0 28 fa 09 3f 4d 18 b9 3d ef fd f2 3d a0 33 e4 3e
       0.53897333 0.09037838 0.1186484 0.44570637
0001b0 6e 60 19 bd a8 75 7c be fc b5 93 be 14 90 79 be
       -0.03744548 -0.24654257 -0.2884978 -0.24371368
0001c0 72 29 64 3e a2 44 8c be 9a d1 23 3f 98 86 d5 3e
       0.22281435 -0.27396113 0.639917 0.4170425
0001d0 68 72 b3 be 50 90 f1 bd 44 74 31 3f d1 7e e2 3e
       -0.35048223 -0.117951035 0.6931803 0.44237378
0001e0 14 4d d1 3e 15 6a af 3e 19 02 c3 be 91 f4 83 be
       0.40879118 0.34260622 -0.38087538 -0.25772527
0001f0 e6 9a 7d be 0b 43 30 3d 30 ae 25 3f 6a 61 03 3f
       -0.2476612 0.043032687 0.64718914 0.5132052
000200 37 3d a9 3e 6d af f3 3d 43 bc c5 3e 6c 22 9d 3e
       0.33054516 0.11898694 0.38620195 0.30690324
000210 da af 8b bd ae ed de be fb 2c 02 3f dd a6 be 3c
       -0.068206504 -0.4354071 0.50849885 0.023272926
000220 bf 6b 8c 3d 7d 33 91 3e 1f d0 12 bf 24 0d da bd
       0.068564884 0.28359595 -0.5734882 -0.106470376
000230 73 3f ee 3e 3d 8d d9 3c ef 94 f5 be 08 5d 31 be
       0.46532783 0.026556605 -0.4796519 -0.17320645
000240 bc 59 eb 3e bb 39 a2 bc 26 24 49 3f 00 04 33 be
       0.459669 -0.019802919 0.78570783 -0.17481995
000250 ac d9 75 be 38 2d 9b be 3d 7f 2b 3d fe 2a 20 bd
       -0.24008816 -0.30307937 0.04186939 -0.0391035
000260 34 eb 88 be 67 e9 09 bd 8d 86 33 3f 7e 9b 9b bd
       -0.26741946 -0.033669855 0.70127183 -0.07598017
000270 42 e2 29 be 24 45 cb bd d3 44 b3 bb f1 c5 e6 3e
       -0.16590217 -0.09925297 -0.005470851 0.45072892
000280 e9 1f 13 3e 34 3a 87 3e 68 3b 16 3f bf 2f f1 3e
       0.14367642 0.26411593 0.58684397 0.4710674
000290 be b3 cd 3e ba f3 5b be 3b 7d 99 3e 44 5f 0b bd
       0.40176195 -0.21479693 0.29978356 -0.0340264
0002a0 68 94 60 be 70 c2 ed bc 83 f1 ac be 01 fc da be
       -0.21931612 -0.02902338 -0.3377801 -0.4277039
0002b0 ab 3e 21 3e 85 10 53 3e 27 a3 00 bf 7d 3a 1a be
       0.15746562 0.2061177 -0.5024895 -0.15061374
0002c0 80 93 cf 3e 05 01 b2 3e 6b 8e b3 39 e5 79 59 be
       0.4054222 0.34766403 0.0003424765 -0.21237905
0002d0 ef c5 bd 3d 7d f6 1b bd dd 7c 2f 3d 8c 17 a7 3e
       0.092662685 -0.038076866 0.04284369 0.32635152
0002e0 87 52 02 bf b6 17 bf bc 58 7e 17 3f ba 28 d3 3d
       -0.50907177 -0.023326736 0.5917716 0.10310502
0002f0 ed 76 9e 3e 06 89 d7 3c 3d 10 98 3d 76 99 e3 be
       0.30950108 0.026310455 0.07424972 -0.4445302
000300 27 8d 00 bf dd 18 5f 3e 97 d5 22 3f 04 69 aa 3e
       -0.5021538 0.21786828 0.6360716 0.33283246
000310 27 8b 9d bd 29 a1 d1 be 2e be 2c bf dc 73 90 be
       -0.07692557 -0.40943268 -0.6747769 -0.28213394
000320 c1 e1 c9 3e 8b 7d 88 3d e6 73 3a bf b3 4c ae be
       0.3943005 0.066645704 -0.72833097 -0.34042892
000330 af 0f d5 be 2a 74 2c be fb 93 9c be ef 3b 80 be
       -0.41613528 -0.16841188 -0.3058165 -0.25045726
000340 3a 73 ee 3e 79 f6 66 be 87 3e 40 3b 42 a4 bf be
       0.46572286 -0.2255496 0.0029334144 -0.37430006
000350 89 cd bf be cb 69 08 3e 94 97 e5 3c f4 18 d1 bd
       -0.37461498 0.13321607 0.02802638 -0.102098376
000360 18 f7 86 bc 79 2f b3 be 11 00 0d 3f ac c4 a8 3e
       -0.016475245 -0.34997156 0.55078226 0.3296255
000370 27 45 04 3f a5 d5 7a be 67 7e 7f 3e d9 01 c5 3d
       0.5166802 -0.24495561 0.24950562 0.09619493
000380 60 ff a3 be 99 c3 25 3e 3f 80 21 3f dc 9a eb 3e
       -0.32030773 0.16187896 0.63086313 0.46016586
000390 85 52 f0 3e 9f 8e f2 3d 26 cd 94 3e 34 71 86 be
       0.46937957 0.11843609 0.29062766 -0.26258242
0003a0 3c 06 86 be 8c 68 2a be 8d a5 93 bd 97 05 d5 be
       -0.2617663 -0.16641444 -0.07209311 -0.41605827
0003b0 f7 94 0a be 61 6d 04 3f 22 39 41 bd 8a 2a 29 3e
       -0.13533388 0.517294 -0.047173627 0.16520134
0003c0 a7 83 c4 3e 72 c3 5d be 98 38 1b 3e bf 10 8d be
       0.38381693 -0.21656588 0.15158308 -0.2755184
0003d0 40 73 09 bd 96 bc 5d bd 3d 31 83 3e 51 ca c7 be
       -0.033557177 -0.054134928 0.25623503 -0.39021543
0003e0 ad b7 91 be 4a 1a 66 3e 22 93 2f bf ba 30 a9 be
       -0.28460446 0.22470966 -0.6858388 -0.33044988
0003f0 85 7a a2 be d4 10 63 3d ed f7 81 be 46 74 e2 be
       -0.317341 0.05543597 -0.25384465 -0.44229335

linear.bias f4 [100]
000000 d0 84 a4 3c 27 dc c6 bd 28 9a 8a bd a8 58 77 3d
       0.020082861 -0.097099595 -0.06767684 0.060387284
000010 24 64 9a be 97 24 ad be 47 76 8d be 05 58 1e 3e
       -0.30154526 -0.33816978 -0.276293 0.15463264
000020 2a 24 93 3e 72 1b cc bd 09 63 9b be 4d ca 9a 3e
       0.28738528 -0.09966172 -0.30348995 0.30232468
000030 cf 7b 2d bc bc 40 e6 3e 9d 30 04 3e 0d 01 f9 3e
       -0.0105886 0.44971263 0.1290917 0.48633614
000040 e9 8d cf 3e 97 ee ba 3d 69 d9 f3 bd ac 0f 49 3e
       0.40537956 0.09127539 -0.11906702 0.19634885
000050 23 50 ad be 3b b7 f7 3e d4 1c 49 3e 3a 73 84 3d
       -0.33850202 0.4838198 0.19639903 0.0646729
000060 03 bf 8a 3d e4 e0 3e be 77 a5 c4 3e b3 59 7e 3e
       0.06774714 -0.18640476 0.3840749 0.24838905
000070 0b 9d b4 bd 1b 8f 92 3e 59 bb 14 bd 07 d5 20 bd
       -0.08819016 0.28624806 -0.03631148 -0.03926566
000080 c5 b0 af be 1c 57 90 be c2 15 9c 3d 46 a6 db 3e
       -0.34314552 -0.2819146 0.076213375 0.42900294
000090 f6 1a eb be 36 a6 d6 be 20 a5 b0 be ca af b9 bc
       -0.45919007 -0.41923684 -0.3450098 -0.02266683
0000a0 cf 44 89 3e fe e2 e3 be 0e f0 8a be 1c 25 86 3e
       0.2681031 -0.4450912 -0.27136272 0.26200187
0000b0 2b ac 8c 3d c4 f6 ef 3e bf 9c 7c 3c 19 3d af be
       0.06868776 0.46867955 0.015418231 -0.342263
0000c0 b6 4e 05 be bb fd 4b 3e df bb 79 be b5 8d b1 3e
       -0.13018307 0.19921009 -0.24388073 0.34678426
0000d0 10 ed 92 3e 1c 39 ce be 2a 41 96 be d1 31 92 be
       0.2869649 -0.40277946 -0.2934659 -0.28553632
0000e0 6f ab 07 3e 50 83 3d bd c9 b1 94 3e 27 fd ba be
       0.1324899 -0.046267807 0.2904189 -0.36521265
0000f0 62 7f cd be a6 8d f7 3d 1a d7 4a be fa a8 5c bb
       -0.40136248 0.12087564 -0.19808617 -0.0033670054
000100 0d 96 b8 be 32 66 13 3e b6 d9 7f 3e fb d1 ba 3d
       -0.3605198 0.14394453 0.24985394 0.09122082
000110 09 0d 8a bd 01 00 86 be 66 58 9a be 51 3e bc be
       -0.067407675 -0.26171878 -0.30145568 -0.36766294
000120 8d 7f 87 3e 00 8f b4 3e fb 62 a6 3d 5e 94 d9 3e
       0.264645 0.3526535 0.08124348 0.42496008
000130 e0 fb cd bd 65 73 f9 3e de bb 04 3f 50 2d bc 3d
       -0.10057807 0.48720852 0.5184916 0.0918833
000140 ee a4 e3 be 6f de a5 bc 60 1a c7 be ce 5d a6 3e
       -0.4446177 -0.020247666 -0.3888731 0.32493442
000150 22 03 d1 be 99 99 25 be b7 06 cc be 2e d8 03 3d
       -0.40822703 -0.16171874 -0.39848873 0.032188587
000160 60 d2 41 bd c2 49 9a 3e 32 55 53 3d 2e 80 d2 be
       -0.04731977 0.30134398 0.05159492 -0.41113418
000170 26 56 33 be 9e 27 3e 3e 12 2c fd 3e c6 48 5f be
       -0.17513332 0.185698 0.49447685 -0.21805105
000180 3f a2 a6 3e 23 2c d3 3e a3 35 e8 be ca a5 cc be
       0.3254566 0.4124461 -0.45353422 -0.39970237

hidden.weight f4 [100, 100]
000000 f6 53 f9 3d 00 31 7c 3c 13 38 ad 3b ca 5c 96 bd
       0.121742174 0.015392542 0.0052862256 -0.07341917
000010 fe bb d4 3d 60 05 b0 3b 56 25 b2 bd 4b 5a 05 bc
       0.10387419 0.0053717345 -0.086985275 -0.008139203
000020 dc 84 cf bb d1 da cf 3d de b0 7c 3d 37 47 24 3e
       -0.0063329767 0.10149158 0.06169211 0.16042791
000030 de f2 c5 3d 1a ab d2 bc e9 78 b1 bd 3a 3f f8 3d
       0.09665464 -0.025716353 -0.0866564 0.121214345
000040 90 2d ac 3d 77 1a 53 bd 64 83 2d 3d 23 1d d8 3b
       0.08407128 -0.05153891 0.042361632 0.0065952702
000050 fb c8 99 3d 1f 25 f6 bd 0b a1 c0 3d fb 32 bc bc
       0.07509037 -0.12018799 0.094057165 -0.022973528
000060 c3 b8 75 3b 82 76 a3 bd ce 80 2e bd e6 bd a2 bd
       0.003749416 -0.07981588 -0.042603306 -0.079463765
000070 86 92 ce 3d 58 f9 0e 3e f3 ee 87 bc 2a e8 f3 3d
       0.10086541 0.13962305 -0.016593432 0.11909516
000080 7d 9b f2 3c c8 8d 83 bb 9f eb ea 3c 7e 4a a6 bd
       0.029615158 -0.0040147044 0.028676806 -0.08119677
000090 76 06 a1 3d 71 06 fb bc ce ac e8 bc ec 3e 21 bd
       0.078625605 -0.03064272 -0.028402712 -0.039366648
0000a0 21 2c dd 3c 42 1a 89 3c 55 51 6b bb 4a 3c df bc
       0.026998581 0.016736154 -0.0035906632 -0.027250428
0000b0 91 f9 80 3d 2e f0 0b bd 58 f9 88 3c 21 3f 48 bd
       0.06297601 -0.0341646 0.016720459 -0.04888833
0000c0 47 50 ac 3d 1f 97 72 bd eb eb a7 bc d5 8d 81 3c
       0.08413749 -0.05922615 -0.020498237 0.015814701
0000d0 5a 80 19 3d c7 c4 98 bd a6 8b d6 3c 7a f7 41 3c
       0.03747592 -0.07459407 0.026189636 0.011838788
0000e0 6d d3 5d 3d 9a f9 bc 3d 4c fa ac bd 39 35 47 3d
       0.05415671 0.09227295 -0.08446178 0.04863474
0000f0 35 71 50 bd 5e 49 e7 3c a9 a1 92 bd 0b f8 e4 bc
       -0.050889213 0.028233226 -0.071597405 -0.027950307
000100 99 cf 4a bd 48 15 05 3d 25 50 d8 3c 05 ec 46 3b
       -0.049514387 0.032491 0.026405403 0.003035308
000110 78 35 ea bd 0a a2 08 3e e9 de c1 3d da 93 7d bd
       -0.114359796 0.13343063 0.09466345 -0.06190858
000120 b5 f9 95 ba f6 1b 20 bd 65 1a 20 be 77 b6 f6 3d
       -0.0011442216 -0.039089166 -0.15635069 0.12046521
000130 6d de 97 3d 92 04 ad 3c 9e 4b 87 bd 6b 23 07 3d
       0.07415471 0.021120343 -0.0660622 0.03299276
000140 3d 70 13 3d fc cb 41 bd 12 dd a3 3d d6 eb 5a 3d
       0.03599571 -0.047313675 0.0800115 0.053447567
000150 16 99 ca 3b a1 07 2e bd f1 53 36 3d d7 ba c9 3d
       0.0061828 -0.042487744 0.044513647 0.0985009
000160 69 37 3a 3d 81 39 00 3e 32 41 be bd 46 9f 5c 3d
       0.045463 0.12521936 -0.09289779 0.053862832
000170 ea 4f da 3d 99 a4 91 bd 01 77 69 bd 60 d6 63 bc
       0.10659774 -0.07111473 -0.056998257 -0.013906091
000180 24 a7 e8 3d 07 3f 14 3c a1 1b a7 bd f0 c8 e6 bd
       0.113600045 0.00904823 -0.08159567 -0.112687945
000190 24 fa 50 bd 08 ed 0c bd 1b 0e 0e 3d 59 95 c7 3d
       -0.051019803 -0.034405738 0.03468142 0.09745283
0001a0 f5 22 03 be d2 ab 89 bc 2c 82 63 bd 8a e3 da bc
       -0.12806304 -0.016805563 -0.055544063 -0.026719827
0001b0 cd ca ee 3b 09 52 0d bd ef bd 9a bd cd c8 0b be
       0.0072873593 -0.034502063 -0.07555758 -0.13650818
0001c0 07 c3 8e bd 2d 5f 28 3e 82 bb 08 3d 9c 3b ad 3d
       -0.06970792 0.16442557 0.033381946 0.08458635
0001d0 d1 7d 93 3d 5c 59 b3 3b 1c 3b 1f be 35 a8 f6 bc
       0.07201732 0.005473299 -0.15549892 -0.030109504
0001e0 ad 28 ec bd 27 a2 b0 3d 5f e2 4c 3c 64 8f 95 3c
       -0.11531196 0.08624678 0.012505143 0.01825685
0001f0 22 ad 53 bd 03 bb 7d 3c 98 64 56 3d a0 df 4d 3d
       -0.051678784 0.015486482 0.052342027 0.050262094
000200 f9 a6 15 be 71 56 80 bd 94 f2 98 bd 7f 9d 03 be
       -0.14614476 -0.062664874 -0.07468143 -0.12853049
000210 3a aa 17 be 1a 07 3e 3d 12 be e5 3d ed 97 d6 3d
       -0.1481103 0.04639349 0.11217894 0.10478196
000220 20 0d 1d be d1 f3 2b bd 45 47 86 bd e0 8e 80 bd
       -0.15337038 -0.04198057 -0.06556562 -0.06277251
000230 d1 83 16 bd d9 2c c3 3c 05 94 8b 3d 94 cc f2 3c
       -0.036746804 0.023825096 0.06815342 0.029638566
000240 d4 d2 ea 3c bd b7 01 bd ec a8 f3 bd d8 71 42 3c
       0.028664984 -0.031669367 -0.11897454 0.011867963
000250 8b c4 d6 bd 71 86 87 3d ad 3f 84 3d f9 8d 0e 3e
       -0.10486706 0.066174395 0.06457458 0.13921346
000260 2d 9d 9b 3d 6c cf 35 bd 20 6c ea bc 58 f7 80 3b
       0.07598338 -0.044387266 -0.028616011 0.0039357357
000270 1b f3 c9 bc c3 26 06 bd 3e 38 a0 3c 04 e0 82 bd
       -0.024652055 -0.03275181 0.019558068 -0.06390384
000280 1b 63 cb bd 6a 47 8d bc 2c 12 cd 3d 86 63 bf 3d
       -0.09931012 -0.017245967 0.10013232 0.093451545
000290 97 42 eb bc c9 ed 91 bd 46 58 2a 3d 23 11 51 3d
       -0.028718276 -0.07125432 0.04158809 0.051041733
0002a0 00 29 a0 3d 74 4c 80 bd 89 66 96 bd 59 28 9e bd
       0.0782032 -0.06264582 -0.07343776 -0.077225395
0002b0 e8 04 b2 3d 47 5d 12 3c 7f b4 2a 3e 55 ce 89 3d
       0.08692342 0.008933372 0.16670416 0.06728808
0002c0 63 16 6a bd 7a c1 1d bc 74 76 e8 ba d8 59 29 bd
       -0.057150256 -0.009628648 -0.0017735497 -0.041345447
0002d0 d4 4c 7e 3b 82 88 e4 3c dc 5b 36 3c ab 09 d2 3d
       0.0038803117 0.027897123 0.011130299 0.1025575
0002e0 22 25 24 be 70 e7 80 3d 65 75 bb 3c 9c 88 f1 bd
       -0.1602979 0.06294143 0.022883127 -0.11793634
0002f0 b5 d2 d8 3b 96 59 57 bd a2 2f d1 3d 6f 49 61 bc
       0.006616915 -0.05257567 0.10214163 -0.013750418
000300 77 32 cb bc 94 77 c4 3c 55 19 22 bd 04 78 a8 bd
       -0.024804337 0.0239828 -0.03957494 -0.08226016
000310 56 9b 15 bd d2 d6 57 3d aa e2 b5 3b 9e e2 c2 3b
       -0.036525093 0.052695103 0.005550702 0.005947425
000320 2b 0f 0f 3d 55 1b 84 3d 7f 82 47 bd 64 e0 b9 bc
       0.034926575 0.06450526 -0.048708435 -0.022690006
000330 c7 a1 cb bc b0 f0 c6 bc 58 51 01 38 42 9a 11 3e
       -0.024857415 -0.02428469 3.0831754e-05 0.14219001
000340 f8 63 be 3c 4a bf 13 3d a1 0a 9e 3c f9 db c9 3d
       0.023241028 0.0360711 0.019292178 0.098564096
000350 bd 57 c3 3c bf e6 48 3d 6f 04 b4 bd 17 11 da 3d
       0.023845548 0.04904818 -0.08789908 0.10647791
000360 22 1f 18 3e ac 5e d8 3c 7f 9d f9 3d e0 66 9b bd
       0.14855626 0.02641233 0.12188243 -0.07587981
000370 1a 08 d2 bc 78 1c cd bd d6 1c 00 3e 63 e2 05 be
       -0.025638629 -0.100151956 0.12511 -0.13074641
000380 b6 7c 5e bd a3 e8 27 bd df c1 85 bd dd ee 77 bd
       -0.054318152 -0.040993344 -0.065311186 -0.060530532
000390 17 fe 65 3d 64 c7 50 3e bf 8f e1 bd 2e 4e be 3d
       0.056150522 0.20388561 -0.110137455 0.09292255
0003a0 d7 3c 26 3d fa ec 3a 3c d6 cf cb bd eb cb 04 bc
       0.040585365 0.011409039 -0.09951751 -0.008105258
0003b0 fc 10 a6 3d ab a1 33 3c 8c 37 51 3d 1d c0 b0 3d
       0.08108708 0.010963838 0.051078364 0.08630393
0003c0 5c ca 2d 3d 99 1c 86 bc 8a 44 96 bd c6 93 c8 bd
       0.042429313 -0.016371058 -0.073372915 -0.097938105
0003d0 86 3c 8c bd 5e 27 0e 3d 44 36 a8 3d ea 00 91 bc
       -0.068474814 0.034705512 0.08213475 -0.017700631
0003e0 34 bd 4c 3e 4c 7c fd bc df d7 b9 bd 9c 43 ee bc
       0.1999405 -0.030943058 -0.09074377 -0.029084973
0003f0 85 a8 cb bd b7 26 a0 bd 78 57 dd 3b 15 11 96 3d
       -0.09944252 -0.07819884 0.006754812 0.07327477

hidden.bias f4 [100]
000000 96 75 88 3d bd 46 61 bd 8f 95 25 bd 9e e4 c6 3c
       0.06663053 -0.054999102 -0.040425833 0.024278935
000010 c5 bd 83 bd 68 6a 5c bd 20 f0 74 3d 28 ef 7f bc
       -0.0643268 -0.053812414 0.059799314 -0.015620984
000020 46 9a 92 b8 a5 3b 90 3d fe 85 48 3d 79 d1 3a 3d
       -6.990558e-05 0.07042626 0.04895591 0.045609925
000030 0b 36 2b 3d f6 56 d3 3d af 9f dc 3c 20 32 1e 3c
       0.041799586 0.10319321 0.026931612 0.009655505
000040 06 5b 63 bd a5 0c 64 bc 9e 83 25 3c 3c 68 3f bd
       -0.05550673 -0.01391903 0.010102181 -0.046730265
000050 2b 1f 82 bd b8 de d9 bc 5b 16 af bc 4c e4 1d bd
       -0.06353601 -0.026595458 -0.021372965 -0.0385478
000060 c0 06 f2 3d f8 46 8d 3d 9a e6 4b 3d 05 e6 86 3d
       0.11817694 0.06898302 0.049780466 0.065868415
000070 5a ef de bc 06 78 76 3c f4 be 5c 3d 0c 8c 05 3e
       -0.027213741 0.015043264 0.053893045 0.13041705
000080 b2 bb 94 3c 44 4c ee 3d 3a cd dc 3c 9e 3f 3d bd
       0.018155906 0.1163564 0.026953328 -0.04620325
000090 1c 49 20 bc 96 18 64 3c e0 3f a8 bb eb 8b c7 3d
       -0.009783056 0.013921877 -0.0051345676 0.09743484
0000a0 e4 da 42 bd c0 48 ad bd d3 8a d3 3d e2 d1 42 3d
       -0.04757203 -0.084611416 0.10329213 0.04756344
0000b0 90 95 92 3d bd fb 9f bd 55 af a6 3c 59 83 9b 3d
       0.07157433 -0.07811687 0.020347277 0.07593412
0000c0 77 e1 cc bc cb 3e c0 3d 33 2c 2a bd 56 df 0d bd
       -0.025009854 0.09386977 -0.041546058 -0.034636818
0000d0 93 30 e8 3c 1a 25 d9 3d c1 f4 29 3d f1 24 2e 3d
       0.028343474 0.1060278 0.04149318 0.0425157
0000e0 bf b6 62 bd 82 a4 60 bc ef cd 79 bd 7b f1 4e bd
       -0.05535006 -0.013711097 -0.06098741 -0.050523262
0000f0 fd ad 92 3c 42 ea af 3d 45 8a 87 bd d7 bf 05 3c
       0.01790523 0.08589603 -0.0661817 0.008163414
000100 92 2a 9b 3d ee 54 8e bd 0f 32 c1 bb e7 30 69 bd
       0.07576479 -0.06949793 -0.00589586 -0.056931403
000110 41 5d 69 bd af af 48 3d b6 d6 ee 3d a5 79 d7 3d
       -0.0569737 0.04899567 0.116620466 0.10521249
000120 cd 3c ed 3d 51 a8 df 3b 79 e0 b3 3d 06 2f ec 3d
       0.115838625 0.006825485 0.08783049 0.115324065
000130 74 35 52 3c a2 55 cd 3d ca 0f e7 3b 2c cf 9e 3d
       0.012830127 0.10026099 0.0070514427 0.07754359
000140 2d 31 80 3d 03 62 dc 3d eb 8c 29 bd 46 b8 86 bd
       0.062593795 0.10760882 -0.041394155 -0.06578116
000150 61 ce b9 3d e8 73 f4 3d 79 31 52 3c 5a a8 f1 3d
       0.09072567 0.1193617 0.012829178 0.11799689
000160 18 ac cf 3d ec 59 cc 3c 2a a4 dd 3c a4 b6 45 3d
       0.10140246 0.024945222 0.027055819 0.048269883
000170 fc 52 a0 bd b2 3a 87 3d b4 50 ea 3c 99 19 99 3b
       -0.07828328 0.06602992 0.028602935 0.004672241
000180 43 48 1a 3d 98 1e 43 bd ba 43 70 bd f4 34 c7 3d
       0.03766657 -0.0476366 -0.05865834 0.09726897

output.weight f4 [1, 100]
000000 74 ec 29 3e 94 31 11 be f9 1b 23 3e 24 a9 97 be
       0.16594106 -0.14179069 0.1592864 -0.29621232
000010 9a 5e 07 3e 1b 93 2f be 5d 35 7d 3e d3 a7 a3 be
       0.13219681 -0.1714596 0.24727388 -0.31963977
000020 9e ac 37 be e8 32 7a 3e 9b d0 1b 3e e0 ee 18 be
       -0.17936942 0.24433482 0.15216295 -0.14934874
000030 45 22 40 be d3 c2 0e be 3b 44 22 be e7 15 3c 3e
       -0.18763073 -0.13941507 -0.1584634 0.1836773
000040 6a 82 87 3e c6 c0 67 be 0f 17 31 3e fe dc 6f 3e
       0.26466686 -0.22632131 0.17293952 0.23424146
000050 1b c0 9c 3e 62 76 2a 3e 8b 6a 23 3e ea c2 97 3e
       0.30615315 0.16646722 0.15958612 0.29640895
000060 db a7 08 be 9d 1c 4b 3e 61 ba 32 3e 3b 22 70 3e
       -0.13345282 0.19835134 0.1745391 0.23450558
000070 82 cd 8d 3e 04 63 5f 3e d6 cd 49 3e 1e 8a 44 be
       0.27695853 0.21815115 0.19707426 -0.19193313
000080 c4 db 8b 3e 33 0d 14 3e e4 9a 2a be 97 58 65 be
       0.27316105 0.1445816 -0.16660649 -0.22397076
000090 1e e2 47 3e 33 c7 fe 3d b9 4d 27 be 3a c6 66 3e
       0.1951985 0.12440338 -0.16338243 0.22536555
0000a0 4d d5 ab be 46 62 99 3e 26 d8 52 3e 85 86 6e be
       -0.33561173 0.2995779 0.20590267 -0.23293503
0000b0 df 1e 3c be 1f 54 2d 3e 78 f4 9f 3e 5e 94 39 3e
       -0.18371151 0.16926621 0.31241202 0.18123004
0000c0 8b a5 6c be e4 e8 3f 3e 61 78 63 3e 2d 91 5b 3e
       -0.23110025 0.18741184 0.2221389 0.21442099
0000d0 0c 98 2f be 23 62 11 be 36 b7 0d 3e 70 27 d2 bd
       -0.17147845 -0.14197592 0.1383942 -0.10261428
0000e0 d3 97 31 3e b7 23 a9 be ab b0 85 3e 6a 15 9b 3e
       0.17343073 -0.3303506 0.2611135 0.30289775
0000f0 60 3c 3e 3e 5e d8 8d be 6d f9 4e be 7b 1e fa bd
       0.18577719 -0.27704138 -0.20212336 -0.12212845
000100 37 76 6f 3e a4 45 89 3e d4 e9 14 be 73 84 b2 3e
       0.23384939 0.26810944 -0.14542323 0.34866676
000110 be 7a 13 3e 98 c2 8b 3e 34 24 f9 bd 14 76 1c be
       0.14402291 0.272969 -0.12165108 -0.15279418
000120 3a 40 61 be 4e c4 f7 3d 63 78 0d be 30 f5 91 be
       -0.21997157 0.12097989 -0.13815455 -0.28507376
000130 e5 71 87 3e 2b 88 a4 3d a2 37 3b 3e e0 55 0e be
       0.26454082 0.080337845 0.18282941 -0.13899946
000140 3a 8e 70 be 6a 6b 0c 3e 01 d2 42 3e 8a d7 3d 3e
       -0.23491755 0.1371285 0.19025423 0.18539253
000150 4d a1 c8 3d 3b 0a 36 be 79 14 8b 3e a3 26 28 3e
       0.09796391 -0.1777734 0.27164057 0.16420989
000160 a5 26 66 be 5e 1b 46 be 1f 15 52 3e 5c 57 79 3e
       -0.22475679 -0.19346377 0.2051587 0.24349731
000170 db 31 25 3e c7 48 69 3e 90 3d 94 3e 97 01 32 be
       0.161323 0.22781669 0.28953218 -0.17383419
000180 e7 23 35 3e bc 7c 19 be 7a 3e 56 3e 98 3b 33 be
       0.17689477 -0.14988989 0.2092227 -0.17503202
