data/model/expert_training/5/12780.pth (torch, 44823 bytes, 5 tensors)

linear.weight f4 [100, 4]
-0.35093826 0.33963913 0.2121609 -0.21682756 0.11981422 -0.47303727 0.3951645 -0.23145264
-0.017009832 -0.26932573 -0.27018914 -0.44748586 -0.22159989 -0.18678126 0.11894658 -0.38289845
0.33243984 0.4790971 -0.0127818575 0.131774 -0.5828424 -0.26683173 0.17836529 0.25153223
-0.029064458 -0.41188917 -0.44656286 -0.10488763 -0.42556956 -0.30455473 0.56626827 0.4599963
-0.34013632 -0.23451717 -0.55482584 0.30763242 0.23546216 -0.24269286 0.5921912 0.38334826
0.06996352 0.19040547 0.6821441 0.056628298 -0.26676568 -0.19650373 0.76274836 0.16589375
0.24552506 0.45562822 -0.07752725 -0.36854637 -0.2793912 -0.26029706 -0.7944449 0.036809646
0.1192801 0.3000921 -0.19626342 -0.4488728 -0.22381285 0.106664695 0.22799441 0.21160263
-0.53219616 -0.048254635 0.22900155 0.3414438 0.1501937 -0.2637115 -0.17000578 0.07328382
-0.47175887 0.49592632 0.26298845 0.18614933 0.48640767 -0.21441898 0.11290364 -0.14338385
0.14187165 -0.36262515 0.6030939 0.07137196 -0.14749902 -0.023591518 -0.7878475 0.003589554
-0.3941206 0.4150973 0.4835031 -0.6026171 0.13560316 -0.4607054 -0.5423361 -0.27334344
-0.11878723 -0.3469547 -0.3424194 0.4501984 0.23615979 -0.06307708 -0.70201504 -0.19334781
0.5358231 0.08773549 0.12020885 0.4469342 -0.033901606 -0.24448699 -0.28964815 -0.24488801
0.21980336 -0.2753713 0.6400363 0.4174449 -0.3539081 -0.11877383 0.693528 0.44239756
0.4059684 0.3392288 -0.37499171 -0.25495967 -0.2511722 0.041992065 0.6475853 0.5132503
0.32735243 0.11628011 0.38754913 0.30823502 -0.071737245 -0.43486908 0.50567347 0.023619018
0.07254415 0.28617436 -0.5738154 -0.10832406 0.46949774 0.029034631 -0.47973943 -0.1748604
0.4566005 -0.022611143 0.78695434 -0.1729119 -0.23744872 -0.29937276 0.040325925 -0.037133485
-0.27116632 -0.03459771 0.7001642 -0.0753922 -0.16299808 -0.096358046 -0.006730349 0.4473961
0.14038384 0.2617864 0.5880071 0.472021 0.39871782 -0.21722125 0.30049825 -0.032478184
-0.21554214 -0.026946738 -0.3387437 -0.42884567 0.16140957 0.2085756 -0.503098 -0.15228333
0.4023045 0.3446227 0.0027163618 -0.2102185 0.09015192 -0.04007728 0.043610796 0.32614785
-0.5127448 -0.023903899 0.5919102 0.10316962 0.30616578 0.023328386 0.076576434 -0.44197845
-0.5059767 0.21690722 0.6365929 0.33289266 -0.07355533 -0.407614 -0.67560405 -0.28315797
0.39889973 0.06922769 -0.72184694 -0.3414239 -0.4124337 -0.16671412 -0.30680102 -0.25129724
0.4730325 -0.22389635 0.0010802165 -0.3729701 -0.37043294 0.13521871 0.025885044 -0.10149406
-0.019709961 -0.34976083 0.5488407 0.32928458 0.5137635 -0.24736165 0.25050262 0.097509824
-0.3239404 0.16048427 0.6316315 0.46046737 0.4661815 0.11553594 0.29227155 -0.2604523
-0.25803578 -0.16443773 -0.0735087 -0.41709784 -0.13957071 0.5140012 -0.044147413 0.16655156
0.38064843 -0.21922335 0.15290925 -0.27331173 -0.03690312 -0.05623964 0.25744295 -0.3887285
-0.28054717 0.227017 -0.68697345 -0.3320425 -0.3134553 0.05754868 -0.2551042 -0.443496
00000000: 2eae b3be 2ee5 ad3e b540 593e 0b08 5ebe
00000010: 2861 f53d f131 f2be 0053 ca3e ec01 6dbe
00000020: 3458 8bbc 10e5 89be 3b56 8abe de1c e5be
00000030: 15eb 62be 9643 3fbe 449a f33d 440b c4be
00000040: 8e35 aa3e 374c f53e ff6a 51bc c3ef 063e
00000050: 2935 15bf 2b9e 88be 64a5 363e d5c8 803e
00000060: 9618 eebc 23e3 d2be e3a3 e4be 53cf d6bd
00000070: 41e4 d9be 99ee 9bbe f5f6 103f a384 eb3e
00000080: 5926 aebe 4525 70be 1109 0ebf ff81 9d3e
00000090: fe1c 713e 7a84 78be d899 173f 3946 c43e
000000a0: 0949 8f3d a7f9 423e ffa0 2e3f 13f3 673d
000000b0: 8395 88be 4638 49be 7a43 433f 0de0 293e
000000c0: ec6a 7b3e 1a48 e93e 9bc6 9ebd 1cb2 bcbe
000000d0: 5d0c 8fbe a845 85be be60 4bbf b6c5 163d
000000e0: 2049 f43d aca5 993e 47f9 48be a8d2 e5be
000000f0: 322f 65be 0573 da3d 5e77 693e 5cae 583e
00000100: 023e 08bf a7a6 45bd 627f 6a3e b9d1 ae3e
00000110: 61cc 193e 3205 87be ff15 2ebe d415 963d
00000120: 618a f1be 0eea fd3e 6ca6 863e ee9d 3e3e
00000130: 6d0a f93e a690 5bbe 063a e73d 37d3 12be
00000140: cd46 113e 01aa b9be 5d64 1a3f 762b 923d
00000150: fc09 17be 0043 c1bc 60b0 49bf b93e 6b3b
00000160: 2dca c9be a287 d43e b88d f73e 1d45 1abf
00000170: 8edb 0a3e 94e1 ebbe 8ad6 0abf acf3 8bbe
00000180: b846 f3bd 0ca4 b1be 9851 afbe 6880 e63e
00000190: dfd3 713e 8e2e 81bd 42b7 33bf f8fc 45be
000001a0: b42b 093f aaae b33d 0f30 f63d 8fd4 e43e
000001b0: 69dc 0abd cc5a 7abe c34c 94be ecc3 7abe
000001c0: 2214 613e 78fd 8cbe 6bd9 233f 57bb d53e
000001d0: 7133 b5be b23f f3bd 0d8b 313f ef81 e23e
000001e0: 17db cf3e 66af ad3e eafe bfbe 138a 82be
000001f0: a599 80be dfff 2b3d 26c8 253f 5f64 033f
00000200: bd9a a73e 4424 ee3d d76c c63e fbd0 9d3e
00000210: faea 92bd 29a7 debe d173 013f ac7c c13c
00000220: 0792 943d 7285 923e 91e5 12bf 01d9 ddbd
00000230: 0262 f03e 09da ed3c 68a0 f5be 9b0e 33be
00000240: 8ac7 e93e 013b b9bc d775 493f d10f 31be
00000250: c225 73be 6347 99be cc2c 253d 4819 18bd
00000260: 50d6 8abe 54b6 0dbd f63d 333f 3a67 9abd
00000270: f8e8 26be 5e57 c5bd 428a dcbb 1a11 e53e
00000280: c8c0 0f3e de08 863e a287 163f bdac f13e
00000290: be24 cc3e 3f6f 5ebe e8da 993e d807 05bd
000002a0: 14b7 5cbe 68bf dcbc d06f adbe a991 dbbe
000002b0: 8d48 253e d894 553e 08cb 00bf 29f0 1bbe
000002c0: dbfa cd3e 6372 b03e fd04 323b 8543 57be
000002d0: 92a1 b83d 1328 24bd 3ca1 323d dafc a63e
000002e0: 3e43 03bf 1cd2 c3bc 6d87 173f 984a d33d
000002f0: c3c1 9c3e 2c1b bf3c 1bd4 9c3d 004b e2be
00000300: b087 01bf ed1c 5e3e c1f7 223f e870 aa3e
00000310: 2da4 96bd c8b2 d0be 63f4 2cbf 15fa 90be
00000320: 963c cc3e 3fc7 8d3d f6ca 38bf 1dcf aebe
00000330: 832a d3be 1bb7 2abe 0615 9dbe 08aa 80be
00000340: 5131 f23e 1645 65be 0d96 8d3a f0f5 bebe
00000350: 63a9 bdbe c676 0a3e df0c d43c 1edc cfbd
00000360: c976 a1bc da13 b3be d380 0c3f fd97 a83e
00000370: 0186 033f 5f4c 7dbe e141 803e 3bb3 c73d
00000380: 84db a5be fd55 243e 9ab2 213f 61c2 eb3e
00000390: 57af ee3e 1b9e ec3d 9ea4 953e 015a 85be
000003a0: 441d 84be 5d62 28be bb8b 96bd d98d d5be
000003b0: a0eb 0ebe 9595 033f ebd3 34bd 7e8c 2a3e
000003c0: 5ae4 c23e 167c 60be 3e94 1c3e 84ef 8bbe
000003d0: ba27 17bd 895b 66bd 90cf 833e 6c07 c7be
000003e0: e1a3 8fbe 2577 683e 7edd 2fbf 7901 aabe
000003f0: 377d a0be 2ab8 6b3d 059d 82be e811 e3be

linear.bias f4 [100]
0.018248027 -0.09929362 -0.065364756 0.062440712 -0.3044402 -0.33739096 -0.2741812 0.15375623
0.28911024 -0.101932794 -0.3059184 0.3007411 -0.013334289 0.45166203 0.12602215 0.4847021
0.40424874 0.09357957 -0.120433 0.19370462 -0.34068373 0.48600093 0.19447203 0.06700716
0.06960491 -0.18373235 0.3814458 0.25063863 -0.09042239 0.28481165 -0.039026808 -0.040718418
-0.34581986 -0.28344977 0.07873369 0.43150184 -0.46208754 -0.41566023 -0.34622717 -0.020192936
0.26574078 -0.4478498 -0.2692682 0.2644391 0.06590275 0.46624738 0.014529477 -0.34518433
-0.13097323 0.20139123 -0.24085854 0.34859967 0.28848097 -0.39904234 -0.29508945 -0.28825164
0.13094966 -0.04906984 0.2924787 -0.36741105 -0.40421516 0.11858334 -0.19600138 -0.0013305232
-0.35837424 0.14203319 0.24715056 0.092829764 -0.06522415 -0.26437816 -0.30424526 -0.3686912
0.26695028 0.35446528 0.08334402 0.42279217 -0.09642427 0.4895163 0.5207966 0.089684665
-0.44375676 -0.018706426 -0.39052567 0.32701352 -0.4108898 -0.16026625 -0.3964804 0.029633204
-0.04785336 0.29974473 0.053903453 -0.4105565 -0.17695494 0.18748331 0.4919114 -0.21974441
0.32274073 0.41434976 -0.44949943 -0.39773887
00000000: e37c 953c 745a cbbd f5dd 85bd d5c1 7f3d
00000010: 96df 9bbe 82be acbe 7a61 8cbe 4672 1d3e
00000020: 4206 943e 24c2 d0bd 56a1 9cbe bdfa 993e
00000030: 1078 5abc 3f40 e73e f30b 013e e02a f83e
00000040: b1f9 ce3e a5a6 bf3d 94a5 f6bd 815a 463e
00000050: 196e aebe 1dd5 f83e ad23 473e 0d3b 893d
00000060: 058d 8e3d 5524 3cbe dd4c c33e b553 803e
00000070: 602f b9bd d5d2 913e 93da 1fbd 5bc8 26bd
00000080: 4d0f b1be 5420 91be 213f a13d cfed dc3e
00000090: bd96 ecbe 6bd1 d4be b044 b1be a86b a5bc
000000a0: 2d0f 883e 924c e5be 86dd 89be 9064 873e
000000b0: 05f8 863d fab7 ee3e 0b0d 6e3c 00bc b0be
000000c0: d91d 06be 8139 4e3e 9fa3 76be a87b b23e
000000d0: c7b3 933e 474f ccbe f715 97be b895 93be
000000e0: ab17 063e 75fd 48bd c5bf 953e 4d1d bcbe
000000f0: 4af5 cebe d2db f23d 96b4 48be f364 aeba
00000100: d47c b7be 2671 113e 0915 7d3e 881d be3d
00000110: 3d94 85bd 935c 87be 09c6 9bbe 18c5 bcbe
00000120: b5ad 883e 797c b53e 45b0 aa3d 3778 d83e
00000130: 167a c5bd e1a1 fa3e ed52 053f 98ac b73d
00000140: 1634 e3be 383e 99bc fbf2 c7be 516e a73e
00000150: 2660 d2be d61c 24be 7bff cabe 55c1 f23c
00000160: e301 44bd 2478 993e dec9 5c3d 7634 d2be
00000170: ad33 35be a0fb 3f3e d0db fb3e ae04 61be
00000180: 463e a53e a725 d43e ca24 e6be 6ea4 cbbe

hidden.weight f4 [100, 100]
0.12331583 0.016369859 0.0069356854 -0.06980588 0.10115686 0.008124762 -0.08467177 -0.005573392
-0.0047327615 0.10087174 0.06304935 0.1609428 0.09316551 -0.025609616 -0.08963422 0.12028779
0.085606106 -0.053262323 0.045095507 0.0036498457 0.07675398 -0.121540695 0.09386661 -0.024231961
0.005152084 -0.08075342 -0.045403138 -0.08087601 0.10037127 0.14078763 -0.020240214 0.122039065
0.029474525 -0.0016445805 0.0254371 -0.08421264 0.078525655 -0.028170604 -0.025737314 -0.036280625
0.024641827 0.017515998 -0.0012739265 -0.030277073 0.059424277 -0.036136497 0.020172333 -0.04923708
0.08730816 -0.05922412 -0.023157766 0.017468367 0.034425363 -0.0719532 0.02845693 0.01060399
0.056374576 0.088663734 -0.08361525 0.050317552 -0.0502719 0.02649694 -0.06931593 -0.025213718
-0.046836063 0.032234844 0.023268074 0.0065685734 -0.111757524 0.13145606 0.092188224 -0.05922391
-0.0032576253 -0.037573613 -0.15424506 0.118710384 0.077109516 0.018917907 -0.067555144 0.031435583
0.03850851 -0.04411817 0.082331516 0.052792445 0.0070963404 -0.03942611 0.046885 0.0954631
0.048735034 0.12611473 -0.09176198 0.05639178 0.10920586 -0.06837745 -0.05974993 -0.0112255355
0.110396266 0.009959189 -0.07943463 -0.11032422 -0.05310408 -0.035355136 0.032800093 0.09338939
-0.124645986 -0.019826896 -0.05785074 -0.03006692 0.0049266573 -0.03411678 -0.0770058 -0.13755047
-0.065815054 0.16369565 0.036796834 0.085224204 0.069560654 0.0075713717 -0.15836255 -0.026847692
-0.11708146 0.08774062 0.012460334 0.0199363 -0.05369388 0.01720494 0.055387825 0.051941
-0.14557944 -0.064655766 -0.07052059 -0.13199401 -0.14717764 0.043664295 0.115462564 0.108056806
-0.15264514 -0.044603433 -0.06833569 -0.06617433 -0.03418518 0.023121098 0.06554635 0.032931842
0.032487527 -0.029478133 -0.122685425 0.0127860075 -0.108323015 0.066090845 0.06781724 0.13657138
0.07925666 -0.04709919 -0.031210506 0.0056433603 -0.027701285 -0.028807115 0.018704787 -0.06577452
-0.09923947 -0.015212769 0.097593404 0.09030721 -0.03155385 -0.07116293 0.044962857 0.047009956
0.07552895 -0.06058911 -0.07051086 -0.07995023 0.089048214 0.006892071 0.16422981 0.0690296
-0.060454264 -0.007259656 -5.255719e-05 -0.039643433 0.0010355032 0.024290359 0.008452927 0.10270119
-0.16079119 0.059545845 0.020204203 -0.11458451 0.0028321492 -0.054133568 0.101227835 -0.016595831
-0.027856799 0.020833783 -0.036533635 -0.0850805 -0.033070527 0.05129388 0.003297611 0.0034725359
0.03704762 0.062932245 -0.048083972 -0.019523868 -0.026666643 -0.022879533 0.00053177064 0.1430838
0.024293035 0.033714958 0.019382812 0.0990562 0.021437231 0.049579956 -0.08941994 0.106684506
0.14974962 0.024612712 0.124009885 -0.07843113 -0.025760317 -0.09986334 0.1262314 -0.13177362
-0.054197714 -0.042218998 -0.06732979 -0.060610123 0.05376042 0.20443986 -0.11313213 0.094629325
0.039120626 0.011893906 -0.10077255 -0.010349914 0.0797672 0.011885512 0.052246932 0.087411895
0.04130492 -0.017087037 -0.07204886 -0.09955112 -0.0713223 0.03387741 0.08472527 -0.018630393
0.20200914 -0.031134427 -0.09269365 -0.027057003 -0.1018812 -0.076709636 0.007045676 0.07085266
00000000: 038d fc3d 151a 863c bf44 e33b 63f6 8ebd
00000010: 542b cf3d b91d 053c 6568 adbd 00a1 b6bb
00000020: 4815 9bbb d895 ce3d 0520 813d 30ce 243e
00000030: 8fcd be3d 42cb d1bc 2592 b7bd 7259 f63d
00000040: 4152 af3d 9829 5abd 11b6 383d 4032 6f3b
00000050: 3131 9d3d 54ea f8bd 233d c03d 1b82 c6bc
00000060: d0d2 a83b 0d62 a5bd a4f8 39bd 52a2 a5bd
00000070: 748f cd3d a22a 103e cece a5bc 9eef f93d
00000080: 8f74 f13c f78e d7ba 7761 d03c ad77 acbd
00000090: 0fd2 a03d 0ac6 e6bc 0fd7 d2bc fe9a 14bd
000000a0: a8dd c93c b67d 8f3c e1f9 a6ba a007 f8bc
000000b0: df66 733d dd03 14bd 7340 a53c d2ac 49bd
000000c0: 9fce b23d fe94 72bd 5bb5 bdbc d219 8f3c
000000d0: 9c01 0d3d 335c 93bd 821e e93c 5cbc 2d3c
000000e0: 07e9 663d 5595 b53d 793e abbd c719 4e3d
000000f0: e8e9 4dbd 1c10 d93c 83f5 8dbd 008d cebc
00000100: 2cd7 3fbd af08 043d b09c be3c 303d d73b
00000110: 21e1 e4bd 6b9c 063e 2ecd bc3d c594 72bd
00000120: e27d 55bb cae6 19bd 6bf2 1dbe 6e1e f33d
00000130: 98eb 9d3d baf9 9a3c 5a5a 8abd 99c2 003d
00000140: 19bb 1d3d 41b5 34bd 6d9d a83d e43c 583d
00000150: 6b88 e83b 467d 21bd 7c0a 403d 2882 c33d
00000160: 639e 473d 3824 013e b4ed bbbd 11fb 663d
00000170: 52a7 df3d 7a09 8cbd 58bc 74bd 4feb 37bc
00000180: 7017 e23d de2b 233c a0ae a2bd aaf1 e1bd
00000190: aa83 59bd 8cd0 10bd 6459 063d f042 bf3d
000001a0: 6546 ffbd 046c a2bc e6f4 6cbd e74e f6bc
000001b0: cc6f a13b 09be 0bbd 38b5 9dbd 08da 0cbe
000001c0: 0bca 86bd d59f 273e 47b8 163d 078a ae3d
000001d0: d175 8e3d 4519 f83b cb29 22be b1ef dbbc
000001e0: 68c8 efbd 5bb1 b33d 6e26 4c3c 7451 a33c
000001f0: 1dee 5bbd 60f1 8c3c 58de 623d 16c0 543d
00000200: c712 15be 3e6a 84bd 196d 90bd 7029 07be
00000210: bcb5 16be 55d9 323d a377 ec3d e34c dd3d
00000220: 024f 1cbe 17b2 36bd 95f3 8bbd 6886 87bd
00000230: c205 0cbd 7568 bd3c 2a3d 863d 8ae3 063d
00000240: a411 053d 207c f1bc 7f42 fbbd 677c 513c
00000250: 75d8 ddbd a35a 873d c4e3 8a3d 5ed9 0b3e
00000260: 5151 a23d 15eb 40bd 2dad ffbc f0eb b83b
00000270: ceed e2bc e6fc ebbc c83a 993c cbb4 86bd
00000280: 103e cbbd fa3e 79bc 0ddf c73d fdf2 b83d
00000290: 9c3e 01bd dfbd 91bd f92a 383d 838d 403d
000002a0: ecae 9a3d 492c 78bd ff67 90bd f2bc a3bd
000002b0: e95e b63d e2d6 e13b dc2b 283e 645f 8d3d
000002c0: e49e 77bd 69e2 edbb da70 5cb8 2761 22bd
000002d0: b9b9 873a 93fc c63c 257e 0a3c 0055 d23d
000002e0: 72a6 24be 58e6 733d 4983 a53c 49ab eabd
000002f0: 949b 393b 29bb 5dbd 8a50 cf3d fbf3 87bc
00000300: f133 e4bc 9cab aa3c 4ba4 15bd af3e aebd
00000310: f674 07bd 8819 523d bb1c 583b 7c93 633b
00000320: 3fbf 173d 9fe2 803d b3f3 44bd 85f0 9fbc
00000330: 0174 dabc dc6d bbbc 8666 0b3a 8f84 123e
00000340: 3002 c73c b218 0a3d b4c8 9e3c fadd ca3d
00000350: 229d af3c 5a14 4b3d cd21 b7bd 687d da3d
00000360: f757 193e 99a0 c93c e5f8 fd3d 80a0 a0bd
00000370: 4d07 d3bc 2785 ccbd ce42 013e aaef 06be
00000380: 6cfe 5dbd d4ed 2cbd 33e4 89bd 5242 78bd
00000390: e333 5c3d af58 513e d1b1 e7bd 05cd c13d
000003a0: f33c 203d a8de 423c d761 cebd b092 29bc
000003b0: fc5c a33d 73bb 423c e100 563d 0205 b33d
000003c0: 592f 293d 1dfa 8bbc 5a8e 93bd 75e1 cbbd
000003d0: 6d11 92bd 0ac3 0a3d 7184 ad3d c49e 98bc
000003e0: 7cdb 4e3e a00d ffbc 2bd6 bdbd a6a6 ddbc
000003f0: 17a7 d0bd f119 9dbd 6adf e63b 331b 913d

hidden.bias f4 [100]
0.06460083 -0.052785702 -0.040935587 0.026448272 -0.06717708 -0.051578082 0.05737911 -0.013441495
0.0020845497 0.06782308 0.04650027 0.04785351 0.04393891 0.10540951 0.029150946 0.007561568
-0.05781356 -0.0117872255 0.007418421 -0.049195327 -0.06593371 -0.029349418 -0.023677297 -0.040987857
0.120295055 0.06731566 0.047223356 0.06360045 -0.029762013 0.012912133 0.051381726 0.13257323
0.015788771 0.11378324 0.029063482 -0.044058315 -0.012336666 0.011842127 -0.0029640212 0.097117126
-0.04539768 -0.08701663 0.101254195 0.04967069 0.07376279 -0.080614544 0.017972365 0.07372214
-0.02286578 0.091602035 -0.044218387 -0.03724111 0.030605596 0.10818734 0.039295934 0.044740677
-0.05671528 -0.011581994 -0.06354132 -0.0527854 0.015605208 0.08802537 -0.06401848 0.010464538
0.07322257 -0.07209369 -0.0036425919 -0.05915258 -0.059547167 0.04684791 0.11885283 0.10740712
0.118001394 0.004135606 0.089997195 0.11748647 0.010382347 0.09801284 0.0053789355 0.07977364
0.06473619 0.10517397 -0.044171114 -0.06857059 0.0880863 0.12149991 0.010483754 0.115645275
0.103566535 0.027055806 0.024485039 0.046000242 -0.080657735 0.06425995 0.0264132 0.0069146515
0.034944735 -0.04539313 -0.061204635 0.09938834
00000000: 714d 843d d235 58bd 13ac 27bd 0caa d83c
00000010: 2394 89bd 8a43 53bd 5c06 6b3d b739 5cbc
00000020: f19c 083b d4e6 8a3d 1177 3e3d 0b02 443d
00000030: 49f9 333d f1e0 d73d f7cd ee3c 08c7 f73b
00000040: e9cd 6cbd 351f 41bc 3a16 f33b 0a81 49bd
00000050: 4108 87bd 316e f0bc e4f6 c1bc e2e2 27bd
00000060: 415d f63d cbdc 893d 476d 413d f440 823d
00000070: 77cf f3bc 698d 533c a575 523d 47c1 073e
00000080: 7457 813c 3007 e93d 8a16 ee3c 7e76 34bd
00000090: ba1f 4abc 7b05 423c 0640 42bb 58e5 c63d
000000a0: ebf2 39bd c635 b2bd 5c5e cf3d 7e73 4b3d
000000b0: f210 973d 3d19 a5bd c83a 933c a2fb 963d
000000c0: 0451 bbbc d999 bb3d 571e 35bd 228a 18bd
000000d0: 96b8 fa3c 5391 dd3d c6f4 203d 0042 373d
000000e0: 484e 68bd 67c2 3dbc f421 82bd 8135 58bd
000000f0: fdac 7f3c a546 b43d 1f1c 83bd 7473 2b3c
00000100: b7f5 953d dba5 93bd 8db8 6ebb fa49 72bd
00000110: bbe7 73bd 98e3 3f3d 1d69 f33d 44f8 db3d
00000120: b7aa f13d fa83 873b 7350 b83d bf9c f03d
00000130: b81a 2a3c f5ba c83d c841 b03b 5d60 a33d
00000140: 6894 843d 7365 d73d c5ec 34bd bd6e 8cbd
00000150: 9766 b43d f2d4 f83d 0dc4 2b3c 6ed7 ec3d
00000160: b11a d43d 23a4 dd3c d994 c83c c06a 3c3d
00000170: e22f a5bd b89a 833d 7f60 d83c 4d94 e23b
00000180: 3622 0f3d 26ee 39bd b6b1 7abd 1d8c cb3d

output.weight f4 [1, 100]
0.1649815 -0.14401248 0.16264142 -0.29827875 0.12863901 -0.17380984 0.24404512 -0.32163444
-0.18134208 0.24102151 0.14890125 -0.1518098 -0.189613 -0.14181206 -0.16078368 0.18198554
0.26173517 -0.22816218 0.16946438 0.23105948 0.30294457 0.16323404 0.15679874 0.2929722
-0.13542728 0.19944769 0.17129539 0.23185404 0.27355725 0.21615033 0.19383611 -0.19405466
0.27007803 0.1413751 -0.1684057 -0.22582753 0.19169576 0.12269599 -0.16545679 0.22829187
-0.3375097 0.2965583 0.20506418 -0.23471294 -0.18595675 0.16606371 0.30923882 0.17893785
-0.23278768 0.18484187 0.21868032 0.21100843 -0.1740128 -0.14411053 0.13610688 -0.104970746
0.17504889 -0.33192435 0.25790614 0.3001244 0.18306893 -0.27892798 -0.20390338 -0.12477778
0.23066112 0.2645518 -0.14788161 0.34621057 0.14071587 0.27093127 -0.12412873 -0.15510015
-0.2221041 0.11757631 -0.14030702 -0.28718606 0.2613038 0.07784004 0.18383633 -0.14146763
-0.23690334 0.1340726 0.18699217 0.18262553 0.09448491 -0.17978717 0.2686276 0.16145483
-0.22688511 -0.19516066 0.20174038 0.24094303 0.15834208 0.22947216 0.28721485 -0.17626049
0.1736113 -0.15227239 0.20584475 -0.17693704
00000000: e9f0 283e 0278 13be 798b 263e feb7 98be
00000010: f2b9 033e 35fb 31be f7e6 793e 45ad a4be
00000020: bdb1 39be 58ce 763e 9279 183e 0774 1bbe
00000030: e929 42be 2e37 11be 7aa4 24be 6b5a 3a3e
00000040: 2702 863e 59a3 69be 1288 2d3e db9a 6c3e
00000050: 8d1b 9b3e d326 273e d98f 203e 7400 963e
00000060: 73ad 0abe 043c 4c3e 0f68 2f3e 256b 6d3e
00000070: b20f 8c3e 8356 5d3e f97c 463e 44b6 46be
00000080: ab47 8a3e a2c4 103e 8b72 2cbe 553f 67be
00000090: e54b 443e 0948 fb3d 816d 29be 58c5 693e
000000a0: 12ce acbe 7dd6 973e 58fc 513e 9758 70be
000000b0: 726b 3ebe 9b0c 2a3e 8d54 9e3e 7c3b 373e
000000c0: e55f 6ebe 3047 3d3e bced 5f3e 9812 583e
000000d0: 6930 32be b691 13be 9a5f 0b3e e7fa d6bd
000000e0: 0440 333e fdf1 a9be 460c 843e e8a9 993e
000000f0: 6c76 3b3e a6cf 8ebe 0ccc 50be 7e8b ffbd
00000100: 6e32 6c3e 5573 873e 476e 17be 8342 b13e
00000110: d217 103e 81b7 8a3e 3437 febd 93d2 1ebe
00000120: 426f 63be d9cb f03d a5ac 0fbe 0d0a 93be
00000130: 9dc9 853e 996a 9f3d 973f 3c3e e4dc 10be
00000140: ca96 72be 544a 093e e07a 3f3e 3002 3b3e
00000150: 4e81 c13d 211a 38be 8f89 893e 6a54 253e
00000160: 9254 68be 32d8 47be 0895 4e3e c5b9 763e
00000170: 6d24 223e c0fa 6a3e d30d 933e a17d 34be
00000180: 29c7 313e 4bed 1bbe f7c8 523e fc2e 35be
