data/model/expert_training/5/12820.pth (torch, 44823 bytes, 5 tensors)

linear.weight f4 [100, 4]
0	0xbeb7a24f	-0.3586602
1	0x3eb03163	0.3441268
2	0x3e64ec5c	0.22355789
3	0xbe6bbff8	-0.23022449
4	0x3decc04d	0.11560116
5	0xbeeeb38d	-0.4662136
6	0x3ed03675	0.40666547
7	0xbe7d5755	-0.24740346
8	0xbc654b72	-0.013995038
9	0xbe8d0ae6	-0.27547377
10	0xbe90dce2	-0.2829352
11	0xbedc6329	-0.43044403
12	0xbe5eacd6	-0.21745619
13	0xbe45ab81	-0.19303705
14	0x3dd889cf	0.1057316
15	0xbebbb39b	-0.36660466
16	0x3ea96196	0.33082265
17	0x3ef7b253	0.48378238
18	0x3ab95675	0.0014140146
19	0x3de6f881	0.11277867
20	0xbf1bfe72	-0.6093513
21	0xbe853c54	-0.2602259
22	0x3e3da865	0.18521269
23	0x3e7b5d07	0.24547206
24	0xbcd4723a	-0.025933374
25	0xbed65ecd	-0.41869202
26	0xbeea4471	-0.45755342
27	0xbdb707db	-0.08937045
28	0xbee0ba85	-0.43892303
29	0xbe987d90	-0.29783297
30	0x3f136df9	0.5758968
31	0x3ee5d1b9	0.44886568
32	0xbeaa1820	-0.3322153
33	0xbe75eaf6	-0.24015412
34	0xbf1109e7	-0.56655735
35	0x3ea4c30e	0.32180065
36	0x3e6d8739	0.23196115
37	0xbe721293	-0.23639898
38	0x3f1ace86	0.6047138
39	0x3ebbe0fc	0.36695087
40	0x3d879ade	0.066213354
41	0x3e484696	0.19558176
42	0x3f31cb2f	0.6945066
43	0x3d21b0e8	0.03947535
44	0xbe8c7026	-0.27429312
45	0xbe42bf72	-0.19018343
46	0x3f46171a	0.77379
47	0x3e1c0537	0.15236364
48	0x3e7b19df	0.24521588
49	0x3eec30e8	0.46131063
50	0xbd815b56	-0.06316249
51	0xbec66069	-0.3874543
52	0xbe8b9f50	-0.27269983
53	0xbe8804c1	-0.26566127
54	0xbf4e8e02	-0.80685437
55	0x3d541a4a	0.051782884
56	0x3e14816f	0.145025
57	0x3e9e03c8	0.3086226
58	0xbe387d18	-0.1801647
59	0xbee3801b	-0.44433674
60	0xbe65d31b	-0.22443812
61	0x3ddd90ed	0.10818658
62	0x3e616abc	0.22013372
63	0x3e65511a	0.22394219
64	0xbf0b7b55	-0.54485065
65	0xbd2e6415	-0.042575914
66	0x3e754271	0.23951127
67	0x3ea91308	0.33022332
68	0x3e20cde6	0.15703544
69	0xbe892fcc	-0.2679428
70	0xbe3a5533	-0.18196563
71	0x3db66bce	0.08907281
72	0xbef86c11	-0.48519948
73	0x3efff5bd	0.4999217
74	0x3e8c51d1	0.2740617
75	0x3e337b47	0.17527495
76	0x3ef9545a	0.48697168
77	0xbe541df2	-0.20714548
78	0x3e01cddf	0.1267619
79	0xbe261348	-0.16218293
80	0x3e0c6b71	0.1371286
81	0xbeb651cc	-0.3560928
82	0x3f1d2071	0.61377627
83	0x3d62fc37	0.055416312
84	0xbe113290	-0.14179444
85	0xbce93265	-0.028466413
86	0xbf4cf104	-0.8005526
87	0x3c9f8874	0.019474246
88	0xbeccfef5	-0.40038267
89	0x3ed6f1b4	0.4198128
90	0x3efd3ecc	0.49461973
91	0xbf1dc048	-0.6162152
92	0x3e0efceb	0.13963668
93	0xbeeecb82	-0.4663964
94	0xbf0e1b98	-0.55510855
95	0xbe838148	-0.2568457
96	0xbde94f1e	-0.113920435
97	0xbeb4fa1b	-0.35347065
98	0xbeb54c1c	-0.3540963
99	0x3eedfa44	0.4648
100	0x3e75815e	0.23975131
101	0xbd8a9aa8	-0.067677796
102	0xbf36ecbc	-0.7145498
103	0xbe33e490	-0.17567658
104	0x3f089055	0.53345233
105	0x3dbef745	0.09324507
106	0x3e0947f4	0.13406354
107	0x3edba6b6	0.42900628
108	0xbced2f7d	-0.028953308
109	0xbe7fc459	-0.24977244
110	0xbe9ad532	-0.3024078
111	0xbe6a066a	-0.2285401
112	0x3e5d432e	0.21607658
113	0xbe89bfc5	-0.2690412
114	0x3f270767	0.6524567
115	0x3ecd6c13	0.40121517
116	0xbeb9ed03	-0.36313638
117	0xbde6bf0e	-0.112669095
118	0x3f345a7e	0.7045058
119	0x3edbe0a6	0.4294483
120	0x3ed4541d	0.41470423
121	0x3eb3d0cc	0.35120237
122	0xbeb0fdb6	-0.34568566
123	0xbe8cadf7	-0.27476475
124	0xbe854cd2	-0.26035172
125	0x3d4377ab	0.047721546
126	0x3f289d6f	0.65865225
127	0x3f000b83	0.50017565
128	0x3ea63964	0.3246566
129	0x3df8b133	0.12143173
130	0x3ecd57f0	0.40106153
131	0x3e94868c	0.290089
132	0xbda39382	-0.07987119
133	0xbedaff22	-0.42772776
134	0x3f03a7fc	0.514282
135	0x3c24b09a	0.010051871
136	0x3d9feca4	0.078088075
137	0x3e90898f	0.2822995
138	0xbf15ee26	-0.5856651
139	0xbdbb715d	-0.09152482
140	0x3ef3e7ed	0.47637883
141	0x3ccfc4a6	0.025362324
142	0xbefbdd82	-0.49192435
143	0xbe220d27	-0.1582533
144	0x3ee8fcf7	0.45505497
145	0xbc8c5f95	-0.01713542
146	0x3f4cdacb	0.8002135
147	0xbe448d88	-0.19194615
148	0xbe821869	-0.25409248
149	0xbe94830b	-0.29006228
150	0x3d3856d6	0.04500469
151	0xbd49aa3a	-0.049234606
152	0xbe8ffd9c	-0.28123176
153	0xbceccf16	-0.02890734
154	0x3f357cc7	0.7089352
155	0xbdb35f55	-0.087584175
156	0xbe2e1841	-0.1700144
157	0xbdd36074	-0.10321131
158	0xbcd7863d	-0.026309127
159	0x3ee7d7a7	0.45281717
160	0x3e0c7faa	0.13720575
161	0x3e88eb2a	0.26741916
162	0x3f19cf81	0.6008225
163	0x3ee8fbfa	0.45504743
164	0x3ecaff13	0.3964773
165	0xbe58be1a	-0.21166268
166	0x3ea0b315	0.3138663
167	0xbd50361b	-0.05083285
168	0xbe57c787	-0.21072207
169	0xbd053ce5	-0.032528777
170	0xbeb36469	-0.35037544
171	0xbed37965	-0.41303554
172	0x3e2b1e98	0.1671089
173	0x3e516601	0.20449068
174	0xbf03e9ac	-0.5152843
175	0xbe0ac895	-0.13553078
176	0x3ece2468	0.4026215
177	0x3eb386fd	0.35063925
178	0x3c8c088c	0.01709392
179	0xbe6b19b5	-0.22959025
180	0x3dd8ec7a	0.10591979
181	0xbcd61e6e	-0.026137557
182	0x3d5cbf4f	0.053893384
183	0x3ea208e8	0.3164742
184	0xbf073e3d	-0.52829343
185	0xbc95f07b	-0.018303147
186	0x3f19fcc1	0.60151297
187	0x3dbe619b	0.092959605
188	0x3e9bff3e	0.30468172
189	0x3ce8fccd	0.028440857
190	0x3db9429b	0.09045907
191	0xbeec04ae	-0.4609732
192	0xbf060c1f	-0.52362245
193	0x3e63331b	0.22187464
194	0x3f257feb	0.6464831
195	0x3ea588a1	0.32330802
196	0xbd8cf1e1	-0.06882072
197	0xbed3a566	-0.41337126
198	0xbf30381f	-0.68835634
199	0xbe88c340	-0.26711464
200	0x3ed0db6b	0.40792403
201	0x3d892cac	0.066979736
202	0xbf3ad3a0	-0.72979164
203	0xbea64f1e	-0.32482237
204	0xbecf693f	-0.40509984
205	0xbe3068f9	-0.17227544
206	0xbea32bcd	-0.31869355
207	0xbe728e6e	-0.23687145
208	0x3ef786c6	0.4834501
209	0xbe683fd6	-0.22680601
210	0xbc398096	-0.011322161
211	0xbeb6d9e2	-0.35713106
212	0xbec62fce	-0.38708347
213	0x3e0eb644	0.13936716
214	0x3d02c166	0.03192272
215	0xbde29b97	-0.11064833
216	0xbcdc6f96	-0.026908677
217	0xbeaf87c4	-0.34283268
218	0x3f0ef218	0.55838156
219	0x3ea17d7a	0.31541044
220	0x3f02f112	0.51149094
221	0xbe779467	-0.24177705
222	0x3e874ed9	0.26427343
223	0x3da2c4dd	0.07947705
224	0xbeaa7f80	-0.333004
225	0x3e29e194	0.16589957
226	0x3f2499a9	0.64296967
227	0x3ee5093a	0.44733602
228	0x3eedffa5	0.46484104
229	0x3df7dc36	0.12102549
230	0x3e9c8ff3	0.30578575
231	0xbe8f04d0	-0.2793336
232	0xbe8143e8	-0.2524712
233	0xbe2dfbcc	-0.16990584
234	0xbdaff78f	-0.0859214
235	0xbecd6ed3	-0.40123615
236	0xbe1648ff	-0.14676283
237	0x3f045a81	0.517006
238	0xbcffe1bd	-0.03123557
239	0x3e1ace20	0.15117693
240	0x3ec1e301	0.37868503
241	0xbe5ae8a2	-0.21377805
242	0x3e2aa113	0.16663007
243	0xbe957f6e	-0.29198784
244	0xbd21a870	-0.039467275
245	0xbd4c9b7a	-0.04995296
246	0x3e8a3b13	0.26998195
247	0xbecfb51d	-0.40567866
248	0xbe8c8bfc	-0.2745055
249	0x3e63c2c1	0.22242261
250	0xbf32ce32	-0.6984588
251	0xbea2638c	-0.31716573
252	0xbe9d9bcd	-0.3078293
253	0x3d562f10	0.052290976
254	0xbe88b883	-0.2670327
255	0xbedb2227	-0.42799494

linear.bias f4 [100]
0	0x3c593ac6	0.013258642
1	0xbdd77afd	-0.10521505
2	0xbd7abcc2	-0.06121517
3	0x3d88d197	0.06680601
4	0xbe9d8223	-0.3076335
5	0xbeb1740f	-0.34658858
6	0xbe89d4c1	-0.2692013
7	0x3e142b51	0.14469649
8	0x3e981235	0.2970139
9	0xbddbc8f9	-0.10731692
10	0xbe9edfdf	-0.31030175
11	0x3e969945	0.2941381
12	0xbc72794c	-0.014799427
13	0x3eeaed06	0.4588396
14	0x3e180184	0.14844328
15	0x3efabe5e	0.48973364
16	0x3ecafe12	0.39646965
17	0x3dd05437	0.10172313
18	0xbe016fb2	-0.12640265
19	0x3e44bfcb	0.19213788
20	0xbeb1d2f7	-0.34731266
21	0x3efc1bf0	0.49240065
22	0x3e435670	0.19075942
23	0x3d955990	0.07292473
24	0x3d9b77b6	0.075911924
25	0xbe369b98	-0.17832792
26	0x3ec12b00	0.3772812
27	0x3e836678	0.25664115
28	0xbdc4c0d6	-0.09607093
29	0x3e8e0743	0.27739915
30	0xbd001f69	-0.031279955
31	0xbd450ffe	-0.048110954
32	0xbeb36c13	-0.35043392
33	0xbe95a03f	-0.2922382
34	0x3dae188b	0.08500775
35	0x3ee0fe74	0.43944132
36	0xbeee7af3	-0.46578178
37	0xbed9d496	-0.42545003
38	0xbeb498eb	-0.35272917
39	0xbccf2a5a	-0.02528875
40	0x3e85f0c9	0.26160267
41	0xbee7c014	-0.4526373
42	0xbe87aac2	-0.26497465
43	0x3e8ab983	0.2709466
44	0x3d84635d	0.064642645
45	0x3ef74760	0.48296642
46	0x3be3fd8f	0.006957717
47	0xbeb2735b	-0.34853634
48	0xbe0d5a05	-0.13803871
49	0x3e5475e6	0.207481
50	0xbe6c2976	-0.23062691
51	0x3eb5d345	0.35512748
52	0x3e98b871	0.29828218
53	0xbece577e	-0.40301126
54	0xbe9b4c5a	-0.3033169
55	0xbe96182c	-0.29315317
56	0x3dfe2960	0.124102354
57	0xbd55c902	-0.05219365
58	0x3e98a8e5	0.29816356
59	0xbebf21f5	-0.37330595
60	0xbed13991	-0.40864232
61	0x3dec768e	0.1154605
62	0xbe441183	-0.19147305
63	0x3b5e3121	0.0033903795
64	0xbebfee9f	-0.3748674
65	0x3e0be501	0.13661577
66	0x3e792ed1	0.24334265
67	0x3dcd24c0	0.10016775
68	0xbd798903	-0.06092168
69	0xbe896eb6	-0.26842278
70	0xbe9d9820	-0.30780125
71	0xbebff8b8	-0.37494445
72	0x3e8bc720	0.27300358
73	0x3eb92440	0.3616047
74	0x3db5b07f	0.088715546
75	0x3ed909af	0.423902
76	0xbdd9e2f8	-0.10638994
77	0x3efdf22d	0.49598828
78	0x3f0738d9	0.5282112
79	0x3dacfaa9	0.08446247
80	0xbee7ff0d	-0.45311776
81	0xbc368d49	-0.011142083
82	0xbecba7ac	-0.3977636
83	0x3eaaff36	0.33397835
84	0xbed4e47a	-0.41580564
85	0xbe1b76bf	-0.15182017
86	0xbecac374	-0.39602244
87	0x3cd03817	0.02541737
88	0xbd66b319	-0.056323145
89	0x3e9610c2	0.2930966
90	0x3d712b7b	0.058879357
91	0xbed7a287	-0.42116186
92	0xbe3c1376	-0.18366799
93	0x3e46be47	0.19408523
94	0x3efd6ded	0.4949793
95	0xbe698a68	-0.22806704
96	0x3ea37f3b	0.31933007
97	0x3ed7db3b	0.42159447
98	0xbee9af69	-0.4564164
99	0xbec8ccbe	-0.39218706

hidden.weight f4 [100, 100]
0	0x3e081e96	0.13292918
1	0x3ca30410	0.019899398
2	0x3c3f91ac	0.011692446
3	0xbd835f35	-0.06414644
4	0x3dd859b3	0.10563984
5	0x3c60d36e	0.013722284
6	0xbda9024a	-0.0825239
7	0xbb727fef	-0.0037002524
8	0xbc202f93	-0.009776968
9	0x3dc24356	0.094854996
10	0x3d93bba8	0.07213527
11	0x3e21bede	0.15795466
12	0x3dc4a57e	0.09601878
13	0xbd20a6ab	-0.039221447
14	0xbdb3da48	-0.08781868
15	0x3de8d2aa	0.11368306
16	0x3db4d278	0.08829206
17	0xbd78e881	-0.060768608
18	0x3d600805	0.054695148
19	0x3988fc06	0.00026127713
20	0x3da58845	0.08082632
21	0xbe041881	-0.12899972
22	0x3dd292c6	0.10281901
23	0xbd000c5f	-0.031261798
24	0xbb961058	-0.004579585
25	0xbda5cd8a	-0.08095844
26	0xbd4a6b29	-0.049418602
27	0xbdb33b85	-0.08751587
28	0x3dbfe39a	0.093695834
29	0x3e0fba8f	0.1403601
30	0xbca6bc70	-0.020353526
31	0x3e0095df	0.12557171
32	0x3d08d8de	0.033409946
33	0x3a862b37	0.0010236268
34	0x3ccb7902	0.024837974
35	0xbdb333b7	-0.08750098
36	0x3db15c61	0.08660198
37	0xbcc67674	-0.024226405
38	0xbca6d8c0	-0.020367026
39	0xbd183fbb	-0.037170153
40	0x3cacbcf0	0.021086186
41	0x3ce00053	0.027343905
42	0x3b78ce56	0.0037964783
43	0xbd05d24c	-0.032671258
44	0x3d7135e0	0.05888927
45	0xbd29feb0	-0.041502655
46	0x3cdddb31	0.027082058
47	0xbd17fa6f	-0.037104066
48	0x3dc20ae8	0.094747365
49	0xbd9c5ea1	-0.076352365
50	0xbcbbc490	-0.022920877
51	0x3ca48ebd	0.020087594
52	0x3d000d0d	0.031262446
53	0xbd878083	-0.066163085
54	0x3cf56af4	0.029958226
55	0x3c0883b9	0.008332186
56	0x3d797e6a	0.060911573
57	0x3db3ba53	0.08775773
58	0xbdaccaf8	-0.08437151
59	0x3d6b3b7a	0.05742977
60	0xbd2618a3	-0.04055084
61	0x3d09fbf1	0.033687536
62	0xbd80d21f	-0.062900774
63	0xbc90a651	-0.01765743
64	0xbd2f3699	-0.042776678
65	0x3d0e3047	0.03471401
66	0x3ca55489	0.020181911
67	0x3c1e012e	0.009643836
68	0xbdde2bf1	-0.10848225
69	0x3e1154d0	0.1419251
70	0x3dc6831d	0.096929766
71	0xbd57868f	-0.05261856
72	0xbc25e319	-0.010124945
73	0xbd23506a	-0.03987161
74	0xbe16ab05	-0.14713676
75	0x3de49bba	0.11162515
76	0x3da63627	0.081157975
77	0x3c599369	0.013279774
78	0xbd96dc19	-0.07366199
79	0x3cc95e5f	0.024581132
80	0x3d32b69b	0.043631177
81	0xbd2dd956	-0.042443596
82	0x3db10f49	0.086454935
83	0x3d3403ce	0.04394894
84	0x3c9506ec	0.018191777
85	0xbd16543c	-0.036701426
86	0x3d4e6cd0	0.05039674
87	0x3db9bf79	0.09069724
88	0x3d583c54	0.05279191
89	0x3e0467e6	0.12930259
90	0xbdacbb56	-0.08434169
91	0x3d7b2a41	0.061319593
92	0x3dea7a25	0.114490785
93	0xbd7bca3e	-0.06147217
94	0xbd7f4536	-0.062321864
95	0xbc21854d	-0.009858442
96	0x3dddc1b6	0.10827963
97	0x3c660532	0.014039325
98	0xbd96a3f9	-0.07355494
99	0xbddf745d	-0.109108664
100	0xbd82c0d1	-0.06384433
101	0xbd24bb1d	-0.040217508
102	0x3cd27a93	0.025693214
103	0x3db07976	0.08616917
104	0xbe028dee	-0.12749454
105	0xbce21733	-0.027598953
106	0xbd7e685e	-0.06211125
107	0xbd0babb6	-0.034099303
108	0x3c11f6db	0.008908953
109	0xbce155ec	-0.027506791
110	0xbdb444bb	-0.08802172
111	0xbe096c92	-0.13420323
112	0xbd88a176	-0.06671421
113	0x3e37c46b	0.17946021
114	0x3d183562	0.037160285
115	0x3dc1285f	0.09431528
116	0x3d862df8	0.065517366
117	0x3c8509b8	0.016239986
118	0xbe2cfc32	-0.1689308
119	0xbcb30fd9	-0.021858143
120	0xbdfd200b	-0.12359627
121	0x3dc7e835	0.09761087
122	0x3b3454e5	0.0027516421
123	0x3ce5f39a	0.02807026
124	0xbd377870	-0.044792593
125	0x3c9997ff	0.018749235
126	0x3d7a6ba8	0.061137825
127	0x3d7829da	0.060586788
128	0xbe0d8bfd	-0.13822933
129	0xbd8572e1	-0.06516052
130	0xbd8c722d	-0.06857715
131	0xbe0cadc8	-0.13738167
132	0xbe19ea00	-0.1503067
133	0x3d1e8ce3	0.03870858
134	0x3df19715	0.11796395
135	0x3de7b13b	0.11313101
136	0xbe23edef	-0.16008733
137	0xbd4f7fe0	-0.05065906
138	0xbd9acb6f	-0.07558333
139	0xbd89da7f	-0.06731128
140	0xbce9ce04	-0.028540619
141	0x3c450704	0.012025598
142	0x3d6f5ed4	0.058440045
143	0x3d18e5d7	0.037328567
144	0x3d0eb3de	0.034839503
145	0xbcb4cb4f	-0.022069601
146	0xbe064d0b	-0.13115327
147	0xb8271887	-3.9838746e-05
148	0xbdf055d8	-0.117351234
149	0x3dac3e6c	0.084103435
150	0x3d8e0c5f	0.06935953
151	0x3e078f12	0.1323817
152	0x3dac29e6	0.08406429
153	0xbd6046dc	-0.054755077
154	0xbd0f91c5	-0.035051126
155	0x3c186d28	0.009303369
156	0xbd0ae323	-0.03390802
157	0xbcd6fc66	-0.0262434
158	0x3ca56a44	0.020192273
159	0xbd986b42	-0.07442333
160	0xbde00691	-0.109387524
161	0xbca664c4	-0.02031172
162	0x3db741f9	0.0894813
163	0x3da6a934	0.08137742
164	0xbd1a7a45	-0.03771426
165	0xbd9758f8	-0.07390016
166	0x3d4c0849	0.04981259
167	0x3d2bc0ff	0.041932102
168	0x3d8fc55f	0.070200674
169	0xbd92d68b	-0.07169827
170	0xbd974279	-0.073857255
171	0xbdb4bbfe	-0.08824919
172	0x3dc85a22	0.097828165
173	0x3c094a6e	0.008379562
174	0x3e1fd719	0.15609397
175	0x3d9f0552	0.07764687
176	0xbd884b47	-0.06654983
177	0x39deacb4	0.00042471814
178	0x3c05cff7	0.008167258
179	0xbd01510d	-0.031571437
180	0xbbd15c8b	-0.006389206
181	0x3ca7c455	0.02047936
182	0x3b0c05e0	0.0021365806
183	0x3de98113	0.11401572
184	0xbe329403	-0.17439274
185	0x3d5fd962	0.05465067
186	0x3c6d0c32	0.01446824
187	0xbdddcd5b	-0.10830184
188	0xbb481d9b	-0.0030535224
189	0xbd6d8051	-0.0579837
190	0x3dbfd294	0.093663365
191	0xbcc2addc	-0.023764543
192	0xbd0f0c1e	-0.034923665
193	0x3c510b5b	0.012759055
194	0xbd029b11	-0.031886164
195	0xbdb57498	-0.08860129
196	0xbcee6658	-0.029101536
197	0x3d3e6237	0.046480384
198	0xbb91cacc	-0.004449224
199	0x3790f5fe	1.7280687e-05
200	0x3d7aa9d7	0.06119713
201	0x3d689174	0.05677934
202	0xbd363286	-0.044481777
203	0xbaa9f844	-0.0012967666
204	0xbd03bd86	-0.032163166
205	0xbc4aff70	-0.012390003
206	0x3ba0b047	0.0049038264
207	0x3e19b75e	0.15011355
208	0x3ce33b40	0.027738214
209	0x3c59e929	0.013300219
210	0x3cee6ed9	0.02910559
211	0x3dd64949	0.10463197
212	0x3c911037	0.017707927
213	0x3d3e3306	0.04643538
214	0xbdbf3130	-0.09335554
215	0x3dd8ee8d	0.10592375
216	0x3e24a2c8	0.16077721
217	0x3b561745	0.0032667678
218	0x3e17d81a	0.1482853
219	0xbdc46327	-0.09589224
220	0xbcc066a0	-0.023486435
221	0xbdd7dad6	-0.105397865
222	0x3e14525a	0.1448454
223	0xbe1ebfdf	-0.1550288
224	0xbd708b8e	-0.05872684
225	0xbd670c9f	-0.05640852
226	0xbda65a6b	-0.081227146
227	0xbd918a69	-0.07106478
228	0x3d0e4132	0.034730144
229	0x3e58fa0e	0.21189138
230	0xbdff9571	-0.124796756
231	0x3ddcde01	0.107845314
232	0x3cdd00fb	0.026978007
233	0x3c981b42	0.018567685
234	0xbdda33bb	-0.10654398
235	0xbcc7c118	-0.024384066
236	0x3d92ea6c	0.07173619
237	0x3ca5ed71	0.020254822
238	0x3d821625	0.0635188
239	0x3dbb4523	0.09144046
240	0x3d0a7c52	0.033809967
241	0xbcbcf0e7	-0.02306409
242	0xbd7e20e5	-0.06204309
243	0xbde03541	-0.109476574
244	0xbda8af59	-0.0823657
245	0x3cca5574	0.02469895
246	0x3dd46ea4	0.103726655
247	0xbcaf10eb	-0.021370372
248	0x3e625eed	0.22106524
249	0xbd46882a	-0.0484697
250	0xbdde7dcc	-0.108638376
251	0xbc3b6edf	-0.011440008
252	0xbdf1bd81	-0.11803723
253	0xbd8612e3	-0.06546571
254	0x3c47ce79	0.012195223
255	0x3d417338	0.04722902

hidden.bias f4 [100]
0	0x3d7710f0	0.060318887
1	0xbd3d9a4e	-0.046289735
2	0xbd441b41	-0.047877554
3	0x3d0a041a	0.033695318
4	0xbd919a45	-0.07109503
5	0xbd38ee6e	-0.04514926
6	0x3d5bd91f	0.05367386
7	0xbbd7cc27	-0.006585616
8	0x3c143e35	0.009048034
9	0x3d827acd	0.06371079
10	0x3d2f2991	0.04276425
11	0x3d5e54f6	0.054280244
12	0x3d4e7ac0	0.050410032
13	0x3de4f54f	0.111796014
14	0x3d129d66	0.035794638
15	0x3b50cd20	0.0031860545
16	0xbd7b5e12	-0.06136901
17	0xbb954f2f	-0.0045565586
18	0x3b78bad2	0.003795315
19	0xbd59fd36	-0.053219996
20	0xbd8e20ba	-0.06939836
21	0xbd0b83dc	-0.034061298
22	0xbce22787	-0.027606739
23	0xbd3718b6	-0.0447013
24	0x3e01fafc	0.12693399
25	0x3d7fcba8	0.06245008
26	0x3d2f78ed	0.042839933
27	0x3d74aeb1	0.05973691
28	0xbd06839d	-0.03284036
29	0x3c123907	0.008924729
30	0x3d42b479	0.047535393
31	0x3e0eb461	0.13935997
32	0x3c4a65e5	0.012353395
33	0x3de095ae	0.10966049
34	0x3d131769	0.035910998
35	0xbd18154a	-0.037129678
36	0xbc82fb1f	-0.015988884
37	0x3be9c2d9	0.0071338234
38	0x3b77895b	0.003777108
39	0x3db9cddc	0.09072468
40	0xbd1c55cf	-0.03816777
41	0xbdba585d	-0.09098885
42	0x3dc5f3f4	0.09665671
43	0x3d682240	0.05667329
44	0x3da4421b	0.08020421
45	0xbdad604a	-0.08465631
46	0x3c6f6a2d	0.014612717
47	0x3d8e0589	0.069346495
48	0xbc827eb3	-0.015929556
49	0x3db410b0	0.087922454
50	0xbd44be6d	-0.048033167
51	0xbd26c2d0	-0.04071313
52	0x3d161748	0.036643296
53	0x3deadea3	0.11468246
54	0x3d0e81f8	0.034791917
55	0x3d519e90	0.051176608
56	0xbd7ec82b	-0.062202614
57	0xbb9afe21	-0.0047300016
58	0xbd8ab4dd	-0.06772778
59	0xbd670188	-0.056397945
60	0x3c3e3aac	0.011610668
61	0x3dc2cc4e	0.09511624
62	0xbd6a6a81	-0.057230476
63	0x3c8a1f44	0.016860612
64	0x3d8d55bd	0.06901119
65	0xbd9b4d69	-0.07583124
66	0x3b35e03c	0.0027752062
67	0xbd8038fe	-0.062608704
68	0xbd82945e	-0.06375955
69	0x3d3000cd	0.042969514
70	0x3e005809	0.12533583
71	0x3de91a52	0.11381973
72	0x3dff6cbe	0.12471913
73	0x3837cc83	4.3821066e-05
74	0x3dc60e7b	0.09670731
75	0x3dfef0dc	0.12448284
76	0x3bdceaae	0.006741843
77	0x3dbfad71	0.09359253
78	0x3a1cff4a	0.0005988969
79	0x3db0f8b9	0.0864119
80	0x3d91fc07	0.071281485
81	0x3dcf0ef9	0.10110278
82	0xbd434b2b	-0.047679108
83	0xbd947ccd	-0.07250366
84	0x3dac152e	0.08402477
85	0x3e0362c8	0.12830651
86	0x3bdd2912	0.0067492807
87	0x3de469f8	0.111530244
88	0x3de20cea	0.110376194
89	0x3d0a87c2	0.033820875
90	0x3caa27da	0.020770956
91	0x3d2d561b	0.042318445
92	0xbdae239f	-0.08502888
93	0x3d714a0d	0.05890851
94	0x3cb7fcfa	0.022459496
95	0x3c5abca5	0.01335064
96	0x3cfa3e05	0.030547151
97	0xbd1ee6e0	-0.0387944
98	0xbd85686a	-0.06514056
99	0x3dd8dbc8	0.10588795

output.weight f4 [1, 100]
0	0x3e33bd23	0.17552619
1	0xbe1d3680	-0.15352821
2	0x3e2e9407	0.17048655
3	0xbe9f3ac1	-0.31099513
4	0x3e0498a8	0.12948859
5	0xbe3b2de2	-0.18279222
6	0x3e7d1fd6	0.24719176
7	0xbeab17b5	-0.33416525
8	0xbe45703c	-0.19281095
9	0x3e76b166	0.2409111
10	0x3e1a882f	0.15091012
11	0xbe243938	-0.16037452
12	0xbe4b5140	-0.19855213
13	0xbe19e1cc	-0.15027541
14	0xbe2eb077	-0.17059503
15	0x3e3e7daf	0.18602632
16	0x3e8fe3fb	0.28103623
17	0xbe76af04	-0.240902
18	0x3e2f2434	0.17103654
19	0x3e6d6ddd	0.23186441
20	0x3e9d7b9c	0.3075837
21	0x3e259d85	0.1617337
22	0x3e21b1eb	0.15790527
23	0x3e99710b	0.29969057
24	0xbe14580c	-0.14486712
25	0x3e5570f9	0.20843877
26	0x3e2e57eb	0.17025726
27	0x3e71e1dc	0.23621315
28	0x3e8ff6d4	0.28118002
29	0x3e605d7e	0.21910664
30	0x3e471ec9	0.19445337
31	0xbe51310e	-0.20428869
32	0x3e8d0200	0.27540588
33	0x3e103f32	0.14086607
34	0xbe376ee8	-0.17913401
35	0xbe732846	-0.23745832
36	0x3e473e61	0.1945739
37	0x3dfafd54	0.1225535
38	0xbe33d6b8	-0.17562377
39	0x3e72a118	0.23694265
40	0xbeb481ca	-0.3525527
41	0x3e99b862	0.30023485
42	0x3e59b73c	0.21261305
43	0xbe7c4eb2	-0.24639395
44	0xbe47a6a0	-0.19497156
45	0x3e2a2a25	0.1661764
46	0x3ea24671	0.31694368
47	0x3e38ac74	0.18034536
48	0xbe7bf9fb	-0.24607079
49	0x3e4106a3	0.18850188
50	0x3e616492	0.22011021
51	0x3e5a72d3	0.21332864
52	0xbe39913a	-0.18121806
53	0xbe1d76f0	-0.15377402
54	0x3e09d77a	0.13461104
55	0xbde81a1d	-0.11333106
56	0x3e38c30c	0.18043154
57	0xbeb0c054	-0.34521735
58	0x3e85173f	0.25994298
59	0x3e9ddc99	0.30832365
60	0x3e3c6fbb	0.18401997
61	0xbe952b58	-0.2913463
62	0xbe5dd05d	-0.21661516
63	0xbe0842cd	-0.13306732
64	0x3e6bb9a2	0.23020032
65	0x3e88c8fb	0.26715836
66	0xbe2031c7	-0.15643989
67	0x3eb67ec5	0.35643592
68	0x3e0f5ab7	0.13999449
69	0x3e8ce91d	0.275216
70	0xbe08100d	-0.13287373
71	0xbe27b6d9	-0.16378345
72	0xbe6df8ae	-0.23239395
73	0x3df06801	0.11738587
74	0xbe1a30f0	-0.1505773
75	0xbe98bcd4	-0.29831564
76	0x3e8714ab	0.26382956
77	0x3d9fbca7	0.077996545
78	0x3e45165b	0.19246809
79	0xbe1b1b5e	-0.15147159
80	0xbe7c75ca	-0.24654308
81	0x3e09428b	0.1340429
82	0x3e443116	0.1915935
83	0x3e3d46a7	0.18483983
84	0x3dc0d18a	0.094149664
85	0xbe437fce	-0.19091722
86	0x3e8b65e1	0.27226165
87	0x3e252f3a	0.16131297
88	0xbe733f25	-0.23754556
89	0xbe534f95	-0.20635827
90	0x3e5028e3	0.20328097
91	0x3e78fbdc	0.24314827
92	0x3e22b5f6	0.15889725
93	0x3e71e13f	0.23621081
94	0x3e95bc56	0.2924525
95	0xbe3dab03	-0.18522267
96	0x3e31169f	0.17293786
97	0xbe25d5c9	-0.16194834
98	0x3e539921	0.20663883
99	0xbe3ee64f	-0.18642543
