data/model/expert_training/5/12870.pth (torch, 44823 bytes, 5 tensors)

linear.weight f4 [100, 4]
000000 5c 7a b9 be 77 bb b0 3e 91 18 76 3e 4b 0a 6d be
       -0.36226165 0.34518024 0.24032809 -0.23148458
000010 e7 41 e9 3d 4a c4 f2 be d3 cb db 3e 83 7c 7b be
       0.11389523 -0.47415382 0.42928943 -0.24559216
000020 d0 51 38 bc a2 1a 8a be 00 f2 9b be f6 44 dd be
       -0.011249974 -0.26973444 -0.3045807 -0.43216676
000030 cf 03 5d be 28 f5 42 be 61 3b ae 3d 24 1c bc be
       -0.21583484 -0.19038832 0.085074194 -0.3674022
000040 f4 2b a7 3e f8 6e f4 3e 85 c1 b4 3c e8 e8 e9 3d
       0.3265072 0.47740912 0.022064934 0.114213765
000050 3c a7 1d bf 5d 55 81 be dc 4c 49 3e e9 71 78 3e
       -0.61583304 -0.2526044 0.19658226 0.24262203
000060 29 67 ca bc fd 3f d2 be 2f da f5 be f4 f2 ba bd
       -0.024707394 -0.41064444 -0.48018023 -0.09128371
000070 31 83 de be f3 13 97 be 05 27 18 3f 4b 43 e5 3e
       -0.43459466 -0.29507408 0.5943454 0.44777903
000080 9a fe a9 be 44 18 74 be 17 68 16 bf 8a 73 a4 3e
       -0.33202058 -0.23837382 -0.5875258 0.321194
000090 33 31 6b 3e ad 7b 7a be f8 ab 20 3f 90 df bc 3e
       0.22967987 -0.24461241 0.62762403 0.36889315
0000a0 c3 f1 7e 3d bf 37 44 3e d1 06 37 3f cc 30 28 3d
       0.06224228 0.1916189 0.71494776 0.04106216
0000b0 e8 b4 8c be b2 2c 43 be 1f 32 4b 3f 08 62 1c 3e
       -0.2748177 -0.19060019 0.79373354 0.15271771
0000c0 be 4d 77 3e 85 ac e9 3e 55 14 31 bd f3 e6 c5 be
       0.2415075 0.45639434 -0.04323228 -0.38652763
0000d0 d8 ad 8a be 50 65 86 be 5e 07 54 bf 54 75 4f 3d
       -0.27085757 -0.2624917 -0.8282374 0.050649002
0000e0 7b 36 13 3e 8a 0a 9b 3e c2 e4 36 be f1 79 e8 be
       0.14376251 0.30281478 -0.17860702 -0.45405534
0000f0 9a 90 5c be 51 4d e7 3d 16 8e 68 3e 36 08 63 3e
       -0.21539536 0.11294044 0.22710451 0.22171101
000100 bc c5 0a bf 7c 82 23 bd b6 a6 83 3e 63 2b a8 3e
       -0.5420797 -0.03991936 0.25713128 0.328456
000110 c9 6f 25 3e 09 3b 85 be 1d a1 51 be ef 19 b1 3d
       0.16155924 -0.26021603 -0.20471616 0.086475246
000120 8c 5b f8 be 70 8b 00 3f b8 f8 93 3e cc 2a 31 3e
       -0.48507345 0.50212765 0.28900695 0.17301482
000130 81 a7 f8 3e 68 00 5e be d3 95 17 3e 8d 55 25 be
       0.48565295 -0.21679842 0.14803247 -0.16145916
000140 a4 49 0a 3e f3 d7 ba be 72 f5 22 3f c5 45 6b 3d
       0.13504654 -0.3649288 0.6365577 0.057439584
000150 3c a1 0d be 34 54 c8 bc 04 67 52 bf 58 f0 92 3c
       -0.13831037 -0.024454214 -0.8218844 0.01793687
000160 d9 29 cf be 44 7c d7 3e 01 d4 02 3f 4b 0c 1e bf
       -0.40461615 0.42086995 0.5110474 -0.6173751
000170 2e 0d 12 3e ac 6b ea be 27 ff 13 bf 0e 92 84 be
       0.1426284 -0.45785272 -0.57811207 -0.2589268
000180 1c 98 e7 bd 90 1b b2 be 50 c2 c0 be 11 0c ed 3e
       -0.113083094 -0.34786654 -0.3764825 0.46298268
000190 4b bb 79 3e 1a d4 74 bd 89 8e 3c bf 99 15 36 be
       0.24387853 -0.05977259 -0.7365499 -0.17781676
0001a0 cf d0 07 3f 53 c6 b0 3d f3 e5 1f 3e c1 7a dc 3e
       0.5305299 0.08631577 0.15615062 0.43062404
0001b0 2e 05 d2 bc d6 1a 7a be 67 05 a6 be 9b f5 6b be
       -0.025637235 -0.244243 -0.32425997 -0.2304291
0001c0 54 0c 5b 3e 79 0c 8e be 81 ec 2c 3f 63 6c ce 3e
       0.21391422 -0.2774389 0.67548376 0.40317068
0001d0 56 7f b9 be 8b f8 e4 bd 2b 4e 39 3f 2a a4 db 3e
       -0.36229962 -0.11180218 0.723849 0.42898685
0001e0 9f c8 d2 3e 3b df af 3e 07 d8 ad be d2 21 90 be
       0.41168687 0.3435 -0.33953878 -0.28150803
0001f0 41 6e 85 be c4 ee 45 3d e6 93 2d 3f 59 e8 ff 3e
       -0.2606068 0.048323408 0.678038 0.49981955
000200 b7 73 a4 3e a7 4e e8 3d 31 b0 d8 3e f0 6f 95 3e
       0.32119533 0.11343127 0.42321923 0.29186964
000210 c8 1d a5 bd 09 c0 dd be a9 2c 09 3f d1 d5 42 3c
       -0.08062321 -0.43310574 0.5358377 0.011891798
000220 80 d0 aa 3d fb fd 92 3e 24 3a 1b bf 51 7a bf bd
       0.083405495 0.28709397 -0.6063559 -0.09349502
000230 42 5f f6 3e b5 07 01 3d 19 85 03 bf d2 5b 24 be
       0.4811955 0.03150149 -0.51374966 -0.16050652
000240 7f 62 e7 3e 34 b2 d6 bc a0 69 52 3f 4f 36 43 be
       0.45192334 -0.02620802 0.8219242 -0.19063686
000250 a9 07 86 be 93 67 93 be df 5f 7a 3d fe b8 1a bd
       -0.2617772 -0.28789958 0.061126586 -0.03777408
000260 ca 86 8f be c9 eb db bc 6a c6 39 3f 61 98 b6 bd
       -0.28032523 -0.02684583 0.7256838 -0.08915783
000270 7a c9 2c be f8 2c bd bd d8 51 22 bd d7 2c e8 3e
       -0.16873732 -0.09237093 -0.039628834 0.4534671
000280 59 10 09 3e b5 96 86 3e 17 3a 1f 3f 4e db e9 3e
       0.13385142 0.26286855 0.62198013 0.4567513
000290 17 96 c9 3e 91 67 63 be b0 64 ac 3e 3e 01 4b bd
       0.39372322 -0.22207476 0.33670568 -0.04956173
0002a0 92 d4 54 be 56 3e 01 bd 23 0e bd be d6 7a d3 be
       -0.20784214 -0.03155359 -0.36924848 -0.41304654
0002b0 c0 37 30 3e 34 bc 56 3e b0 52 09 bf c1 e7 0c be
       0.17208767 0.20970231 -0.53641796 -0.13760282
0002c0 01 b2 cc 3e 4c 47 b0 3e 43 af 19 3d d0 3c 6a be
       0.39979556 0.34429395 0.03752066 -0.2287476
0002d0 fc 88 d5 3d d8 4c f6 bc 8a 90 5a 3d 74 b0 9e 3e
       0.10426518 -0.030065939 0.0533605 0.30993998
0002e0 ce 4b 05 bf 62 f7 6f bc d2 09 1e 3f 95 ba b8 3d
       -0.52068794 -0.014646383 0.61733735 0.09019963
0002f0 18 27 9a 3e f6 d9 a8 3c 25 53 e4 3d 11 5f eb be
       0.3010795 0.020611744 0.11148671 -0.45970967
000300 25 eb 03 bf 87 cf 66 3e c6 54 29 3f 6c 30 a4 3e
       -0.5153068 0.22540103 0.6614498 0.32068193
000310 65 bd 87 bd e0 6b d0 be 97 f2 35 bf 22 b9 89 be
       -0.06627921 -0.40707302 -0.7107329 -0.26899058
000320 49 f7 d3 3e 7c 92 98 3d ff 38 40 bf 58 9a a7 be
       0.413996 0.07449815 -0.7508697 -0.32734942
000330 a1 00 cf be ec 09 30 be bc 2e ad be d8 32 72 be
       -0.40430167 -0.17191285 -0.33824718 -0.23652208
000340 a6 71 fb 3e e7 e2 61 be 80 f4 07 bd c5 8b b8 be
       0.49110144 -0.22059213 -0.033192158 -0.36044136
000350 c4 92 c9 be cb 78 10 3e e5 0e 39 3d a0 04 d6 bd
       -0.39369786 0.14108579 0.04518022 -0.10450101
000360 9d b1 e3 bc 39 9c b2 be 94 99 14 3f b8 7d a2 3e
       -0.027794654 -0.34884813 0.5804684 0.3173654
000370 7f 45 02 3f bc 0e 81 be ab 2c 93 3e 58 80 a5 3d
       0.5088729 -0.25206554 0.28745016 0.0808112
000380 13 da aa be 7d e9 2a 3e 59 62 29 3f 2e 9b e4 3e
       -0.33369502 0.16690631 0.6616569 0.44649643
000390 53 75 ec 3e e1 1a e9 3d 76 57 a7 3e e6 65 8e be
       0.4618326 0.1138208 0.32683915 -0.27812117
0003a0 dd 19 80 be 44 88 2b be c7 95 d9 bd f0 be cd be
       -0.25019732 -0.167512 -0.10624271 -0.40184736
0003b0 ae c0 1c be 36 24 04 3f 93 0c 59 bc 63 9a 1a 3e
       -0.15307876 0.51617754 -0.013247627 0.15097956
0003c0 1e 6f c0 3e 9a 55 65 be b2 87 41 3e 69 f2 94 be
       0.37584776 -0.22395936 0.1889942 -0.29091194
0003d0 7e 0a 2e bd f9 43 5a bd b0 b4 94 3e 39 0f cf be
       -0.042490475 -0.05328748 0.29044104 -0.404413
0003e0 02 49 8a be eb cd 63 3e ea 3e 37 bf fa f3 a1 be
       -0.27008826 0.2224652 -0.71580374 -0.31631452
0003f0 27 3a 9c be e2 32 58 3d 14 37 92 be 76 e7 da be
       -0.30513117 0.0527829 -0.28557646 -0.42754716

linear.bias f4 [100]
000000 0c a7 8a 3c 2c d2 d4 bd a8 4d 7e bd 05 0b 83 3d
       0.016925357 -0.103916496 -0.062085778 0.06398586
000010 4a 3e 9e be 17 da b1 be ef c8 8a be 16 9b 1c 3e
       -0.30906898 -0.34736702 -0.27106425 0.15293536
000020 d2 e3 95 3e 18 06 da bd 00 a3 9e be 57 2b 99 3e
       0.29275376 -0.106456935 -0.30983734 0.29915878
000030 01 da 7b bc 67 9f e9 3e fe 4f 12 3e 79 b6 00 3f
       -0.0153718 0.45629427 0.14288327 0.5027843
000040 92 bd ce 3e 7d 2c d2 3d 1d 9a fa bd bf f1 44 3e
       0.40379006 0.10262392 -0.12236426 0.19232844
000050 46 61 b1 be b8 af fb 3e 6f af 46 3e bb 76 95 3d
       -0.34644526 0.491575 0.1940286 0.07298037
000060 d9 55 95 3d b2 5b 35 be fd 37 c1 3e a0 23 83 3e
       0.07291765 -0.1771076 0.37738028 0.25613117
000070 3f d1 c2 bd 1d 3f 91 3e 58 0a 1c bd ed 81 2e bd
       -0.09512567 0.28368464 -0.038095802 -0.042604376
000080 d5 bf b3 be 65 10 94 be b7 6f b0 3d de 8f e1 3e
       -0.35107294 -0.28918758 0.08615058 0.44055074
000090 96 fc ee be e5 60 d9 be 60 3f b1 be 31 c7 c3 bc
       -0.46677083 -0.42456737 -0.34618664 -0.023898693
0000a0 6a 66 86 3e e6 3d e8 be e8 f6 88 be 4b 33 8b 3e
       0.2625001 -0.45359725 -0.26750875 0.2718757
0000b0 09 cf 83 3d dd 3e f5 3e 58 b7 6d 3c 46 23 b3 be
       0.06435973 0.47899523 0.014509045 -0.3498785
0000c0 98 8d 07 be 75 73 53 3e c5 79 69 be 33 9d b3 3e
       -0.13237607 0.20649512 -0.22800358 0.3508087
0000d0 c4 34 9a 3e 3f ce cd be 58 bb 99 be 6b 7a 96 be
       0.30118382 -0.40196416 -0.30025744 -0.29390272
0000e0 e3 99 04 3e 2d cc 57 bd 52 80 97 3e 1d e5 be be
       0.12949328 -0.05268495 0.29590088 -0.37284175
0000f0 dd d3 d1 be 4f 6d ef 3d 80 23 46 be 5f 02 20 3a
       -0.4098195 0.11690771 -0.1934948 0.0006103869
000100 b5 46 c1 be 27 ed 0e 3e 9b 26 79 3e ea 89 c2 3d
       -0.37749258 0.13957654 0.24331133 0.09498961
000110 b3 07 80 bd 3a d1 89 be 64 26 9e be 73 8c bd be
       -0.062514685 -0.2691744 -0.30888665 -0.37021217
000120 a2 b5 8b 3e 50 06 b7 3e 34 61 b2 3d 38 5f da 3e
       0.27287012 0.35747004 0.08709946 0.4265077
000130 ea 96 d8 bd f0 1a fe 3e 06 4c 07 3f 87 91 af 3d
       -0.105756596 0.49629927 0.5285038 0.08572679
000140 5c 4c e8 be 7b 5f 89 bc 02 03 ca be 1c 50 aa 3e
       -0.45370758 -0.016769161 -0.3945542 0.33264244
000150 13 52 d5 be 10 c1 21 be 1a 83 cd be 27 73 cf 3c
       -0.4166418 -0.15796304 -0.40139085 0.025323464
000160 1a 8c 57 bd 45 f2 98 3e c0 8a 6e 3d ea 57 d6 be
       -0.052623846 0.29872337 0.05823779 -0.41863948
000170 0f d0 38 be f7 e7 42 3e 2d 74 fd 3e 93 f1 66 be
       -0.18048118 0.190338 0.49502698 -0.22553091
000180 4d 90 a3 3e 9f 6a d6 3e 8b ca ed be 63 0e ca be
       0.3194603 0.4187822 -0.4644359 -0.394641

hidden.weight f4 [100, 100]
000000 f4 1a 0a 3e 78 e6 fb 3c 13 0b 0c 3c 09 a8 7b bd
       0.13486844 0.030749545 0.008547562 -0.061439548
000010 66 76 d1 3d bf f5 3e 3c 80 53 ac bd c4 66 62 ba
       0.10227661 0.01165527 -0.08414364 -0.0008636529
000020 1d 37 1f bc 79 48 cb 3d 26 7e 8e 3d 2a d9 22 3e
       -0.00971773 0.099259324 0.06957655 0.15903154
000030 59 34 be 3d 4c c0 20 bd c8 94 b8 bd 24 b6 f6 3d
       0.09287328 -0.03924589 -0.09012753 0.12046459
000040 a4 68 b9 3d e1 25 7b bd a4 0c 6d 3d 16 82 d2 ba
       0.09053162 -0.06131542 0.057873383 -0.0016060497
000050 d7 e3 a6 3d 23 1b 00 be 0e 23 d1 3d e7 9b 00 bd
       0.08148926 -0.12510352 0.10211764 -0.03139868
000060 0a 54 83 bb d0 22 a9 bd a7 7c 4f bd 15 ad ae bd
       -0.004007821 -0.08258593 -0.050655987 -0.085291065
000070 a1 0d cb 3d d5 b3 12 3e 44 bd c7 bc ba 72 04 3e
       0.09914709 0.14326413 -0.024382241 0.1293439
000080 25 25 1f 3d 9e 98 a2 3a cb da aa 3c 60 a3 b7 bd
       0.038853783 0.0012405103 0.020856282 -0.08966708
000090 3d 09 bd 3d 3e d5 d2 bc df 90 a8 bc ac 91 10 bd
       0.09230278 -0.025736447 -0.020576892 -0.035295174
0000a0 7e 62 bb 3c d9 eb 14 3d 54 cc 18 3b 2c 3e 0f bd
       0.022874113 0.036357734 0.0023315148 -0.0349714
0000b0 68 b5 64 3d ba ea 21 bd f9 56 f3 3c cb d4 09 bd
       0.055837065 -0.039530493 0.029704558 -0.0336502
0000c0 50 e0 c6 3d 98 df 99 bd 3e b9 e3 bc d8 a2 ae 3c
       0.09710753 -0.0751335 -0.027798291 0.021317884
0000d0 63 99 ef 3c e1 29 89 bd 85 a0 fb 3c 2a 09 04 3c
       0.029247945 -0.06697441 0.03071619 0.0080588255
0000e0 17 21 86 3d 42 46 ad 3d 55 4f b6 bd 46 4f 69 3d
       0.0654928 0.08460666 -0.0890185 0.056960367
0000f0 9f 6b 07 bd ac f9 1d 3d 0d 9e 82 bd 37 13 86 bc
       -0.03306162 0.038568184 -0.06377802 -0.016366584
000100 63 b8 35 bd d9 f7 01 3d 78 5d 94 3c 7a e7 1d 3c
       -0.044365298 0.031730507 0.018110976 0.009637708
000110 2e 75 e0 bd c2 56 10 3e 17 4f c1 3d 48 11 57 bd
       -0.1095985 0.14095595 0.09438913 -0.052506715
000120 78 b5 29 bc 46 e1 24 bd 5e bc 17 be a3 80 ea 3d
       -0.010358207 -0.0402539 -0.1481795 0.11450317
000130 6b 17 a6 3d fb e0 64 3c 0f 06 8f bd e0 b1 e2 3c
       0.081099354 0.013969655 -0.069835775 0.027672708
000140 ab c8 28 3d f9 01 2d bd 5f 2a b0 3d 80 6f 31 3d
       0.041206997 -0.04223821 0.08601832 0.043319225
000150 bf 7a 70 3c 57 a2 19 bd c0 c7 47 3d 85 7d b5 3d
       0.014677702 -0.037508335 0.04877448 0.088618316
000160 e2 7e 62 3d a4 1c 05 3e e1 5b c1 bd 9c 80 72 3d
       0.055296786 0.12999207 -0.09441353 0.059204683
000170 44 e1 ed 3d 6b 22 74 bd d5 be 80 bd f9 cd 19 bc
       0.11615232 -0.059603136 -0.06286398 -0.009387487
000180 b0 4b da 3d 3c b9 3f 3c 06 ec 98 bd 8d bf e2 bd
       0.106589675 0.011701878 -0.07466893 -0.11071692
000190 e0 c9 87 bd 07 16 5f bd 9d 23 d7 3c 32 82 a8 3d
       -0.066303015 -0.054464366 0.026262099 0.08227958
0001a0 f8 92 fc bd 7d ff e0 bc d7 96 81 bd 70 ae 1a bd
       -0.123327196 -0.027465576 -0.063275985 -0.037764013
0001b0 1a 9e 08 3c 97 de 00 bd 99 ba b2 bd 37 52 09 be
       0.008338476 -0.03146228 -0.08726997 -0.13410269
0001c0 ef 64 7c bd 9b aa 38 3e ff b7 2a 3d 8c d7 b2 3d
       -0.061619695 0.18033831 0.04167938 0.087325186
0001d0 eb 95 81 3d d1 14 8f 3c 2b 92 30 be e4 f9 9b bc
       0.06327423 0.01746598 -0.17243259 -0.019040056
0001e0 df c2 02 be a3 8a c4 3d 0f d5 62 3b c2 4a e9 3c
       -0.1276965 0.09596755 0.0034611856 0.02847803
0001f0 84 3b 42 bd 59 6e ab 3c f0 b0 82 3d 2e 75 75 3d
       -0.04742004 0.020926641 0.063814044 0.059926204
000200 b7 cc 12 be 05 68 8b bd 31 91 81 bd 06 44 11 be
       -0.14335905 -0.068069495 -0.06326521 -0.14186105
000210 4d b5 1f be ec 8c 13 3d a0 40 fe 3d f3 f0 ee 3d
       -0.15596505 0.036023065 0.1241467 0.11667051
000220 6b f6 29 be 93 41 52 bd 28 17 9e bd 6c ad 90 bd
       -0.16597907 -0.051332068 -0.077192605 -0.070643276
000230 bd 09 e5 bc e4 8d c0 3a 27 fb 6c 3d 63 1c 2a 3d
       -0.027958745 0.0014690724 0.057856705 0.041530978
000240 1d 5e 21 3d f8 03 b4 bc 4c b1 09 be 87 56 8f bb
       0.039396394 -0.021974549 -0.1344654 -0.0043743285
000250 f9 b9 f6 bd 8d b9 a6 3d 46 db 98 3d 88 f3 05 3e
       -0.1204719 0.0814086 0.07463698 0.13081181
000260 77 6f b2 3d 18 89 64 bd 37 25 1d bd ea 73 25 3c
       0.087126665 -0.055794805 -0.03836557 0.010098437
000270 0b 0a 1e bd 00 36 b5 bc 1c 85 d6 3c 5f ff 99 bd
       -0.038583796 -0.022120476 0.026186518 -0.07519411
000280 95 78 f1 bd 52 08 bc bc d4 e8 b5 3d ff 0b a2 3d
       -0.11790577 -0.022953186 0.08882299 0.07912444
000290 f0 93 1c bd 14 b8 8f bd 3d bf 5a 3d d5 7f 24 3d
       -0.03822702 -0.07017532 0.053405035 0.040160973
0002a0 48 08 8c 3d dd 7c 8f bd cb 68 90 bd 11 32 b8 bd
       0.06837517 -0.07006238 -0.07051238 -0.089939244
0002b0 c6 f6 cc 3d ea af 0f 3c 0a 1f 20 3e 10 50 9c 3d
       0.10008006 0.0087699685 0.1563684 0.07632458
0002c0 cd d8 8b bd fa 74 fb 3a 67 d8 cc 3b 5c 31 09 bd
       -0.06828461 0.0019184642 0.006251383 -0.03349434
0002d0 95 f0 c3 bb 28 b9 96 3c c7 7d 09 3a 17 dd ed 3d
       -0.0059796073 0.018398836 0.00052448775 0.11614435
0002e0 4d 9b 2f be 80 11 5b 3d 6c f3 62 3c 73 58 d7 bd
       -0.17149086 0.053483486 0.013851982 -0.10514917
0002f0 e9 59 d2 bb 4c 8a 6e bd 01 52 d5 3d 5d 12 c2 bc
       -0.0064194095 -0.05823736 0.10416032 -0.023690397
000300 cd ce 19 bd 7b 26 2c 3c 32 2f ef bc b3 ab ba bd
       -0.037550736 0.010507221 -0.02919731 -0.0911478
000310 54 20 d3 bc c6 27 49 3d 4f 0e a9 bb d8 1e 8e ba
       -0.025772251 0.049110197 -0.0051591764 -0.0010842932
000320 70 2f 81 3d 75 fb 67 3d d0 06 53 bd 6d 49 66 bc
       0.06307876 0.056636292 -0.05152017 -0.014055592
000330 84 f8 b2 bc b5 dc b8 bc 20 b9 87 bb 55 cf 15 3e
       -0.021847017 -0.022566179 -0.0041419417 0.14629872
000340 0f 9d ab 3c 26 72 88 3c d2 b8 ad 3c 3e df d4 3d
       0.020948915 0.016655993 0.021206293 0.103941426
000350 f4 f8 da 3c 58 ed 2b 3d 97 5f ad bd f6 90 e1 3d
       0.026730038 0.041974396 -0.08465498 0.11013977
000360 4a f5 25 3e 1d 49 2e 3c c1 91 16 3e b9 83 9f bd
       0.16206852 0.010637549 0.14704038 -0.07788796
000370 6c af e3 bc 5d df cb bd 32 46 18 3e f3 ff 1f be
       -0.027793609 -0.099547125 0.14870527 -0.1562498
000380 6a 1c 87 bd 8b d7 5b bd 2f 6d 85 bd 80 22 78 bd
       -0.065972164 -0.053672355 -0.06514966 -0.060579777
000390 84 e2 18 3d c2 94 58 3e 9c 3f e7 bd c8 54 d1 3d
       0.037325397 0.21150497 -0.112914294 0.10221249
0003a0 20 fb 14 3d 6b 9a 17 3c 81 39 cb bd d3 e2 10 bc
       0.036372304 0.009253125 -0.099230774 -0.008843142
0003b0 0f dd a9 3d 69 4b 17 3c b4 13 51 3d 91 00 aa 3d
       0.08294117 0.009234288 0.05104418 0.08300889
0003c0 62 6e 39 3d 7b 5f 8b bc 03 d8 98 bd 57 c3 c8 bd
       0.045271285 -0.017013302 -0.07463076 -0.09802883
0003d0 e4 4c 8e bd 0a d4 15 3d e9 18 c4 3d 10 89 64 bc
       -0.069482595 0.03657917 0.09575064 -0.013948694
0003e0 b6 5f 57 3e 25 fe 6d bd 68 4a cd bd 14 a8 6a bc
       0.21032605 -0.0581037 -0.100239575 -0.0143222995
0003f0 fd b4 cd bd 6c fe 9f bd a2 63 7a 3b bb 17 5f 3d
       -0.100442864 -0.07812199 0.0038206358 0.05446599

hidden.bias f4 [100]
000000 e6 d2 80 3d c5 7e 3e bd d9 bd 1a bd d8 e2 06 3d
       0.06290226 -0.046507616 -0.03777871 0.03293118
000010 8c 08 92 bd ad 38 3a bd 3c bd 5e 3d e9 d7 e9 bb
       -0.071305364 -0.045464206 0.054379687 -0.007136334
000020 3f f4 08 3c 11 69 83 3d 12 b2 31 3d f6 90 5d 3d
       0.008359014 0.06416524 0.04338271 0.054093324
000030 49 f4 4b 3d 3d e2 e4 3d 97 71 11 3d 40 7e ad 3b
       0.049793515 0.11175964 0.03550872 0.005294591
000040 0a ba 75 bd e6 53 b0 bb 32 58 7b 3b 94 18 57 bd
       -0.059991874 -0.005381095 0.003835213 -0.052513674
000050 42 b7 8c bd de 37 0b bd 75 a4 d9 bc ba 37 33 bd
       -0.06870891 -0.033988826 -0.026567677 -0.043754317
000060 f8 61 01 3e c7 c5 89 3d 71 dd 31 3d bb 95 7a 3d
       0.12635028 0.06727176 0.043424074 0.06117795
000070 c6 b3 05 bd 5b b7 2d 3c 2e 32 44 3d 6d 20 0e 3e
       -0.03264215 0.010602797 0.047899418 0.13879557
000080 e1 00 57 3c e9 81 e1 3d 62 43 10 3d 70 a8 1a bd
       0.013122768 0.110111065 0.03522051 -0.03775829
000090 8e 89 7d bc f6 3e 1a 3c 5f 8e 56 3b fd df c8 3d
       -0.01547469 0.009414425 0.0032738668 0.098083474
0000a0 69 91 1e bd 18 d1 b8 bd 4f 39 cc 3d 80 60 64 3d
       -0.038712893 -0.090242565 0.09971868 0.055756092
0000b0 24 7c a3 3d eb bb ac bd 01 43 7b 3c 9b 59 91 3d
       0.07982662 -0.0843428 0.015335799 0.07097169
0000c0 74 2e 86 bc 03 61 b6 3d 52 84 44 bd fa 4e 26 bd
       -0.016379572 0.08905222 -0.047977753 -0.04060266
0000d0 84 45 16 3d 3a ed e9 3d 55 6f 15 3d b7 e8 4f 3d
       0.03668739 0.114222005 0.036483128 0.050759044
0000e0 bf 0d 66 bd ba 24 a8 bb 09 7b 89 bd 97 85 62 bd
       -0.056165453 -0.0051313313 -0.0671292 -0.055303182
0000f0 9a 0e 51 3c 8b 21 c1 3d e1 15 6c bd 9b e7 89 3c
       0.012759829 0.09430226 -0.057638053 0.01683407
000100 24 6f 8e 3d 54 a9 9a bd 1c 7f 2a 3b 81 ff 7a bd
       0.06954792 -0.07551828 0.0026015704 -0.061278824
000110 4d e9 81 bd 65 d1 36 3d c6 00 00 3e f1 b9 e8 3d
       -0.06343327 0.044633288 0.12500295 0.113635905
000120 e3 19 fe 3d fa 32 36 39 f0 23 c5 3d ef 31 fd 3d
       0.12407281 0.00017375863 0.09625995 0.1236304
000130 7d 5b eb 3b 59 e5 c3 3d fd f4 99 3b f1 42 b0 3d
       0.007182537 0.09565229 0.0046983943 0.08606518
000140 d2 0c 91 3d fc be d0 3d 6f 86 43 bd 17 f2 94 bd
       0.070825234 0.101926774 -0.047735628 -0.072727375
000150 92 24 ad 3d 7f c9 02 3e 4a b6 fb 3b 2b dd e6 3d
       0.08454241 0.12772177 0.0076816427 0.11272653
000160 48 ad e0 3d ac 23 08 3d 37 42 ad 3c 40 d3 31 3d
       0.10970551 0.033237144 0.021149738 0.043414354
000170 59 6f ac bd b0 41 82 3d 62 4b c5 3c 17 2e 56 3c
       -0.084196754 0.06360185 0.024083797 0.013072512
000180 34 c8 fb 3c 56 b0 1f bd cd b8 84 bd a0 16 d8 3d
       0.030735113 -0.038986526 -0.064805605 0.105511904

output.weight f4 [1, 100]
000000 26 bd 3b 3e d6 14 20 be 8e 93 31 3e 47 91 9f be
       0.18333873 -0.15632948 0.17341444 -0.31165525
000010 f7 4c 01 3e 2e 77 3d be 7f d9 7b 3e 00 60 ac be
       0.12627016 -0.18502495 0.24594687 -0.33666992
000020 2d 6f 46 be 6c f6 74 3e 07 ec 18 3e b9 9c 26 be
       -0.19378348 0.23922127 0.14933787 -0.16270722
000030 b1 54 4c be 19 f9 1c be e3 34 31 be 1a 33 46 3e
       -0.19954182 -0.15329398 -0.17305331 0.19355431
000040 ce 17 91 3e 28 0a 77 be bb 4b 2c 3e c6 69 6c 3e
       0.28338474 -0.24124968 0.16825764 0.23087224
000050 f1 df 9c 3e 25 2d 23 3e 86 95 21 3e 41 5e 99 3e
       0.30639604 0.1593519 0.15779695 0.29954723
000060 c3 4d 15 be 1c 4d 58 3e ff ef 2c 3e 6d cf 73 3e
       -0.14580445 0.21123165 0.16888426 0.23809595
000070 27 2b 8f 3e ae af 63 3e 96 d3 44 3e 99 63 52 be
       0.2796261 0.22234985 0.19221339 -0.20545806
000080 83 a7 8c 3e 8c 31 0e 3e 19 2b 38 be b1 b8 74 be
       0.2747155 0.13886088 -0.1798519 -0.23898579
000090 ee a7 45 3e 45 c0 05 3e 60 59 35 be e0 3a 77 3e
       0.19302341 0.13061626 -0.17709875 0.24143553
0000a0 df 14 b6 be aa 83 99 3e 7c 9b 62 3e d4 5d 7c be
       -0.35562798 0.29983264 0.22129625 -0.24645168
0000b0 7a ad 49 be 37 ee 27 3e 96 c5 a1 3e d6 9f 3b 3e
       -0.19695082 0.16399466 0.3159606 0.18322691
0000c0 ce e2 7e be ea 68 41 3e 0a d7 5e 3e 24 e5 57 3e
       -0.24891207 0.18887678 0.21761718 0.21083504
0000d0 98 26 3d be 03 ac 1f be 90 85 0c 3e b4 98 ea bd
       -0.18471754 -0.15592961 0.13722825 -0.11454907
0000e0 5d 53 3e 3e 2b ca b2 be 14 93 84 3e b5 40 9e 3e
       0.18586488 -0.34919867 0.25893462 0.30908743
0000f0 18 e4 3c 3e d8 7f 95 be 47 6e 61 be fd 18 0b be
       0.18446386 -0.291991 -0.22014724 -0.13583751
000100 ec 3d 6a 3e b7 c4 87 3e cf ab 22 be 4f 73 b7 3e
       0.22875184 0.2651727 -0.15885852 0.3583016
000110 31 08 0d 3e 83 a5 8e 3e b2 d5 09 be c8 31 2a be
       0.13772656 0.2786065 -0.13460425 -0.16620553
000120 1e 01 6f be e7 7a ea 3d 11 e9 1b be 7d d7 98 be
       -0.2334027 0.11449223 -0.15225627 -0.29851905
000130 e7 28 86 3e 0a eb a9 3d c2 4f 49 3e ab 53 1d be
       0.2620308 0.08296783 0.19659331 -0.15363948
000140 65 6d 7e be 70 51 08 3e 26 1f 42 3e b4 99 3b 3e
       -0.24846418 0.13312316 0.18957195 0.18320352
000150 9a 00 bd 3d e8 f6 44 be dc 36 8b 3e 52 c8 25 3e
       0.0922863 -0.19234812 0.27190292 0.16189697
000160 54 36 74 be 75 27 55 be 5a 2a 4e 3e 35 60 79 3e
       -0.2384885 -0.20815833 0.20133343 0.24353106
000170 12 87 21 3e 2d ec 78 3e b9 4d 97 3e e6 10 40 be
       0.15774181 0.24308844 0.29551485 -0.18756446
000180 b9 b9 2e 3e 6e 92 28 be a5 6d 51 3e a4 1b 41 be
       0.17063035 -0.16462108 0.20451982 -0.188582
