data/model/hg_dagger_training_liberal/22/170.pth (torch, 44823 bytes, 5 tensors)

linear.weight f4 [100, 4]
00000000: 3d3f 9dbc 642e c43c 1e34 003d 69e4 d2bc
00000010: dc1a 403a bc17 bc3c ae34 f93c 3a34 e7bc
00000020: daea 0cbf 2ce5 173f 9e56 0c3f 530d 513f
00000030: a779 30be 2689 abbd a2ff c8bd f96e b8bd
00000040: b839 203e e168 13ba 042a 9d3d 8508 483c
00000050: a014 3e3a 2716 bc3c 8a25 f93c 313a e7bc
00000060: ab82 5b3e 131c 1f3e 04cb 123e f335 b63d
00000070: 453f fe3e ccbe 3abe 19f0 923e 62e4 de3d
00000080: 4b95 c33e 4b0c f5bd 26e3 943e 7085 003e
00000090: e94b c33c d385 6bbc c5fa 8bbc fc76 223d
000000a0: e071 a7be 8ce5 16be 9509 69be c120 5fbe
000000b0: 8efa bcbd dc0f 4abe 7422 9abe 4cf4 70be
000000c0: dff8 cdbc 9579 073d 7127 493d 7591 863b
000000d0: bdc7 fbbd 9d2b 90bd 9bcc 90bd dd8b 5cbd
000000e0: 2116 553c 167a 9dbc d4a9 d2bc b29e 013d
000000f0: dc39 773e 03b8 163e 9739 e73d 0bc0 3d3d
00000100: 63e8 333d 0d9b 7cbc 5c31 86bc 3fa0 1f3d
00000110: a36e 3f3a de1b bc3c 8f23 f93c 393d e7bc
00000120: ca05 853a 165b b3bc 0b21 04bd 74fa df3c
00000130: 3c38 8039 82ad b83c 5b1d fb3c 0e99 e5bc
00000140: bd81 2ebd 2076 e23b 5bc4 253c 5231 24bd
00000150: 90cf e63c 6452 78bc e3aa 9bbc e1ba 193d
00000160: 2ac6 40be cede d0bd 856b fbbd 49ad ddbd
00000170: 09fc 9b3e 76a1 86bd c268 d93d 5f34 42bc
00000180: 4a77 f73e beaa 03bf 0a78 d23e 5ae7 133e
00000190: ff5b b9be af1e 75be f1ed b4be 9f81 a9be
000001a0: f2e1 283e 9701 8cbc a0e4 3fbb 48e8 353d
000001b0: a003 a73e a7f2 07be 6d14 84be e694 0ebe
000001c0: ef9e cabe 581b 013f e013 dc3e b32d 103f
000001d0: fdc9 853e d9fa f5bc 6af2 a33e bd61 933e
000001e0: ec28 9bbe c94c 273e f6b3 143e 5aa4 4a3e
000001f0: 159d 593c 179d 9fbc 391b e3bc 311d f83c
00000200: 76f2 653e 14d3 e53c a342 9c3d 229c 89bb
00000210: e2ed f83d 4544 bcbd 1e28 39be 1306 07be
00000220: d702 913a 86f4 b2bc d120 04bd 456f e03c
00000230: e375 91bd 487b f2bc 2374 19bd d88b 07bc
00000240: ed73 e53d 66d3 59bd aace 9f3c 2e27 ad3d
00000250: b5d3 963d c5c2 86bd b33a 0a3e 73bf 063e
00000260: bee6 18be 39c6 783e 222e 973e fddb bb3e
00000270: f6d4 083c 223c a2bc e44d ebbc cace f93c
00000280: 63fc a2bd e256 9a3b 4b03 513c 1050 e5bc
00000290: abbd 8d3a a818 b3bc d05e 04bd e9bb df3c
000002a0: 7ac1 b53e 870e 513c f1d1 523e 3433 cd3d
000002b0: 66d5 403e f608 c23c 4e42 b03c 11aa 2bbd
000002c0: fd84 0e3c 731f 813c e77b 123c bd2a 06bb
000002d0: 2337 ce3c 9d5c 91bc e3b3 a0bc ebd2 0e3d
000002e0: e934 2cbd e700 8d3c d3de d23c 2793 d5bc
000002f0: 9f16 1fbb 8fd1 af3c 42f2 ea3c 6199 f1bc
00000300: 6017 ffbd 4a53 ed3c 9eb7 983d 16d7 963d
00000310: dc39 2abb c109 b23c 1df0 f33c eb0f e8bc
00000320: 6808 853a 7378 b3bc 7528 04bd c0f2 df3c
00000330: 26b0 783e a926 083e fefc 223e 0e2a 983d
00000340: 33ec 883e c632 14bd 1475 bc3e d669 af3e
00000350: ca29 873e b333 793d 8673 943d bd86 efbb
00000360: 0d3d e4bb d127 5ebe 34ff a4be 380e 88be
00000370: f8a3 1f3e 73ea 843c 516e 7a3d 4608 16bc
00000380: d068 a13e 979f 2cbd caf4 c43d 6c80 77bc
00000390: 1dd8 bdbd 1e78 3f3b 42a6 5abb 761b 48bd
000003a0: 226a 74be a6a4 bdbd d395 b2bd 0c1b acbd
000003b0: ebda 783c dec9 9bbc 3da1 debc d9c8 fe3c
000003c0: ea24 993c bed0 adbc 2508 e4bc b176 fd3c
000003d0: 59fa c9be 9bb7 123f 4bce 9c3e 0c61 b73e
000003e0: 0837 5a3e b2f1 94bd 846d 033e e07e d93d
000003f0: 2f82 473d 5f83 bbbc 612e ebbc 400f f43c
-0.019195193 0.023947902 0.031299703 -0.02574368 0.0007328221 0.022960536 0.030420627 -0.028223146
-0.55045855 0.59334064 0.5481967 0.81660956 -0.17233907 -0.08375768 -0.09814383 -0.09005541
0.15647018 -0.0005623233 0.076740295 0.012209062 0.0007250998 0.022959782 0.030413408 -0.02822599
0.21436565 0.15538053 0.14335257 0.08897009 0.49657646 -0.18236846 0.28698805 0.10883404
0.3819984 -0.11965235 0.2907955 0.12550902 0.023839908 -0.014375168 -0.01708735 0.039664254
-0.32704067 -0.14736003 -0.22757562 -0.21789838 -0.09227477 -0.19732612 -0.3010441 -0.23530692
-0.025143085 0.033074934 0.04910988 0.0041066953 -0.122939564 -0.070395686 -0.070702754 -0.05384432
0.013005764 -0.019223254 -0.025715746 0.031645484 0.24143165 0.14718632 0.11290281 0.046325725
0.043922793 -0.015417826 -0.016380958 0.038971182 0.0007302558 0.022962507 0.030412463 -0.028227435
0.001014882 -0.02189402 -0.032258075 0.027341105 0.0002445596 0.022543672 0.030653646 -0.028027084
-0.042604197 0.0069110543 0.010117616 -0.040086098 0.028175145 -0.015156362 -0.019002384 0.037531737
-0.18825594 -0.101987466 -0.12276367 -0.10824067 0.30465725 -0.06573765 0.10615684 -0.011853307
0.48333198 -0.51432407 0.41107208 0.14443722 -0.36203 -0.23937486 -0.35337785 -0.33106706
0.16492441 -0.017090602 -0.0029280558 0.044410974 0.32619953 -0.13276158 -0.25796834 -0.13923988
-0.39574382 0.5043235 0.42983913 0.5631973 0.26130667 -0.03002684 0.32020885 0.28785506
-0.30304658 0.16337885 0.14521775 0.19789258 0.01328208 -0.019484086 -0.027722942 0.030287357
0.22455773 0.028054751 0.076298974 -0.0041995207 0.121547475 -0.09192709 -0.1808171 -0.13185911
0.0011063468 -0.021845113 -0.03225786 0.027396807 -0.07102563 -0.0295998 -0.037464272 -0.008273087
0.11203752 -0.05318012 0.019507725 0.084547386 0.07364599 -0.06580118 0.13498954 0.1315897
-0.14931771 0.24294366 0.29527384 0.36691275 0.008351555 -0.019804064 -0.028723665 0.030494113
-0.07958295 0.0047100643 0.012757133 -0.027992278 0.0010813972 -0.021862343 -0.032316983 0.027311282
0.35499173 0.012759811 0.20587899 0.10019532 0.18831405 0.023685914 0.021515992 -0.041910235
0.008698699 0.015762066 0.008940673 -0.0020472251 0.025172776 -0.017744357 -0.019617027 0.034869116
-0.042042647 0.017212344 0.025741016 -0.026071144 -0.0024274958 0.02146223 0.02867997 -0.029492082
-0.1245563 0.02897038 0.07456897 0.07365243 -0.0025974428 0.021733167 0.02977758 -0.028327903
0.00101496 -0.02190802 -0.032265145 0.027337432 0.24285945 0.13295998 0.15916821 0.07429896
0.26742706 -0.036181234 0.36808074 0.34260434 0.2639907 0.06084032 0.07248597 -0.007309763
-0.0069652856 -0.21694876 -0.32225955 -0.26573348 0.15589893 0.016225075 0.061140362 -0.009157246
0.31525278 -0.042144384 0.09617002 -0.015106302 -0.09269736 0.0029215883 -0.0033363258 -0.048854314
-0.23868611 -0.0925992 -0.08719983 -0.08403596 0.015188913 -0.019017156 -0.027176494 0.031101631
0.01869436 -0.0212177 -0.027835915 0.030940386 -0.39448813 0.5731141 0.3062614 0.35816228
0.21310055 -0.07272662 0.12834746 0.106199026 0.048708137 -0.022889791 -0.028708639 0.029792428

linear.bias f4 [100]
00000000: c8a1 b8bb f924 c83b 5703 c4bb 0a61 243e
00000010: 8dac 003e 4123 c83b 527d 003e fea9 783c
00000020: a509 fc3d d905 05bd f398 d33e 8398 ea3e
00000030: 1f5d 20be e199 083d 6ec8 22bd 5d73 f43d
00000040: a39e 9fbd 7016 c83b 1852 a3bb 39ea da3b
00000050: bd5e 683d 6b1d 14bd aa18 703e 4f6a 41be
00000060: 9233 bcbd e682 f83e 1b4c 15be eba6 fa3e
00000070: 9dd7 263e facb c63c 3110 983e 1758 f9bc
00000080: bee3 a53d 9b66 8c3e 9d39 a6bb 2ed5 7f3e
00000090: f74e 5bbe 6f8b ce3d 47d3 253e 40f5 4bbc
000000a0: d2c4 d93d 537e a5bb 49e2 733e 5d34 b1ba
000000b0: ff93 93bd 167f 8ebd a5ba 023d 1594 143c
000000c0: 97e7 923e dd2d 1d3c 9b2d a3bb de49 563e
000000d0: ebe0 a5bc 36c4 50be 5f0d d53e b275 1f3d
000000e0: 2708 82be fc88 e53d 24cd b03d 727b a6bc
000000f0: 63d4 78bc b0c7 033d 5220 25be 7e35 99bc
00000100: 3789 bc3e 50b9 38be 58ad 873d d4ac a4bb
00000110: bbb4 8f3e 56a5 b33e e691 abbd a673 ebbd
00000120: e200 883d c068 02be 76d8 49bc b1b6 6dbc
00000130: 3f11 bb3e dbaf a2bb 9898 e1bc 815c 5dbc
00000140: 4233 113d 3fe9 f23c 40f3 6ebb 311b 7fbd
00000150: e07e 37be 86a1 633d 226c c7bd 70b5 e33e
00000160: 0360 09be 0d79 903e 0ccb 753e b5df 8b3e
00000170: 9933 33bc 46af bb3e 35a5 3cbe 24cd 303e
00000180: 9509 38bd 7c8b a2bb d278 b3bc 20cf 923e
-0.00563452 0.006107923 -0.0059818435 0.16052642 0.12565823 0.006107718 0.12547806 0.015177248
0.12306527 -0.03247628 0.41327628 0.45819482 -0.15660523 0.033349875 -0.039741926 0.11936066
-0.077939294 0.0061061904 -0.0049841516 0.0066807535 0.056730974 -0.036160868 0.23446909 -0.1888821
-0.09189524 0.48537368 -0.14579813 0.48955473 0.16293187 0.024267185 0.29699853 -0.030437512
0.08100079 0.27422032 -0.005072786 0.24983665 -0.21416841 0.100851886 0.16193877 -0.012448609
0.106332436 -0.0050504594 0.2381679 -0.0013519634 -0.072059624 -0.069578335 0.03191628 0.009068509
0.28692314 0.009593454 -0.004979802 0.20926616 -0.02024885 -0.20387349 0.41611764 0.038930602
-0.25396845 0.11207768 0.086328775 -0.020322535 -0.015187356 0.03217286 -0.1612561 -0.018702265
0.36823437 -0.18039441 0.066248596 -0.0050254855 0.28067574 0.3508708 -0.08377437 -0.114966676
0.066407934 -0.12735271 -0.012319675 -0.014508889 0.36536595 -0.0049648113 -0.027538583 -0.013510824
0.035449274 0.029652236 -0.0036460906 -0.06228179 -0.17919493 0.055573963 -0.097374216 0.44474363
-0.13415532 0.28217354 0.24003237 0.27319112 -0.010937595 0.3665716 -0.18422396 0.17265755
-0.044931013 -0.0049604755 -0.021908198 0.2867365

hidden.weight f4 [100, 100]
00000000: d34e 97bb 96c6 05bd 215c 06be 983c 053d
00000010: 83d1 a8bc 83bb 05bd f47b 55bd 596d 83bd
00000020: ed68 2bbd 4402 683c 1a98 a83d 9962 a63d
00000030: 879c 41bc 509b be3c 12df e43c da14 96bc
00000040: 6788 583c 82c7 05bd 112e 013d 6d5d 01bd
00000050: d7de feba 1cac 3d3c fb87 253d 1e2f 1abd
00000060: be61 b8bd 5ec7 ec3d 9723 66bc 0bf7 b03d
00000070: 1116 9fbd e9bf 83bd 855b c03a 9210 e73c
00000080: 7f2d 1abd 281e fd3c c5c8 003d dbed 043d
00000090: 1b50 6d3c 3d32 6ebb 6e41 36bd f491 c93c
000000a0: 96de b03b 8c91 003d 6690 f23b a88d eebb
000000b0: 203e 06bc 2358 923c 544a 9a3a 7c35 eebc
000000c0: 4095 213c 80cb ecbc b14a 013d cbaa 6ebc
000000d0: 743e 8fbd d5bb 0cbd 4145 b93d c3a4 91ba
000000e0: 0d12 05bd 4d11 fb3b c665 1c3d 3647 9b3c
000000f0: 286c 633c 2bb5 98bd 4136 c4bc dd92 283b
00000100: 99ad 573d 176e 48bd 642e b13a aa06 013d
00000110: 9511 64bc be3e 8a3d 3c17 d9bc cd26 babc
00000120: 4a6c b53c 63af 8fbd 6b6f cf3c 4216 60bc
00000130: 8452 96bc 8540 013d f8be 983c bf8a a139
00000140: eeae 2abb 9522 06bc f8b9 033d bfd1 803b
00000150: 5faa 18bc 8b9c 2cbd 9a2f 92bb 8690 a3bd
00000160: 8e6e f8bb 0494 90bd 65d7 37bc eb22 72bd
00000170: 1e2b 4abb 0e3b 523d ddf8 43bc 0e93 093c
00000180: 9cec d3bb 2265 013d bb00 053d a0a7 433d
00000190: 2f54 06bc 86b5 0dbd 609d 76bd 6280 0e3c
000001a0: 1325 05bc 3bae 0dbd 628e 86bc d084 a0bc
000001b0: 8a01 fdbc 3705 a93c 98f4 c03c 0480 053d
000001c0: c1dc 90ba 80d2 1c3c 346c 103d 443c 0cbc
000001d0: fa0d bb3c 19b8 0dbd 72ef 093d 148b 0abd
000001e0: 8468 1dbc 035e 953c 46cc 233c 4ef9 8fbb
000001f0: 97a5 1dbd f148 1d3d d391 5e3b 002c 6a3b
00000200: 6ac3 2abd cea0 89bc 5542 31bc 3c2f 103d
00000210: a532 9fbb eed0 993c 4aa8 093d e855 603b
00000220: b294 103d 920a e83a d9c1 e1bc 6fba ea3c
00000230: 04dc abbb 6d75 093d de3a 04bd 031c 01bc
00000240: 9fcf e6ba 9170 db3c 9443 dcbb 6382 02bd
00000250: 5fdd f6bb c46f 03bd f90f 0a3d d7f2 4fbc
00000260: f9be 9ebc c04b 0dbc 2237 093d ea99 8abb
00000270: 2cb8 62bb c5ca a1bb fc07 583c 0fb1 c83c
00000280: bc80 9d3c 12fb 08bd 65e9 a13b a2e5 ff3b
00000290: 21b8 c53b 610b b4bc e675 373b 1cdc 093d
000002a0: 2690 59bc 9ab8 993c fabd bbbb 2778 dbbb
000002b0: dd5d ed3b d53e c9bc 0d3b f23c f129 ffb9
000002c0: 36fb 083d 940e 0a3d 24d1 cc3c 84fc ca3b
000002d0: 6b7a 10bc af78 71bc 1236 3f3c 23a2 483c
000002e0: 4214 f33b b28d 8ebc 461d fa3b 9c02 78bd
000002f0: 536e de3b 0c22 e1bc 5133 2bbc 2d67 3abd
00000300: 4381 8ebb 1fa7 ab3c a384 ad3b 9f76 54bc
00000310: e89b 83bb b523 0a3d cc5e 133d 04e2 463c
00000320: 7e5e d0bb 0ac9 06bd 328b efbd 636c eb3c
00000330: 247f b4bc f4be 06bd 1669 3fbd 74d0 35bd
00000340: 27e6 77bd cfcc 7c3c af05 943d fded b83d
00000350: 5394 29bc 14e5 af3c 1ffa ea3c 40b4 a8bc
00000360: 8c2d 753c 2fca 06bd 5351 023d 7e1d 04bd
00000370: 11ef 6abb 722c 543c f6a9 113d 2291 f7bc
00000380: 31d9 aabd ce51 da3d f962 34bc a0ce b73b
00000390: d210 93bd 0344 46bd d93d f3bb f6c4 f53c
000003a0: eeb9 f7bc 50fc f93c 15f3 013d f119 7f3c
000003b0: 3749 8a3c 529c febb e88a 32bd dbab cf3c
000003c0: d0e5 533b 30ab 013d f107 8ebc a088 f9bc
000003d0: 277d e5bb 638d 9b3c f9d4 c9b9 cfe7 f1bc
000003e0: bf98 1e3c 3c89 f1bc 556e 023d a54e 6e3a
000003f0: 854e 46bd 6e49 f5bc 4d13 b63d 2cec 4ebc
-0.004617551 -0.03266009 -0.13121082 0.03252849 -0.020607715 -0.03264953 -0.052120164 -0.06417341
-0.041848112 0.014160696 0.08232136 0.08124275 -0.011817104 0.023267418 0.0279384 -0.01832049
0.013216115 -0.03266097 0.031538073 -0.03158324 -0.0019445074 0.011576679 0.040412884 -0.03764259
-0.09003018 0.11561464 -0.014046571 0.0864087 -0.07767881 -0.06433088 0.0014675712 0.028206144
-0.037641045 0.030898169 0.03144147 0.0324534 0.014484431 -0.0036345862 -0.044495992 0.024605729
0.005397628 0.031388804 0.0074024675 -0.0072800703 -0.008193523 0.017864292 0.0011771419 -0.029078238
0.009862244 -0.02890563 0.031565372 -0.014567087 -0.06994334 -0.034358818 0.09046412 -0.0011111725
-0.032487918 0.0076619745 0.038182996 0.018954854 0.013880767 -0.0745643 -0.023951652 0.0025722303
0.05265579 -0.048933115 0.0013517854 0.031500496 -0.0139202075 0.067502484 -0.026500337 -0.02272358
0.022146363 -0.07015874 0.025321683 -0.013677182 -0.018349893 0.03155567 0.018645748 0.00030811687
-0.0026044208 -0.008186956 0.032159775 0.0039312537 -0.009317963 -0.04214148 -0.004461241 -0.0798655
-0.0075815385 -0.07059482 -0.011220788 -0.05911533 -0.0030848454 0.05132585 -0.011961189 0.008396877
-0.006467415 0.03159059 0.0324714 0.04776728 -0.008198782 -0.034596942 -0.06020868 0.008697601
-0.008126515 -0.034589987 -0.016425315 -0.01959458 -0.030884523 0.02063237 0.023554131 0.03259279
-0.0011052118 0.0095716715 0.03525944 -0.00855929 0.022833813 -0.034599397 0.03367562 -0.03382404
-0.009607438 0.018233305 0.009997433 -0.004393733 -0.038487997 0.03839964 0.003396143 0.0035731792
-0.041690268 -0.01680031 -0.010819037 0.035201296 -0.004858332 0.018776383 0.03360776 0.0034230892
0.035298057 0.0017703346 -0.027558254 0.028653352 -0.0052447338 0.03355925 -0.032282703 -0.007880214
-0.0017609483 0.026787074 -0.006721923 -0.031862628 -0.0075337137 -0.03208901 0.03370664 -0.012692175
-0.019378172 -0.008624017 0.033499844 -0.004229774 -0.0034594638 -0.004937502 0.013185497 0.02449849
0.019226424 -0.033442564 0.004941153 0.007809357 0.0060339128 -0.021978082 0.0027993857 0.03365718
-0.013278997 0.018764783 -0.005729434 -0.006697673 0.0072438554 -0.024566093 0.029569173 -0.0004866864
0.0334427 0.03370531 0.02500207 0.006194653 -0.008818249 -0.014738246 0.011670606 0.012245688
0.0074181864 -0.01740155 0.007632884 -0.060549363 0.006788054 -0.027482055 -0.0104492465 -0.045508552
-0.0043489053 0.020953713 0.0052953525 -0.012967735 -0.004016388 0.03372546 0.035979077 0.012138847
-0.0063589206 -0.03290657 -0.11696471 0.028738206 -0.022033282 -0.03289695 -0.046731077 -0.04438825
-0.060522225 0.01542969 0.072276466 0.09029768 -0.010350305 0.021471538 0.02868372 -0.020593762
0.0149644725 -0.03290766 0.031815838 -0.03225469 -0.003584806 0.01295005 0.035562478 -0.030220572
-0.08342207 0.10660134 -0.011009925 0.0056093484 -0.071809426 -0.048404705 -0.0074231443 0.030001145
-0.030240025 0.03051582 0.03172596 0.01557015 0.016880615 -0.0077700997 -0.043589503 0.025350502
0.0032333024 0.031657398 -0.017337771 -0.030460656 -0.0070034447 0.018988317 -0.00038496385 -0.02952948
0.009679972 -0.029484384 0.031843502 0.00090906984 -0.048414726 -0.02994224 0.088904 -0.01262955

hidden.bias f4 [100]
00000000: f8cf 073d b6fc 7e3d 55b0 683c 341b b4bc
00000010: 3181 dc3c ac3e c53b de01 ac39 d6a6 163d
00000020: 4212 543d e5c6 5f3b b72f 393d 1178 093d
00000030: 7424 243d 1454 65bb 5f3e 333c 0b4a 333d
00000040: 91d7 753c 9b6f 913d 74c5 92bc 6679 1d3c
00000050: 4540 3a3d 5355 233c de3e 3cbc bbe5 17ba
00000060: 4b16 6c3d 7006 5c3d f684 1b3d 0e83 293d
00000070: 7da0 323d 01c3 0e3d 6819 1cbb 1c5d 783d
00000080: 2926 ab3b 38de 983c 6b37 103d fe46 423d
00000090: 00e7 0c3d a408 153e 9b6d 823d 6902 ea3c
000000a0: e1ee 10bc 0ccb 3e3c 6845 a73c bbb8 6a3d
000000b0: 3bf8 9a3d 95e5 873d 25ed 463d 845c 053d
000000c0: 4a16 9f3d cff4 803d f923 853d f344 923d
000000d0: 1dcf c73c 2e09 b83c b3b1 e63c 31fe 1a3d
000000e0: a34d 943d 7d56 823c b54b 523d 85b2 953c
000000f0: 231c 673d 3152 983d f47a 55bc cd89 cf3c
00000100: 3ac5 8e3c 4679 a3ba f7c3 4a3c d768 bc3d
00000110: 3661 003d 61ce babb 17d6 2e3b 9245 c83d
00000120: b1c4 d33b 7de9 8f3d 48f7 bc3b 451a a23d
00000130: 340e f7bb f6f1 383d 0589 813d 96ca 063d
00000140: dd84 0e3d fecd 3d3c f943 5e3c c312 4a3d
00000150: f6ac 9f3c 1d48 80bc 22d6 e53d 7fd1 303d
00000160: e32d b23d e14f 4a3d 1314 80bb bb5d 993d
00000170: bdf4 72bc a787 b93c 784d b33d c995 233d
00000180: b2fe 49bc f9f1 d93c 376d 8bbb 0573 b63b
0.03315732 0.062252723 0.014202197 -0.021985628 0.026917072 0.006019434 0.00032807788 0.0367802
0.051775225 0.003414565 0.04521152 0.03356177 0.040073827 -0.0034992741 0.010940163 0.043771785
0.015005008 0.07101365 -0.017916419 0.009611463 0.04547145 0.009969073 -0.011489598 -0.00057944254
0.057638448 0.053717077 0.0379686 0.04138475 0.043610085 0.03485394 -0.0023818854 0.06063567
0.005223055 0.01866065 0.0352091 0.047430985 0.034399986 0.14554077 0.06368562 0.028565602
-0.008846016 0.01164509 0.020418838 0.05730508 0.075668775 0.06635586 0.048566002 0.032558933
0.07767923 0.062966935 0.06501002 0.07142057 0.024390751 0.022465315 0.028160905 0.037840072
0.072413705 0.015910381 0.05134173 0.018273601 0.056423318 0.07437552 -0.013029803 0.025334263
0.01742803 -0.0012472055 0.012375823 0.09199684 0.031342708 -0.005700872 0.00266779 0.097788945
0.0064626564 0.07026956 0.005766783 0.07915167 -0.007539535 0.045152627 0.063249625 0.032908045
0.034794677 0.011584757 0.013566011 0.0493343 0.019491654 -0.015659386 0.11222483 0.04316854
0.087001584 0.049392585 -0.003908643 0.07488581 -0.014828858 0.022647692 0.0875501 0.039937768
-0.0123287905 0.02660464 -0.004254963 0.0055679106

output.weight f4 [1, 100]
00000000: 16f4 9fbe 933d f3bd 2d45 95be 5d52 643e
00000010: 5dee 603e 4bd3 8a3c ac63 68be f4e3 7abe
00000020: bd73 5dbe 786c 01be 34e6 85be f31d 2e3e
00000030: 69b5 a83e 1412 8bbd 351c 79bd 352f 25be
00000040: b0f5 6bbe 075e 1dbe 48e6 27be c72b babd
00000050: 0eb1 0dbe 2bad 0f3d 4530 9f3e 45a1 263e
00000060: 4315 8c3e 1b6d a93e 5083 813e 0a97 713e
00000070: 1670 0fbe 3b13 70bd d533 e7bd a820 243e
00000080: d0f6 893c d49f 21be dbd3 1b3e 5f64 343e
00000090: e5b9 6a3e 5f31 c5be 1adc 973e 13db af3e
000000a0: 3bd2 8c3e 1802 88be ebba 71be 01f8 4fbe
000000b0: e758 95be a125 4e3e a74a d43d deb3 97be
000000c0: b02a 963e 8cf8 603e 7f78 a03e 0b24 5cbe
000000d0: 3af8 51be 0527 863e 53c9 7a3e 6d29 00be
000000e0: 2809 4fbe c62b 5bbe 631f a8bd a0d5 46be
000000f0: 1f0f 06be bfc6 af3e 5698 183e f39f 803e
00000100: 44c7 943d 2ad7 74bd 58ff a5bd 8849 b4be
00000110: cde3 31be 528a 843e 9853 463e 6f80 84be
00000120: 14b2 cabd cad2 15be 10e4 2f3e 2907 4bbe
00000130: 747d c63c 5fb3 213e 705e cabe f9b5 54be
00000140: c9c6 d5bd cf7b 7abe 0b40 833e a970 d73e
00000150: 039a 9e3d 6481 b8bd a47a a9be 778d 8bbd
00000160: bb1c c53e 7bc4 ca3d 2585 96bc f663 863e
00000170: 0a98 9dbd bf69 ea3d cb66 62be 5d61 2d3e
00000180: d85d 813e 0bca 5cbe 1a8c 83be 6605 cfbd
-0.3124091 -0.11876979 -0.2915434 0.22297044 0.21965928 0.016946455 -0.22694272 -0.2450102
-0.21626182 -0.12639034 -0.26152194 0.17003612 0.32950905 -0.067905575 -0.060817916 -0.1613129
-0.23042941 -0.153679 -0.16396439 -0.09090381 -0.13837072 0.035077255 0.31091514 0.16272457
0.2735997 0.33091053 0.25295496 0.23592773 -0.14007601 -0.05861209 -0.11289183 0.16028082
0.016841322 -0.15783626 0.15217535 0.17616414 0.22922476 -0.3851423 0.29660112 0.34346828
0.27504143 -0.26564097 -0.2360646 -0.2030945 -0.2916939 0.20131542 0.10365801 -0.29629415
0.29329443 0.21969813 0.3134193 -0.21498124 -0.20504847 0.26201645 0.24490862 -0.12515803
-0.20218337 -0.21403417 -0.082091115 -0.19417429 -0.13091706 0.3433132 0.14901862 0.25122032
0.072645694 -0.05977551 -0.081053436 -0.3521235 -0.17372055 0.2588678 0.19367826 -0.25879237
-0.09897247 -0.14631191 0.17176843 -0.1982695 0.024229743 0.15791081 -0.39525175 -0.20772542
-0.10438306 -0.24461292 0.25634798 0.4207814 0.07744219 -0.09009054 -0.3310138 -0.06814092
0.38498482 0.09900757 -0.018374035 0.2624814 -0.07695015 0.11445951 -0.22109525 0.16931672
0.2526691 -0.21561448 -0.25692827 -0.101084515
