data/model/sl_training_noisy/20/15.pth (torch, 44823 bytes, 5 tensors)

linear.weight f4 [100, 4]
00000000: edf1 2b3e dedf 8a3d 3679 2a3e 3aca 6f3e
00000010: 005d bd3e 703a ec3d 722e edbe dec1 2c3e
00000020: 4633 88be 7f72 a63e f138 f13d bfaa 7cbe
00000030: 364a 7d3c 4b79 143c 39c0 debd 3fbb 0dbe
00000040: 61c1 593c 429c c03e 0500 053f 4eda c13e
00000050: 910d 973e 3c93 f93e 2aef 8f3e c2f1 66bc
00000060: 53fa cabe 373c f7bd aecb edbc 3eab babe
00000070: 8f93 44be fbfb 3bbe 8d09 88bd dd1e d93e
00000080: 08b8 f6bc acac 7cbe 647a 283e 0c42 5dbd
00000090: 5f71 8f3e 5f8e f13e 3cee 143f e0fb b63e
000000a0: f8c7 ed3e 064c 3fbd 708f 12bf 4ee3 3ebd
000000b0: 16ff d53e e9f2 9e3c dee9 06bf e216 5cbe
000000c0: 923e 063e 4337 cc3e b609 063f d42c d2bd
000000d0: 85c3 b9be 4054 9abe 2e61 06bf 7c47 c8be
000000e0: 1db5 03bf c028 053e 3893 a73d 7364 033f
000000f0: 1085 383e 2ab2 3dbe 757a 39bd d5bd 983e
00000100: 5864 f0be 3f90 b43e 619c d33e 3aba 3e3e
00000110: f248 bc3e d199 b63d 693f 143e 999e 4f3e
00000120: 3a95 1a3e fdb3 47be 6931 1cbf 6d18 3dbd
00000130: 3ab7 633e 7817 143e 92ee a5bc d9a3 2ebe
00000140: 3921 f6bd b4e6 733e e0c6 90bd b5f6 26bd
00000150: 3e6d a53e f7c5 02be 62aa 70bd b83a c13e
00000160: daf3 f13e d484 47be 0ae8 a33e 123c 06bf
00000170: 28a3 e4be bf82 983e b0bc a53e 9e50 c43e
00000180: 60fa 6abe 9807 f5bd 2115 07bf ffc8 0a3e
00000190: 8a2d 87bd 9e31 c13e 38f0 b1be 8569 463e
000001a0: 6b7e bebe 2907 c1bd 11f1 2dbe 9553 1c3d
000001b0: 8bee b0be 9d9f d9be ca7d d73e e65b 8b3d
000001c0: 4595 b53e adf0 2f3d 2cc5 043f 6d2f d2be
000001d0: a18e c03e 9977 783e be2d 0ebe 03d6 b1be
000001e0: c64a 51be 167d 0fbd 721a 053e 31f4 d43e
000001f0: 88f2 c23e f0a5 02bf 3a92 903e f08e ba3e
00000200: f906 e23c 6caa a3bd 370e d8be 8e69 f9bd
00000210: e75a 75bc e2e2 d43e 1ed9 ba3e 72a6 883e
00000220: 5ec2 50be 62a9 b73a f9ed 7a3e 5292 d73b
00000230: 4873 703d bce1 283e f6c7 03be b83c a33e
00000240: 4fac fbbd 19aa 123e 76d6 143f d576 4bbe
00000250: 9831 583d ff97 65be 429b e23e e22d 593e
00000260: 96b7 98be 1f01 cb3e 3487 123f 019a 153e
00000270: cd60 563d 31de c8be fbd5 973e 72b4 f5bd
00000280: 273b 81be 9e16 f73d 45e3 1bbe 6f40 82be
00000290: 4175 c13e 9859 ce3d 42d8 703e a398 ef3e
000002a0: eef4 6dbc 0ecb cf3e 9c60 16be ac9b c9be
000002b0: 3c97 a13d 400e 0b3e ec4e 193f 60bb 69bd
000002c0: f937 8b3e e08b b53e e969 86be f698 25bc
000002d0: 15f7 c43e 6d92 003d 67e4 c4be 42bc bcbe
000002e0: 4e8b 69be 9e02 c1be 08f1 d93e d862 803c
000002f0: 85ca ce3e fbdf c7be 74c9 0fbf 94dc 5dbe
00000300: 76c5 b7bd 559a 85be 0bae 87be a233 34bd
00000310: 18de 9d3e 0787 0fbd e123 d23d 41e3 923d
00000320: 8967 023d da8e 813d fe26 25bc 52bd eabe
00000330: 3ee7 87be 471f 873e f647 a0bc aed6 013f
00000340: 8917 d83e 5800 19be d17d 343e 485c 173e
00000350: 1564 333c ffcd 2bbe ed14 f6be c90e f4be
00000360: 772d ddbe b18f 9c3e ab9e cbbe 19ea 02be
00000370: 8d7e 84be 039c 1bbe 9b51 013c e912 02bf
00000380: adef ea3e 3e75 98be 08e3 83be 6927 85be
00000390: 55b6 aabe b5e6 e9be 0cc4 9c3e 7c7a 8ebd
000003a0: c165 aa3e df7a f53e d162 b2be da6b d53d
000003b0: 62c6 213e eb56 bcbe c4fb 213e 73d8 b33e
000003c0: a067 38be 536e f53e 8655 933e 64f2 babe
000003d0: 444c 5cbe 9dcd 31bd 9547 8d3e bced 96be
000003e0: 5722 1cbe 5d33 3abe d087 96bd 6755 9bbe
000003f0: 400d 24be 65a2 cdbe 16ca ca3e 23ac dc3e
0.16791506 0.067809805 0.16647801 0.23416987 0.36985016 0.115345836 -0.46324497 0.1687083
-0.2660162 0.3250923 0.11778439 -0.2467451 0.015459588 0.009062122 -0.10876507 -0.1384096
0.013290734 0.37619215 0.51953155 0.37861866 0.29502538 0.48745143 0.28112155 -0.0140957255
-0.39644107 -0.12072032 -0.029027786 -0.36458772 -0.19196914 -0.18357842 -0.06642447 0.4240636
-0.03011705 -0.24675244 0.16452938 -0.054018065 0.28016183 0.47178933 0.58176017 0.3573904
0.46441627 -0.04670336 -0.5725012 -0.046603493 0.41796178 0.019402938 -0.52700603 -0.21493104
0.13109806 0.3988591 0.5235857 -0.102624565 -0.36281982 -0.30142403 -0.52492034 -0.39117038
-0.5144823 0.13003826 0.081823766 0.5132515 0.1801951 -0.18524995 -0.0452828 0.2983233
-0.46951556 0.352663 0.41330245 0.18625727 0.36774403 0.08916057 0.14477314 0.20275344
0.15095988 -0.19502254 -0.61012894 -0.046165872 0.22237864 0.14462078 -0.02025536 -0.1705469
-0.120180555 0.23818475 -0.070691824 -0.040762622 0.32309908 -0.1277083 -0.05875624 0.3774011
0.47256356 -0.19484264 0.3201297 -0.5243541 -0.44655728 0.2978725 0.3237052 0.38342756
-0.22947073 -0.11964339 -0.52766615 0.13553236 -0.06600483 0.37733167 -0.34753585 0.1937619
-0.37205824 -0.09425194 -0.16986491 0.038165648 -0.34556994 -0.42504588 0.42088157 0.068046376
0.35465446 0.042954136 0.5186336 -0.41051808 0.37608817 0.24264373 -0.13884637 -0.3473359
-0.2043868 -0.0350314 0.1299837 0.41592553 0.38075662 -0.5103445 0.28236562 0.36437178
0.027591215 -0.0799149 -0.42198345 -0.12178336 -0.014975286 0.41579348 0.36493772 0.26689488
-0.20386645 0.0014012272 0.24504842 0.006578722 0.05870369 0.16492361 -0.12869248 0.31882262
-0.12288725 0.143227 0.5813974 -0.1986955 0.05278167 -0.22421263 0.44259077 0.21208909
-0.29827565 0.39649293 0.57237554 0.14609529 0.05233841 -0.3923202 0.29655442 -0.11997308
-0.25240442 0.12064861 -0.15223415 -0.25439784 0.3778477 0.100756824 0.23519996 0.4679614
-0.014523728 0.40584606 -0.14685291 -0.3937658 0.07890174 0.13579655 0.5988605 -0.05706346
0.2719114 0.3545828 -0.26252678 -0.0101072695 0.3846976 0.031389643 -0.38455507 -0.3686238
-0.22807047 -0.3769731 0.42566705 0.015672132 0.40388885 -0.3903807 -0.5616677 -0.21666175
-0.089732096 -0.26094308 -0.26499972 -0.043994553 0.30833507 -0.03504088 0.102607496 0.071722515
0.03183702 0.06326075 -0.010080097 -0.45847565 -0.2654361 0.2639105 -0.019565564 0.507182
0.42205456 -0.14941537 0.1762612 0.14781296 0.010949154 -0.167778 -0.4806284 -0.4766753
-0.4319875 0.30578378 -0.39769492 -0.12784614 -0.258778 -0.15196232 0.007892991 -0.50810105
0.45885983 -0.2977695 -0.2575915 -0.2600663 -0.33342233 -0.45683828 0.30618322 -0.06956956
0.33280757 0.47945306 -0.34841016 0.10420962 0.15798333 -0.36785063 0.15818697 0.35126075
-0.1800828 0.47935733 0.28776187 -0.36513054 -0.21513468 -0.04340898 0.27593675 -0.29478252
-0.15247475 -0.18183656 -0.07350123 -0.30338594 -0.1602068 -0.4016296 0.39607304 0.4310008

linear.bias f4 [100]
00000000: 1d85 923d f324 9bbe 51a1 f2bc be1a 1f3e
00000010: ac75 5a3e d459 01be 927f c0be b248 933e
00000020: 88c0 b13e 59ed 203e 148c 0a3d 8164 c33e
00000030: 239f 883e 438e 133e 1fce 583e be91 d63e
00000040: 67c7 11be 311b edbd 129b 7bbe e56f 8dbd
00000050: adf2 2f3c 0ca5 b23e 18d5 ad3c b348 fc3c
00000060: 4066 3f3d c8d0 2e3d fd6b 5abe 21a9 52bd
00000070: 8cbd 7fbd d991 acbe 254c 5bbe 85a0 69be
00000080: 2674 68bc edbb 1d3e c0f0 b63e 3f84 e23e
00000090: b11c cd3d d3ff 053e eefc 6e3d a47b 6bbe
000000a0: 260f eabd ae96 e6bd 54b1 6ebe eea3 acbe
000000b0: 4464 ff3b 6155 c9be 8c60 ecbd c197 a73e
000000c0: 75ac c93e 0b3c af3e 8118 fd3e 76fd 073e
000000d0: c108 0f3e df06 e63e acdb d73e b318 2e3e
000000e0: 6860 723e 956b cc3e dd26 01bf 3651 693d
000000f0: d2fe fd3d 7ecf b9be 0a52 c03e 4601 5bbe
00000100: c820 953e 208e 2d3e d495 113e 3d37 b13e
00000110: 57cf 7a3e d80e 16be b2a7 503e 6547 9bbe
00000120: 0b13 923e 062e 943d 9fb2 cb3e 2b0e d43e
00000130: 1526 e1be 79ee 43be 9f9b e73e 5299 f3bd
00000140: d16e e9be 1775 8d3e 1c59 183d 5f0f 85be
00000150: b39f 0bbe fa82 c63d a34e b7be f763 41be
00000160: 50be 873d 8e86 283d 8330 eebc 5ec1 37be
00000170: 61b2 cc3e fbc7 e03d 085b abbc 487e d33e
00000180: f748 03be 050b 6c3e f6f3 ecbe d2b9 5fbe
0.071542956 -0.30301628 -0.029617937 0.15537545 0.21333951 -0.12631923 -0.37597328 0.287664
0.34717202 0.15715541 0.033824995 0.38162616 0.26683912 0.14409737 0.21172379 0.41908067
-0.14236222 -0.11577452 -0.24570873 -0.06906108 0.010739011 0.34891546 0.021219775 0.030796384
0.046728373 0.042679578 -0.21330257 -0.051430825 -0.062436625 -0.33705023 -0.21415766 -0.2281514
-0.014187848 0.15403719 0.35730553 0.4424152 0.10015238 0.1308587 0.05834668 -0.22996384
-0.114286706 -0.112592086 -0.23309833 -0.33718818 0.007793935 -0.3932295 -0.11541852 0.32732967
0.39389387 0.34225497 0.49432757 0.13280281 0.13968183 0.44927117 0.42159784 0.1700161
0.23669589 0.3992583 -0.50449926 0.056962214 0.12402119 -0.36291116 0.3756259 -0.21387205
0.29126573 0.16948748 0.14217311 0.34612456 0.24493156 -0.146541 0.2037647 -0.30327907
0.28530154 0.07235341 0.39784715 0.4141706 -0.43974367 -0.19133939 0.45235917 -0.11894478
-0.4559236 0.27628395 0.037194356 -0.2598829 -0.13635139 0.096929505 -0.35802183 -0.1888579
0.06628096 0.041143946 -0.029075867 -0.17944857 0.39979842 0.10975643 -0.02091743 0.41307282
-0.12820803 0.23051079 -0.46279877 -0.21848229

hidden.weight f4 [100, 100]
00000000: 47fc 04bc 57ca 9b3d b973 143c 0079 cdbc
00000010: 2090 95bd 6494 73bd 265c 4fbd 10f6 2d3d
00000020: 2653 923d ce33 91bd 750b 63bd f2b3 bb3d
00000030: 0f5c 0cbc fff2 0c3e d0be f8bd 90b3 a23d
00000040: 615c b7bd 478c dfbd 1c20 f13d 7ba6 ac3b
00000050: a8ae bdbc df3f 4ebd 7e67 56bd f370 313d
00000060: 74a0 a73d fe88 02bd 0200 813d 1617 b7bd
00000070: 6cad 9b3d 32db 013c f54a 84bd 2af8 87bd
00000080: 9720 253d 0697 86bd c976 93bd 0a49 66bd
00000090: 244f 1e3d ceda 03be 1aad 1f3d 9a17 36bb
000000a0: f8b7 5fbd 3ae8 a0bc b4ae c5bc be99 15be
000000b0: 57fb 2d3b 4ce1 bcbd a44f 19bc c67e 0abd
000000c0: 9c43 f83c ba1f 853d 8cf2 febc beab 9abc
000000d0: 62fd ad3b 9112 f63d 4f01 d63d a9a3 50bd
000000e0: a288 0c3d 1090 28bd 0c45 88bd 6afd e9bd
000000f0: c67b 8c3d 135b aebd ca4f 21bd f396 71bd
00000100: 44bd ad3d f361 b6bd d815 a0bc 0e35 a23d
00000110: 7e08 843b beb6 093d 4ab0 05bd ab7a 4bbd
00000120: 588d b33d d5e3 adbd 31b7 0cbd 73d4 b13b
00000130: 8980 7bbd cd81 273c 7db4 68bd 3410 c4bd
00000140: 1e7b 48bb fde9 90bd a5de a03d 0dce 2a3d
00000150: a6c7 19bd ce92 813d 0fe0 a6bd 1548 d0bd
00000160: 3992 a93d 53c5 b6bd 7ff1 633d f7e5 7abd
00000170: 0634 3b3d 80c4 c93d 3913 90bd 39be e43d
00000180: 2ac8 933d d103 c6bc a25c 95bd 61f3 14bd
00000190: a6e8 643c 804f 003c e35a 72bd d69b 84bd
000001a0: 06ea d53c 0707 94bd 8188 8d3d 5528 9a3d
000001b0: 1884 0fbd d20f ff3c b221 3d3d f709 52bd
000001c0: 6053 80bd 2315 173e 63c6 873d ef77 bdbd
000001d0: d4b4 fabd 132f 823a 849b e33d 1e12 ea3c
000001e0: 7741 9ebd 7249 b73d 9c85 d4bd b290 b63b
000001f0: d2bc 063d d9e9 803d 2a84 ffbc 80e5 3d3d
00000200: 98df 6abd 0054 13bd d79a 8dbd 7aae 9ebd
00000210: a784 373d 3677 23bc cb15 5ebd 5641 30bd
00000220: ef71 adbd 6544 e53c 3692 b83c b7c6 2dbd
00000230: 599e 64bd f4ea 71bd 54f5 403d 76ee acbd
00000240: f288 cc3c 646b e4bc 7e9e f5bd 3125 25bd
00000250: 0f77 cfbb 675a 8b3d ae54 553d cdd5 87bc
00000260: 7a44 773d f6fd 9b3d 60bc 45bd e44d ca3d
00000270: 8fbd c43d 1728 b5bd 87a8 ebbb d27a d5bc
00000280: ccd4 4b3d 0d1b 07bd 07f6 993c 5a76 56bd
00000290: f75d fe3c 853c 1cbd aadb ab3d 64bd 54bd
000002a0: 74a9 60bd 4138 7e3d d73b ca3d a6f8 a1bd
000002b0: e8aa 0d3e 1b4e e7bd 61ab da3d 7d6a a8bd
000002c0: e055 cbbd 45ea 02bd 44ac 1d3d bbc8 6fbd
000002d0: 11e8 a1bd 0c62 af3d ae04 c6bd 23b7 eabc
000002e0: 0417 03bd ebc5 dd3c 38dd 2e3c 010a b9bd
000002f0: 60b1 253d 49f6 9d3d 4a4f 5b3d 6e26 4b3d
00000300: 8602 333c 012a 0b3c 6015 023d 6c5c 063e
00000310: b4c4 a8bd 006e a93c 26d6 3a3d 73ae 5dbb
00000320: 5b30 963d b848 acbd 7e30 b73d b5ae 793d
00000330: a041 a93d ae2a 553c d7e3 a2bd 1d76 30bd
00000340: 3425 a33d 45ac 763d 4690 bf3d 218f 953d
00000350: 9dfc 61bd 3465 10be f679 ea3d b1be d73d
00000360: f8eb 653a 5682 013e 7297 1dbe 0908 213d
00000370: 60c7 cfbd 0571 adbd 51ef bbbc bf5a ef3d
00000380: 44da 6b3d 2b3d 7d3d 3b47 bebd e9b2 4cbd
00000390: c132 9e3d ecb8 833d 2f94 b03d 7d25 89bd
000003a0: e884 82bd 8f55 ad3d 60a2 c9bc 9a6f cf3c
000003b0: e8ea 3ebc 5f79 943d c329 353d 8c99 993d
000003c0: 4554 7e3d 2add 033e 47cb a6bd 0240 043e
000003d0: d646 3d3d 9ae4 ce3d db2b 9fbb 8a03 563d
000003e0: b890 9e3b 00a2 d63c 96b4 a53d 65b7 bb3d
000003f0: 53af b13b 8ec5 bdbd d8f8 553b 6875 e73b
-0.008116788 0.07606953 0.009060794 -0.025082111 -0.0730288 -0.05946769 -0.05062499 0.04247099
0.071447656 -0.07089959 -0.05543085 0.09165181 -0.00856687 0.1376457 -0.121457696 0.07944405
-0.08953167 -0.10915428 0.117737025 0.0052688695 -0.023154572 -0.05035388 -0.05234479 0.043320607
0.08184901 -0.031868927 0.062988296 -0.0893995 0.07601437 0.007925795 -0.064596094 -0.066391304
0.040314283 -0.06571774 -0.07200391 -0.056222 0.038649693 -0.12876436 0.038983442 -0.0027785064
-0.054618806 -0.019641984 -0.024131157 -0.14609429 0.0026547515 -0.092226595 -0.009357367 -0.033812307
0.030305676 0.06500192 -0.031121515 -0.018880721 0.0053097466 0.1201526 0.10449468 -0.05093733
0.03430999 -0.041153014 -0.06653795 -0.11425288 0.068595454 -0.08513465 -0.039382733 -0.058981847
0.08483365 -0.08905401 -0.019541666 0.07920276 0.0040293327 0.033621542 -0.032638825 -0.049677532
0.087671936 -0.08490721 -0.034354392 0.0054269372 -0.061401878 0.010223818 -0.056812752 -0.09573403
-0.0030590962 -0.0707588 0.07854966 0.04170041 -0.037543915 0.06326829 -0.081482045 -0.101699986
0.08279843 -0.08924355 0.05565023 -0.061254468 0.04570391 0.098519325 -0.070349164 0.111690946
0.07215913 -0.024171742 -0.07293059 -0.036364917 0.013971483 0.007831454 -0.059168708 -0.06475036
0.026112568 -0.07227903 0.06910802 0.07527224 -0.035038084 0.031135473 0.046174712 -0.051279034
-0.062659025 0.14754157 0.06629636 -0.09251391 -0.122415215 0.0009932242 0.111136466 0.028573092
-0.0772733 0.089495555 -0.103770465 0.0055714482 0.032894917 0.06294603 -0.03119095 0.046361446
-0.057342142 -0.03596878 -0.06914299 -0.077481225 0.04480424 -0.009977153 -0.054220002 -0.04303106
-0.08468997 0.027986715 0.022530656 -0.042425837 -0.055815075 -0.05906196 0.047108963 -0.0844392
0.024967644 -0.02788324 -0.119931206 -0.04031867 -0.0063313316 0.06804352 0.05208271 -0.01658144
0.06036804 0.076167986 -0.04827535 0.09878138 0.09606468 -0.08845537 -0.007191721 -0.026059542
0.049763486 -0.032984782 0.018794073 -0.052358963 0.031050665 -0.038143653 0.08391507 -0.05193843
-0.054849103 0.062065367 0.09874695 -0.07908754 0.13834727 -0.11294194 0.10677219 -0.08223436
-0.09928489 -0.031961698 0.038494363 -0.05854104 -0.07905591 0.08563623 -0.09668861 -0.02865178
-0.03200437 0.027071914 0.01067286 -0.09035111 0.04045236 0.07712991 0.053542413 0.049597196
0.010925895 0.008493901 0.031758666 0.13121194 -0.08240643 0.020682335 0.045614384 -0.0033825904
0.07333442 -0.084123075 0.08944796 0.06095763 0.0826447 0.013010664 -0.07953613 -0.04308139
0.0796608 0.060222883 0.0935369 0.0730269 -0.05517255 -0.14101106 0.114490435 0.105344184
0.0008770819 0.12647375 -0.15389803 0.039314304 -0.1014545 -0.084688224 -0.022941263 0.1168723
0.0575812 0.061825912 -0.0929093 -0.04997531 0.07724524 0.064317554 0.08622014 -0.066966034
-0.06373006 0.08463585 -0.02461356 0.02532177 -0.011652686 0.07249712 0.04422928 0.0749999
0.062092084 0.12877336 -0.08144241 0.12915042 0.046210133 0.10102196 -0.004857523 0.05224947
0.004839029 0.026200294 0.08091085 0.09165839 0.0054225116 -0.09266196 0.0032649543 0.0070635565

hidden.bias f4 [100]
00000000: 023a c03d 780e 8ebd b16c cd3c abf1 ab3d
00000010: 1944 c63c 89aa 96bd bb53 bdbc 4720 5dbd
00000020: 98b9 b23c 6d8f bcbd 4939 85bc d332 95bc
00000030: a848 733d 8083 8e3d 027c b1bd e470 84bd
00000040: 1ba4 c43d a843 8bbc 7ecf 3bbd e16d 003b
00000050: f772 b63c 5e2c 04bc 161b 70bd ee73 5cbd
00000060: e5f3 b33d b9bc 8a3d a585 44bd 905d 933d
00000070: c79d 84bd c927 2f3d 708b 10bd 6f5e bdba
00000080: 77be 6aba 26dc 90bd 85f8 bf3d fe0d 843c
00000090: 9080 28bd 5eb1 b6bd e417 95bd b291 1a3c
000000a0: 6df7 1cbc 4f83 4abd 56b4 3fbd 78e4 4fbd
000000b0: c35b 9e3d a165 8a3d 82ca 2bbd 48d3 f03c
000000c0: 5c27 b7bd e7c5 333d 2430 55bd 44f7 b73d
000000d0: 113e 7ebd 1072 2bbd 3b0e 483c a0d1 43bc
000000e0: dcb8 99bd f262 293d 1382 52bd 4d48 ee3c
000000f0: 4400 5c3c 17c0 b5bd 4a28 07bd 2ab4 cb3d
00000100: cb50 83ba e3b7 453c b488 a93d 565f 82bc
00000110: 1e1a ff3c 1bce 82bd 1f4c cd3d 7c05 91bd
00000120: 1deb d33d c000 d7bc e6ee 993d eacf b9bc
00000130: 09dc 7f3d f265 7cbc 1b12 7d3d 21ea a13d
00000140: 0974 17bd 61e7 273d adad 883c 344c 97bd
00000150: 46cc 6a3c 1c45 06bd b5cb 2ebd 3d29 063c
00000160: 26d4 9dbc 689e 66bd 2aac 40bd 15a6 d03d
00000170: 147b 43bd fc73 513d 12d5 3bbc c475 963d
00000180: e7c0 a6bc 0f1b 3c3d 1550 67bc a2a0 b63d
0.09386064 -0.069363534 0.025076242 0.08395704 0.024202393 -0.07356746 -0.023111215 -0.05398586
0.021817014 -0.09207044 -0.016262667 -0.018212711 0.059395462 0.069586754 -0.08666231 -0.06466845
0.09601613 -0.017000034 -0.045852177 0.0019596743 0.022271616 -0.008067219 -0.05861958 -0.053821497
0.087867536 0.06774277 -0.047979016 0.0719558 -0.06475406 0.04276255 -0.035289228 -0.0014447699
-0.0008954773 -0.0707324 0.09373573 0.016119953 -0.04113823 -0.08920549 -0.072799474 0.0094341505
-0.009580475 -0.049441632 -0.04680284 -0.050754994 0.07732346 0.067576654 -0.041941173 0.029397622
-0.08943054 0.043889906 -0.052047864 0.08982709 -0.06207091 -0.041856825 0.012210424 -0.011951834
-0.07505962 0.041354127 -0.05139358 0.02908721 0.013427798 -0.08874529 -0.032997407 0.09946473
-0.0010018585 0.012067768 0.08278027 -0.0159146 0.031140383 -0.06386968 0.100242846 -0.07081124
0.10347579 -0.026245475 0.075162694 -0.022682149 0.0624657 -0.015405165 0.061784845 0.07905985
-0.036975894 0.040992144 0.016684378 -0.073875815 0.014330929 -0.03278075 -0.04267474 0.008188543
-0.0192662 -0.05630341 -0.04703919 0.10187928 -0.0477248 0.051136002 -0.011464374 0.07346681
-0.020355655 0.045924243 -0.014118214 0.08917357

output.weight f4 [1, 100]
00000000: 2ccb 00be fba6 5bbe fee4 913d c05c 14be
00000010: 02d3 d1bd 904d 03be e32b 9e3d 8018 a93d
00000020: b70b 05be d930 1abe 3e39 73bd 7011 ca3d
00000030: e7f9 cabd d387 1cbe f3ee c73d ddbe 01be
00000040: a0be fabd 392a 1c3d d152 20be b316 22be
00000050: 9e5f a23d 3416 f9bd d5a6 e3bd 4400 033e
00000060: bb29 09be b532 0c3d 42da acbd 87da b9bd
00000070: 9d44 783d 8510 9d3d 3b3a 933d a077 0dbe
00000080: 9a2b 0bbe 4d76 04be 9dac 1a3e 22a1 e9bd
00000090: 7894 f93d 435a 93bd c83d 12bd 806b c6bd
000000a0: 4c20 9abd 2484 0dbe f273 df3d 1db5 83bd
000000b0: 1e01 0c3e d852 a83d aad2 943d 81a0 fbbd
000000c0: 6026 febd a7e2 ac3d 6be4 593d b20f d2bd
000000d0: bca0 07be 1195 373e f56d fe3d 9b4a 833d
000000e0: 1fce 47be ef94 c63d c512 ebbd c776 fe3d
000000f0: 1979 0d3e 3600 27bd 999a acbd 1bb3 b6bd
00000100: a3cf 023e 44e7 e33d 3fbd 08be ecf9 f5bd
00000110: 2e37 d43d a2f1 51be 3c4a d2bd bb6c 453e
00000120: 9766 c4bd b227 bf3d 9a09 6d3d 7eac 2d3d
00000130: 038d 54be a89e c9bd b6d4 0a3e 6be9 223d
00000140: 553c c1bd 59de 0fbe dd5a 45be 5d0b 223e
00000150: 1b34 123e e879 953d db97 133e 6478 e8bd
00000160: 7d53 ef3d bfdc 2c3e 09f1 af3d 14f4 c93d
00000170: ce7f b8bd e037 e33d ac66 d23d 69fb d23d
00000180: c05e 353e a538 093e 8467 9cbd 445f d1bd
-0.12577504 -0.21450417 0.07123755 -0.14488506 -0.10245325 -0.12822556 0.077232145 0.08256626
-0.1299275 -0.15057696 -0.059380762 0.09866607 -0.09910946 -0.15286188 0.09762373 -0.12670465
-0.1224339 0.038126204 -0.15656592 -0.15828972 0.07928394 -0.12162438 -0.11115805 0.1279307
-0.13394825 0.034228045 -0.08440067 -0.09074884 0.06061231 0.076691665 0.07188841 -0.13815165
-0.13590851 -0.12935753 0.15104909 -0.11407687 0.12186521 -0.071949504 -0.03570345 -0.09688473
-0.075256914 -0.13819939 0.10910787 -0.06431029 0.13672301 0.08218926 0.072667435 -0.12286473
-0.12409663 0.08441668 0.053196352 -0.102569 -0.13244909 0.17927958 0.124233164 0.06410714
-0.19512223 0.096963756 -0.114781894 0.12424999 0.13815726 -0.040771686 -0.08427925 -0.089208804
0.1277452 0.11128095 -0.13353442 -0.120105594 0.10362087 -0.20502332 -0.10268065 0.19279759
-0.0958988 0.09333743 0.057870485 0.04240083 -0.20756917 -0.098447144 0.13557705 0.039773386
-0.094353355 -0.14049663 -0.19272943 0.15824647 0.14277689 0.072986424 0.14413397 -0.11351088
0.11685846 0.16881083 0.08590896 0.09861007 -0.09008752 0.11094642 0.10273489 0.10301859
0.17711926 0.13400514 -0.076369315 -0.102232486
