data/model/iarl_training_noisy/3/25.pth (torch, 44823 bytes, 5 tensors)

linear.weight f4 [100, 4]
000000 8c 83 ff 3e 04 98 d3 3e 41 d5 16 3f 21 70 b0 be
       0.4990505 0.41326916 0.5891915 -0.34460548
000010 ce f0 5d 3e 73 87 d5 be a6 7c 76 3e 3b 7a d0 3e
       0.21673891 -0.41704902 0.24070987 0.40718254
000020 f7 d1 15 3e 26 05 6a be db 2f 13 bf 0e 25 11 3e
       0.14630876 -0.22853526 -0.57494897 0.14174291
000030 43 51 88 3e bc 0f db 3e cb 02 a9 bd bf b8 31 3e
       0.26624498 0.42785442 -0.08252486 0.17355631
000040 6e b4 9d 3e e9 5f c5 3e 93 0a 53 be 16 fd 82 3c
       0.3080172 0.38549736 -0.20609502 0.015989821
000050 8a 61 55 be c8 54 09 be 11 5a 00 bf 3d aa 0f be
       -0.2083799 -0.13411248 -0.5013743 -0.14029785
000060 b0 84 40 be c2 95 e5 3e 8e 31 cf 3e ad 91 d3 be
       -0.18800616 0.4484082 0.40467495 -0.4132208
000070 9a 37 67 3e 44 5a 00 be c8 fd 3e be 1d 97 c7 3d
       0.22579804 -0.12534434 -0.18651497 0.097456194
000080 e3 aa 2c 3d 7d db a0 3e 39 42 1c be c6 7d b0 3e
       0.042155158 0.31417456 -0.15259637 0.34470958
000090 8d dc fa 3d d9 cc de 3e 91 c3 29 3f 66 9b b1 3c
       0.12249098 0.4351566 0.66314036 0.021680545
0000a0 9d 04 bf 3c 05 5e b6 be 36 b8 e5 3e 7b af 5b be
       0.02331763 -0.35618606 0.44867104 -0.21453659
0000b0 b7 94 5b be b5 2d b9 3e c8 20 f1 be 47 3b dd be
       -0.21443449 0.36167684 -0.47095323 -0.43209288
0000c0 20 22 9e be 11 a4 8c 3e 9d 5f 9b 3e 6c f2 9d be
       -0.3088541 0.27468923 0.30346385 -0.30849016
0000d0 05 bd 9e 3e ae 2d ed ba 45 22 8c 3e f4 42 37 3c
       0.31003585 -0.0018095279 0.27369896 0.011185396
0000e0 c3 6e c0 3e 99 1e c8 3e ee 81 37 be b3 e2 c8 3e
       0.37584504 0.39085844 -0.17920658 0.39235458
0000f0 17 a2 db 3d d8 72 b1 3e aa 0c db 3e 61 b6 82 bc
       0.107242756 0.3465793 0.427831 -0.015956106
000100 24 56 fc be bb 5b 2a be 67 f2 ba 3c 5b 8d 96 3d
       -0.4928447 -0.16636555 0.022820665 0.0735118
000110 b9 8b a3 be 56 af 8b be 30 97 e5 3e c7 d5 36 3e
       -0.31942537 -0.27282208 0.4484191 0.17854987
000120 f6 67 ae 3d e3 b1 30 be be 1b a6 3e 21 db c7 3e
       0.08515923 -0.17255358 0.3244304 0.3903437
000130 c3 97 b3 be 44 57 b5 be 66 3f cf be e7 2d 55 be
       -0.35076723 -0.3541814 -0.40478057 -0.20818292
000140 db bf e4 be d7 f1 95 3e 4f 53 80 be d4 e1 47 be
       -0.44677624 0.29286072 -0.2506356 -0.1951974
000150 b8 0c 96 be 73 95 92 bd 28 fc ef be 5e 87 38 bd
       -0.2930658 -0.071574114 -0.46872067 -0.04505097
000160 65 51 7d bd 80 94 cb 3e 5a e0 c8 3e f8 6e 55 3c
       -0.061845202 0.39761734 0.39233667 0.013026945
000170 8e 04 52 3e 8a b2 6b 3e 7d 09 1f 3f 3a dc 6b 3c
       0.2050955 0.23017326 0.6212385 0.014395768
000180 19 92 a9 3e 53 ab 0a 3e 7f 9f 05 bf 55 8a e6 3e
       0.33119276 0.13541918 -0.52196497 0.45027414
000190 a7 26 5a bb 14 0f 97 be 88 3e c4 3e e3 dd a7 3e
       -0.0033287199 -0.2950369 0.38328958 0.32786474
0001a0 fa 32 8e 3e 7f 76 1c 3d be 00 db be 54 d2 ed 3e
       0.27773267 0.038198944 -0.42774004 0.4644953
0001b0 99 94 e1 be 8f 1a 47 3d 10 d7 d3 bd d3 fe 48 3d
       -0.44058684 0.048609313 -0.10343754 0.049071144
0001c0 8e 44 6b be 5d fa 74 be e5 71 40 be 7f 7e 11 bd
       -0.2297537 -0.23923631 -0.18793447 -0.035521027
0001d0 0f 80 c3 3e d8 96 c3 3e 06 5c 0a 3e 78 7d 6a be
       0.38183638 0.38201022 0.13511667 -0.22899425
0001e0 e1 e7 91 be 14 54 84 bd b5 46 bf 3e 45 0f ea bd
       -0.28497222 -0.06461349 0.37358633 -0.11428694
0001f0 41 d6 e7 3e 5f c1 f4 bc 74 db 03 3b 32 97 83 bc
       0.4528065 -0.029877363 0.0020119818 -0.016063306
000200 c9 d1 bb bc eb ca 92 be 21 ff 15 bf a5 e6 e4 bd
       -0.022927182 -0.2867044 -0.5859242 -0.111768045
000210 b3 5d bf be c3 0b 2d be e1 a5 9d 3e 2b 88 ba bd
       -0.37376174 -0.16899018 0.30790618 -0.09108003
000220 8f 8c 5a 3e 3c 26 e3 be 78 5a 9f bd eb 37 fd be
       0.21342681 -0.44365108 -0.077809274 -0.49456725
000230 4c 40 d8 be a9 da 52 bc a4 4b 8a 3e b5 f9 a9 3e
       -0.42236555 -0.012869515 0.27010834 0.33198324
000240 08 ca e9 3e 77 9a 94 3e 8a cc 43 3e e9 22 25 3e
       0.4566195 0.29024097 0.19120994 0.16126598
000250 e7 fa d9 3e f0 d7 a5 be 0a 77 99 bd 2c 5d a1 be
       0.42574236 -0.3239131 -0.07493408 -0.31516397
000260 65 d6 18 3e a4 58 4a be 27 97 ff be 83 69 84 be
       0.14925535 -0.19760376 -0.49920008 -0.2586175
000270 9f b3 1a 3e 06 9e 3c be 23 09 7b 3e 62 19 02 3f
       0.15107583 -0.18419656 0.24515204 0.5081998
000280 61 78 93 3e 8b f0 de bd a2 52 ab be 42 52 a9 be
       0.2880278 -0.10885724 -0.3346148 -0.3307057
000290 1e e8 3b 3e b3 48 4d be b9 92 b3 3e a8 cc ed 3e
       0.18350264 -0.20047264 0.35072878 0.46445203
0002a0 43 ca e5 be be 3f e3 3e 29 19 bb 3e 68 c7 4e 3e
       -0.44880876 0.4438457 0.36542633 0.20193255
0002b0 c8 e9 70 be 7a ed cd 3c e5 e7 ff 3d 41 fd b8 be
       -0.2352668 0.025137652 0.12495402 -0.36130717
0002c0 3c 74 12 bd 91 87 aa bc 76 e6 d8 3e da 67 cf be
       -0.03575538 -0.020816596 0.42363328 -0.4050892
0002d0 28 30 ad 3d f9 b1 d8 3e dc 5f f4 3c f6 f5 da 3e
       0.08456451 0.42323282 0.029830866 0.42765778
0002e0 2f 70 35 3e 73 00 b8 be 29 4f 10 3f 6b b6 3d 3e
       0.17718576 -0.35937843 0.5637079 0.18526618
0002f0 25 4d cc 3e 0a 8a bc 3e 9b a7 ac be 6c 87 39 bd
       0.39902607 0.36824065 -0.33721623 -0.045295164
000300 74 be b7 3e 2c 6c 09 be f3 39 de 3e a6 48 5d 3e
       0.35887492 -0.1342017 0.43403587 0.21609744
000310 5f 87 8e 3d 59 15 9d 3d 26 ce 15 3f 4a 0b f0 3e
       0.06959414 0.07670087 0.5851768 0.46883613
000320 03 e0 eb be 6c a1 de 3e 64 cb c1 3d 68 29 9d 3d
       -0.46069345 0.4348253 0.09462622 0.07673913
000330 20 b2 93 be c8 80 b6 3e 87 21 95 3d 7a 15 f1 be
       -0.28846836 0.35645127 0.072817855 -0.47086698
000340 6b 3e 9f be 55 6e 9d be 49 58 d0 be c4 e1 d6 be
       -0.3110231 -0.3074824 -0.40692356 -0.4196912
000350 34 5a d7 3e 9b 97 f9 3e 48 fc 24 3f cb 00 a9 3e
       0.42061007 0.48748478 0.6444745 0.33008417
000360 31 15 91 be bb 3c 88 be 5b 17 d9 bd 2f c4 72 3e
       -0.2833648 -0.26608834 -0.10600158 0.2370765
000370 51 59 e9 3d 5e 43 5b be d0 20 ef be a2 66 89 3e
       0.11393989 -0.21412417 -0.4670472 0.26836115
000380 a8 44 84 3e 92 7e b2 3e 94 c8 15 bf 2b b8 fa bc
       0.2583363 0.3486219 -0.5850918 -0.030605396
000390 d1 d3 c1 3e 4a c9 7b 3e 3d 64 ce bb b2 25 e4 be
       0.37856916 0.24588504 -0.0062985704 -0.4456001
0003a0 17 9d b3 3e f8 77 21 be c3 fd ee be d6 c9 88 3d
       0.35080788 -0.1576842 -0.4667798 0.06679122
0003b0 9e 30 1a bb 41 4b 6d 3e e3 cb c6 be 4d 66 fd be
       -0.0023527513 0.23173238 -0.38827428 -0.49492112
0003c0 5b 1b e3 be c9 cc ae 3e 8b 4d 06 be ca 6a df 3e
       -0.44356808 0.34140614 -0.13115518 0.4363616
0003d0 35 81 36 3c 79 5f 17 be a2 68 df 3e b8 69 bf bc
       0.011139204 -0.14782514 0.43634516 -0.02336584
0003e0 5c 37 99 bd 6a e5 bd 3e f6 2e e5 bc 31 a2 10 bd
       -0.07481262 0.37089092 -0.027976494 -0.035310928
0003f0 4d 28 80 3e a8 71 9f 3d a5 b4 cc 3e a9 17 1b bd
       0.25030747 0.0778535 0.3998157 -0.03786436

linear.bias f4 [100]
000000 0c 90 d0 bd 4f 47 46 be fd ef 95 be d4 e9 0e be
       -0.10183725 -0.1936314 -0.2928466 -0.13956386
000010 3d d2 40 3e 6e 75 b8 3e e4 41 4d be a2 8e 0f be
       0.188302 0.36027092 -0.20044667 -0.14019254
000020 54 e1 c2 3e 25 ab 74 3e 88 d4 a9 be ab 04 9b bd
       0.38062537 0.23893411 -0.3316996 -0.0756925
000030 b1 5b 83 3e 52 bb 5c be ba a1 8d 3e 16 1f b5 be
       0.25655892 -0.21555832 0.2766245 -0.3537528
000040 49 8d b3 be 79 c4 9b be e0 fd 69 be a2 99 02 3f
       -0.3506873 -0.30423334 -0.22850752 0.51015675
000050 ed c7 b5 bd b5 c2 c3 3e 1f b3 e1 bd b5 cc ae be
       -0.088760234 0.38234487 -0.11020493 -0.34140554
000060 83 41 ac 3e ef 25 be 3e 5c d0 00 be 53 c7 b5 be
       0.3364373 0.37138316 -0.12579483 -0.35503635
000070 57 6d 91 3e 1a c5 82 3e 99 2d c5 be b5 77 a0 be
       0.28403732 0.25541002 -0.3851135 -0.3134133
000080 97 ad 93 3e a2 d2 c0 3e d5 c1 bb be d7 4b d5 3b
       0.28843376 0.376607 -0.3667132 0.006509285
000090 15 99 ed be 70 c5 cf 3d 8e 99 bb be 97 1f cf 3e
       -0.46405855 0.1014508 -0.3664059 0.4045379
0000a0 d5 17 f5 3d 69 06 bf 3e 32 c7 3c 3e 7a df 47 be
       0.11967436 0.37309578 0.18435362 -0.19518843
0000b0 07 a5 8f be ba 96 90 3e 3e f3 b4 3e 9e 9e 4c be
       -0.28055593 0.28239995 0.3534183 -0.19982383
0000c0 d7 b5 a4 3e d5 71 7e be c5 53 86 3e dc bc d2 3e
       0.32169983 -0.24848111 0.26235786 0.41159713
0000d0 1f f1 28 3e 30 d0 af 3e 03 ee dd be a5 a1 a5 3e
       0.1649823 0.34338522 -0.4334565 0.32349887
0000e0 bb 39 17 bd 97 95 dd be 32 af 50 3e 14 f1 2b be
       -0.03692029 -0.4327819 0.20379332 -0.16791183
0000f0 87 cb 02 3f fd 04 23 be 83 d7 c3 be 60 6e f8 bd
       0.5109181 -0.15919872 -0.3825036 -0.12130427
000100 e6 b1 6f be dc ac 04 be bf dd e6 be cc 3a b3 3d
       -0.23407707 -0.12956566 -0.45091054 0.08751449
000110 d7 42 67 3e ec f6 f1 3e e4 d1 cb be 77 1f d1 be
       0.22584091 0.472587 -0.3980857 -0.40844318
000120 6e 61 ed be 6d 25 a7 3d 37 d4 3d be 7b 62 bf bd
       -0.46363395 0.08161435 -0.18537985 -0.093449555
000130 58 0e 82 be 08 f7 62 bd b0 76 fe 3e bb cc cd be
       -0.25401568 -0.05541137 0.49699926 -0.4019526
000140 1b 3b af be 44 57 a2 be de 7a e2 be 1d 18 18 3e
       -0.3422478 -0.31707203 -0.44234365 0.14852948
000150 50 2d 94 bb 1a d0 b6 be 28 c0 f0 bd 35 ec 23 3e
       -0.0045220032 -0.35705644 -0.11755401 0.16008075
000160 a6 a0 c9 be 7c a7 20 bd 17 72 bd 3c fd 41 8e be
       -0.39380378 -0.039222226 0.023125691 -0.2778472
000170 03 c1 cf 3e 3a 99 54 3d 68 76 9e be 0c 22 d1 ba
       0.40576944 0.05190394 -0.30949712 -0.0015955581
000180 76 34 6e 3e 43 9e ac be 3e 75 ad be 6e d7 f2 bd
       0.232622 -0.33714494 -0.3387851 -0.11857496

hidden.weight f4 [100, 100]
000000 7d be 33 bc 05 c1 d7 3d e5 95 01 be a2 93 b3 bd
       -0.010970709 0.105348624 -0.12654836 -0.08768393
000010 b8 28 c7 bd f1 3f 7d bd f6 5a 7c bc f2 a6 5f bd
       -0.09724563 -0.061828557 -0.015402546 -0.05460257
000020 ff 63 05 bc 6b b8 1d bd 0d a1 51 bd 4b 3b 9e bd
       -0.008141517 -0.038505953 -0.05117898 -0.07726153
000030 c2 02 79 3b 7d 58 68 3d b9 46 79 bd ce d4 61 3d
       0.0037996029 0.056725014 -0.060858462 0.055134587
000040 b0 52 37 bd c3 3f 97 3d d4 02 41 ba ae ec bb 3d
       -0.04475659 0.073852085 -0.0007362787 0.091760024
000050 e5 fc be 3c e0 fb a1 bd 2e 2f 7f 3d 82 43 08 3d
       0.023313949 -0.079093695 0.062300853 0.033267505
000060 51 0e 3b 3d 5b 80 95 3d 9d 07 b3 bc 02 ee 5b 3d
       0.04566795 0.072998725 -0.021854216 0.05369378
000070 b8 d9 7c ba e3 e7 dc bd 0a 7d dd 3d 4a fd 08 3b
       -0.000964548 -0.107864164 0.10814865 0.0020902925
000080 81 ce b4 bd d9 68 2a bd 88 45 93 bd d0 12 ad 3c
       -0.0882845 -0.041603897 -0.071909964 0.021127135
000090 03 5b 86 bd a0 66 09 be 0b 0e 03 be 51 e5 ea 3d
       -0.06560328 -0.13418055 -0.12798326 0.1146952
0000a0 f3 f3 b7 bd db 58 0e bd 1a 70 a3 3c 4f 8e 66 39
       -0.089820765 -0.034752708 0.019950915 0.00021987523
0000b0 4b cb 87 bd b2 89 12 bc c8 de d6 3d 41 48 99 bd
       -0.06630572 -0.008943962 0.10491711 -0.074844845
0000c0 e4 74 4d bd 61 ac 12 3e 61 a3 b2 3d ee ab a1 3d
       -0.050160304 0.1432357 0.08722568 0.07894121
0000d0 95 94 03 3d f1 60 c4 3c dd 40 a2 3c 5b 17 f4 3c
       0.03212412 0.023972007 0.01980632 0.029796293
0000e0 9a b2 b5 bd 05 a1 2a bc e9 71 59 3c 38 c8 31 3c
       -0.08871956 -0.010414367 0.013271787 0.0108509585
0000f0 b1 ec 6b 3d 4f 0a c2 3d 9a a1 5a bd cd 0a 7b bd
       0.057598773 0.094746225 -0.05337677 -0.061289597
000100 98 e2 b4 bd 80 07 85 bd 2f d4 dd 3c 9f 03 f1 3c
       -0.08832282 -0.06495571 0.027078716 0.029420672
000110 3d b3 33 bd a8 f5 df 3c 85 19 2f bd de 86 42 bc
       -0.043872107 0.027338818 -0.042748947 -0.011872975
000120 c9 b1 4e 3b 62 61 07 bd b0 b0 e7 bd 08 4a 2e 3d
       0.0031539074 -0.033051856 -0.11312997 0.04255107
000130 62 c7 04 be 2b 3e dd bd ea db 04 be 3b 6e d3 3b
       -0.12966684 -0.10802873 -0.12974516 0.0064523495
000140 bc 91 d2 bb 70 32 91 3c 58 c9 27 3d ee 43 9a bd
       -0.0064260643 0.017724246 0.0409635 -0.07532488
000150 64 36 9a 3a be 6e 53 bd 00 41 1f 3e ff a9 e9 bd
       0.0011765477 -0.051619284 0.1555214 -0.11409377
000160 d6 e7 c7 3c 14 35 03 3e 1b 72 b3 bc 06 33 04 3d
       0.02440254 0.12813216 -0.021904996 0.032275222
000170 e3 6f 1a 3d 72 88 2f bd e6 06 0e 3d dd 86 d6 bb
       0.03770436 -0.042854734 0.034674548 -0.0065468387
000180 64 9a 89 bd 63 e7 a4 3d 67 37 01 3d 5a 4d a2 3d
       -0.06718901 0.08051946 0.031546976 0.0792491
000190 02 8f 54 3d ce b6 7a bc 9a 7d 9d 3d 1d 07 27 bd
       0.051894195 -0.015302373 0.07689972 -0.040778268
0001a0 19 a5 89 bc 0f 6d f2 3d c3 f5 36 3b 74 f2 04 3d
       -0.016802358 0.118372075 0.0027917481 0.032457784
0001b0 57 25 e0 bb a8 9c 41 bb 6c c3 ce bc ee 2d 8a 3d
       -0.0068403888 -0.0029542837 -0.025239669 0.06747042
0001c0 14 95 a1 3d fb 66 60 bd f5 1b 76 bd d5 53 dd bd
       0.078897625 -0.05478571 -0.060085256 -0.10807005
0001d0 09 00 55 bd 1d 22 e7 bd fb d4 a5 bd 6b f6 b1 3c
       -0.052001987 -0.112858035 -0.080972634 0.021723947
0001e0 91 16 da 3d c2 b8 80 3d 48 ad bf bd 57 67 42 bd
       0.106488355 0.0628524 -0.09359223 -0.047461834
0001f0 63 9c ac 3c 52 85 88 3d e8 f1 59 3b 40 64 04 bc
       0.021070665 0.06666054 0.003325576 -0.008080542
000200 03 06 6e 3b 25 f1 c5 3d af 01 cb bc 93 fd ac bd
       0.0036319501 0.09665135 -0.024781076 -0.08446803
000210 79 ae 8c 3c 6d ac 30 3d ff 16 4c bd 0a 1b 09 be
       0.017173039 0.043133188 -0.04982662 -0.13389221
000220 c3 cf 3e bc ec e7 5c 3d 0f 12 64 3d 36 34 eb 3c
       -0.011646214 0.053932115 0.055681285 0.02871142
000230 c6 9a 93 3d 63 e9 57 3d 3f d8 6a bd 2b d9 65 bc
       0.07207255 0.05271281 -0.057335135 -0.014028828
000240 3e de 40 bc 05 20 34 bc a1 47 87 bd 09 45 6a bd
       -0.011771737 -0.010993962 -0.06605459 -0.057194743
000250 aa 3c e8 bc b8 44 04 be 6c 2c 0d 3d 92 8b b3 3d
       -0.02834924 -0.12916839 0.034466192 0.08766855
000260 32 78 b8 bc 92 f5 4a 3d 29 3f 68 3d 7b ef e0 3c
       -0.022518251 0.0495506 0.05670086 0.027457943
000270 ad ca 12 3d 38 64 47 39 ff 5e 5c 3d ef 48 90 bd
       0.035837818 0.00019015453 0.053801533 -0.07045161
000280 ac 6a 8b 3c 10 22 94 bd 86 a8 83 3d ae 54 f2 bd
       0.017018639 -0.072330594 0.06428628 -0.118325576
000290 5a 23 a4 3d 7d 9c 3a bd 50 23 b4 bd 18 46 05 bc
       0.08014555 -0.045559395 -0.08795798 -0.008134387
0002a0 67 04 1a bd 6b 23 80 3d be f1 0c 3d 92 ac 75 3b
       -0.037601855 0.062567554 0.03441023 0.0037486893
0002b0 7a de 93 3c 26 f9 2d bd c9 97 b0 3c ec a2 e1 bd
       0.018050421 -0.042473935 0.021556752 -0.11017403
0002c0 c9 d0 de 3d f2 ce 9e 3d ae 3e 42 bd c1 4d 53 bc
       0.10879666 0.077543154 -0.047423057 -0.012896956
0002d0 93 28 92 3c 12 6e 5b bd 77 65 aa bd 34 6b 26 3d
       0.017841613 -0.053571768 -0.08320134 0.04062958
0002e0 36 25 df 3c bb 1a 98 bc 37 9f e2 bd 85 04 47 3d
       0.027239423 -0.018567434 -0.11065524 0.048588295
0002f0 64 b3 b5 3c 28 c7 af bd 0d fe d1 3c 79 87 b1 bd
       0.022180267 -0.08582908 0.025633836 -0.086684175
000300 f3 e4 ae 3d 78 c8 fa 3d d0 9d ee bc d3 8c 97 bd
       0.08539762 0.12245268 -0.029127985 -0.07399907
000310 42 b0 d8 bd 72 9b 00 bd 47 76 81 3a 0a 84 3b 3d
       -0.105804935 -0.031398244 0.0009877168 0.04578022
000320 50 63 12 bd 2e 7c 7a bd 01 77 d8 bc ac 3b f8 3b
       -0.035739243 -0.061153583 -0.026423933 0.007575473
000330 25 47 51 bc d4 f1 78 3c 5f 99 90 3d 08 c5 4e bd
       -0.01277331 0.015194375 0.07060503 -0.050480872
000340 35 15 8b bd ea 17 7a 3d 78 87 a2 3c 18 b7 c2 3c
       -0.06791154 0.061057962 0.019839987 0.023768947
000350 97 eb ce 3d da a1 db bd 8b 3a a2 bc 68 ab 9c bd
       0.10103529 -0.1072423 -0.019803306 -0.07649881
000360 6f ac 70 3d 2f 46 58 bd 90 9f a2 bd a8 3e c0 3d
       0.058758195 -0.052801307 -0.079405904 0.09386951
000370 0a 34 69 bd bd df ac bb 61 57 c1 bd 9c 37 89 bd
       -0.056934394 -0.005275695 -0.09440494 -0.0670006
000380 75 b3 09 bd 73 31 16 3c 66 1f 26 bd fb 38 9c bc
       -0.03361841 0.009167063 -0.040557288 -0.01907014
000390 42 04 2c bd 96 46 03 3d 7b 54 84 bd d0 83 46 bd
       -0.041996248 0.032049738 -0.06461426 -0.04846555
0003a0 30 2c d3 3c c6 2e 57 bd d9 7d 3a bd 25 a8 c4 bd
       0.025777906 -0.05253484 -0.045530174 -0.096023835
0003b0 fe 2e f8 bd d6 2d 1a bd a8 63 87 3d 14 be a6 bc
       -0.12118338 -0.03764137 0.06610805 -0.020354308
0003c0 88 b0 0b 3d d6 83 56 3c 12 bf f9 bc bf 4e d9 bc
       0.0341039 0.013092956 -0.030486617 -0.026526807
0003d0 3f a3 14 bd b7 a2 de bc 2c 42 ce 3c ba a9 30 bc
       -0.036288496 -0.027177198 0.025178038 -0.0107826535
0003e0 99 aa 80 bd 16 55 13 bd 70 e2 8e bd b9 df 65 bd
       -0.06282539 -0.035969816 -0.06976783 -0.05612156
0003f0 8f 40 c9 3c 5f 2c e7 bc cb 6f dc 3c 9b 5b d0 3c
       0.024566917 -0.0282194 0.026908776 0.025434306

hidden.bias f4 [100]
000000 63 ab 9b bd 58 a2 09 bd fc 96 1c 3d 64 6d 1e 3d
       -0.07601049 -0.03360209 0.038229927 0.03867854
000010 10 01 e3 3d b4 1c bb 3d 88 27 b2 3d 21 ec df 3d
       0.11084187 0.09136334 0.08698946 0.1093371
000020 58 19 60 bd 7b 2e 44 3d 7d 60 1d bd ed 11 38 3d
       -0.05471167 0.04789589 -0.038422097 0.04493897
000030 8c 4f 95 bc 55 ca e6 3c d6 86 09 bd 33 aa 1f 3c
       -0.018226407 0.028172651 -0.033575855 0.0097451685
000040 f5 41 9f bd 32 ae b7 bc 7e fb b4 3d 01 f8 f4 3c
       -0.07776252 -0.02242193 0.08837031 0.029903414
000050 cd b6 ba 3c 0d 02 09 3d 63 4b b0 ba fa fd b0 3d
       0.022792244 0.03344922 -0.0013450201 0.08642192
000060 39 56 8e bd e4 0a d8 3d 9d 30 5a bd 7d 9f 6b bc
       -0.069500394 0.10548952 -0.053269017 -0.014381287
000070 8a 0a e2 3c 2c bd a2 3d 06 bc 99 bd 7f e1 ff 3c
       0.027592916 0.07946238 -0.07506566 0.031235455
000080 53 fd 93 3c 98 96 20 3d be bb 81 bd b5 5e c2 3d
       0.01806513 0.039206117 -0.06334637 0.0949072
000090 0d 5c 92 bd a1 1a c3 3d 1f 9f da 3d 59 72 5c bd
       -0.071464635 0.095265634 0.10674881 -0.053819988
0000a0 1c 89 ac 3d c1 e5 66 3d e4 fe 8e 3d 11 93 35 3d
       0.08424589 0.056371454 0.0698221 0.044329707
0000b0 98 2b 51 3c e2 97 aa 3d 20 c8 b4 3d 3b 75 b0 3d
       0.012766741 0.083297506 0.08827233 0.0861611
0000c0 a8 2b 9c 3d 2f 66 eb 3d be 9b 56 3d 4a 91 24 3d
       0.07625514 0.11494099 0.05239462 0.04017762
0000d0 ea f6 af bc 20 ec 76 3b b4 0d e3 3b 0c 5c d1 b9
       -0.021480042 0.0037677363 0.006929124 -0.00039932167
0000e0 0a 7a 82 3d 8d 08 89 bd 39 22 01 3d d6 05 04 bc
       0.06370933 -0.06691084 0.031526778 -0.008058032
0000f0 e3 31 6c bc c1 5e 56 bd 15 e5 b9 3d 31 1e d7 3c
       -0.014416191 -0.052336458 0.09076897 0.026259514
000100 44 88 a2 bd 30 dc 84 3c ba 43 81 3d cb bb 54 bd
       -0.07936147 0.016218275 0.06311746 -0.051936906
000110 2e 32 20 3d 0d a1 f7 3d 74 7e a3 bd 36 65 f1 3d
       0.039110355 0.12091265 -0.079831034 0.117868826
000120 8c d4 ed bb 26 97 0a 3d 58 a5 d3 bc 02 5e 14 3c
       -0.0072580036 0.033835553 -0.025835678 0.009055616
000130 0b ee d7 3d 85 ef 8a bd 9f a9 b8 3d 54 a2 56 bc
       0.1054345 -0.06783966 0.09016728 -0.0131002255
000140 da 18 cc 3d cb 39 bc bb 02 f2 39 3d 97 3f 77 bd
       0.099656776 -0.005744194 0.045396812 -0.06036338
000150 bb fe c8 3d 79 8b 79 3d 77 16 91 bd db 28 4f 3d
       0.09814211 0.060924027 -0.07084363 0.050576072
000160 7d be 60 bc 0d b1 dc bc c5 7d 6f bd 75 db d1 3d
       -0.013717291 -0.026939893 -0.058469553 0.10246936
000170 9f b4 9d bc fd 9c 5e bd ac a1 ca 3d c5 10 19 bd
       -0.019251166 -0.054348934 0.09894118 -0.03736951
000180 70 a2 30 bd 31 2d ca 3c 70 b6 d5 3d 87 12 df bc
       -0.043123662 0.024679752 0.10435188 -0.027230514

output.weight f4 [1, 100]
000000 96 73 ab 3d 5b 41 f6 bd 35 0d c9 bd 21 10 3a 3e
       0.08371656 -0.12024184 -0.09816972 0.18170215
000010 18 34 45 be eb 8a 21 be 7f 47 51 3d cf dd 0a be
       -0.19258153 -0.15775649 0.051093575 -0.13561176
000020 31 5b c2 3d 4e 9e 07 3e 3a 4b 5b 3e cc c2 35 be
       0.0949005 0.13243982 0.21415415 -0.1775009
000030 54 79 41 3e d2 71 43 be 1d 8f 0d 3e aa f3 d4 3d
       0.1889394 -0.19086388 0.13824125 0.10398038
000040 7f 8a e9 3d 78 b3 24 be 3f f8 ba bd 86 11 15 3e
       0.11403369 -0.16084087 -0.091293804 0.14557466
000050 4f e5 26 3e 44 54 ef bd 0d 32 9a bd 1c f4 92 bd
       0.16298412 -0.11685994 -0.07529078 -0.071754664
000060 17 1b 28 3e cc 89 02 be 16 0b e8 3d 7f bd 15 be
       0.16416584 -0.12747878 0.113302395 -0.14623068
000070 4b 5a 1a be d7 fc 64 3d 18 e3 52 3e 27 53 6c bd
       -0.15073507 0.05590519 0.20594442 -0.057696488
000080 a7 9e 29 3e bb ef 39 be be 18 f9 3d 94 26 24 be
       0.16564427 -0.18157856 0.12162922 -0.16030341
000090 8a d9 ba 3d c8 28 85 be 3c 48 8f be 74 28 32 3d
       0.091235235 -0.26007676 -0.27984798 0.04349561
0000a0 47 e1 b2 bd 4a f1 44 3c 5c e9 2f 3e 96 cc 05 be
       -0.087343745 0.012020418 0.17178863 -0.13066325
0000b0 b4 1f 10 be cb 5b 1a 3e d5 01 2b be 0d fc 01 3e
       -0.14074594 0.15074079 -0.16699918 0.12693806
0000c0 d6 e9 32 be 08 70 f0 bd 07 a1 09 be 4f 29 03 3e
       -0.17472014 -0.11740118 -0.13440333 0.12808727
0000d0 90 2d 72 be 3d b1 59 3e 46 45 81 be 28 27 17 3e
       -0.23650193 0.21259017 -0.25248164 0.1476103
0000e0 a4 02 55 be bc c2 62 3e e9 27 25 3e c9 53 75 be
       -0.20801789 0.22144598 0.16128506 -0.23957743
0000f0 b4 fe 00 3e 98 d9 4a be 26 73 d5 bd dd 83 d1 3d
       0.12597162 -0.19809568 -0.104223534 0.10230229
000100 40 58 16 3e 73 57 0b be 54 10 14 3e db 83 2a 3e
       0.14682102 -0.13607578 0.14459354 0.16651861
000110 7d b3 d1 3d bc 11 36 be 72 52 c0 3d 72 db 1b be
       0.10239313 -0.17780203 0.09390725 -0.1522043
000120 95 35 7c 3d 06 8f ef 3d 69 9e b6 bd 6d 9b 1c 3e
       0.061574537 0.116972014 -0.08916933 0.15293665
000130 39 71 ea 3d 35 4d 33 3e bd ae b3 3d fd 40 37 3e
       0.11447377 0.17509921 0.08773563 0.17895885
000140 f1 30 09 be db a6 87 3d b0 8b dd 3d 4b 21 a4 3d
       -0.13397576 0.06623622 0.10817659 0.08014163
000150 40 6a f5 3d f9 a9 01 3e 10 18 e8 bd 40 13 8c 3e
       0.11983156 0.12662496 -0.113327146 0.27358437
000160 b5 f8 70 3d 50 9e d7 3d 52 c2 3b be dd 62 cc bd
       0.058830936 0.105282426 -0.18335846 -0.09979794
000170 1e 47 06 be 6c 34 e9 3d a9 9a a1 bd c0 05 f4 3d
       -0.13113067 0.11386952 -0.07890827 0.11915159
000180 c1 c1 41 be b3 9e 4e be dd f3 e1 3d 19 30 eb 3d
       -0.18921567 -0.20177726 0.11032841 0.11483783
