data/model/slrl_training_noisy/1/18.pth (torch, 44823 bytes, 5 tensors)

linear.weight f4 [100, 4]
-0.15821156 -0.01795578 0.4779848 -0.16891912 0.43785104 -0.32254955 0.37694204 -0.26149568
0.36257344 0.26452762 0.30357933 0.18296231 0.2719147 0.46000114 -0.39733088 -0.397492
0.15407944 -0.22294126 0.31408498 0.24790719 0.44477588 0.22537631 -0.42376906 -0.32625023
-0.0052972767 0.3537635 0.14236109 -0.3826688 0.22416477 -0.49015465 -0.038677044 -0.29880846
0.42808178 0.2827658 0.5130952 -0.11493132 0.2709421 -0.46673995 -0.14652224 -0.28203058
0.21021016 -0.28421223 0.34503993 0.2629758 -0.22987463 0.124392904 0.46509784 0.16160952
0.3972586 0.012699982 -0.290831 0.42355776 0.39753214 0.29790395 0.44065827 -0.13002342
-0.117686905 -0.16211663 -0.3754805 -0.41992345 0.16856441 0.016662387 -0.49768516 -0.18714623
-0.071748555 0.3537906 0.18640833 -0.062100805 0.25875622 0.20703769 -0.31397134 -0.1535847
-0.11417855 -0.23895913 -0.46596688 -0.24441522 0.010603025 -0.11870906 0.39568746 0.17683046
-0.22536367 -0.15692733 -0.23066413 -0.19899097 0.23111373 0.06201605 0.27547574 0.423097
-0.2759281 -0.39848545 -0.19813731 0.09718601 -0.061486688 0.15232015 0.27398878 0.4187559
-0.20159276 -0.3451564 -0.47033587 -0.47167796 0.05194829 0.43567732 -0.06913338 -0.39351892
-0.13845329 -0.3781023 0.39674908 0.36567533 -0.35557568 0.17817982 0.14209604 -0.36045453
-0.38263202 -0.3731638 0.5279761 -0.24127017 -0.36974472 0.076891504 -0.017386591 -0.20648614
0.007758253 0.08170152 -0.06529328 -0.14647359 -0.06870704 -0.31261802 0.26545882 0.35166827
-0.15599144 -0.030692955 0.2414032 -0.40987357 0.11102111 -0.41007528 -0.04508074 -0.24689399
0.22200045 -0.04824522 0.027469698 0.062416743 -0.2674154 0.31370714 -0.5249546 0.03704637
0.09681478 0.023487318 -0.49388117 0.22391771 0.4268321 0.03968676 0.19582511 0.15074553
-0.32132164 0.32743305 0.085225634 0.19002672 -0.4338168 -0.13351847 -0.2250288 -0.50696397
-0.26143235 -0.43709493 -0.3705515 0.016568115 -0.27171943 -0.32968494 0.11130258 0.2637379
0.31037122 0.48833284 -0.10337402 0.0928196 -0.22251076 -0.2508929 -0.25317118 -0.22505769
0.43131337 -0.01453374 0.2498449 -0.39475742 0.071565196 -0.3794382 0.22623405 0.006742115
0.17314382 -0.06064343 -0.28016275 -0.429737 -0.11032041 0.39526784 -0.12367111 -0.08708507
-0.17664357 -0.24116516 0.29176134 0.13524896 0.122821055 -0.055536643 0.3305175 -0.22027496
0.0243874 -0.38816756 -0.0599524 0.14342037 0.09367686 -0.3636738 -0.22356886 -0.37633312
0.45292726 0.4101162 -0.53455573 -0.094089195 0.08468331 0.40679082 0.31288165 -0.36546218
-0.2932355 -0.25857407 -0.58778137 -0.33637944 0.0037489731 0.092014745 0.20655803 0.08067182
0.23755613 -0.39226943 0.42352661 0.019642634 -0.072300136 0.24746564 0.53556806 0.26440647
-0.45492294 0.21301536 -0.3077871 -0.14857598 -0.047404196 -0.27103007 0.027150482 -0.24060711
0.38661793 0.46265078 0.23025964 -0.33074608 0.33183062 0.40151414 -0.07374595 0.11420639
-0.21165977 0.22848299 0.22046746 -0.18503253 -0.18959066 0.039158523 -0.20216617 0.24591893
00000000: 3602 22be 0018 93bc 6cba f43e 22f9 2cbe
00000010: 032e e03e 3725 a5be 8cfe c03e c3e2 85be
00000020: 3aa3 b93e 2a70 873e c06e 9b3e 795a 3b3e
00000030: 6738 8b3e 4585 eb3e f46e cbbe 1284 cbbe
00000040: 00c7 1d3e b74a 64be bfcf a03e 62db 7d3e
00000050: aab9 e33e 0cc9 663e 42f8 d8be 450a a7be
00000060: c794 adbb 7d20 b53e 1bc7 113e 2aed c3be
00000070: 738b 653e 8df5 fabe d26b 1ebd 6cfd 98be
00000080: 892d db3e aec6 903e 355a 033f 1d61 ebbd
00000090: ecb8 8a3e 8af8 eebe ed09 16be 5066 90be
000000a0: 5541 573e 4484 91be 13a9 b03e c4a4 863e
000000b0: 4164 6bbe b5c1 fe3d 4e21 ee3e f77c 253e
000000c0: 7b65 cb3e 9613 503c cde7 94be 90dc d83e
000000d0: 5589 cb3e de86 983e f69d e13e dc24 05be
000000e0: d505 f1bd e701 26be fb3e c0be 3500 d7be
000000f0: 269c 2c3e 8f7f 883c 97d0 febe 43a3 3fbe
00000100: e8f0 92bd 0b24 b53e d3e1 3e3e 6a5d 7ebd
00000110: b27b 843e b001 543e dac0 a0be 4f45 1dbe
00000120: 72d6 e9bd b4b1 74be 3693 eebe fc47 7abe
00000130: 4fb8 2d3c bc1d f3bd 8c97 ca3e 0b13 353e
00000140: bcc5 66be 8fb1 20be 3833 6cbe 4ac4 4bbe
00000150: 14a9 6c3e 8b04 7e3d 280b 8d3e 2ca0 d83e
00000160: 7346 8dbe 4906 ccbe 82e4 4abe 7509 c73d
00000170: 77d9 7bbd d0f9 1b3e 4248 8c3e 2c67 d63e
00000180: 556e 4ebe 57b8 b0be ddcf f0be c67f f1be
00000190: bbc7 543d 1911 df3e cd95 8dbd 507b c9be
000001a0: b3c6 0dbe a096 c1be b222 cb3e cc39 bb3e
000001b0: 040e b6be c574 363e a081 113e 7f8d b8be
000001c0: 58e8 c3be 530f bfbe 7129 073f 870f 77be
000001d0: 2e4f bdbe 4b79 9d3d 536e 8ebc 1a71 53be
000001e0: f138 fe3b 2053 a73d 7cb8 85bd 2cfd 15be
000001f0: 47b6 8cbd 780f a0be 38ea 873e dd0d b43e
00000200: 38bc 1fbe cb6f fbbc 6732 773e f3da d1be
00000210: 095f e33d 63f5 d1be 95a6 38bd c7d1 7cbe
00000220: 1654 633e c89c 45bd 2208 e13c b3a8 7f3d
00000230: acea 88be 399e a03e 6d63 06bf efbd 173d
00000240: d446 c63d 7a68 c03c fedd fcbe af4a 653e
00000250: bd89 da3e 968e 223d 6186 483e 095d 1a3e
00000260: 4584 a4be 4ea5 a73e c78a ae3d 5d96 423e
00000270: 3c1d debe 11b9 08be f36d 66be 64c8 01bf
00000280: 76da 85be e8ca dfbe edb8 bdbe dbb9 873c
00000290: cf1e 8bbe 77cc a8be 9bf2 e33d a708 873e
000002a0: fae8 9e3e c306 fa3e c2b5 d3bd 3418 be3d
000002b0: dcd9 63be 0975 80be a79f 81be 8675 66be
000002c0: 1bd5 dc3e ec1e 6ebc 57d7 7f3e a51d cabe
000002d0: c690 923d b945 c2be e6a9 673e f6ec dc3b
000002e0: 9d4c 313e 3f65 78bd 7e71 8fbe 7d06 dcbe
000002f0: abef e1bd 8c60 ca3e 4747 fdbd a859 b2bd
00000300: 0de2 34be 00f4 76be be61 953e b47e 0a3e
00000310: 9b89 fb3d 647a 63bd 9739 a93e c28f 61be
00000320: 16c8 c73c e6bd c6be a690 75bd cadc 123e
00000330: a7d9 bf3d 7433 babe 3cef 64be bcae c0be
00000340: 15e6 e73e c0fa d13e a5d8 08bf d6b1 c0bd
00000350: 716e ad3d e346 d03e 0632 a03e dc1d bbbe
00000360: f722 96be d263 84be d778 16bf ed39 acbe
00000370: 55b1 753b 3a72 bc3d f383 533e 4437 a53d
00000380: ea41 733e 8ad7 c8be 7bd8 d83e 97e9 a03c
00000390: 1812 94bd a267 7d3e fd1a 093f 4960 873e
000003a0: a9eb e8be b320 5a3e 4596 9dbe 4d24 18be
000003b0: e72a 42bd 74c4 8abe b06a de3c b661 76be
000003c0: c9f2 c53e 90e0 ec3e 2fc9 6b3e 8d57 a9be
000003d0: b4e5 a93e 4393 cd3e 1e08 97bd 0ae5 e93d
000003e0: 57bd 58be 72f7 693e 39c2 613e 2b79 3dbe
000003f0: 0e24 42be b064 203d a604 4fbe 2cd2 7b3e

linear.bias f4 [100]
-0.2619204 0.4499437 0.3111749 0.17696665 -0.41469222 0.31802747 0.17239226 0.29224977
-0.19180058 0.00287449 0.13778922 -0.38792196 0.4849038 -0.13249254 -0.096093565 0.0046630963
0.47775272 0.024093328 -0.19608875 -0.18978389 -0.3372309 0.13713782 0.15882145 0.17288095
-0.16572013 0.015142497 -0.26815844 0.102313094 0.048706234 -0.046666708 0.09657043 0.3240481
-0.43891674 0.34176853 -0.34956437 0.3013048 -0.17835976 -0.15548067 0.30281755 -0.17182064
-0.3127525 -0.049671926 -0.35078853 0.12452472 -0.050717395 -0.34283745 0.0057733087 -0.09506056
0.13389492 -0.40934828 -0.28662613 0.39743304 0.089221805 -0.17271674 0.44988847 -0.408562
0.005427977 0.49332276 0.108215466 -0.02096236 0.2894165 0.019492028 -0.30407783 0.16311227
-0.25829467 0.251987 0.2952387 0.2956968 0.37167594 0.32643133 -0.13997273 0.22079
-0.2124615 0.0075670965 -0.37677994 0.21968354 0.390113 0.09445416 -0.07415175 0.23487622
-0.24032775 0.249917 0.15804045 -0.29824954 -0.18264367 -0.2806146 0.09217297 0.16932064
-0.31220984 0.45645738 -0.3631669 0.39031374 0.31621933 -0.23745124 0.38134107 -0.21240073
-0.25103542 0.21243608 0.46798587 -0.2960157
00000000: 6e1a 86be 055f e63e 5152 9f3e bf36 353e
00000010: 8a52 d4be 7fd4 a23e 9987 303e c3a1 953e
00000020: 5f67 44be f161 3c3b 9e18 0d3e b59d c6be
00000030: 5045 f83e 20ac 07be b4cc c4bd e3cc 983b
00000040: 019c f43e 5f5f c53c 7dcb 48be b556 42be
00000050: 87a9 acbe db6d 0c3e 17a2 223e b407 313e
00000060: 8ab2 29be 3c18 783c 104c 89be 8789 d13d
00000070: 3080 473d 9725 3fbd b8c6 c53d a2e9 a53e
00000080: b2b9 e0be 49fc ae3e 1afa b2be 9f44 9a3e
00000090: f1a3 36be 5336 1fbe e70a 9b3e c0f1 2fbe
000000a0: 1821 a0be ca74 4bbd 8e9a b3be d106 ff3d
000000b0: 0bbd 4fbd 6488 afbe 062e bd3b 1caf c2bd
000000c0: c01b 093e 1996 d1be a9c0 92be 587c cb3e
000000d0: ecb9 b63d a8dc 30be c857 e63e 0a2f d1be
000000e0: 2cdd b13b cd94 fc3e 12a0 dd3d 41b9 abbc
000000f0: 662e 943e bfad 9f3c 17b0 9bbe e706 273e
00000100: 333f 84be 7104 813e 8729 973e 9265 973e
00000110: 4f4c be3e 0222 a73e 0355 0fbe c616 623e
00000120: 828f 59be 68f5 f73b 4de9 c0be b9f4 603e
00000130: e4bc c73e 2f71 c13d dfdc 97bd 6483 703e
00000140: 7a18 76be 3eea 7f3e 5bd5 213e 2ab4 98be
00000150: f106 3bbe b8ac 8fbe 2fc5 bc3d 6462 2d3e
00000160: f8d9 9fbe c8b4 e93e 03f1 b9be 34d7 c73e
00000170: 80e7 a13e 6b26 73be 233f c33e 947f 59be
00000180: b787 80be d888 593e d89b ef3e 5f8f 97be

hidden.weight f4 [100, 100]
0.016088879 0.028691974 0.0039349673 -0.07558606 -0.0050220746 0.027729698 0.050843492 -0.04536032
-0.007961007 0.034888018 0.016327014 0.026477434 -0.028606106 -0.012600177 0.019308204 -0.051987503
-0.066089354 0.078826465 0.027717086 -0.013844191 0.060600966 -0.0061525432 0.009123379 -0.03413604
0.05941469 0.03385413 -0.014738251 0.03618952 -0.052928224 0.044673536 0.021657482 -0.007406873
0.028178664 -0.04393451 -0.0062066503 -0.009919367 0.035141118 -0.03675698 -0.00019438028 0.039634187
-0.05379959 -0.07268495 0.04131401 0.0009796018 0.044430807 0.051338755 0.019991137 0.017489411
-0.018747482 -0.011518346 -0.003924249 0.009035735 0.080776244 0.0741449 0.009605458 -0.017653747
-0.046826433 0.028062753 0.031139666 0.018859906 -0.022887321 -0.035678566 0.031097656 -0.039952494
-0.01640357 -0.026570361 0.041712258 -0.017582797 0.049905352 -0.04246825 0.020133168 0.0062767607
0.0044568507 0.038714487 -0.027434675 0.026042065 0.023013895 -0.001323369 -0.027229773 0.04244646
-0.012815851 -0.06151452 0.0022927367 -0.002251942 0.0020725832 -0.027912244 -0.03502947 -0.00039734325
-0.08648543 -0.05805244 0.038240403 -0.025356188 0.045451935 0.016694041 0.07752805 0.019968623
-0.008641484 -0.018160595 -0.036421694 -0.019776136 0.035966016 0.06366581 0.05320784 -0.076923735
-0.036062803 -0.068265155 -0.05973183 0.0077380952 -0.053366043 0.09923349 -0.10100442 -0.107687004
0.050917663 0.070130795 0.01023134 0.018190334 0.08689456 -0.059540343 0.09780492 0.032237355
0.055393424 -0.09020149 -0.03237469 0.004684061 0.041752473 0.09782022 -0.025425041 -0.08877472
-0.09357477 0.07810042 0.021229085 0.040484857 -0.061578393 -0.012579421 -0.059444122 0.088469006
-0.0046940735 -0.08656734 0.050931767 0.011500521 0.0832818 0.03623493 -0.030005392 -0.032836773
0.0119718155 -0.08467093 0.038773436 0.048335046 -0.03553359 0.008133307 0.036097948 0.0068883803
0.103703186 0.065117925 0.03843184 -0.018821511 -0.059907287 0.029449005 -0.058149934 -0.032971077
0.035409067 -0.064025275 0.007626083 0.042429525 -0.025979424 0.043205377 -0.019418675 -0.05734466
0.005791827 0.058514908 -0.039032787 -0.061039634 -0.02457817 0.02670527 0.035407264 0.10254191
0.016829168 -0.081012376 0.031102829 -0.039372575 0.09399786 -0.057879772 0.027687084 -0.07228462
-0.003830791 0.018812658 -0.0121578835 -0.09064623 -0.09915017 -0.03862023 0.017662086 0.051423617
0.0031909829 -0.012019538 0.070092596 0.069082566 -0.039692234 -0.062167984 -0.009610078 0.047908258
-0.034444924 -0.08978541 -0.06908709 0.005764103 -0.041662045 -0.059647344 -0.0822127 -0.0850498
-0.06828085 0.009803377 0.06543084 0.090904295 -0.05011064 0.006087669 -0.08069293 -0.07816668
0.09272849 0.010921141 -0.07310448 0.09575345 -0.043147393 -0.00048768037 -0.055636294 -0.020398919
-0.07262063 -0.09619598 0.028302627 -0.002709092 0.0010453819 0.0091335755 -0.0345438 0.078256756
-0.08106433 0.045023482 -0.0066058445 -0.08178786 -0.10498495 0.021338498 0.08024185 -0.09781192
-0.06706863 0.087604195 -0.03531946 -0.08584307 -0.08037761 -0.028071357 -0.08351854 -0.08684688
0.08839632 0.056912404 0.049124103 0.012958471 0.03680384 0.0400684 0.03610127 -0.058488574
00000000: d3cc 833c 6e0b eb3c e6f0 803b ddcc 9abd
00000010: 3790 a4bb 6429 e33c 4441 503d becb 39bd
00000020: e26e 02bc bde6 0e3d 3bc0 853c 34e7 d83c
00000030: 5a57 eabc f970 4ebc 3d2c 9e3c d9f0 54bd
00000040: db59 87bd c56f a13d f10e e33c bfd2 62bc
00000050: b838 783d 469b c9bb 3a7a 153c 3bd2 0bbd
00000060: d15c 733d a1aa 0a3d b578 71bc 763b 143d
00000070: 44cb 58bd 99fb 363d 086b b13c 5bb5 f2bb
00000080: f1d6 e63c acf4 33bd 2861 cbbb d784 22bc
00000090: 22f0 0f3d 7d8e 16bd 8fd2 4bb9 7557 223d
000000a0: f55c 5cbd d9db 94bd e138 293d fb65 803a
000000b0: 14fd 353d 9648 523d 74c4 a33c f445 8f3c
000000c0: 5294 99bc 72b7 3cbc fd96 80bb 9f0a 143c
000000d0: 046e a53d 48d9 973d 3660 1d3c 979e 90bc
000000e0: 13cd 3fbd dce3 e53c 9d18 ff3c 1780 9a3c
000000f0: 317e bbbc b023 12bd 83c0 fe3c 3aa5 23bd
00000100: c860 86bc 16aa d9bc 79da 2a3d cc09 90bc
00000110: 8e69 4c3d 30f3 2dbd 50ee a43c 49ad cd3b
00000120: c60a 923b 1593 1e3d afbe e0bc 2b56 d53c
00000130: a387 bc3c e574 adba f910 dfbc 57dc 2d3d
00000140: 93f9 51bc a6f6 7bbd bd41 163b 5195 13bb
00000150: 2dd4 073b 38a8 e4bc 107b 0fbd 8252 d0b9
00000160: 461f b1bd 65c8 6dbd f8a1 1c3d c8b7 cfbc
00000170: cf2b 3a3d f1c1 883c 07c7 9e3d 3d95 a33c
00000180: 0395 0dbc 87c5 94bc ea2e 15bd 9001 a2bc
00000190: 1a51 133d 3863 823d 77f0 593d 318a 9dbd
000001a0: 97b6 13bd 9ace 8bbd 5da9 74bd d98f fd3b
000001b0: 5a96 5abd ee3a cb3d 68db cebd 018b dcbd
000001c0: 0a8f 503d bca0 8f3d 5aa1 273c e503 953c
000001d0: c6f5 b13d 93e0 73bd f24d c83d 510b 043d
000001e0: 37e4 623d 8fbb b8bd 539b 04bd c07c 993b
000001f0: a404 2b3d f855 c83d 2d48 d0bc 85cf b5bd
00000200: 21a4 bfbd 1df3 9f3d 9ee8 ad3c 73d3 253d
00000210: a039 7cbd ea19 4ebc ae7b 73bd 3d2f b53d
00000220: bed0 99bb 384a b1bd d49d 503d ae6c 3c3c
00000230: a68f aa3d 146b 143d decd f5bc da7f 06bd
00000240: 6f25 443c f467 adbd e5d0 1e3d f8fa 453d
00000250: ab8b 11bd 9041 053c 71db 133d ecb7 e13b
00000260: 5662 d43d 8c5c 853d b46a 1d3d 922f 9abc
00000270: 5861 75bd 0a3f f13c a02e 6ebd ae0c 07bd
00000280: 1909 113d af1f 83bd 39e4 f93b 95ca 2d3d
00000290: cdd2 d4bc 1ff8 303d ea13 9fbc 3ce2 6abd
000002a0: 5ec9 bd3b 54ad 6f3d d8e0 1fbd b204 7abd
000002b0: 2958 c9bc 03c5 da3c 3507 113d 7e01 d23d
000002c0: 53dd 893c d1e9 a5bd 5ccb fe3c 2345 21bd
000002d0: f381 c03d 5713 6dbd 06d0 e23c f509 94bd
000002e0: 020e 7bbb 011d 9a3c dc31 47bc bba4 b9bd
000002f0: 3f0f cbbd 3f30 1ebd 14b0 903c 92a1 523d
00000300: cf1f 513b 99ed 44bc b58c 8f3d 297b 8d3d
00000310: 5394 22bd dba3 7ebd 9773 1dbc 733b 443d
00000320: 1f16 0dbd 6ae1 b7bd 887d 8dbd cde0 bc3b
00000330: d2a5 2abd c650 74bd 225f a8bd 972e aebd
00000340: d5d6 8bbd 589e 203c 9b00 863d 082c ba3d
00000350: d040 4dbd 127b c73b 5642 a5bd da15 a0bd
00000360: 6fe8 bd3d 96ee 323c cdb7 95bd 631a c43d
00000370: 52bb 30bd 5aaf ffb9 e2e2 63bd a21b a7bc
00000380: 20ba 94bd 6602 c5bd e9da e73c 068b 31bb
00000390: 3205 893a fea4 153c cd7d 0dbd 1445 a03d
000003a0: 0e05 a6bd 8b6a 383d d775 d8bb 6580 a7bd
000003b0: 5902 d7bd 13ce ae3c d755 a43d 9e51 c8bd
000003c0: 475b 89bd d469 b33d 23ab 10bd 7ece afbd
000003d0: 049d a4bd e7f5 e5bc c50b abbd c7dc b1bd
000003e0: 2109 b53d fb1c 693d 5b36 493d c44f 543c
000003f0: a0bf 163d c31e 243d edde 133d b791 6fbd

hidden.bias f4 [100]
0.036100257 -0.061103825 -0.06944323 0.06885763 -0.018492017 -0.071745366 -0.08185263 0.061395295
0.014061615 -0.00069502485 0.059019297 -0.06279132 0.016773514 -0.08424476 0.052756473 -0.013454286
0.0022324584 0.04915693 -0.080204956 0.04064722 -0.044808272 0.02618253 -0.0616055 0.02221548
0.052026395 0.058815844 0.076566815 -0.036643386 -0.01731593 -0.07220683 0.08761093 -0.00960102
0.010811234 0.0718021 0.09375387 -0.038896743 -0.01599339 0.022251217 -0.035288945 -0.056371596
0.077372685 -0.06321976 0.07678751 -0.03536787 -0.07557706 -0.052166373 0.029905465 -0.06445633
0.0023164812 -0.03378907 0.024770228 0.036628686 -0.012451734 0.10189672 -0.0562716 -0.05464735
-0.03616751 0.08267607 -0.07270466 0.0011701321 -0.019792482 -0.022171728 -0.01041563 -0.015252818
-0.044094328 0.0677947 -0.08136854 0.08457455 0.0055960324 -0.041619197 -0.029224642 -0.03704377
-0.063860185 0.10197543 0.0771078 0.027304132 -0.08132381 0.08605668 0.05665814 -0.0424956
-0.07101017 -0.06295271 -0.040231463 -0.07228624 -0.06717816 0.02786642 0.0048901937 -0.026547892
-0.057295423 -0.037229165 0.035777025 -0.054185126 0.044866685 0.07868971 -0.074890845 0.07478269
0.06465349 -0.07182371 0.033544205 0.05020538
00000000: dddd 133d 0148 7abd 4138 8ebd 3b05 8d3d
00000010: 927c 97bc 3cef 92bd 5aa2 a7bd a279 7b3d
00000020: b062 663c 5432 36ba 38be 713d bc98 80bd
00000030: 9c68 893c 8488 acbd 2c17 583d 5e6f 5cbc
00000040: 704e 123b c758 493d 7f42 a4bd b37d 263d
00000050: e188 37bd bf7c d63c 0c56 7cbd 3dfd b53c
00000060: a119 553d e2e8 703d 10cf 9c3d 6017 16bd
00000070: 23da 8dbc 2de1 93bd 5c6d b33d 994d 1dbc
00000080: 9a21 313c fb0c 933d 0702 c03d 3152 1fbd
00000090: 9204 83bc 2f48 b63c 248b 10bd e7e5 66bd
000000a0: 9275 9e3d 5d79 81bd c542 9d3d e6dd 10bd
000000b0: 25c8 9abd 68ac 55bd 4efc f43c ae01 84bd
000000c0: 1bd0 173b 6866 0abd efea ca3c f607 163d
000000d0: 5c02 4cbc 3aaf d03d 0d7d 66bd e6d5 5fbd
000000e0: 6224 14bd 1252 a93d 2ee6 94bd 1e5f 993a
000000f0: d823 a2bc 7ca1 b5bc 52a6 2abc f5e6 79bc
00000100: 419c 34bd f3d7 8a3d 8da4 a6bd 6c35 ad3d
00000110: ec5e b73b e478 2abd 8468 efbc 35bb 17bd
00000120: 21c9 82bd 7fd8 d03d b2ea 9d3d eaac df3c
00000130: 198d a6bd 7c3e b03d 5e12 683d de0f 2ebd
00000140: c86d 91bd 5aed 80bd bfc9 24bd cf0a 94bd
00000150: b494 89bd 1e48 e43c eb3d a03b f77a d9bc
00000160: 9bae 6abd 9c7d 18bd ee8a 123d 39f1 5dbd
00000170: 21c6 373d 1228 a13d 5f60 99bd ab27 993d
00000180: 0d69 843d 4f18 93bd a665 093d 28a4 4d3d

output.weight f4 [1, 100]
-0.026298836 -0.08319235 0.08360649 0.1006532 -0.14325951 -0.10987041 -0.07830916 -0.104271926
0.04352181 -0.12722449 0.0995251 -0.08014341 0.12595542 0.05021969 0.13069277 -0.1605769
0.09569573 -0.12336014 -0.05976283 0.14585677 -0.13637087 0.12492102 -0.05113647 0.038617685
0.01946631 -0.09357363 -0.024355596 -0.106886104 -0.14895466 0.14580053 0.078432634 0.066199385
0.09207364 -0.11347166 -0.07023347 -0.03813565 -0.041312244 -0.07221889 -0.09394631 0.06473821
-0.16649428 -0.11951312 0.1106784 0.057966124 0.083436385 0.061939757 0.08317479 -0.13255091
-0.043728825 -0.08099174 0.034913722 -0.05680207 0.048414443 -0.076539226 0.08034698 0.09685919
-0.11694036 -0.13424553 -0.038869884 -0.11718229 0.08304311 -0.13959867 -0.12765771 -0.14913942
-0.07566061 0.12806025 0.11522779 0.111832984 -0.11316194 -0.13546467 0.08363731 -0.056183055
-0.09690291 -0.11253345 -0.10733808 0.05125175 -0.046151478 0.049153328 0.10908388 -0.10617936
-0.08455505 0.07524773 0.14774399 -0.14874321 0.06893525 0.07909171 0.10080077 0.061500117
0.16925523 0.055968996 -0.08554743 -0.099858895 0.0657311 -0.09820451 0.07426732 0.060577083
0.10414334 0.10233371 -0.05235201 -0.15225713
00000000: a870 d7bc c060 aabd e139 ab3d 4423 ce3d
00000010: 9fb2 12be bd03 e1bd 8e60 a0bd 858c d5bd
00000020: ed43 323d 2347 02be d1d3 cb3d 3a22 a4bd
00000030: 75fa 003e 29b3 4d3d 53d4 053e 456e 24be
00000040: 1ffc c33d 3ea4 fcbd dfc9 74bd 7a5b 153e
00000050: cea4 0bbe 97d6 ff3d 7a74 51bd 942d 1e3d
00000060: d077 9f3c 88a3 bfbd 6385 c7bc 1ae7 dabd
00000070: 9287 18be bc4c 153e 4aa1 a03d 8b93 873d
00000080: 1b91 bc3d d463 e8bd 91d6 8fbd 2134 1cbd
00000090: 0737 29bd 7fe7 93bd ec66 c0bd 7795 843d
000000a0: 7a7d 2abe 4bc3 f4bd 5bab e23d e36d 6d3d
000000b0: b2e0 aa3d 8bb4 7d3d 8b57 aa3d 6dbb 07be
000000c0: ff1c 33bd ffde a5bd b101 0f3d 4aa9 68bd
000000d0: 394e 463d 99c0 9cbd f58c a43d 1c5e c63d
000000e0: 6d7e efbd a977 09be 0736 1fbd 45fd efbd
000000f0: 8212 aa3d f4f2 0ebe b4b8 02be 01b8 18be
00000100: f3f3 9abd 3a22 033e 8cfc eb3d b108 e53d
00000110: 72c1 e7bd 40b7 0abe 0a4a ab3d 3420 66bd
00000120: 0875 c6bd f077 e6bd 11d4 dbbd 5bed 513d
00000130: 5509 3dbd 0055 493d 5f67 df3d 9074 d9bd
00000140: 332b adbd 7b1b 9a3d 334a 173e 2450 18be
00000150: ed2d 8d3d d6fa a13d a270 ce3d 8ce7 7b3d
00000160: 3e51 2d3e bf3f 653d 7e33 afbd d282 ccbd
00000170: 079e 863d 721f c9bd 7719 983d ad1f 783d
00000180: 1a49 d53d 5694 d13d 106f 56bd 4be9 1bbe
