data/model/sl_training/2/330.pth (torch, 44823 bytes, 5 tensors)

linear.weight f4 [100, 4]
00000000: 1a85 a6be cd1e 81be b772 093e 8ecf cdbd
00000010: 84b1 a8bd d17d 6fbe 4054 13be cfc0 02be
00000020: bf8a b93e 0200 183d d522 e73e 64ac 583e
00000030: cf81 b73e c801 a4bd dfb1 ed3e acc7 fdbe
00000040: 95fd 003f ad58 c23e e4f5 2c3e 834b 04be
00000050: 0862 60be c416 953e 0f18 43be 0938 84bd
00000060: 385e b43e 8ead c63e 3ac0 0b3f 11c7 ff3e
00000070: 63f7 2b3e c877 bebd de36 f13e 1016 0e3c
00000080: e806 313e 54eb cebe 415c d0bd a2c1 14bd
00000090: 4e41 023f 3ccc d73e 79df 96be a5d1 03bf
000000a0: 2cf7 503e 103d d33e e77d 2d3e 6c86 bcbe
000000b0: 38da dd3e ef43 6b3e e9c4 cabd 6ab3 c53d
000000c0: 5bea 24bd 3dba c5be 74c4 f93e fcc4 0b3e
000000d0: c3e3 1b3e 466a 80bd 7460 143f efe9 8fbe
000000e0: 24d7 ab3e 5e37 c83e 5b7a 813d fd09 87bc
000000f0: 1317 373e a4eb 9c3d 7ab0 12bf ff80 9d3e
00000100: 87cf 903d 52d5 a8be cd36 e4bd b5bc 26be
00000110: 436e e33e 3806 1abe 1e50 a2be 4031 a1be
00000120: b1e1 9cbe f52a 00bf 2d15 b3be 0ed7 f9bc
00000130: da11 613e 0113 8bbd 7646 023e 71f5 c83e
00000140: 4c21 953a 8b39 d4be 2ce3 0c3f 3df4 cd3e
00000150: ed39 a93e 7fed 16be ba70 1bbf 71b8 8dbd
00000160: c3e0 febd 79d0 c9bd 462e c43e 00ae 3bbd
00000170: 4b2b ebbe bb9e a13e d51b 8c3e 6156 b6bd
00000180: ce45 973e bebe 6abd 0363 bf3e a644 c1bd
00000190: c422 8abe 6ce6 823b 5971 b3be 785d e63e
000001a0: 7a81 6e3e dcef fd3d 0993 fc3e fa1b 253e
000001b0: 2999 d03d e83c eebe 827f 4e3e 8962 b4be
000001c0: 44c3 86be fbdb f1be 8261 0a3f f991 d43e
000001d0: b9b9 f0be 422f 8c3e ed22 473e 3771 ef3e
000001e0: d5f0 36bd 2e36 063e 622a 6c3e cf1c babe
000001f0: 2063 983d 7384 f7bd 0c74 d3bd ac5b 9e3e
00000200: 2506 e93e dbe3 733e 313b 673e e7b0 983d
00000210: 21ef b4be 4317 34be b0b2 c23e c149 ae3e
00000220: 4255 40bd 473c 893d c5e5 cc3e a890 a7be
00000230: 4cde 1f3e 176a 823e 027b 5b3e b609 57bd
00000240: f364 e7be 045f a63e f370 2f3e b047 abbd
00000250: 5340 d6be a8e6 adbe 8e60 f03e 1e5f fd3e
00000260: 312d 8ebe 7352 d93e 9be8 06be 09f1 913e
00000270: dcd3 113e 6ded ba3d dd8a f4be e10b b5be
00000280: fd0a da3e 5ab7 aebe 4c35 95be a6ea adbe
00000290: 1347 19be ec65 ea3e c3c3 edbe 7fd4 d8be
000002a0: cfbb c83d a0b3 923c 6590 5dbd 4cc4 9cbe
000002b0: 662f d93d e8cc 3c3e e0fa 0d3f f62b 433e
000002c0: dec9 d03e c9ed abbe a6bb 0ebf 5ae6 31be
000002d0: b143 5d3d 4486 edbe adfd 01bf 989b d33b
000002e0: a489 e63e 4736 9bbe 8f2e 76be 1926 be3c
000002f0: bf52 c0be 8de1 3a3d 4d73 d9be 7d93 bfbe
00000300: 69a5 643e 3166 a1be acc7 073f ced6 003f
00000310: 05b8 453d 8224 e63e ad46 e2be a534 b4be
00000320: 712d d73e 15a2 143e 36dc 573e 6514 403e
00000330: cca4 f7be 63f7 473d 6ba9 363e cd55 81be
00000340: 4e36 a7be 978f bcbd 3798 2abe 3703 273d
00000350: f8a9 97be a13c 69be 3941 e73e c834 11bb
00000360: 51b8 3bbd e59e 0a3e a50b 4dbe ce9a 6b3e
00000370: df8b 693e 5c18 503e 5c8d 1abe 75f1 aebe
00000380: 1f25 a3be df78 dbbd 09a3 7dbd d2de 0b3e
00000390: 0466 703c 7422 9bbd f417 093f faa9 543d
000003a0: aa32 8fbe 1126 4ebe bf7b 283e 2a0c 8d3e
000003b0: 647f eebe 2c17 9e3e 950e b4be dacb d3be
000003c0: 00c4 263d 7c0f 153e 8b37 0f3f 6a2d c3bd
000003d0: c1a9 003f 5b4d fb3e f85e 903e 8621 e0be
000003e0: 920d 023f e240 cf3e b12f 733d 2652 dcbe
000003f0: 95b5 b13d d628 2abd 406d f53e 7900 65be
-0.32523423 -0.25218812 0.13422666 -0.100493535 -0.082369834 -0.23387839 -0.14387608 -0.12768863
0.36238667 0.037109382 0.45143762 0.21159512 0.35841224 -0.08008152 0.46424767 -0.495664
0.50386935 0.3795828 0.16890675 -0.1291943 -0.21912396 0.2911893 -0.19052146 -0.06456
0.35228133 0.38804287 0.5459019 0.49956563 0.1679359 -0.0930019 0.47112173 0.008672252
0.17287791 -0.40413916 -0.10173846 -0.036317475 0.508809 0.42148006 -0.2946737 -0.5149177
0.20406789 0.41257524 0.16942559 -0.36821306 0.4333055 0.22975133 -0.09900839 0.09653361
-0.04026256 -0.3861865 0.48782694 0.13649362 0.15223603 -0.0627027 0.57959676 -0.28108165
0.33562577 0.39104742 0.063221656 -0.016484255 0.17879896 0.076621324 -0.5730053 0.3076248
0.07070833 -0.3297525 -0.11143265 -0.16282924 0.4442006 -0.15041435 -0.3170175 -0.31482887
-0.3064094 -0.5006555 -0.34977093 -0.030498054 0.21979466 -0.06790734 0.12722191 0.39249757
0.0011377721 -0.41450152 0.55034137 0.40225402 0.33052006 -0.14739035 -0.6071888 -0.06919945
-0.12445214 -0.09854216 0.38316554 -0.045820236 -0.45931467 0.31566414 0.27364984 -0.08903194
0.29545444 -0.057310812 0.37380227 -0.09436922 -0.2697965 0.0039947536 -0.35047415 0.44993186
0.23291579 0.12399265 0.4933093 0.16123953 0.10185463 -0.46530843 0.20165828 -0.35231426
-0.2632085 -0.47238144 0.54055035 0.41517618 -0.47016695 0.27379805 0.19446917 0.46766064
-0.04466327 0.13106605 0.23063043 -0.36350104 0.074407816 -0.120858096 -0.103248686 0.30929315
0.455125 0.23817389 0.22581173 0.074556164 -0.3533869 -0.17586999 0.38026953 0.34040645
-0.04695631 0.0670095 0.4001905 -0.3272755 0.15612143 0.25471565 0.21433643 -0.052499495
-0.45194206 0.32494366 0.1713293 -0.08363283 -0.4184595 -0.3396504 0.46948665 0.4948663
-0.27768853 0.42445716 -0.1317467 0.28504208 0.14240974 0.091273166 -0.47762194 -0.35360625
0.42586508 -0.3412426 -0.29142225 -0.33968085 -0.14968519 0.45780885 -0.46438417 -0.42349622
0.09801447 0.017907917 -0.054092783 -0.30618513 0.10604744 0.1843754 0.5546093 0.19059739
0.40779012 -0.33579853 -0.5575508 -0.17373028 0.054019634 -0.463915 -0.50777704 0.006457757
0.45026886 -0.30314848 -0.24041198 0.023211526 -0.3756313 0.04562526 -0.4247078 -0.37417212
0.22328724 -0.31523278 0.5303905 0.50327766 0.048271198 0.44949728 -0.44194546 -0.35196415
0.42026857 0.14514954 0.21080098 0.1875778 -0.48367918 0.04881991 0.17838065 -0.25260773
-0.3265862 -0.09207075 -0.16659628 0.04077455 -0.29621863 -0.22777034 0.45166948 -0.0022156704
-0.045830075 0.13537176 -0.20023973 0.23008272 0.22807263 0.20321792 -0.15092987 -0.34168592
-0.3186426 -0.10716414 -0.06192306 0.13659218 0.01467276 -0.07574931 0.53552175 0.051919915
-0.2796834 -0.20131709 0.16453455 0.27548343 -0.46581566 0.30877054 -0.35167375 -0.41366464
0.040714264 0.14556688 0.55944127 -0.095301464 0.50259024 0.49082455 0.28197455 -0.43775576
0.50801957 0.4047919 0.059371654 -0.43031424 0.08677212 -0.04154285 0.47934914 -0.22363462

linear.bias f4 [100]
00000000: 4d15 b83e f2c4 e43c 36d5 e6be 69cc b5be
00000010: 0171 d03c 8366 afbe 7a05 ec3d 6d59 9abd
00000020: adde 223e f34b c9be 15ee c4bd ccaf 843d
00000030: 3f40 a93e ddcd 4b3d b400 75be 487e e9be
00000040: e70c b23e bdf7 dcbe d2e4 73bd 0f5a c5be
00000050: ec5d bdbe 1f00 25be e1e9 24bd ac22 cfbe
00000060: bfb9 21be 2e0d cb3e 7497 8bbe e700 6abe
00000070: b568 173e 365c a0be 505f 3ebe 1188 423d
00000080: b1bb e4be 9c8e 6e3e 32a2 173e c983 7a3e
00000090: 3f43 e9be 06f0 64be a4b8 bd3e cc57 023d
000000a0: e2a8 4e3d dfc9 033d c220 d2be 5830 473d
000000b0: 9271 7d3e cc3e 6dbe 4b76 b43e f255 503c
000000c0: 9747 8b3e a094 8c3d ddf5 cebd b23a 74be
000000d0: 3f64 0fbe 172c 50be bb89 9cbc d98c 93bd
000000e0: f56d 2bbe f886 85be 0595 103e 005d c7be
000000f0: 49af f1be eac2 80be 48ec 14be a9f8 9e3e
00000100: 753a 1dbe bdce ccbe fcc1 c6be 112f eebe
00000110: c346 92be 281c 4f3e 21c3 823c 4075 303b
00000120: ab84 513d 8574 1a3e d11a c53e aadf 21be
00000130: ef8e 873d d66f fbbe 0ded da3d 3622 513e
00000140: 98c1 fd3e c11d d9be 3287 aabe 4fa1 6d3e
00000150: 5c83 e3be 3cfe 9abc 0d9d 863e 4baa 8c3e
00000160: 618b 4a3d f597 5e3d c73f 36be 75ff 913e
00000170: 9dee da3e d874 82bd 8607 223e 6102 ac3e
00000180: cd25 f13e 6d5e a7be aea1 91be 78e5 5a3d
0.3595375 0.027925942 -0.45084542 -0.35507515 0.02544451 -0.34257898 0.11524482 -0.07536588
0.15905257 -0.39315757 -0.09615723 0.06478843 0.33056828 0.049756873 -0.2392605 -0.45604157
0.3477547 -0.4315776 -0.059544392 -0.38545272 -0.3698572 -0.16113327 -0.040262107 -0.4045614
-0.15793513 0.39658493 -0.27263987 -0.22851907 0.14786036 -0.3132035 -0.18591046 0.047493044
-0.44674447 0.23296589 0.14807966 0.24464335 -0.45559117 -0.22357187 0.37054932 0.03182201
0.050454028 0.03217494 -0.41040617 0.04863009 0.24750355 -0.23168486 0.352465 0.012715803
0.27203056 0.068642855 -0.101054884 -0.23850515 -0.14003085 -0.20329319 -0.019108644 -0.07204599
-0.16741164 -0.26079535 0.14119346 -0.3893814 -0.47204044 -0.25148708 -0.14543259 0.31049088
-0.15354331 -0.4000148 -0.38819873 -0.46520284 -0.28569612 0.20225585 0.015962185 0.0026925355
0.051151913 0.15083511 0.38497022 -0.15807977 0.06619059 -0.49108762 0.10689745 0.20423207
0.49561763 -0.42405513 -0.3330627 0.23206066 -0.44436157 -0.018920057 0.26291695 0.27473673
0.04944933 0.054344136 -0.17797767 0.2851521 0.42760172 -0.063699424 0.15823182 0.33595565
0.47099152 -0.3268923 -0.28443664 0.053441495

hidden.weight f4 [100, 100]
00000000: 0dda 103d 5fd8 49bd 0ee1 50bd 4b11 3fbd
00000010: 0f43 123d 13dd 5b3b 6338 f73d c31e 11bd
00000020: 343b 4cbc 7ae5 6fbd a55a bb3c c146 a1bd
00000030: b307 1bbb 9816 e13d 4580 833d 9b32 45bc
00000040: fb40 aebb d222 483c ac71 45bd 28b9 39bd
00000050: fd8f 6bbd 5fa3 a7bd 966f 96bd 62f3 8dbd
00000060: 84a4 5abd 73cc f03c d28b b03d b899 5e3d
00000070: d8f3 57bd a195 963d 87c0 8a3d c307 4bbc
00000080: c83f 5dbd 757f f23d 9978 763c cda9 98bc
00000090: 7cd6 b2bd f76a 0b3d 13ea 883d 0cb3 b03d
000000a0: c9b1 5f3d 7b04 fb3c d113 9f3d 9a81 043b
000000b0: bbe8 b3bd 9ace 74bd f926 1c3d 29a0 d7bd
000000c0: 7f20 bfbc 52e4 b23d 9706 e43d a8a1 963d
000000d0: 640e c0bd c497 b0bd 5c56 b0bd c231 d33d
000000e0: 4ddc bbbd 5045 17bc 1e66 5fbd 8ec5 373c
000000f0: fa1e 4c3d 9d09 b13d 0d3e fe3c c466 e93c
00000100: 2480 a93d 77e2 ae3d d149 26bd bb34 7f3d
00000110: 89f8 743d 5891 af3c 2218 79bd e6b2 a1bd
00000120: 41ee 7abc 13fc 99bd 8469 073d b332 d4bd
00000130: bf75 d8bd 1f72 28bc c952 0abd b04d d93d
00000140: aee2 1d3d 357f 9ebd a03a 033d 6d0f c03d
00000150: 513e d8bd f588 163d 6414 323c 58e4 37bd
00000160: 90f7 89bd 2b5f 47bd d0ae 5cbc d977 e03d
00000170: 34fd 0a3d 130b 573c 1f8e 733c 2202 293c
00000180: 30bf 703d f781 403d 58de d13c 9106 3f3d
00000190: f85c 57bd 24cc 04bd 84ec 273d 95eb 49bc
000001a0: 16b2 5d3d af2a 7a3d 8d2d 183d 7215 0ebe
000001b0: 567d 893d 95a2 933d 6935 b53d d43e 05ba
000001c0: 6ca6 cdbd 0284 723b b839 443d 732d c13c
000001d0: d198 f23d 8008 103d a61d 62bd 2c00 3f3c
000001e0: e58f 77bd e25c 913d bab1 623d 3578 bcbd
000001f0: b661 89bc a046 ba3d 0ca6 bc3c cbd6 1ebd
00000200: 7da5 07bd 9c73 183c 87aa 153d beec 743c
00000210: 9c28 bd3b ed28 a4bc f85d 2f3d ae18 1c3d
00000220: f2aa bfbc 3687 dabd 1810 fcbc 932c 58bc
00000230: 58dd 793d 4126 3bbc e703 9d3d 9eb5 fbbc
00000240: 5fa4 8c3d 9387 a2bd 3d1f 8f3d 291d 613b
00000250: 4b0e 0f3d 0b94 26bd 433b 413d ee27 c03d
00000260: 95b6 df3c b089 c23d 7119 b83d 2079 363d
00000270: 14f7 693d 5b8a 9ebd 1995 cebd ebfc 70bc
00000280: b7c0 8fbc 8765 e8bc 370e b7bb acdd 60bc
00000290: d2e2 c7bd 676b f93c b9d1 8bbd 549b 7cbd
000002a0: bfd2 d03b 3074 003d fcf8 943d e408 be3c
000002b0: a181 253d eb12 0f3d fb7b 4ebc 11b4 df3d
000002c0: 60f7 1bbc 9b1a 0d3d 0ce2 643d 68f2 9cbd
000002d0: 6dad 54bd d5a7 fbbc 98cc 80ba 7772 723c
000002e0: 7e84 bc3b 6164 bb3d 52f1 f5bb b0d9 06bd
000002f0: c3db 973d 731c 203d 2138 10bd 4099 82bd
00000300: c774 abbc accd c2bd c8ef a43d 067d 8f3d
00000310: dac6 253b fa81 22bd 2c38 273d f17d 693d
00000320: eeac b9bd cdeb 0ebb 7f5f 6ebd 73b8 16bc
00000330: ede1 543d e7f0 0abd c0ca c93d 7eba 0c3e
00000340: 0e34 c3bd 6d7a ccbc 1dfe a7bd f9da dcbc
00000350: 26fb df3b e758 51bd 0a89 a23b 412e 913b
00000360: 3a9c 543d 6674 5abc 2692 073d 31ff d53c
00000370: c6fa 4f3d 45cf 6dbd 307e 41bd b89c 69b9
00000380: c195 5abd f0ac 4d3d c080 573d 15d1 4abd
00000390: 550f 90bd 59a0 003c 729b 133c b695 4fbd
000003a0: 8e78 79bd 6685 733d 03a2 aaba be6a 2bbd
000003b0: 0ad8 7cbd bf5d 50bc c7b7 a53d 80e1 80bd
000003c0: df3c a83c 822b 863c e06f 72bc 1e4e 05bc
000003d0: 4f05 09bc c70c f33c f1e5 86bd 27b7 fabc
000003e0: d90c 023e 0884 de3b 6c7a 203d 9b56 d1bd
000003f0: af1d a03d 99d0 e83c 0646 953d b005 ee3c
0.0353642 -0.049278613 -0.05099588 -0.04664735 0.035708483 0.0033548519 0.12071302 -0.035429727
-0.012465287 -0.058568455 0.022870371 -0.07874823 -0.0023655712 0.109906375 0.0642095 -0.012035991
-0.005317805 0.012215333 -0.04820411 -0.045342594 -0.057510365 -0.081854574 -0.07345502 -0.06931187
-0.05337955 0.029394364 0.086204186 0.054345816 -0.052722782 0.07352758 0.06775003 -0.012391987
-0.054015905 0.11840717 0.015043401 -0.018635655 -0.08732316 0.034037556 0.06685271 0.086279005
0.05461291 0.030641785 0.077674516 0.002021885 -0.08784624 -0.059767343 0.038123105 -0.10528595
-0.023330925 0.08734955 0.111340694 0.07355052 -0.09377745 -0.08622697 -0.08610222 0.10312225
-0.091728784 -0.009232834 -0.054540746 0.011216534 0.04983423 0.08644412 0.031035447 0.028491385
0.08276394 0.085392885 -0.04059774 0.062306147 0.059807334 0.02143161 -0.06081403 -0.0789545
-0.015315593 -0.075187825 0.033059612 -0.103612326 -0.10569333 -0.010281115 -0.033770356 0.10610521
0.038546257 -0.077391066 0.03203833 0.09377942 -0.10558761 0.036751706 0.010869119 -0.0448955
-0.06736672 -0.048674744 -0.013469413 0.10960359 0.03393288 0.013125199 0.014865427 0.01031545
0.05877608 0.046998944 0.025618717 0.04663712 -0.052578896 -0.032421246 0.040997043 -0.012324234
0.054124914 0.061075862 0.037152816 -0.13875368 0.06713359 0.072087444 0.08848078 -0.00050829095
-0.10041508 0.0037004952 0.047906607 0.023581242 0.11845554 0.035164356 -0.055204056 0.011657756
-0.060439963 0.07097794 0.055345275 -0.09202615 -0.016770225 0.09095502 0.023028396 -0.03877906
-0.033116806 0.009304907 0.03653958 0.014949022 0.0057726633 -0.020039046 0.042814225 0.038109474
-0.023396943 -0.10670321 -0.030769393 -0.013194221 0.061002105 -0.011422695 0.0766676 -0.03072625
0.06867289 -0.07936015 0.0698838 0.0034349656 0.03492574 -0.04066853 0.047175657 0.09382616
0.027308742 0.09498918 0.089892276 0.044549108 0.057120398 -0.07741233 -0.10087032 -0.014708738
-0.017547948 -0.028368725 -0.0055864113 -0.013724726 -0.097600594 0.030446721 -0.06827111 -0.06167157
0.006372779 0.031360805 0.072740525 0.023197599 0.040406827 0.03493015 -0.012602801 0.10923017
-0.009519428 0.0344492 0.055879638 -0.07663423 -0.051923204 -0.030719677 -0.0009826599 0.014797798
0.005753099 0.09150005 -0.0075055743 -0.032922447 0.07414963 0.03908963 -0.03520978 -0.06376886
-0.020929707 -0.09511885 0.08053547 0.07006268 0.0025295527 -0.039674737 0.040825054 0.057004873
-0.09066187 -0.0021808029 -0.05819654 -0.00919925 0.051973272 -0.03392115 0.098531246 0.13743016
-0.09531413 -0.02496072 -0.08202765 -0.026959883 0.006835359 -0.051110175 0.004960184 0.0044305627
0.0519068 -0.013333416 0.033098362 0.026122661 0.050776266 -0.058058996 -0.047239482 -0.00022278994
-0.053365473 0.050213754 0.05261302 -0.049515802 -0.07034174 0.00785073 0.009009229 -0.050679885
-0.060905986 0.05945339 -0.0013018254 -0.041849844 -0.06172947 -0.012717663 0.08091693 -0.06293011
0.020536838 0.016378168 -0.014797181 -0.0081363 -0.008363082 0.029669179 -0.065868266 -0.030604912
0.12700213 0.0067906417 0.03917925 -0.10221597 0.07818162 0.02841978 0.072887465 0.029055446

hidden.bias f4 [100]
00000000: dcaa be3d 333f 35bd 598a 2ebd 12f7 d53c
00000010: d1d9 6fbd abec c637 3552 e73c 0a25 a03d
00000020: 2723 3bbd 91dd a9bb 0053 963d 83c6 a23d
00000030: 789a ad3c ff28 953d 2ec7 97bd 0ff2 85bc
00000040: b9fd 68bc 5ef5 6abd 54a4 6439 b544 85bc
00000050: 79b8 a83d 5ff3 3b3d c84a 02bc 254b 6cbd
00000060: 028d 083d eb55 a23d 3190 323d 2db4 8abd
00000070: 2ae3 913d 4bf5 163d f206 bb3c 0543 263b
00000080: 49f4 193d b924 d2bc 6748 d43d 1635 1e3d
00000090: d911 a33d 041e ca3d 5ca7 0f3c 19ca 9cbd
000000a0: 9d32 c5bb 3fa8 9fbd 75b0 09bc 3167 3abd
000000b0: b553 4c3d ec4b a7bd 706b 683d 26eb 983d
000000c0: 8f0d ccbb 2d53 31bd 254e c03d a447 a23d
000000d0: b67b f13c f4a0 c2bc 608a c7bc fee6 37bd
000000e0: 2d3e 2abd 1dbd 75ba bbb1 75bd 37af 803d
000000f0: f3bd 8f3c bbfe 9fbd ab50 c03d b351 ca3d
00000100: 4138 b8bc 75ec a7bc 8d15 0dbd 6214 c83c
00000110: 4ebd 303d 686e dabb 9fd1 02bd cc95 8fbd
00000120: 4a86 2ebd 2152 d23c e0af 973d 7fdb 8cbc
00000130: 307b a73d ec8b 153d 48ff 58bd 1438 bcbd
00000140: 301c f0bb 19d5 d13d b2e1 0abd 5360 7cbd
00000150: 199c 7abd 453b 88bd deea babd 0f48 17bc
00000160: 0388 c13d 67b0 063c f5bf b43d 7c8c e13b
00000170: 0493 c03d 5eb1 b83d ed03 0f3d 5f19 9abd
00000180: c040 b23d cee2 acbd fad5 b3bd b382 973c
0.093099326 -0.044249725 -0.042612407 0.026118789 -0.058557335 2.3713646e-05 0.028237442 0.07819565
-0.04568782 -0.0051838835 0.0734005 0.07948019 0.02119182 0.0728321 -0.074110374 -0.016350774
-0.014220648 -0.057362907 0.00021804991 -0.016268114 0.0823831 0.045886394 -0.0079524 -0.05768885
0.0333376 0.07926544 0.043594543 -0.06772647 0.07123406 0.036855023 0.02283046 0.0025369537
0.037586484 -0.025652276 0.10365372 0.038624845 0.079623885 0.09869006 0.008767929 -0.076557346
-0.0060179965 -0.07795762 -0.008403887 -0.045508567 0.049884517 -0.08168778 0.056743085 0.07466726
-0.0062272022 -0.043292213 0.09389905 0.079238206 0.029477935 -0.023758389 -0.024357975 -0.044898026
-0.0415632 -0.00093741884 -0.05998395 0.062834196 0.01754663 -0.07812258 0.09390386 0.09878864
-0.022487761 -0.020498494 -0.03444438 0.024423782 0.043149285 -0.0066659935 -0.03193819 -0.07010993
-0.042608537 0.025673928 0.07406592 -0.017194508 0.08177793 0.036510393 -0.05297783 -0.091903836
-0.007327579 0.10245723 -0.033906646 -0.0616153 -0.061184023 -0.0665193 -0.091268286 -0.009233489
0.0944977 0.0082207685 0.088256754 0.006883202 0.09403041 0.09018205 0.034915853 -0.075243704
0.08703756 -0.08441697 -0.08781047 0.01849494

output.weight f4 [1, 100]
00000000: adf2 6a3d 6fdf 1abd d2e9 f13d 3ff2 7f3d
00000010: 98db 90bd b22f a63c 02dc 943d c7ee 67bd
00000020: f653 aebd f411 303d 70c2 ffbd 0a77 09be
00000030: ae8a 93bd ba43 083e 03cb 633d 1bb6 203d
00000040: c622 9cbd e220 803d 2d2b 9f3d 5104 9bbd
00000050: b943 cb3d 4111 b0bd 307d 63bd d1f8 09be
00000060: e584 c43d 4c00 35bd 4954 e93d f8b6 ebbd
00000070: beb3 a03d 7076 1a3e 4a00 093e 49cf cebd
00000080: 288f d2bd 5d28 88bd de19 cc3d 43d3 9dbd
00000090: 5bd3 2dbd 7278 dbbd 77c9 e5bd 3bb7 283e
000000a0: a358 d0bd 3c9e 0c3e 5464 593d bc75 5c3d
000000b0: 8fce 933d 18d3 f83d 3bda f63d 0291 ef3d
000000c0: 5016 20be 2084 c1bd 9a44 89bd afc2 de3d
000000d0: b113 8e3d b5c7 dc3d 2c31 833d df18 8bbd
000000e0: ba3d a43d 2666 693d 000c 683d 0b52 103e
000000f0: 47b3 3b3d b394 e3bd e0a8 bcbd 6651 2e3d
00000100: 3327 803d d049 ea3d ca5c bd3d e239 0bbe
00000110: 83db 7c3d 3f9a 8abd 617d fbbd e163 473d
00000120: ccff a33d 7cee 84bd 268f dc3d 9969 31bd
00000130: 9986 c9bd 1188 dabd 41a1 9bbd 00af 18bd
00000140: 2e14 643d d18c 62bd 3f3e a43d 73f1 0a3e
00000150: 1170 18be 6257 8e3d 3c75 f4bd fb70 873d
00000160: d950 ebbd 9bb5 c5bd 42bd 6dbc 9572 dabd
00000170: 75fb 98bd e98f 9c3d b317 7d3d 5d4e 913d
00000180: 3a62 403d bc32 76bd d879 ad3d 7000 b7bc
0.05736034 -0.03781074 0.11812176 0.062486883 -0.07073134 0.020286415 0.07268526 -0.0566242
-0.08512108 0.04298587 -0.12488258 -0.13424316 -0.072041854 0.13307086 0.05561353 0.03923617
-0.0762382 0.06256272 0.07771907 -0.07569183 0.099250264 -0.08597041 -0.05553931 -0.13473822
0.0959566 -0.044189736 0.11393029 -0.11509508 0.07846783 0.15084243 0.13379017 -0.1009813
-0.10281211 -0.06648324 0.09965871 -0.077063106 -0.042437892 -0.107163325 -0.11220067 0.16476147
-0.10173156 0.13732237 0.053074196 0.053823218 0.07217132 0.12149638 0.12053343 0.1169758
-0.15633512 -0.09449029 -0.06702538 0.10876977 0.069373496 0.107802786 0.06405863 -0.06791853
0.08019586 0.056982182 0.05665207 0.14093797 0.04582527 -0.111123465 -0.09211898 0.042558096
0.06257477 0.1143986 0.09246214 -0.135963 0.06173278 -0.06767701 -0.122797735 0.048679236
0.08007774 -0.064908 0.10769491 -0.043313596 -0.098401256 -0.10670484 -0.07599116 -0.037276268
0.055683307 -0.055310074 0.08019685 0.13568668 -0.148865 0.06950261 -0.11936423 0.06613346
-0.1149003 -0.09653779 -0.014510455 -0.10666386 -0.074698366 0.07644636 0.06179018 0.07095025
0.046968676 -0.060106978 0.084705055 -0.022339076
