data/model/sl_training_noisy/11/16.pth (torch, 44823 bytes, 5 tensors)

linear.weight f4 [100, 4]
00000000: cb69 b33d b5af e3be 57e8 febd 99f5 473d
00000010: 8887 d13e 07b7 d1bc 621f 23be ce12 013f
00000020: 1238 a2be 4413 67bc cf8c c13e 5ad5 513c
00000030: 9ed3 69be c19c 5d3e d283 b53e 3b9e 073f
00000040: 7070 a43e a81e e83e 10fb 373e ec0e abbe
00000050: 61fc cabe aa35 8c3e 6560 5a3c abd2 d4be
00000060: 8908 803d 5872 84be 7622 233e 3942 f83e
00000070: ba2c 35be 7228 9d3e cea7 ed3e ce90 643e
00000080: 0928 483e 19a3 66be 0d5e edbe c7a6 71be
00000090: 5c94 54be 79b9 b7be cf33 95b9 412e b4be
000000a0: f80b c43e be28 b73d 9e4b b83e 4e3a ce3e
000000b0: 43dc da3e fb57 a9bd 966c d93d 70a3 273d
000000c0: c08a f33d 675d 973d 04c1 12bf a6be b13e
000000d0: f0e8 cf3e af65 f9be 3cec 9ebe 3673 06be
000000e0: 4056 17bd 01dc 9dbe 1830 70bd a754 babe
000000f0: c8e3 e93e 6c4c a8be eef9 113f b380 a4bb
00000100: 1ec3 a9bd f5f1 c4bd 9809 953e cb90 33be
00000110: 6e58 cb3e 866a 263e 4f53 d63e dc3c 1b3e
00000120: 4ce5 983d 8214 d7be 28b8 1b3e e949 b5be
00000130: 9c71 743e e13e 9ebe 8ae6 09bf 8418 203e
00000140: f031 23be 833d 28bd 8c59 d5be 0fb8 42be
00000150: 777b 42be 7672 aebd 9fb5 0d3f 0a89 673e
00000160: 4d23 c93e c4c7 abbd e937 32bd 9671 c83e
00000170: de96 22be 3a52 543e 1253 203f c473 7b3e
00000180: fc36 fbbe 5702 8ebe 922e 9fbe 045f 2f3e
00000190: 42c9 fdbe f683 9b3d 3f6d 133f bef7 f73d
000001a0: 354c bcbe 342d 16be 2ce5 813e 2130 36bd
000001b0: 02b4 96be 6015 aebe 78eb 533e 60c9 02bf
000001c0: 66d9 f8be 794d a9be 3d2b 3d3e 2f99 cabe
000001d0: c592 a2bb 8620 e3be 4a7f 013f 6a06 f63d
000001e0: fdd6 a7be 518b a8be 6771 183f 0bdf 53be
000001f0: 3f6f b8be 57c9 ecbd 90aa 17bf bafe ab3d
00000200: 4054 8a3d b367 69be bf0f 803e cde4 fe3e
00000210: 0f4b 943e 723d 3ebe 583a 073e 247d b3be
00000220: d229 2cbe a91a 82bc 728e 073d 8d8e 953e
00000230: 8758 91be 00c6 853e c801 f9be 9aa4 86be
00000240: 4bba f7bd 8539 d5bd 5a05 0fbe 2cf0 efbd
00000250: cd64 823e b985 363e 848d 8c3d 59aa cbbe
00000260: 4237 de3c 38bf 96be a27c e7be a114 94be
00000270: 7f51 7e3c 928c c23e ed3c c03d 8f03 b93d
00000280: 7f6e 66be 0c16 56be 557e 093e f2b0 1c3d
00000290: 22a9 abbe 067a 673e 1761 81bd 42fd e63e
000002a0: afbd dabd 7ce3 efbd 7c5f d2be a36a 98be
000002b0: 8c4f 853e b990 a83e 055b 3e3e 4954 873d
000002c0: 0f5e c1bd a44b 853e edb3 68be 8139 bf3e
000002d0: e1b5 df3e 3e5e d03e 3c46 3b3e bfb4 c1be
000002e0: 4819 abbe 2207 bcbd 1ed4 e23e 9fb3 d53e
000002f0: 0ae9 a43e 4363 8cbe e180 bebe eefb d23e
00000300: d00c ae3e 49d9 893e 1f95 e7be 1e07 ed3e
00000310: b552 d43d 5bb0 e5be 6c8a 073e 5291 e4bd
00000320: b163 81be 9c0f c33e 39c8 bf3e fc5c edbe
00000330: 311e 423e f445 cebe 8e21 4d3d 27e8 abbe
00000340: 610f af3d 5d04 003e 18a4 a63e 588f 8abe
00000350: 2d6a e6be 52e6 f23e a421 a9bd fedf 5c3e
00000360: 2fd1 f0be b0bf 7abe 92ef cfbe c19c 263d
00000370: a890 44be e019 8c3d f14b e7be 2c33 14be
00000380: ed16 bfbe 95fb bfbe fe3e cb3d b720 e43e
00000390: 431d 8cbe 3370 643d 5acf 003f de29 e9be
000003a0: da32 f83d 2872 103d 4de6 d2be 3a38 a1bd
000003b0: 2953 b63e e6d4 853e 467a d0be 745f a63e
000003c0: 1a11 c13d 62fe 90be 326a b9be 0376 4e3d
000003d0: c56d 00bf 0526 1e3e 82e3 e23e c365 6b3c
000003e0: cace 3bbe e0ea 573e 619f fabe 24aa cdbe
000003f0: 04cf de3e 5666 eebe 0dfa ebbe f4db a63e
0.08760413 -0.4446999 -0.12446659 0.048818205 0.40923715 -0.02559997 -0.1592994 0.5041932
-0.31683403 -0.014103714 0.3780274 0.012807215 -0.22834632 0.21641828 0.35452133 0.52975816
0.32117033 0.4533589 0.17966866 -0.33409822 -0.39645675 0.27384692 0.013328646 -0.41566977
0.06251628 -0.25868487 0.15931115 0.48488024 -0.17692843 0.3069492 0.46417087 0.22320864
0.19546522 -0.22523154 -0.46360818 -0.23598777 -0.2075972 -0.35883692 -0.00028458095 -0.3519154
0.3829038 0.08943318 0.3599519 0.40278858 0.4274617 -0.08268734 0.10616414 0.04092735
0.11891699 0.07390862 -0.5732577 0.34715766 0.40607405 -0.4871039 -0.31039608 -0.13129887
-0.03694749 -0.30831912 -0.058639616 -0.3639271 0.45681596 -0.32870805 0.5702199 -0.005020225
-0.08289169 -0.09616462 0.29108882 -0.17535703 0.39715904 0.16251573 0.41860434 0.15159935
0.0746561 -0.42007834 0.15206969 -0.3540795 0.23871464 -0.30907348 -0.538674 0.15634352
-0.15937018 -0.041074287 -0.4166988 -0.19015525 -0.1899241 -0.085179254 0.55355257 0.2261087
0.39284745 -0.08387712 -0.04351035 0.3914916 -0.15877864 0.20734492 0.62626755 0.2455588
-0.49065387 -0.2773616 -0.31090218 0.1712609 -0.4956761 0.07593529 0.5758857 0.121078
-0.3677689 -0.14665681 0.25370157 -0.044479493 -0.2943421 -0.34000683 0.20695293 -0.51088524
-0.48603362 -0.3306692 0.18473525 -0.39569995 -0.004961344 -0.4436075 0.5058485 0.12012942
-0.3278121 -0.3291879 0.5954804 -0.20690553 -0.36022374 -0.1156184 -0.5924463 0.083981946
0.06754351 -0.22793464 0.25012013 0.49783936 0.28963515 -0.18578127 0.1320585 -0.35056412
-0.16812828 -0.015881853 0.03309483 0.2921032 -0.28387854 0.26127625 -0.4863417 -0.26297456
-0.120960794 -0.104113616 -0.13966885 -0.11715731 0.2546753 0.17824449 0.068629295 -0.39778402
0.027125958 -0.29442763 -0.45212275 -0.2892199 0.01552236 0.37997872 0.09386621 0.09033882
-0.22503088 -0.20906848 0.13427098 0.038254686 -0.33527476 0.22605142 -0.063173465 0.45115095
-0.106807105 -0.11713311 -0.41088474 -0.29768857 0.26037252 0.32922915 0.18589409 0.06607873
-0.094417684 0.26034272 -0.22724886 0.3734856 0.4369345 0.406969 0.18288511 -0.3783321
-0.33417726 -0.09181048 0.44302458 0.41738603 0.32209045 -0.2741948 -0.37207702 0.41207832
0.3399415 0.26923588 -0.45230958 0.46294492 0.103673376 -0.4486111 0.13236398 -0.1116053
-0.2527137 0.38097847 0.37457445 -0.46360004 0.1895683 -0.40287745 0.05008083 -0.33575556
0.08547855 0.12501664 0.3254707 -0.27062488 -0.4500288 0.47441345 -0.082583696 0.21569821
-0.47034594 -0.24487185 -0.40612465 0.040676836 -0.19195807 0.06840873 -0.45175126 -0.14472646
-0.37322178 -0.3749663 0.09924124 0.4455621 -0.27366075 0.055771064 0.50316393 -0.45539755
0.12119074 0.035265118 -0.4119133 -0.078720525 0.3561032 0.2613899 -0.40718287 0.324947
0.0942709 -0.2831908 -0.36213833 0.050405513 -0.50167495 0.15444191 0.443142 0.014367524
-0.18340603 0.21085691 -0.4894972 -0.4016887 0.43517315 -0.4656245 -0.4608921 0.32589686

linear.bias f4 [100]
00000000: 468b 193e de52 583e 2b64 4a3e 9d10 89be
00000010: a5c2 993e 21ba 11be 6ecf ccbe 4ed4 d6bd
00000020: 071a b53e f7d8 8dbe dc32 7a3c 699a 15be
00000030: 936d dd3e ff1c 793e b297 e2be b421 a2be
00000040: 048e 3abe 9046 d8be 8295 f7be 5bf4 103e
00000050: 56a7 ef3e 46c6 293e 4f8b c53e 98d8 02be
00000060: 8762 f53e 2ad9 a33e 2788 f33e 8d41 a9be
00000070: e658 0a3e eba6 66bd 6bb3 04be 3e2f cc3e
00000080: fd4c d7be 73e4 d53e 4ff3 8cbe 3c57 e83e
00000090: f812 533e ae6c 6dbe 1013 d5be f4f0 f2be
000000a0: 2f5d 93be 6b5e 0abe dbab 18be e47c 0d3d
000000b0: 7131 083e 018f 09be 430c 203e 9a56 d63e
000000c0: b1c8 863e 7d4f 33be ece3 18be f2f9 c43e
000000d0: 546d d6be 1fff d6be f19a 7d3d c66a 233d
000000e0: f9bd 023d 1c43 96be 1e90 813e f349 123e
000000f0: 5d8c 02be 8b11 dcbe 64ee 983e 51b4 61be
00000100: 3460 1d3e 004f 623e 4987 8b3e 8404 6a3e
00000110: 0ba7 333e df8b 99be e5c3 b0be 19f8 f43e
00000120: a3f8 8bbe 74aa 113d daa4 fb3e b008 90be
00000130: 3698 62bc b70c 223e 5077 b23e e7dc 8dbe
00000140: d8d9 82be 9129 b13d 7b1e 56be c62a 7fbe
00000150: 235a d43e 2518 943d 57eb fb3d cf37 bebd
00000160: c8b7 893e 3660 2d3e 38b1 ebbe 062e afbd
00000170: 49a9 f63e ac2d bfbd c150 83be b049 64be
00000180: 7920 d83d 7940 e03e a0c0 823e e7f9 cdbc
0.14994535 0.21125361 0.19764774 -0.26770487 0.30031314 -0.14231159 -0.40002006 -0.10489713
0.3537142 -0.27704594 0.015270915 -0.14609684 0.4324766 0.24327467 -0.4425636 -0.31666338
-0.18218237 -0.42241335 -0.48356253 0.14155714 0.46807355 0.16579542 0.38582847 -0.12777936
0.47926733 0.3200162 0.47564813 -0.33057824 0.13510475 -0.05631153 -0.12959068 0.39879793
-0.42050925 0.41775855 -0.2752938 0.45379055 0.20612705 -0.2318599 -0.41616106 -0.47449458
-0.2878203 -0.1351258 -0.14909308 0.034542933 0.1330011 -0.13433458 0.15629677 0.41862947
0.2632499 -0.17510791 -0.14930695 0.38471943 -0.41880286 -0.41991517 0.06191534 0.03989675
0.031919453 -0.29348075 0.25305265 0.14286022 -0.12748857 -0.42982134 0.29869378 -0.22041442
0.1536873 0.22100449 0.27251652 0.22853285 0.1754419 -0.29989526 -0.34524456 0.47845533
-0.27338132 0.035562947 0.4914921 -0.28131628 -0.013830235 0.15825163 0.34856653 -0.27707598
-0.25556827 0.08650506 -0.20910065 -0.2491866 0.4147502 0.07231168 0.12300747 -0.092879884
0.26898026 0.16931233 -0.46033645 -0.085537 0.4817603 -0.09334883 -0.25647548 -0.22293735
0.10553069 0.4379919 0.25537586 -0.025143577

hidden.weight f4 [100, 100]
00000000: fe24 3c3d 611a 1f3d 1c99 543d bb52 4abd
00000010: 1506 713d 8572 23bc 1e9a a6bc 4a93 0bbe
00000020: 0ecc 743b 1f93 b73d f8f3 13be 331f 723c
00000030: 639d 083e 7f7b bc3d 0bc4 8abd 4146 43bc
00000040: 3b2c 333d a77f f43b c19b 873d d8c3 9ebc
00000050: 5568 eebc a06b a1bd 56ad 40bd ef84 99bd
00000060: 01b1 dd3d 9043 7e3a d734 993d 8d79 2a3d
00000070: 9251 b6bd 26b4 a5bd 2d46 84bd 4467 d6bc
00000080: 2183 e0bd 4b6e b5bd d038 e0bc c36e d33d
00000090: dac4 ae3c f826 7dbd 1ba4 ddbc 6483 a03c
000000a0: a463 493c 31ed 1abd 92e9 0e3e de23 3ebd
000000b0: 8e9e f23d 6f16 363d dab6 80bd cfc9 bf3d
000000c0: 7239 04bd 3c6c 513d aa46 ae3b d2ae 84bd
000000d0: 9967 febd 0bb9 6ebd 0030 f63c 77fb 3e3e
000000e0: af94 4f3d 352f a23d 3065 4f3d 524d 82bd
000000f0: 64e3 dd3d c521 99bd dd25 f73d 8bc8 803d
00000100: da84 153d aa63 89bc 0998 7ebc 3285 b3bd
00000110: 0c36 b33c 8cbc 74bd f44d b9bd 8342 8fbd
00000120: 1ff6 ca3c e761 493d 2ab6 b73d c5cc 843d
00000130: f7ae b3bd a05f f03c b089 263d a311 863a
00000140: 2900 5a3d ca93 73ba eebf 80bc 74d3 95ba
00000150: ed28 c63d 1b6c 0e3c b2f1 203c ac1c ec3a
00000160: 54ff c5bd 7896 27bd 7bb8 cd3c 10b8 f33d
00000170: 92a7 a6bc 7e4e 1dbd bae8 b13b 2a95 febc
00000180: a950 583d c677 9e3b 8f95 2dbd 2125 8f3d
00000190: 697a 123d 381d ae3d c511 a1bd 6bf8 18be
000001a0: 9d9e ccbd c979 943c 89ab 46bd 5dfc c2bd
000001b0: 4239 b33d 4c1a 843d a2fe f5bd c1f3 80bd
000001c0: 1682 3d3d 4817 e33c c763 2d3d 3d56 b33c
000001d0: d32d 1c3d b7c8 03be 621e 4c3d 3742 54bd
000001e0: 70f2 913d 26a5 6e3c 8d4e 833d 2923 cabd
000001f0: 10d3 fe3b 58a9 a3bc 20cf d7bc 3906 44bb
00000200: 8839 a5bd 88a4 06be a8e2 d2bd 31c1 8b3d
00000210: 8880 5dbc a713 acbc b731 acbc d1f1 7a3d
00000220: 60fc 9a3d 3101 763d 99c5 9a3d 89fb 44bc
00000230: 70a7 debd 4b8a 86bd 2341 153e ffe1 e3bc
00000240: d127 93bc 3b36 29bd b763 4b3d d8a0 113d
00000250: 9bd2 843d 14e6 d53c 61c7 71bd 3adb d33c
00000260: ae02 3c3d 18b7 993c 1caf 48bd 1993 0f3e
00000270: bfd6 86bd 9cbd 853d ddf8 cabb 41c7 aabd
00000280: 6e42 1cbd e439 8c3d 8472 533d e970 62bc
00000290: d043 28bd eb98 923d ffaa da3d 9b5e 67bb
000002a0: 66b1 6d3c 3b3c 78bd 61c8 4b3d 2853 413d
000002b0: 3a6a f5bc 97f6 cfbd c5f0 1dbd c6d7 beba
000002c0: 22a9 d43c ca9b 053d a085 393d b7d4 653d
000002d0: e16b 40bc 8428 cf3d 8646 72bc 730c 43bd
000002e0: 7c82 4d3d eb77 b0bc 7fca 07bc 8767 1c3d
000002f0: a652 ee3c 200c b9bc bd8a 20bd 6881 f1bc
00000300: ed05 b4bd c981 8f3d 511f f43d d15e 373c
00000310: c7e8 95bc 10a9 273d 3080 523d 9dcb 7d3d
00000320: ba8f f7bc 396c 393b c363 693d 2c2f ea3c
00000330: a1bc d3bc 6516 033d 43c3 4ebd 7a94 153e
00000340: ff60 083d 3d95 e8bd 3304 a4bc ed8b 113d
00000350: bf03 073d 754f 66bd aef4 9a3d c780 0ebd
00000360: e0cb d13d 19eb e33d d9ae cfbc fa41 5dbd
00000370: b3e5 8fbc f7ff 183e d7fd 85bb 25b4 613d
00000380: a80e 8a3d c2c7 b93d ac32 32bd 630a 34bc
00000390: 17e9 3ebd 3e1d 743d 9171 853d e60b 4c3c
000003a0: a3a1 203d f026 673d e38e 98bd f94b c9bc
000003b0: cea5 82bd 4619 a1bc 39bb 00be 54f1 433d
000003c0: cb79 afbd 5395 ea3d 7b37 55bd e934 8cba
000003d0: 9962 253d 3818 f33d 86f9 17bd 5a47 f93b
000003e0: 4ae6 d2bd 451f 93bd be90 37bb 5996 d5bd
000003f0: 44db 27bd f178 c73d ddc2 b83c eab2 71bd
0.045933716 0.038843516 0.05190383 -0.049395304 0.05884369 -0.009976034 -0.02033716 -0.13630405
0.0037353071 0.08963608 -0.14448535 0.014777946 0.13341288 0.092032425 -0.067756735 -0.011918605
0.043743353 0.0074615064 0.066215046 -0.019380495 -0.029102484 -0.07881856 -0.047040306 -0.07496058
0.108247764 0.00096993987 0.074807815 0.041619826 -0.08902277 -0.08091001 -0.064586975 -0.026172288
-0.10962511 -0.08858927 -0.02737084 0.103238605 0.0213341 -0.06180474 -0.02705579 0.019593902
0.012291823 -0.03782386 0.13956288 -0.046420924 0.11846648 0.044454988 -0.06284876 0.09364664
-0.032281347 0.05112861 0.0053184824 -0.06478657 -0.124221034 -0.05828194 0.030052185 0.18650614
0.050678905 0.0791916 0.05063361 -0.06362404 0.10834387 -0.07477144 0.12067769 0.062882505
0.03650365 -0.016771156 -0.015539178 -0.08765639 0.021876357 -0.059750125 -0.090480715 -0.06995108
0.024775563 0.049165633 0.08970292 0.06484369 -0.08773606 0.029342473 0.040658653 0.0010228645
0.05322281 -0.00092917366 -0.01571652 -0.0011430816 0.09675775 0.008692767 0.00982325 0.0018013916
-0.096678406 -0.040914983 0.025112381 0.119003415 -0.020343576 -0.038404934 0.0054293545 -0.031076986
0.0528113 0.0048360555 -0.04237896 0.06989504 0.03576127 0.08501667 -0.078647174 -0.14938514
-0.099911906 0.018124478 -0.048503432 -0.09520791 0.087511554 0.06450328 -0.12011458 -0.06296492
0.046266638 0.027721062 0.042331483 0.021891708 0.03812964 -0.12869535 0.049833663 -0.05182096
0.071263194 0.014565742 0.06411467 -0.098699875 0.0077766255 -0.01997821 -0.026343882 -0.0029910936
-0.08067614 -0.13148701 -0.102971375 0.06823958 -0.013519414 -0.021005465 -0.0210198 0.06126577
0.07567668 0.06005973 0.0755722 -0.012022861 -0.1087178 -0.06569346 0.14575629 -0.027817724
-0.017963322 -0.041311484 0.049655642 0.035553783 0.06485482 0.026110686 -0.059028033 0.025861371
0.045900993 0.018764064 -0.048995122 0.14020957 -0.06583928 0.06530306 -0.0061942176 -0.08338786
-0.03814929 0.06846979 0.051622882 -0.013820865 -0.041080296 0.07158073 0.10677146 -0.0035304192
0.014507627 -0.060604315 0.049751643 0.047198445 -0.02995788 -0.10154455 -0.038559694 -0.0014560155
0.025959555 0.032619275 0.04529345 0.056111064 -0.01174447 0.101151496 -0.014787322 -0.047619294
0.050173268 -0.021541556 -0.008288025 0.03818467 0.029092144 -0.02258879 -0.03919481 -0.029480651
-0.08790193 0.070071764 0.11920036 0.01119204 -0.018299473 0.040932715 0.05139178 0.06196176
-0.030219901 0.0028293265 0.056979906 0.028586946 -0.025846781 0.03200378 -0.050479185 0.1460742
0.033295628 -0.1135659 -0.020021534 0.035533834 0.032962557 -0.05622812 0.075662 -0.03479078
0.10243964 0.11128826 -0.025351929 -0.054018 -0.017565584 0.14941393 -0.004089098 0.05510344
0.06741077 0.09071304 -0.043505356 -0.0109888045 -0.04660901 0.0595982 0.06515802 0.012454009
0.03921665 0.056433618 -0.074491285 -0.02457236 -0.06379281 -0.019665372 -0.1257142 0.04783757
-0.08568152 0.114542626 -0.052054863 -0.0010696921 0.040377233 0.11869854 -0.0371032 0.0076073827
-0.102978304 -0.071836986 -0.0028009857 -0.10429067 -0.040980592 0.097398646 0.022553856 -0.059008516

hidden.bias f4 [100]
00000000: 5a60 58bd f64b dfbc 23db a73d 78c6 6ebd
00000010: 43d7 a33d b10f 54bd f974 933b 297b be3d
00000020: e2d3 3ebd 2cde 8b3c b7bc 153d d38e d1bc
00000030: 668a a7bd 5e66 d03d 5b47 a33c 5122 bdbc
00000040: e7e9 c63d 96e4 503d a3cd f93c 896a a63d
00000050: 1bb7 bebc d866 163d d6de 45bd a918 bebd
00000060: 94c6 babd 3bd4 c93c 01ca b53d 5d3b 67bd
00000070: 99a6 d13a a550 eb3c f41d ffba aead 583c
00000080: fe1b b2bd 1ea7 883b d8bf 26bc bea7 b5bd
00000090: 223e 9a3d 3e74 82bd e410 f53c ebe9 813d
000000a0: d07f 5d3d 2486 0bbd ab1b 103d 5fdb 45bd
000000b0: 91bf 043d f1dd b0bd cbd1 adbd 8072 863d
000000c0: 7af8 4abd 6b60 983d 75dd 863d 474c f6bc
000000d0: dfe8 e73d 4be4 8ebd a4c3 82bc 6323 8ebd
000000e0: c2df 40bd 02d9 8f3d f804 893c 5e7c 9a3c
000000f0: 8429 c63d 2c75 9bbd 5d73 b43d 9103 5abd
00000100: ee13 c93d 493f 253d 4d46 3fbd 266e ac3d
00000110: 1740 c1bd 41af 7e3d 6ef6 9dbc 06cb 85bd
00000120: 1457 fdbc bcd7 903d af62 003c 3c05 27bc
00000130: 1f7a e13c 85a7 edbc 3d11 8fbc 5cfa 8ebd
00000140: a351 26bb 0ef9 c4bb b8e0 89bd 1f7f 4dbd
00000150: 2828 843d a724 c63d 4216 80bd d967 27bd
00000160: f015 b3bc b526 6b3d 710d 043d e23f b4bc
00000170: 86c4 1d3d 36bf 983d 84a3 34bd 3dae bd3d
00000180: 014f 94bd ef6f a83d 226b 9abc f0bd ee3c
-0.052826263 -0.0272579 0.08196094 -0.058294743 0.08000042 -0.051772777 0.004500028 0.09300835
-0.046588786 0.017073713 0.036556926 -0.0255808 -0.08180694 0.10175775 0.019931486 -0.023087652
0.09712582 0.050999247 0.030493563 0.08125789 -0.02328067 0.036719173 -0.048308216 -0.09282047
-0.09119907 0.024637332 0.0887642 -0.056453098 0.0015995085 0.028724978 -0.0019463883 0.013225002
-0.08696745 0.0041703125 -0.010177575 -0.08869885 0.07531382 -0.06369828 0.02991528 0.063434444
0.05407697 -0.034063473 0.035182636 -0.04830491 0.032409254 -0.08636082 -0.084872805 0.06564808
-0.049553372 0.07440265 0.06585208 -0.030065669 0.113237135 -0.06977137 -0.01596243 -0.06940343
-0.047088392 0.07023813 0.016726002 0.018858131 0.09675887 -0.07590708 0.08811066 -0.053226057
0.098182544 0.040343557 -0.046697903 0.08419447 -0.09436052 0.062178854 -0.019282546 -0.06532864
-0.030925311 0.07072398 0.007836028 -0.010194119 0.027524052 -0.029010544 -0.017464275 -0.06981346
-0.002537825 -0.006011135 -0.06732315 -0.05017006 0.06452972 0.0967496 -0.06254245 -0.04087052
-0.021861047 0.05740996 0.03223938 -0.022003118 0.038517497 0.074583456 -0.044101253 0.09261749
-0.07241631 0.08224475 -0.018849913 0.029143304

output.weight f4 [1, 100]
00000000: 7e39 1abe cc85 29be b2a6 1a3e 4151 1d3e
00000010: 3e88 003e 9493 883d bc06 e0bd b5b2 12be
00000020: 6ce3 523e ae63 c93d 480f 5dbe bfc7 393e
00000030: a4a0 d03d c237 f53d 3034 913d d8a0 043e
00000040: 199b ce3d 724b fabd 0614 c6bd 7ae8 b63d
00000050: 341a 2e3e 60c2 2ebe b4e4 d3bd 952c bd3d
00000060: 00bd 2a3e b7b1 aebd 7fdb 003e 44a3 133e
00000070: c678 2d3d f291 323d 437a 313e 1490 943d
00000080: 2cf7 503e aa89 22be 3e0f 743e 8a8a 243e
00000090: cdcc 1a3e 8f74 c03d 3556 263e b369 27be
000000a0: 042f 103d 2e3e ed3d 36a9 83bd e710 2fbe
000000b0: b2ec 9dbd 7e14 103e 581c 12be 13a1 0d3e
000000c0: f53b 17be 0e72 a9bd 44e9 fc3d 466b 35be
000000d0: 7f0c f7bd f150 1cbe b9b4 37be 32b5 b33d
000000e0: 4387 5e3d 8915 903d 1632 ecbd 7ab3 f83c
000000f0: 3ae4 1c3e e364 e3bd c036 48be 26a1 613d
00000100: f9e1 8f3d abc5 013e 1e2e c93d cecf 29be
00000110: fe3a 323d edb5 0d3e e630 c6bd 0e09 6c3d
00000120: 95df 16be ee01 083e b36a f43d ed53 70be
00000130: a47f 2e3e 2689 c83d 410f 36be d153 0dbe
00000140: 099f 04be b96a febd e7ec 58be d56c 4ebe
00000150: 435a 12be 0955 c13d e102 1ebe 4402 1ebe
00000160: 2f11 d13d 7f98 413d 7d43 1ebe d44c 8d3d
00000170: 300f 363e 38bf d13d cbc4 243e e016 ca3d
00000180: 4c41 853d 0e1f f0bd b121 ad3d 1df3 e43d
-0.15060994 -0.16554946 0.15102652 0.15363027 0.12551972 0.06668773 -0.109387845 -0.14325984
0.20594567 0.098334655 -0.2158786 0.18142603 0.1018689 0.119735256 0.07090032 0.12951982
0.10088176 -0.12221421 -0.09671788 0.0893106 0.17002183 -0.17066336 -0.10346356 0.09237019
0.1667366 -0.0852999 0.12583731 0.1441775 0.042351507 0.043596216 0.17331795 0.07254043
0.20406789 -0.15872827 0.2383394 0.16068473 0.15117188 0.09397232 0.16243823 -0.16348915
0.035201088 0.115841255 -0.06428759 -0.17096291 -0.07711162 0.14070317 -0.14268625 0.13830976
-0.14768966 -0.08273707 0.123491794 -0.17716703 -0.1206293 -0.15265252 -0.17940034 0.08774795
0.054328214 0.070353575 -0.11532991 0.030359019 0.15321437 -0.11103227 -0.19552135 0.055085324
0.07025523 0.1267306 0.09823249 -0.16583177 0.04351329 0.1383893 -0.096772954 0.057625823
-0.14733727 0.13281986 0.11934414 -0.23469515 0.17040879 0.09791784 -0.17779256 -0.13801505
-0.12951292 -0.124226995 -0.21184121 -0.20158704 -0.14292245 0.09440047 -0.15430786 -0.15430552
0.10208356 0.047264572 -0.15455432 0.068994194 0.17779231 0.1024155 0.16090696 0.09867644
0.06506595 -0.11724673 0.08453692 0.11179183
