data/model/sl_training_noisy/5/15.pth (torch, 44823 bytes, 5 tensors)

linear.weight f4 [100, 4]
00000000: 5963 b33e 78f7 863e bf79 c13e 81b9 b4be
00000010: 4076 d63e f895 343e fd90 79bd 3ab8 00bf
00000020: df5a 7bbe 1003 81be d49c 053e 9a32 a6be
00000030: 5c6d de3e e7b5 64be c8de 04bf c28c 44be
00000040: 40cc c0be 8566 31be cae6 933e 2c09 9a3e
00000050: 9f9d c3be ba0b fbbe 65e2 e9be 3cb8 063e
00000060: 6fb4 ffbe 98ce 4e3e 922b 90be 3576 a8be
00000070: 1018 e83e 1013 113e 5ccd 1e3f 58cc 92bb
00000080: 3860 373e b213 97bd b2e0 88be 0592 5dbe
00000090: 65d5 eebe a638 293d 646d 58be a828 00be
000000a0: 414c afbd af29 de3e fa62 dabe b58e 73be
000000b0: 81ab 843e 0f56 cb3e a656 c1be baf6 9ebe
000000c0: 7c91 cf3e efcc 97be b55b e4be 48d4 fdbd
000000d0: ee56 2fbe 15ed 983e fc85 13bf 728a 89be
000000e0: 4735 fe3e 8ebd f43e 36c7 803e 5c25 7c3d
000000f0: ed48 d73e 0f5e e03d a368 dcbe 2c53 a7be
00000100: 5d9a cb3b a101 d53d 56a7 1ebf 9852 5c3d
00000110: afb3 90be fb05 b0be 3156 e43d 27f9 9e3e
00000120: 4cf1 a3be 6c4d 003e 692e 1abf 0197 b6bd
00000130: 5d13 0c3e cebc eebe 2a88 c8be ffb1 0c3c
00000140: 8ce9 58be a115 09bc a6e4 993e 7dd5 b43d
00000150: e6cc 9fbe 5b4f 8c3e ed03 323e 565c 1fbe
00000160: 8694 fcbe 0eae 8fbe 2d2d 5a3e 4976 b73d
00000170: fc99 003e de5c 81be 28eb bfbe a731 cabe
00000180: 57b6 b0be 61b2 f13e 8e0f d8bb 4cd7 753e
00000190: 888b 9abe 752d bb3e ef19 513e 7d01 843e
000001a0: fa5a e0be ea79 b13d e683 103f b639 c23e
000001b0: 665e 033f 75a2 87be a3d1 cc3e 4333 f5bc
000001c0: b89a f3be 4507 4a3e 31d4 f53c 8083 09bf
000001d0: b7ca 08be 3269 d53d c172 64bd 91b0 6f3e
000001e0: 6db5 bdbe 84a3 de3e 5caa 23be 74fb dbbe
000001f0: 30cf 1dbe 40a7 2cbe 5be7 b73d 8bbd 26bd
00000200: cfef efbe 8f9d 41be 294e 5cbe 2052 cabe
00000210: 669e 663e ca84 9cbe 2de0 793e 1372 e7be
00000220: 36ad 153e a1b4 ab3e 9860 b3be d2d0 22be
00000230: 8edc 69be 00b2 0f3d eec7 6fbe a6be fc3e
00000240: 7d80 fabe 59bb 73bc a90d 3a3e 5447 7d3d
00000250: 7393 d63e e9ce e43d 4a0f fdbe 283c 99be
00000260: 66ff eabb 5ca4 d53e b0a3 913e 61c7 4bbe
00000270: bd75 c9be 2c47 4ebe 6c59 803d 11b2 213e
00000280: 15ea f03e 25d6 8dbe 0248 a3be e6a6 573e
00000290: 15c4 a2be 5e48 71be 99cd 0bbf af70 9d3e
000002a0: ad77 623d 2740 c0be 7a49 af3e 6f90 833e
000002b0: 5c47 d6be 3bae dcbe f119 08be cf8e d6be
000002c0: eef9 c33e 41e4 b4be 6f2c 27bd cf92 05be
000002d0: 570d e63e 7730 043e 610c b7be c721 79be
000002e0: b188 853d 57b3 983e 474b 143f 161e 70be
000002f0: ce31 c73e 4c25 593d 487d 343e 630c abbd
00000300: c68c 8a3d e9db f1bd 21ce 503e facb 7c3d
00000310: a1d8 053e cc9c 98be 670d bd3d 7c90 e73e
00000320: 8410 e1be 536b edbe 9efd 6fbe 2dc4 b43c
00000330: 4c16 a23e 5ceb 1e3e fb22 1abf 4378 b53e
00000340: f23f c13e 4c9a c9be e54e 00bf 3a81 7b3d
00000350: bbf1 e6be b4a7 dbbe 7653 15bf c80b 57be
00000360: c443 9c3e 80e0 fe3e 4f31 67be d479 09be
00000370: 77b3 e6be 2c31 f7be 378c f0bd 0053 1cbd
00000380: 372d 8dbc 5c26 953e a743 903e c420 ddbc
00000390: d515 ca3e 83bb cd3e 79b3 023f b11d e93d
000003a0: 9618 b13d 932f 053e 5279 42be 3455 4a3e
000003b0: 2dbd ba3e 6619 5abe 1a91 79be 3f37 dabe
000003c0: 1078 c9be 7670 d8be 5985 20bf b71a b1be
000003d0: 9eea 98be d6ba 8abe a8ad 1d3e 7308 bc3d
000003e0: 7fef ad3e 3557 e8be a05b 763e 2e8d a23d
000003f0: 3ff6 e73d edff 273e 9928 d3be b2d0 7d3d
0.35036734 0.2636068 0.37788197 -0.35297778 0.41887093 0.17635334 -0.060929287 -0.5028111
-0.24546383 -0.2519765 0.13048106 -0.3246048 0.4344281 -0.22335015 -0.5190244 -0.1919432
-0.3765583 -0.17324264 0.28887016 0.30085123 -0.38206193 -0.49032384 -0.45680538 0.13156217
-0.49942347 0.20195997 -0.28158242 -0.32902685 0.45330858 0.14167428 0.62032104 -0.004479926
0.17907798 -0.073768035 -0.2673393 -0.21637733 -0.46647182 0.04131379 -0.21135479 -0.12515509
-0.08559466 0.43391177 -0.42653638 -0.23784907 0.25912097 0.39714095 -0.3776142 -0.31047612
0.40540683 -0.2964854 -0.44601217 -0.12394005 -0.17123005 0.2986838 -0.5762632 -0.26863438
0.49650022 0.4780087 0.25151986 0.061559066 0.42047825 0.1095544 -0.4304858 -0.32680643
0.00621347 0.10400701 -0.61974084 0.053789705 -0.28262088 -0.34379563 0.11149252 0.31049463
-0.32020032 0.12529534 -0.60227066 -0.089155205 0.13679262 -0.46628422 -0.39166385 0.008587359
-0.21182841 -0.008366973 0.30057257 0.08829782 -0.31211013 0.27404293 0.1738431 -0.15562567
-0.49332064 -0.2806248 0.21306296 0.08958108 0.1255874 -0.25266165 -0.37484097 -0.39491007
-0.34514114 0.47206405 -0.006593651 0.2400791 -0.3018458 0.36558118 0.20420049 0.25782385
-0.4381941 0.086658314 0.5645126 0.37934655 0.51315916 -0.26491132 0.4000369 -0.02993167
-0.4757898 0.19729336 0.030008407 -0.5371628 -0.1335858 0.10420455 -0.0557735 0.23407198
-0.3705248 0.43484128 -0.15982956 -0.4296528 -0.15411067 -0.16860676 0.089796744 -0.040708106
-0.46862647 -0.1890776 -0.2151419 -0.3951578 0.22521362 -0.3057006 0.24401923 -0.4520422
0.14616856 0.33536246 -0.35034633 -0.15899971 -0.22838041 0.035081863 -0.23416111 0.49364203
-0.48926154 -0.01487621 0.18169273 0.061835602 0.4190937 0.111722775 -0.49425727 -0.29928708
-0.007171559 0.4172696 0.28445196 -0.19900276 -0.3934764 -0.20144337 0.06267056 0.15790583
0.4705359 -0.27702442 -0.31890875 0.2105976 -0.31790224 -0.23562762 -0.5461059 0.30750033
0.055289913 -0.37548944 0.34235746 0.25696132 -0.41851318 -0.43101677 -0.13291146 -0.4190583
0.3827662 -0.35330394 -0.04081386 -0.13044284 0.44932052 0.12909113 -0.35751632 -0.24329291
0.065202124 0.29824325 0.57927364 -0.23448977 0.38905185 0.053014085 0.17625916 -0.08351972
0.06765132 -0.11809523 0.20391132 0.061717965 0.13070919 -0.29807127 0.09231072 0.4522742
-0.43957913 -0.46370944 -0.23436591 0.0220662 0.31657636 0.1551947 -0.60209626 0.35443315
0.377441 -0.39375532 -0.50120384 0.061402537 -0.451063 -0.42901385 -0.58330476 -0.21000588
0.3052045 0.49780655 -0.22577403 -0.1342538 -0.45058796 -0.48279703 -0.11745494 -0.038165092
-0.017233474 0.29130828 0.28176615 -0.026993163 0.39469782 0.40182123 0.51055104 0.11382616
0.086472675 0.1300643 -0.18991593 0.19759065 0.36472455 -0.21298751 -0.24371758 -0.42620274
-0.39349413 -0.422733 -0.6270347 -0.34590694 -0.298665 -0.2709567 0.15398276 0.09181299
0.33971784 -0.45379034 0.2405839 0.07937084 0.113262646 0.16406222 -0.4124191 0.061966605

linear.bias f4 [100]
00000000: 93f6 c23d d2ec 5d3e 1986 2cbe 4bcc 203e
00000010: b14a e53e be61 ac3e 6bc9 dabe 7c6c 49be
00000020: fa8b fe3e a57a 303e a53c 3e3e a60a a4be
00000030: c314 1e3e 23ec 73bd 8cc1 a4be 429e c63d
00000040: 5403 8cbe b044 37be cfcf a33d 2358 59be
00000050: 80b2 b5be 3c41 fd3e a95a f13c d24b 3e3e
00000060: 4ad4 e43e 7a7e 68bd caa5 523e 5a19 e1bd
00000070: 3aef 9abe 1983 a13e 9786 d53e 3a28 023f
00000080: f4ea 123e 2965 a73e addb 103e bf37 933b
00000090: 2022 5fbe c209 60be c8e3 293e 587e d73e
000000a0: a8ab 503e 4181 1bbe 2107 e53b d402 573e
000000b0: 758d eabe 3363 dc3e 286d a7be b575 a03d
000000c0: c087 bebe 0e7c 143e bc4c 27be 01f3 653d
000000d0: ba7a e7bb 8617 e2be 7666 e8be 7da9 a3be
000000e0: 71aa 51be 3fd7 d4be 24d3 3a3e d28c 1e3e
000000f0: ee52 11be 73e8 543e ba8b bb3c 50db f43d
00000100: bb20 b13e 6b9d 113e ea92 c23e 2c3c 833e
00000110: 66ab b93e f005 813e 9b92 ccbe 2c93 cdbe
00000120: 8844 d9be 3982 62be a1eb c7bd 0477 613e
00000130: 428b 103e 3cb0 2f3e 4f4b d13c 7356 6bbb
00000140: d2b7 febe 155d 00bf 9fd7 88be 6403 d3be
00000150: 57b2 7d3b be25 a33e 6cf6 1bbe f050 1cbe
00000160: a895 b33e 9478 6e3e 420d 59be 6f16 ddbe
00000170: 388c 94be 2376 d83e d569 7c3e 167d 6b3e
00000180: b30e 583e ba30 93bd 347a 7bbe a75c 33be
0.095196865 0.21672371 -0.16848029 0.15702932 0.44783548 0.3366832 -0.42731795 -0.1967029
0.4971617 0.17234285 0.18577822 -0.32039374 0.15437607 -0.05955137 -0.32178915 0.09698154
-0.2734629 -0.17897296 0.07998621 -0.21225028 -0.35487747 0.49463832 0.029462175 0.1858361
0.44693214 -0.056761242 0.20571056 -0.109911636 -0.3026064 0.31545332 0.41704246 0.5084263
0.1434744 0.32694367 0.141463 0.0044927294 -0.21790361 -0.21878722 0.16590798 0.4208858
0.20377982 -0.15186025 0.006989375 0.20997173 -0.45811048 0.43044433 -0.32700467 0.07834951
-0.37212944 0.14500448 -0.16337866 0.05613995 -0.0070641907 -0.44158572 -0.45390671 -0.31965247
-0.20475174 -0.4157047 0.18244606 0.15483406 -0.14191791 0.20791797 0.022893775 0.11955893
0.34595284 0.14220206 0.38002712 0.25631845 0.3626358 0.25199842 -0.399556 -0.40151346
-0.42435098 -0.22119989 -0.097617395 0.22018057 0.14115623 0.17157072 0.025548605 -0.0035909682
-0.4974962 -0.5014203 -0.26727006 -0.41213524 0.0038711035 0.31864733 -0.15230721 -0.1526525
0.35075116 0.23288184 -0.21196464 -0.43181178 -0.29013228 0.4227763 0.24649747 0.22996935
0.21099357 -0.07187028 -0.24558336 -0.17515813

hidden.weight f4 [100, 100]
00000000: ab6d bebd 2fdf f9bc b5fc 59bd 5311 003e
00000010: 3aae b6bd f7d1 e23d 985f 083d 0a66 b63b
00000020: 3382 84bb 1f23 90bd 0df5 4d3d 2d53 0f3d
00000030: 9088 0f3e 82c0 cfbc bc99 02be 5817 733c
00000040: d4f9 cbbc 9c2e 843d c7cd de3d 7f9c a33c
00000050: 1540 f2bd 3fe3 abbd a9e7 383d 9cf9 a13d
00000060: 8a8b 19bc 66bd d9bd 7ff2 5e3d b1fd 05bd
00000070: 03c3 87bd 506a ac3d b582 a73d 9801 bfbc
00000080: 09fa e53c f711 533d 4645 bd3d 1259 ae3d
00000090: 3734 a73c 3651 9c3d ecb8 523d c3c8 6a3d
000000a0: b98a a23d 7cfd da3d 3e13 5dbd bfa5 13bd
000000b0: ff21 b9bc d417 bd3d cd8b fbbd 55eb 0abc
000000c0: 3923 e3bb 2840 be3c 47cc b93c 21e5 8b3d
000000d0: 4e31 acbb 2f84 1bbd cfc0 e4bd 096c ceba
000000e0: c761 6ebd 2590 03bc 64aa 62bd 5954 9bbb
000000f0: f96a 333b 770d bfbd 28f8 843d 2799 db3b
00000100: fff4 56bd 34f5 88bd 0a9e d1bd 8817 f83d
00000110: 43b3 f0bd 2b2c 90bc fcc0 e1bd 3a90 d23c
00000120: d3af 8cbc a660 aabd 9c3e e33d cff4 92bd
00000130: 0f0b bc3b 2097 25bd 2955 843d 92e1 79bd
00000140: 9f07 a93c 2158 933d 58c6 7c3b 25a2 bdbd
00000150: 446a 4c3d 4c25 573d 86a3 d83d bb87 01be
00000160: c074 103b c396 9a3d 9890 733b 0de3 bd3d
00000170: 68b3 9e3d dbef 753d 80e9 e13d d4e7 a7bd
00000180: 8ea2 a6bd 9f59 19be b2e4 783b 9f4c 983d
00000190: 29aa 9c3d 9039 a93d d120 8cbb abec eabb
000001a0: 2cf4 50bd 6989 8f3c 437b 83bd cfbe 84bd
000001b0: 1da1 aabc ad11 a1bd 502c 96bd d826 843d
000001c0: 1c21 c63d a0ab 323c 3eb2 1ebd 0321 893d
000001d0: 9db2 143d 41dc dcbd 2d9a 043e b7f5 da3d
000001e0: d71c cd3c 8327 1c3c 23a5 f0bc aa51 553d
000001f0: 0594 eabc 844c 0d3d 189b e6bd 6899 c1bd
00000200: d72d acbd 75ee cd3d 745c 953b c404 6b3d
00000210: 1f8b a13d 30d5 b33b 4650 9d3d 92d2 17bd
00000220: 5cfc 233d da97 9abd c701 b5bd 4a2f b0bc
00000230: afae 93bd 234c 6dbc 5dc0 7dbd 0a0d 963b
00000240: b9f9 2ebd 3ccd a23d 54fa c0bd 86dd ec3b
00000250: 6ebe d1bc 9739 bdbd 1679 f23c 5e55 3a3d
00000260: baa5 5a3d acf0 de3c 9bb5 4e3d 4dec 3c3d
00000270: 80bb 57bd 45d9 bdbc d3ff 52bd 37df 1f3c
00000280: 121b 44bd d2f1 2f3b cdab 943d e53d 993d
00000290: 8464 6e3d a940 ea3c 1509 8c3d 999a bb3d
000002a0: 1419 4a3c 6002 11bd 9c77 6c3d 297b 3cbd
000002b0: 7650 ccbd 2755 56bd 0da8 a43d 831a 553d
000002c0: 577b 8fbd f5bc b03b 5931 dd3c 9ade f13d
000002d0: 581e ccbd eb45 a53c 8c66 c73c 4b5b 383d
000002e0: e6f2 70bd 9421 4b3d 8a48 a9bd ff45 d83b
000002f0: 413a fbbc 305e 53ba 6eaa cbbc 1fdc 133c
00000300: 2f97 ca3d 3052 743d 2c68 7fbd 630a 2abb
00000310: 0385 403d a546 3dbe d751 393d 7e1e b8bd
00000320: df4c ad3d b7ce 58bd 73b0 41bd bf55 a5bd
00000330: 31d7 103d 3dc5 6dbd 2546 723d c863 64bc
00000340: 7f42 003c 9229 cc3c 8800 7cbd ab43 dd3c
00000350: 45b6 3bbc 6c5d 723d b88e 9c3d d302 16bd
00000360: 88f6 b6bd e56f 9abd 470f a0bd 4c38 4fbd
00000370: cfdc 793d 510d a83c 2a95 903d a989 f6bc
00000380: 3f95 9dbc e67b bb3d 3e0f d73d c638 15bd
00000390: 726d 80bd eacb d23d e653 cdbd e068 8d3d
000003a0: 4d4e 9f3c ffd1 0fbd 9cd6 c1bd 7a53 05bc
000003b0: cfdc 773d 5d5f 8fbc 4740 823d d2bb b83d
000003c0: ad3f 473c 544f fe3c cc62 a53c 55b0 66bd
000003d0: cb3e 673b c5bd bf3d 5d82 563d b363 ab3c
000003e0: 2133 4f3d b0d3 633c e11a 283c bb12 713d
000003f0: 75f4 883d 0e51 9e3d dbb6 06bc ca69 783c
-0.09298261 -0.03050193 -0.053219516 0.12506609 -0.0891995 0.11075204 0.03329429 0.005566363
-0.0040438413 -0.07037949 0.050282527 0.034991432 0.14016938 -0.02536035 -0.12753958 0.014837109
-0.0248994 0.064542025 0.10879093 0.019972084 -0.11828629 -0.08392953 0.045142803 0.07908937
-0.009371648 -0.10631828 0.05443048 -0.032712642 -0.066289924 0.08418715 0.08179227 -0.02331619
0.028073328 0.051530804 0.092417285 0.085130826 0.02041064 0.07632677 0.051445886 0.057320368
0.079366155 0.106928796 -0.05397343 -0.03604674 -0.022599218 0.092330605 -0.12282524 -0.008478959
-0.006931689 0.023223951 0.022680415 0.06830812 -0.005254901 -0.037967857 -0.11169588 -0.001574875
-0.058198716 -0.008029972 -0.05533828 -0.0047402796 0.0027376993 -0.0932874 0.064926445 0.006701607
-0.05247974 -0.06687394 -0.10235222 0.12113863 -0.117529415 -0.017599186 -0.11023137 0.025703538
-0.017173683 -0.083192155 0.11095926 -0.071756 0.005738623 -0.040427327 0.064615555 -0.061006136
0.020633517 0.07194544 0.003857037 -0.09259442 0.04990603 0.052525803 0.105780646 -0.12649433
0.0022042245 0.07548287 0.0037165042 0.09271822 0.07749063 0.060043197 0.11030865 -0.081985146
-0.081364736 -0.14975594 0.003797811 0.07436489 0.07649643 0.08262932 -0.004276373 -0.0071693263
-0.05101411 0.017521577 -0.06419995 -0.06481706 -0.020828778 -0.078646995 -0.07332671 0.06452721
0.09674284 0.010905176 -0.038744204 0.066957496 0.03630315 -0.107841976 0.12949438 0.10691398
0.025038166 0.009530905 -0.029375618 0.052079834 -0.028635034 0.0344968 -0.112600505 -0.09453088
-0.08407181 0.10055248 0.0045581404 0.05737759 0.07887863 0.0054880604 0.076813266 -0.03706605
0.04003559 -0.07548495 -0.088382296 -0.021506924 -0.072110526 -0.014483484 -0.06195103 0.004579191
-0.042718623 0.079493016 -0.09422746 0.007228556 -0.0256035 -0.092395 0.029598754 0.04549157
0.053380705 0.02721437 0.05046616 0.04612379 -0.05266905 -0.023174891 -0.051513504 0.009757808
-0.04787738 0.0026847017 0.07259331 0.074825086 0.058201328 0.028595285 0.0683767 0.091603465
0.012335081 -0.035402656 0.057731256 -0.046015892 -0.09976284 -0.0523273 0.08039866 0.052027237
-0.07005947 0.005393619 0.02700107 0.11810036 -0.09966725 0.020174941 0.02434089 0.04500894
-0.058825396 0.04959257 -0.08265789 0.006600141 -0.030667426 -0.0008063046 -0.02486154 0.009024649
0.09892117 0.059648693 -0.062355205 -0.0025946132 0.04700185 -0.1848398 0.045244064 -0.08990191
0.084619276 -0.052931514 -0.047287416 -0.080729954 0.035361473 -0.05804943 0.059148926 -0.013939805
0.007828354 0.024922166 -0.061523944 0.027009806 -0.011457031 0.059171125 0.07644409 -0.036623787
-0.08933741 -0.075408734 -0.07815414 -0.0505908 0.061001595 0.020514162 0.07059701 -0.030094938
-0.019236205 0.09154491 0.10500954 -0.036431096 -0.06270875 0.102928 -0.10025768 0.06904769
0.019446516 -0.035112377 -0.094647616 -0.008137578 0.060513314 -0.017501527 0.06359916 0.09020199
0.012161178 0.031043686 0.020188712 -0.056320507 0.003528523 0.093623675 0.052370418 0.020921564
0.05058587 0.013905451 0.010260315 0.058855753 0.066872515 0.07730304 -0.008222307 0.015161941

hidden.bias f4 [100]
00000000: 6a12 ac3c fe5d cd3d 0ae3 263d 67ca 4f39
00000010: cbe5 c23d 98ba 0ebd 9d9b 73bd 4cb5 bcbd
00000020: ef27 cc3d 7aba 34bd 0534 d03d d934 abbd
00000030: ff4d ae3d 1d08 94bd 54d3 a9bc cc44 3a3d
00000040: 5c88 c03d ba89 4fbd 3df8 92bc 605c ad3d
00000050: 6bd4 f63a 96d2 89bc b2d7 c03d 5c59 13bd
00000060: 99b3 973d 220f 81bd 394e 853d 82f3 81bd
00000070: cdfe 2c3d b5d0 cd3d f595 253d e1b9 b03d
00000080: 7625 693d 4dc5 91bc 2dcb a7bd 46f5 95bd
00000090: 1caa bc3c 34ff ddbc f17b e13c 88d2 54bc
000000a0: dfd7 2fbd 115b a8b9 0dff a93d bbb0 38bd
000000b0: be84 5fbd 668b 00bb 7240 97bb ee61 083b
000000c0: 963a 90bd 81c3 73bd 666b 2e3d f327 0abd
000000d0: 14c0 65bd 6274 5bbc dc10 92bd 5e17 503d
000000e0: f389 0d3d 00c2 b4bd e92c 2c3d 0dee 873d
000000f0: bc42 863d 741c b53d ef17 b23d 7295 d03d
00000100: 6b06 fc3b cbd3 063d 1a14 a33d 4954 3dbc
00000110: 44b3 9dbc ebce 50bd b7b0 74bc 289b c13d
00000120: de9c 81bd 463d 8bbd ec2a aebd d57a c3bc
00000130: ed40 26bd 152a 13bd 552a 93bd fbd7 d23d
00000140: 9e3c 58bc 5f2a d83d ddcb 853d bbfd 5f3c
00000150: dfb8 88bd 5b35 ddbc b3b2 b63d 407d bd3d
00000160: 978a b2bd a965 b8bd c159 9abd 5bf2 fe3b
00000170: 88dd b03d f6e1 9bbd d2f5 783d e3a0 92bd
00000180: 91d6 8fbd 3b5d 3e3b 694a 373c ef8c a73c
0.021004874 0.10027693 0.040743865 0.00019816459 0.09516486 -0.03484592 -0.059474576 -0.09214267
0.09968554 -0.04412315 0.10166172 -0.08359689 0.0851097 -0.0722811 -0.020730652 0.045475766
0.094010085 -0.050668456 -0.017940635 0.08464885 0.0018831616 -0.016824048 0.094161406 -0.03597389
0.074073024 -0.063017145 0.065090604 -0.063452736 0.042235184 0.10049573 0.040426213 0.086292036
0.05692049 -0.017794276 -0.081930496 -0.07322173 0.023030333 -0.02709923 0.02752492 -0.012989648
-0.04293048 -0.00032111307 0.083006 -0.04509042 -0.054569952 -0.0019614338 -0.004615837 0.0020810324
-0.070424244 -0.05951262 0.042582892 -0.033729505 -0.056091383 -0.013394447 -0.07132122 0.050803535
0.034555387 -0.08826065 0.042035017 0.066372015 0.06555697 0.08843318 0.08695971 0.101847544
0.007691195 0.032916825 0.079628184 -0.01155574 -0.01925052 -0.050978582 -0.01493471 0.09453422
-0.06328748 -0.06798796 -0.085042804 -0.023862282 -0.04058926 -0.035928804 -0.071858086 0.10295101
-0.013198046 0.10554957 0.065330245 0.013671334 -0.06675886 -0.027002981 0.08920803 0.09252405
-0.0871784 -0.09003765 -0.075366504 0.007780356 0.08636004 -0.07611458 0.060781308 -0.07159593
-0.07023347 0.002904727 0.011187174 0.020452945

output.weight f4 [1, 100]
00000000: cffa 05be cfdd 97bd df90 fd3d ab51 62bd
00000010: 88d1 8ebd 5a51 22be 746b 8d3d 5018 ecbd
00000020: 1238 f8bd a3a2 183e aab8 bc3d e2fb ab3d
00000030: f59e a0bd 7621 03be 4b08 c43d c2aa e7bd
00000040: eb4d f2bd e3cd d5bd 223c 003e e267 e4bd
00000050: 1288 e73d 084d f93d d21e 0b3d 20ad d43d
00000060: 7c52 cc3d 7831 643d 7caf 9fbd 315a 0bbd
00000070: c2d4 d5bd f844 083e 48a9 28be fc9e c1bd
00000080: f5fa 4dbd 074d fb3d 8cf5 23be ee77 c3bd
00000090: bc8b c7bd 9317 1abe d084 19bd a01f 4ebe
000000a0: c628 b0bd fe58 293e c236 c83d afb1 a4bd
000000b0: 1b34 cf3d d856 0dbe 6c07 483d 5917 073e
000000c0: 30e8 243e 1b65 303e f597 fd3d ce51 7bbd
000000d0: 9cb6 0f3e 0080 973d 8167 1b3e 8775 df3d
000000e0: 8695 db3d f839 d5bd c794 27be 10f6 163e
000000f0: 5f6f 3dbe 0853 9fbd d7c0 973d c6b4 dcbd
00000100: 405a 053e e027 b63d 25b0 e1bd 6306 39bd
00000110: af72 0dbe 82d2 04be a8d9 b5bd c2a1 c93d
00000120: fb56 053e 5391 5c3d 682e 0abe 4701 5c3d
00000130: ed46 043e 9377 13be 1da0 17be c17a 003e
00000140: 72e0 0cbe f8ea d2bd f837 11bd 7d0a d93d
00000150: 4582 c63d 61db 313e b27d 6bbe d3d4 313d
00000160: ac92 153e e0c5 4dbd 11ae 06be 1fb1 a2bd
00000170: f495 ffbd 3180 eebd e07a a33d 93a0 133e
00000180: e938 44bd 2364 23be bf27 723d 4996 22bd
-0.13083957 -0.074153535 0.123811476 -0.055253666 -0.06973559 -0.15851346 0.06905261 -0.11528075
-0.121200696 0.14905791 0.092149094 0.08397652 -0.07842819 -0.12805733 0.09571894 -0.11311866
-0.11831268 -0.104396604 0.12522939 -0.111526266 0.1130525 0.12172896 0.03396494 0.103845835
0.0997667 0.05571124 -0.07797143 -0.03402156 -0.10440971 0.1330756 -0.16470826 -0.09454152
-0.05028816 0.12270551 -0.16011637 -0.09544359 -0.09743449 -0.15048055 -0.037480175 -0.20129251
-0.08601527 0.16537854 0.09776069 -0.08041703 0.1011736 -0.1380266 0.048835203 0.131925
0.16104198 0.17226069 0.12382499 -0.061357312 0.14034504 0.07397461 0.15176202 0.109110884
0.10721879 -0.10411447 -0.16365348 0.14742303 -0.18499516 -0.07779509 0.07409828 -0.10776667
0.13022709 0.08894324 -0.11019925 -0.045172106 -0.1381328 -0.12970927 -0.08879405 0.09845306
0.13021462 0.05384953 -0.13494265 0.053712156 0.12917681 -0.14401083 -0.14807172 0.12546827
-0.13757494 -0.10298723 -0.035453767 0.105977036 0.09692816 0.17368843 -0.22997168 0.043415856
0.14606732 -0.050237536 -0.13152339 -0.079439394 -0.12479773 -0.11645544 0.07982421 0.14416723
-0.047905836 -0.15956168 0.059119936 -0.039694104
