data/model/hg_dagger_training_liberal/23/180.pth (torch, 44823 bytes, 5 tensors)

linear.weight f4 [100, 4]
0	0xbc9fbdf1	-0.01949975
1	0x3cb0db6a	0.021589
2	0x3ce9c051	0.028534086
3	0xbcd5555a	-0.026041675
4	0x3aad6352	0.0013228452
5	0xbca13e5e	-0.01968306
6	0xbcf28bac	-0.029607616
7	0x3ce39ca4	0.027784653
8	0xbf0d73fd	-0.5525511
9	0x3f17d6a6	0.593119
10	0x3f0bd833	0.5462677
11	0x3f50a2ec	0.814986
12	0xbe2fd2cd	-0.17170258
13	0xbda55b6f	-0.0807408
14	0xbdc53a83	-0.09630301
15	0xbdb936cc	-0.09043655
16	0x3e208f9f	0.15679787
17	0xbb276bac	-0.0025546355
18	0x3d979677	0.07401746
19	0x3c42d123	0.011890682
20	0x39b8029d	0.00035097162
21	0x3caa9382	0.02082229
22	0x3ce2f7a0	0.027705967
23	0xbcebb7ad	-0.028774107
24	0x3e5c2b45	0.21500881
25	0x3e1e029a	0.1543068
26	0x3e0f7b58	0.14011896
27	0x3db43234	0.08798638
28	0x3efedf12	0.49779564
29	0xbe3ce455	-0.18446477
30	0x3e9184de	0.28421682
31	0x3ddf0308	0.1088925
32	0x3ec40ac7	0.38289472
33	0xbdf98562	-0.12183644
34	0x3e937b29	0.288049
35	0x3e008edd	0.12554498
36	0x3cbaf107	0.022820009
37	0xbc3f31c6	-0.011669582
38	0xbc680cd2	-0.014163213
39	0x3d21e07b	0.039520722
40	0xbea716de	-0.32634634
41	0xbe13b8c6	-0.14425954
42	0xbe672c14	-0.22575408
43	0xbe5fb264	-0.21845394
44	0xbdbc7af2	-0.092031375
45	0xbe471420	-0.19441271
46	0xbe990156	-0.29883832
47	0xbe71372e	-0.23556206
48	0xbcd0844c	-0.025453709
49	0x3cf9f29a	0.03051119
50	0x3d3fb9b3	0.046807956
51	0x3b864ef4	0.0040987674
52	0xbdfa8bf1	-0.12233723
53	0xbd8a2e00	-0.06747055
54	0xbd8cb1c3	-0.06869843
55	0xbd5dbef7	-0.054137196
56	0x3c3746a3	0.011186275
57	0xbc896818	-0.016773269
58	0xbcab62ad	-0.020921076
59	0x3d02326d	0.03178637
60	0x3e78022d	0.2421958
61	0x3e15be29	0.14623322
62	0x3de07736	0.10960238
63	0x3d399978	0.045312375
64	0x3d323deb	0.04351608
65	0xbc4eef04	-0.012630228
66	0xbc5c18e9	-0.013433673
67	0x3d1d1cf3	0.038357686
68	0x3aad0f0a	0.0013203335
69	0xbca13ca9	-0.019682245
70	0xbcf28622	-0.029604975
71	0x3ce39ec7	0.027785672
72	0x39a40945	0.00031287424
73	0x3caa9162	0.020821277
74	0x3ce3e531	0.027819248
75	0xbceb2a3b	-0.02870666
76	0xb9771741	-0.00023564418
77	0x3ca765a3	0.020434206
78	0x3ce5fbd3	0.02807418
79	0xbcea742e	-0.028619852
80	0xbd2fe2f1	-0.042941038
81	0x3b7f485c	0.0038953042
82	0x3bfc08f0	0.007691495
83	0xbd213236	-0.039354526
84	0x3cde867e	0.02716374
85	0xbc4c950b	-0.0124867065
86	0xbc84933e	-0.016183492
87	0x3d1966e7	0.03745165
88	0xbe402f0e	-0.1876795
89	0xbdca9755	-0.098921455
90	0xbdf78dd0	-0.120875955
91	0xbdde922b	-0.10867723
92	0x3e9c861d	0.3057107
93	0xbd8a6d43	-0.06759121
94	0x3dd3d6db	0.10343715
95	0xbc43abd2	-0.011942821
96	0x3ef7b643	0.48381242
97	0xbf0485ae	-0.5176648
98	0x3ed17043	0.4090596
99	0x3e15521e	0.14582106
100	0xbeb8fc03	-0.3612977
101	0xbe71c992	-0.23612049
102	0xbeb401b1	-0.3515754
103	0xbea9e93e	-0.33185762
104	0x3e2bb33c	0.16767591
105	0xbc412c58	-0.0117903575
106	0xb892e51e	-7.004499e-05
107	0x3d1e0fca	0.038589276
108	0x3ea6af95	0.32555833
109	0xbe061007	-0.13092051
110	0xbe8292e7	-0.25502703
111	0xbe0e21d1	-0.13880087
112	0xbecba351	-0.39773038
113	0x3f010ad6	0.5040716
114	0x3edaee18	0.42759776
115	0x3f0f8819	0.56067044
116	0x3e860bed	0.26180974
117	0xbd04f167	-0.03245678
118	0x3ea2a106	0.31763476
119	0x3e937ee3	0.28807744
120	0xbe9be7c5	-0.30450264
121	0x3e24fb54	0.16111499
122	0x3e12d6ab	0.14339702
123	0x3e4a6add	0.19767328
124	0x3c441084	0.011966828
125	0xbc8d8663	-0.017275995
126	0xbcc60532	-0.0241724
127	0x3cfd4bb3	0.030919885
128	0x3e66b4e0	0.22529936
129	0x3cd87d3b	0.026426902
130	0x3d96242c	0.07331118
131	0xbb9a1866	-0.0047026156
132	0x3df8630b	0.12128266
133	0xbdb80765	-0.089857854
134	0xbe365f9c	-0.1780991
135	0xbe06aa26	-0.13150844
136	0x3abcc495	0.0014401848
137	0xbca0a49d	-0.019609744
138	0xbcf268e8	-0.029591039
139	0x3ce45b0f	0.027875451
140	0xbd9166cb	-0.07099684
141	0xbcdf08d4	-0.02722589
142	0xbd0ecacf	-0.034861382
143	0xbc168fe3	-0.009189579
144	0x3de72b0c	0.112875074
145	0xbd4eec79	-0.050518487
146	0x3cab11d1	0.020882519
147	0x3da9e1d5	0.08295027
148	0x3d961bee	0.07329546
149	0xbd8ca283	-0.06866934
150	0x3e07f6d4	0.13277751
151	0x3e073ee6	0.13207588
152	0xbe1a05a4	-0.15041214
153	0x3e76a652	0.24086884
154	0x3e9613fc	0.29312122
155	0x3ebb9aea	0.36641628
156	0x3c01348e	0.007886065
157	0xbc8fc629	-0.017550545
158	0xbcd5e04e	-0.026107933
159	0x3cfeabd0	0.031087786
160	0xbda5f043	-0.08102467
161	0x3ab3bf92	0.0013713709
162	0x3c2fbe7e	0.010726569
163	0xbcda3779	-0.02663778
164	0x3abbf4a2	0.0014339874
165	0xbca0ad11	-0.019613774
166	0xbcf32d1d	-0.029684598
167	0x3ce3ad14	0.027792491
168	0x3eb637f7	0.35589573
169	0x3c368176	0.011139264
170	0x3e4fbd0e	0.20286962
171	0x3dcc3bac	0.09972319
172	0x3e3d4f64	0.18487316
173	0x3ca30007	0.019897474
174	0x3ce5bc9e	0.028044041
175	0xbd28f8dc	-0.041252956
176	0x3bbd13a2	0.0057701627
177	0x3c3e57ab	0.011617581
178	0x3bee658a	0.007275288
179	0x3b0b9746	0.0021299883
180	0x3cc86773	0.024463391
181	0xbc738cea	-0.0148651395
182	0xbc80f295	-0.015740672
183	0x3d0bc658	0.034124702
184	0xbd2c29ec	-0.042032167
185	0x3c6eea86	0.014582282
186	0x3cc145fa	0.023592938
187	0xbcd62ee4	-0.026145406
188	0xbb23307a	-0.002490072
189	0x3c9e3c0a	0.019315738
190	0x3cd6323b	0.026146999
191	0xbcf6db03	-0.03013373
192	0xbe00dc56	-0.12584051
193	0x3cd6ec85	0.026235828
194	0x3d94f40f	0.07273113
195	0x3d9748d4	0.07386938
196	0xbb3727b2	-0.0027947244
197	0x3ca07773	0.019588208
198	0x3cdf2157	0.027237577
199	0xbced3c14	-0.028959312
200	0x3aadd25f	0.0013261548
201	0xbca1350b	-0.019678613
202	0xbcf24c71	-0.029577466
203	0x3ce3dc3d	0.027814979
204	0x3e7951f4	0.24347669
205	0x3e06ebbe	0.13175866
206	0x3e1fc3f9	0.15602101
207	0x3d9657be	0.07340954
208	0x3e892cb9	0.26791933
209	0xbd1eb801	-0.0387497
210	0x3ebb2f30	0.3655944
211	0x3eaf9dee	0.34300178
212	0x3e87645b	0.26443753
213	0x3d739fd3	0.059478592
214	0x3d8faea8	0.07015735
215	0xbbfdddf3	-0.0077474057
216	0xbbe1705f	-0.0068798508
217	0xbe5b553c	-0.21419233
218	0xbea3cde2	-0.31993014
219	0xbe882059	-0.2658718
220	0x3e20346a	0.15644994
221	0x3c6baaa2	0.014383944
222	0x3d6ee521	0.058323983
223	0xbc1c33bf	-0.009533822
224	0x3ea1e054	0.3161646
225	0xbd338b3e	-0.043833964
226	0x3dbfd31b	0.09366437
227	0xbc79c6bb	-0.015245135
228	0xbdc3ee88	-0.095669806
229	0xba6e89db	-0.00090995216
230	0xbbb8c701	-0.0056389575
231	0xbd3d3735	-0.046195228
232	0xbe738311	-0.23780467
233	0xbdb73117	-0.0894491
234	0xbdaf0ef0	-0.08547771
235	0xbdad83d5	-0.084724106
236	0x3c6e3ad3	0.014540392
237	0xbc88ec96	-0.016714375
238	0xbcc8b8c1	-0.02450216
239	0x3d018221	0.03161824
240	0x3c9537bd	0.018215055
241	0xbc9aac0b	-0.018880865
242	0xbccf4c64	-0.02530498
243	0x3d008096	0.03137263
244	0xbecac7af	-0.39605471
245	0x3f1360f6	0.57569826
246	0x3e9b0e24	0.30284226
247	0x3eb4741a	0.35244828
248	0x3e5af692	0.21383122
249	0xbd9a10bd	-0.07522724
250	0x3e00b0bf	0.12567423
251	0x3dda08ef	0.10646235
252	0x3d471a9b	0.048609357
253	0xbca70098	-0.020386025
254	0xbcda1917	-0.026623292
255	0x3cf4577e	0.029826876

linear.bias f4 [100]
0	0xbbb7c4ea	-0.005608191
1	0xbba5a416	-0.005054961
2	0xbbc00493	-0.0058599203
3	0x3e236ae7	0.15958749
4	0x3e00f5b1	0.12593724
5	0x3bc96ec8	0.0061472394
6	0x3e00738e	0.1254408
7	0x3c79ffe7	0.015258766
8	0x3dfc3859	0.12315435
9	0xbd0cff00	-0.034422874
10	0x3ed30de2	0.4122153
11	0x3eea1cb1	0.45725015
12	0xbe1fc92a	-0.15604082
13	0x3d052486	0.032505535
14	0xbd288895	-0.04114588
15	0x3df465c3	0.11933472
16	0xbda234ff	-0.079202645
17	0xbba5b695	-0.005057166
18	0x3bc83c22	0.006110684
19	0x3bd94bb5	0.0066313394
20	0x3d6c9748	0.05776146
21	0xbd1c0460	-0.03809011
22	0x3e6f13cf	0.233474
23	0xbe411ce9	-0.18858685
24	0xbdbc60c7	-0.09198146
25	0x3ef7ee78	0.48424125
26	0xbe11c2d3	-0.14234476
27	0x3efa804b	0.48926005
28	0x3e26bb80	0.16282463
29	0x3cc6b2bf	0.024255155
30	0x3e981e71	0.29710725
31	0xbd029883	-0.031883728
32	0x3da68e23	0.08132579
33	0x3e8c247a	0.2737158
34	0xbba90829	-0.0051584435
35	0x3e7e2638	0.24819267
36	0xbe5c186e	-0.21493694
37	0x3dcf1a65	0.10112456
38	0x3e25c267	0.1618744
39	0xbc5bdbdc	-0.013419118
40	0x3dda1170	0.10647857
41	0xbba82e8f	-0.0051325033
42	0x3e73e813	0.23818998
43	0xbb1b9e9d	-0.0023745664
44	0xbd95320c	-0.07284936
45	0xbd90b3fd	-0.0706558
46	0x3d0741db	0.03302179
47	0x3c1afdb0	0.009459898
48	0x3e92dfd9	0.28686407
49	0x3c20e39f	0.009819894
50	0xbba63765	-0.0050725215
51	0x3e5635a1	0.20918895
52	0xbca66745	-0.020312915
53	0xbe511b42	-0.20420554
54	0x3ed499cb	0.41523585
55	0x3d2147e6	0.03937521
56	0xbe81fcab	-0.25388083
57	0x3de207a3	0.11036613
58	0x3daebb71	0.08531845
59	0xbcb06499	-0.021532344
60	0xbc854c54	-0.016271748
61	0x3d04e999	0.03244934
62	0xbe24a8ec	-0.16080064
63	0xbca06c18	-0.019582793
64	0x3ebbfcf4	0.36716425
65	0xbe386793	-0.1800826
66	0x3d866b14	0.06563392
67	0xbba79446	-0.005114111
68	0x3e8fcfa4	0.28088105
69	0x3eb31fd4	0.3498522
70	0xbdaae695	-0.08344761
71	0xbdeabbd7	-0.11461609
72	0x3d86bbbf	0.065787785
73	0xbe02668c	-0.12734431
74	0xbc527e45	-0.012847488
75	0xbc6794b6	-0.014134577
76	0x3ebb126c	0.36537492
77	0x3bc97a9e	0.0061486503
78	0xbcedafe5	-0.029014537
79	0xbc6ccfb6	-0.014453819
80	0x3d17c3bf	0.037051912
81	0x3cfd74bb	0.03093945
82	0xbb962d6f	-0.004583053
83	0xbd825ae8	-0.06364995
84	0xbe364184	-0.1779843
85	0x3d64115f	0.05568063
86	0xbdc5935a	-0.09647246
87	0x3ee38f55	0.4444529
88	0xbe06aef1	-0.13152672
89	0x3e908218	0.28224254
90	0x3e75c2b2	0.24000052
91	0x3e8bca81	0.27302936
92	0xbc134429	-0.008988419
93	0x3ebb496a	0.36579448
94	0xbe3b3504	-0.18281943
95	0x3e315d5a	0.17320767
96	0xbd363656	-0.044485413
97	0x3bc93293	0.006140062
98	0xbcad9bed	-0.021192515
99	0x3e92636b	0.28591475

hidden.weight f4 [100, 100]
0	0xbb82b69d	-0.0039890544
1	0x3cf5fd7e	0.030028101
2	0xbe05e836	-0.13076863
3	0x3d001a7a	0.03127525
4	0xbca7d31f	-0.020486413
5	0xbcff221a	-0.03114419
6	0xbd5300d3	-0.051514458
7	0xbd842967	-0.06453209
8	0xbd2bcafd	-0.04194163
9	0x3c8d382c	0.017238699
10	0x3da580cc	0.08081207
11	0x3da193d7	0.07889526
12	0xbc32aad8	-0.01090499
13	0x3cb662b0	0.022263855
14	0x3ccbc2bc	0.02487313
15	0xbc9391ae	-0.018013801
16	0x3c6427a9	0.013925471
17	0x3cf611df	0.030037818
18	0xbcfd8364	-0.030946441
19	0xbcf5da87	-0.030011429
20	0xbb26c098	-0.0025444385
21	0x3c652ac7	0.01398725
22	0x3d1f7923	0.038933884
23	0xbd1bb1b2	-0.03801126
24	0xbdb9f302	-0.09079553
25	0x3de8ed72	0.11373414
26	0xbc7c15f1	-0.015386091
27	0x3daf46f4	0.08558455
28	0xbd9c9c92	-0.07647051
29	0xbd824347	-0.063604884
30	0x3af6ae27	0.0018820212
31	0x3d018d1b	0.03162871
32	0xbd1a07a9	-0.03760496
33	0x3cf46b06	0.029836189
34	0x3cf4c8a5	0.029880831
35	0x3cfe5add	0.031049186
36	0x3c831b19	0.016004132
37	0xbb72d8bc	-0.0037055453
38	0xbd2e0ec6	-0.042494558
39	0x3cdc5b3c	0.026898973
40	0x3baf2388	0.005344812
41	0x3cf3cd57	0.029761
42	0x3bf1d8f8	0.007380601
43	0xbbf1c9ef	-0.0073788087
44	0xbbd1f2ab	-0.006407102
45	0x3c8727c2	0.01649845
46	0x3a970caa	0.001152416
47	0xbcf0e8dc	-0.029407911
48	0x3c1f7cfd	0.009734389
49	0xbcebcbb2	-0.028783653
50	0x3cf6564e	0.03007045
51	0xbc675de9	-0.014121511
52	0xbd8d676e	-0.06904493
53	0xbd0eabe1	-0.034831885
54	0x3db4ae29	0.08822281
55	0xba72bb0c	-0.00092594395
56	0xbd0727fb	-0.032997113
57	0x3c042e66	0.008067703
58	0x3d18dbe9	0.037319098
59	0x3cb10c83	0.021612411
60	0x3c6eacbd	0.014567551
61	0xbd98c04b	-0.07458552
62	0xbcbd2a77	-0.023091538
63	0x3b0a9c0e	0.0021150145
64	0x3d51d80d	0.051231433
65	0xbd492e95	-0.04911669
66	0x3a217913	0.0006159704
67	0x3cf574c8	0.029962912
68	0xbc65b37c	-0.014019843
69	0x3d87dab7	0.066335134
70	0xbcd81327	-0.02637632
71	0xbcbbeacf	-0.022939114
72	0x3cb06543	0.02153266
73	0xbd8f4eb8	-0.06997436
74	0x3cd90ab1	0.026494356
75	0xbc598bb7	-0.0132779395
76	0xbc9a1045	-0.018806586
77	0xbcfe865f	-0.031069933
78	0x3cb5ce8b	0.022193214
79	0xb8695347	-5.5629087e-05
80	0xbb4cb32d	-0.0031234727
81	0xbc1ae19a	-0.009453202
82	0x3d0032eb	0.03129856
83	0x3b94dc3a	0.0045428546
84	0xbc24af36	-0.010051539
85	0xbd2d7d30	-0.042355716
86	0xbbab6c45	-0.0052314126
87	0xbda2f6fa	-0.07957263
88	0xbc10499a	-0.0088066105
89	0xbd911d5c	-0.07085678
90	0xbc2e6af5	-0.010645618
91	0xbd6bbdad	-0.057553936
92	0xbb2e6a87	-0.0026613788
93	0x3d4b243f	0.049595114
94	0xbc524a28	-0.012835063
95	0x3c003b20	0.0078265965
96	0xbbb5da96	-0.005549739
97	0xbcfea4fb	-0.031084528
98	0x3ccb350d	0.02480557
99	0x3d3a435e	0.045474403
100	0xbbf29781	-0.0074033146
101	0x3d0439fb	0.032281857
102	0xbd74ebad	-0.05979507
103	0x3bf86df6	0.0075814677
104	0xbc067580	-0.008206725
105	0xbd07f2e8	-0.033190638
106	0xbc83e154	-0.016098656
107	0xbca4eb34	-0.020131685
108	0xbcff31d3	-0.031151688
109	0x3cbd2fb0	0.023094028
110	0x3cb5417f	0.022125958
111	0x3cf96308	0.03044273
112	0xb9a5e229	-0.00031639755
113	0x3c0e8012	0.0086975265
114	0x3cfb1781	0.030650856
115	0xbc0b8c9d	-0.008517412
116	0x3cbe3b40	0.023221612
117	0x3d044375	0.032290895
118	0xbd072e77	-0.033003297
119	0xbd048432	-0.032352634
120	0xbc20ae8e	-0.009807242
121	0x3ca45d2e	0.020063963
122	0x3c0d23ae	0.008614464
123	0xbba59f15	-0.0050543644
124	0xbd20b743	-0.039237272
125	0x3d15d2ce	0.036577992
126	0x3ad88c29	0.0016521263
127	0x3b2e22a2	0.0026570936
128	0xbd25faf8	-0.040522546
129	0xbc8584fe	-0.016298767
130	0xbc28f7d2	-0.010312991
131	0x3d1c53fe	0.03816604
132	0xbba6492e	-0.0050746417
133	0x3c90f208	0.017693534
134	0x3d03ba7e	0.032160275
135	0x3b12227a	0.0022298382
136	0x3d15afda	0.03654466
137	0x3ae80d76	0.0017704207
138	0xbcd001c1	-0.025391461
139	0x3cf9bbcf	0.030485062
140	0xbba46819	-0.005017292
141	0x3d03461e	0.03204929
142	0xbd052ad1	-0.032511536
143	0xbc0682c4	-0.008209888
144	0xb9654c19	-0.0002186749
145	0x3cc906b5	0.024539331
146	0xbbd19731	-0.0063961972
147	0xbd030fbe	-0.031997435
148	0xbbf48748	-0.007462416
149	0xbd02443e	-0.031803362
150	0x3d046979	0.03232715
151	0xbc4cc806	-0.012498861
152	0xbc99385b	-0.01870363
153	0xbc1944fd	-0.009354827
154	0x3d00fcd3	0.031491112
155	0xbb8cbaa8	-0.004294712
156	0xbb8c04b6	-0.0042730225
157	0xbb8ce2e5	-0.004299509
158	0x3c4bd6fd	0.012441394
159	0x3cd9aaf2	0.02657077
160	0x3ca006ec	0.01953455
161	0xbd090c0b	-0.03345875
162	0x3bb3e833	0.005490327
163	0x3be580dc	0.0070038866
164	0x3b9766be	0.004620402
165	0xbcb47ebc	-0.022033088
166	0x3b0563e2	0.0020353724
167	0x3d0408d8	0.032234997
168	0xbc57a5a0	-0.013162047
169	0x3c90e27b	0.01768612
170	0xbbb08cb6	-0.005387868
171	0xbbdcaa83	-0.006734194
172	0x3bdce333	0.0067409514
173	0xbcc6e216	-0.024277728
174	0x3cf8e41d	0.03038221
175	0xb9acde11	-0.0003297185
176	0x3d0659ab	0.032800358
177	0xbd079a13	-0.03310592
178	0x3ce4d311	0.027932676
179	0x3bb27e49	0.0054471833
180	0xbc12292b	-0.008920948
181	0xbc7e8cbf	-0.015536486
182	0x3c33400a	0.010940561
183	0x3c4b26a7	0.012399352
184	0x3bcec1ce	0.0063097244
185	0xbc908778	-0.017642722
186	0x3bd4d214	0.00649477
187	0xbd763e95	-0.060118277
188	0x3baa4142	0.0051957676
189	0xbce3c9ea	-0.027806241
190	0xbc24d25c	-0.010059919
191	0xbd322597	-0.04349288
192	0xbb728f13	-0.0037011548
193	0x3c9f4016	0.019439738
194	0x3b83cecd	0.0040224553
195	0xbc5b424e	-0.0133825075
196	0xbb4d7187	-0.0031348185
197	0xbd07b663	-0.033132922
198	0x3cd8a53d	0.02644598
199	0x3c249730	0.0100458115
200	0xbbba6282	-0.0056880126
201	0x3cf85140	0.03031218
202	0xbdeea373	-0.11652269
203	0x3ce0fbde	0.02746385
204	0xbcb3ec48	-0.021963254
205	0xbd009be8	-0.031398684
206	0xbd3d1c85	-0.046169776
207	0xbd377fef	-0.04479974
208	0xbd7881e0	-0.060670733
209	0x3c96b4cd	0.01839676
210	0x3d90e961	0.070757635
211	0x3db4200f	0.08795177
212	0xbc1aa494	-0.009438653
213	0x3ca7931f	0.020455895
214	0x3ccfbc67	0.025358392
215	0xbca68cf3	-0.020330882
216	0x3c7f925a	0.015598858
217	0x3cf86547	0.03032173
218	0xbcffa098	-0.031204507
219	0xbcfb6ddd	-0.030692035
220	0xbb8840e7	-0.0041581276
221	0x3c7a244f	0.015267446
222	0x3d0b8d85	0.03407051
223	0xbcfaedb6	-0.030630928
224	0xbdac89ce	-0.08424722
225	0x3dd67357	0.10471218
226	0xbc4aa999	-0.012369537
227	0x3b9b9998	0.0047485344
228	0xbd9099c4	-0.070605785
229	0xbd43947b	-0.047749024
230	0xbbe68c8f	-0.007035799
231	0x3d08511c	0.033280477
232	0xbcf7d540	-0.030253053
233	0x3cf11794	0.029430188
234	0x3cf72abd	0.030171746
235	0x3c682af4	0.014170397
236	0x3c964966	0.018345546
237	0xbc016824	-0.007898364
238	0xbd2a5ab2	-0.0415904
239	0x3ce19750	0.027537972
240	0x3b5089c1	0.003182039
241	0x3cf61284	0.030038126
242	0xbc8ea103	-0.01741076
243	0xbcfaa7fd	-0.030597681
244	0xbbac259a	-0.005253506
245	0x3c8f3121	0.017479481
246	0xb9ca56eb	-0.000385932
247	0xbcf43991	-0.029812606
248	0x3c1c8bce	0.009554816
249	0xbcf03c48	-0.02932562
250	0x3cf8ab02	0.03035498
251	0x3aab45e3	0.0013067093
252	0xbd42f48b	-0.047596496
253	0xbcf94532	-0.030428503
254	0x3db181ce	0.086673364
255	0xbc4ca0a6	-0.012489473

hidden.bias f4 [100]
0	0x3d04b7f4	0.032401994
1	0x3d7cc8ef	0.061715063
2	0x3c5c8322	0.013458999
3	0xbcb142ff	-0.021638392
4	0x3cdea172	0.027176592
5	0x3bc997ff	0.0061521525
6	0xb9ae7fc1	-0.0003328305
7	0x3d13c8c3	0.036080133
8	0x3d516e23	0.051130425
9	0x3b3b3d41	0.0028570446
10	0x3d365b35	0.044520576
11	0x3d0aa876	0.033852063
12	0x3d247f62	0.040160544
13	0xbb824c2e	-0.0039763665
14	0x3c2b9627	0.010472811
15	0x3d30d57f	0.043172356
16	0x3c6b68a5	0.014368211
17	0x3d904685	0.070447005
18	0xbc978d10	-0.018499881
19	0x3c14b909	0.009077319
20	0x3d37f95b	0.04491554
21	0x3c296d5b	0.010341014
22	0xbc3791bb	-0.011204178
23	0xb986a64c	-0.00025682373
24	0x3d6d3862	0.0579151
25	0x3d5cf60b	0.053945582
26	0x3d1c882d	0.038215805
27	0x3d2a7dc1	0.041623835
28	0x3d30442d	0.043033767
29	0x3d0ccdf3	0.034376096
30	0xbb3ef704	-0.0029138932
31	0x3d79aa9c	0.06095372
32	0x3baf8eb3	0.0053575872
33	0x3c93ff07	0.018065942
34	0x3d117ad7	0.03551754
35	0x3d43be54	0.047788933
36	0x3d0dedc8	0.034650594
37	0x3e14349d	0.14473195
38	0x3d82f3f1	0.063941844
39	0x3ceb27eb	0.028705558
40	0xbc0d8f00	-0.008640051
41	0x3c337126	0.01095227
42	0x3ca19697	0.019725127
43	0x3d682f31	0.05668563
44	0x3d9976a6	0.074933335
45	0x3d888e8e	0.06667815
46	0x3d485966	0.048913382
47	0x3d025990	0.031823695
48	0x3d9fa6ff	0.07795524
49	0x3d818a71	0.06325234
50	0x3d85a3ef	0.065254085
51	0x3d90fe7d	0.0707979
52	0x3cc292d8	0.023751661
53	0x3cba7a6e	0.022763457
54	0x3ce8d153	0.028420126
55	0x3d18aa52	0.037271805
56	0x3d930736	0.0717911
57	0x3c79e0cc	0.01525135
58	0x3d504f1e	0.050856702
59	0x3c908f0b	0.017646333
60	0x3d64e5f3	0.05588336
61	0x3d986371	0.07440842
62	0xbc5056b2	-0.012715982
63	0x3cd253b7	0.025674684
64	0x3c91c363	0.017793363
65	0xbae03282	-0.0017104896
66	0x3c429734	0.01187687
67	0x3dbad977	0.091235094
68	0x3cfbd377	0.030740483
69	0xbbb0e3d1	-0.0053982516
70	0x3b45342b	0.003009091
71	0x3dc6de65	0.09710387
72	0x3bc23fb2	0.005928003
73	0x3d8ebd3b	0.069696866
74	0x3bc62cd0	0.0060478225
75	0x3da0cbfc	0.07851407
76	0xbbea95ea	-0.0071589844
77	0x3d3a58a6	0.045494698
78	0x3d7fd036	0.062454425
79	0x3d042803	0.03226472
80	0x3d0c64d0	0.03427583
81	0x3c324daf	0.010882779
82	0x3c60eb77	0.013728014
83	0x3d4a4df8	0.049390763
84	0x3ca28798	0.019840047
85	0xbc847fa0	-0.016174138
86	0x3de44c94	0.111474186
87	0x3d2ed55b	0.04268394
88	0x3db2385a	0.087021545
89	0x3d4bcbf5	0.049755055
90	0x3bc7e365	0.0061001056
91	0x3d99deaf	0.07513177
92	0xbc7abb30	-0.015303418
93	0x3cbc42dc	0.0229811
94	0x3db20d1a	0.08693905
95	0x3d250487	0.04028752
96	0xbc45b217	-0.012066386
97	0x3cd496ac	0.025950752
98	0xbba1ed92	-0.0049416507
99	0x3ba4c854	0.005028764

output.weight f4 [1, 100]
0	0xbe9e7a3a	-0.30952626
1	0xbdec016b	-0.11523708
2	0xbe93d7b6	-0.28875512
3	0x3e644c91	0.22294833
4	0x3e5cf14f	0.21576427
5	0x3c86c34b	0.016450545
6	0xbe65e160	-0.22449255
7	0xbe779c80	-0.24180794
8	0xbe5a2724	-0.21303993
9	0xbdfbc169	-0.122927494
10	0xbe84665b	-0.2585934
11	0x3e2b49d6	0.16727385
12	0x3ea7ccf2	0.32773548
13	0xbd8400a1	-0.064454325
14	0xbd67377c	-0.0564494
15	0xbe22f9cf	-0.15915607
16	0xbe686aae	-0.22696945
17	0xbe1a797f	-0.1508541
18	0xbe2614cc	-0.16218871
19	0xbdb2ec70	-0.08736503
20	0xbe09e60a	-0.13466659
21	0x3d0b411b	0.033997636
22	0x3e9e9448	0.30972505
23	0x3e2575ce	0.1615822
24	0x3e8ba0cb	0.27271113
25	0x3ea850aa	0.32874042
26	0x3e801bd8	0.25021243
27	0x3e6e251f	0.23256348
28	0xbe0ad1c0	-0.13556576
29	0xbd5a9dc8	-0.05337313
30	0xbddce27a	-0.107853845
31	0x3e22dd49	0.15904726
32	0x3c8592ff	0.016305445
33	0xbe1d5721	-0.15365268
34	0x3e19d15f	0.15021275
35	0x3e345229	0.17609467
36	0x3e671c0a	0.2256929
37	0xbec43655	-0.38322702
38	0x3e9744b4	0.29544604
39	0x3eae840d	0.34085122
40	0x3e8b71b0	0.27235174
41	0xbe864366	-0.26223296
42	0xbe6e2aff	-0.23258589
43	0xbe4cd9be	-0.20004937
44	0xbe941d2e	-0.28928512
45	0x3e4dd6ac	0.20101422
46	0x3dd34aa0	0.10316968
47	0xbe96323d	-0.29335204
48	0x3e95e47f	0.2927589
49	0x3e5fc7af	0.21853517
50	0x3e9f8e28	0.31163144
51	0xbe597169	-0.21234669
52	0xbe4e53f3	-0.20149212
53	0x3e85c48f	0.26126525
54	0x3e7849ff	0.24246977
55	0xbdfb8387	-0.12280946
56	0xbe4be3fa	-0.19911185
57	0xbe57831c	-0.21046108
58	0xbda1d4c2	-0.079019085
59	0xbe433047	-0.19061385
60	0xbe031b5f	-0.1280341
61	0x3eaefb16	0.34175938
62	0x3e15ce08	0.14629376
63	0x3e808c97	0.25107262
64	0x3d93bfc8	0.07214314
65	0xbd6449d6	-0.055734478
66	0xbd9b2285	-0.075749435
67	0xbeb3201b	-0.34985432
68	0xbe2ebf01	-0.1706505
69	0x3e844c09	0.2583926
70	0x3e45f517	0.19331776
71	0xbe8338b4	-0.256292
72	0xbdbf712b	-0.09347757
73	0xbe127908	-0.14303982
74	0x3e2be248	0.16785538
75	0xbe47f066	-0.19525298
76	0x3cbf0f47	0.023322714
77	0x3e217518	0.15767324
78	0xbec91e45	-0.39280906
79	0xbe5104e6	-0.20412025
80	0xbdcde1ed	-0.100528575
81	0xbe76c55c	-0.24098724
82	0x3e826247	0.25465605
83	0x3ed6563a	0.4186266
84	0x3d9a233c	0.07526252
85	0xbdb0e3af	-0.08637177
86	0xbea86fad	-0.32897702
87	0xbd82f302	-0.06394006
88	0x3ec4340b	0.38320956
89	0x3dca528b	0.09879025
90	0x3c856da9	0.016287642
91	0x3e85c42b	0.26126227
92	0xbd9b13e7	-0.075721554
93	0x3de69597	0.11259001
94	0xbe601d4b	-0.21886174
95	0x3e2d37df	0.16915844
96	0x3e8029d1	0.25031903
97	0xbe59b008	-0.21258557
98	0xbe81ad69	-0.25327614
99	0xbdcb0551	-0.099131234
