data/model/rl_training_conservative/4/820.pth (torch, 44823 bytes, 5 tensors)

linear.weight f4 [100, 4]
00000000: 2d4f c83e 0edc 893e adce eb3e abdf 493d
00000010: b5ad e9be f708 01bf 72ba 10be a665 0cbf
00000020: 45bc ddbc f764 dbbe 575a 58bd f9f6 b1be
00000030: 4769 853e 69d6 d33e a563 ffbc 7d44 adbe
00000040: 9678 9fba aba2 52be dab1 94be d213 dfbe
00000050: 23da 67be f50e 32be f8cc f4be 1fcf c43a
00000060: 7adf d7be f993 a53e cc14 c4be 3bb8 8a3d
00000070: 23a4 ea3d 5fa0 873e a6a5 f03d 771e 953d
00000080: ebdd 953e ec18 c23e 064d 1c3f e397 863d
00000090: 7209 993e 34dd a6be 37fe aa3e c01c d83d
000000a0: 3a0e a83e 8f33 fcbe b77c e23e 3824 e93e
000000b0: becd 793e 493d aabe 89b4 933d 7e96 6ebe
000000c0: b9ac 8cbd 9cd1 5f3e 5ae8 a1be d680 efbe
000000d0: d77e 823e 1f6c c4be c880 0a3e 3a46 e0be
000000e0: c445 30be e86c d6be 4182 463e a204 ee3c
000000f0: ae90 ddbe 0a0b 923e d376 c93e c216 56be
00000100: 8d52 45be 60b3 e5bc b139 8cbe 79e5 da3e
00000110: 59cf 0dbd 3f2f 50be 5b2e a13e 778f bf3e
00000120: 921a 8c3e e9de 943e 8b25 043f d855 7bbe
00000130: 3731 01be 29a4 903e fea6 b9be f98d e73e
00000140: 83e1 e5be 07b8 603e 5255 033f 463a 3a3e
00000150: 9597 a8be 57e0 f83e 23e4 8b3e 7c19 e13d
00000160: a9a2 eebe 8b2c 73bd 21a0 a8be b361 353e
00000170: da80 9d3e d550 46be 05f8 b9bc cdad fbbe
00000180: 8375 3fbd 1ec2 6a3e 2877 893d f032 973e
00000190: 638c 82bd 6393 fabd c618 003f 3e8b 6abe
000001a0: a632 aabe d62f a3bd 91e8 003f e13d 083f
000001b0: a862 203d 9bf0 523e 0cb3 8ebe a428 063f
000001c0: d0f2 90bd 822c 8fbe 6711 8cbe 7cde 033f
000001d0: 5df8 ebbe f448 9ebd c5df a1be 30f3 cbbd
000001e0: efdf df3e 1fd6 5bbe 84cc 4a3d 7157 e13e
000001f0: 7dd2 abbd d371 533d 1a61 e53e 479f 62be
00000200: 8c0c c43e d139 e7bd e125 d5bc e123 9e3e
00000210: e1fd e73b 43d8 7cbe e80b d3be 1673 ff3e
00000220: ff42 693e b246 9f3c a8ee 3b3e 2c4c 7b3e
00000230: 17d8 bd3e c711 05be 949d 0f3e a820 903e
00000240: 2569 883e bf74 0f3e 9232 c0be 3d98 c2bd
00000250: 4052 8fbe 963f bfbe 081f 4dbe 5931 cf3e
00000260: 092d 31be 919f ccbe bde8 393e 9873 12be
00000270: acc6 b4be baae cebb 32b5 dbbe 6cf2 a0be
00000280: f2b3 8cbe f4a9 97be 9cbd d33e 1460 533e
00000290: 11c9 99be 15b7 223d b667 1a3f 0930 a53d
000002a0: c437 ac3c b187 713e 4b73 cd3d 27d4 d83e
000002b0: b192 7f3e 4f7f 39bd 5e52 be3e 9621 b53d
000002c0: efb4 223d 677f 78bd 26c5 1bbe 7430 89be
000002d0: b076 b43e a9ea c6bc 0a02 66be 1a86 f83e
000002e0: 92d3 ce3e 3674 913e 22fe c93e 7510 bbbe
000002f0: 9254 b83e 959e c53e 35bf 8e3d c0c7 093d
00000300: 3f92 ee3e b142 923e aa32 c4bd fad1 14bc
00000310: 71c2 cdbe dd3f f53d f69a d2bd 5700 ae3e
00000320: 2bae a13e 3d55 bdbe b0f9 053e adbf 813e
00000330: af6c dcbe 729f 0cbe 4553 b7be 06e1 ff3e
00000340: 0cd1 f6bd 5956 bb3e 3833 07bf 4fc3 c8be
00000350: 2401 f2be 796b 59bd d6bd 04bf 81cc d73d
00000360: 691a b63e 4fb0 ca3e 545c 71be 6e5e 82be
00000370: 3bd1 29bc 37db 413d 8fa1 ffbe 6fc6 f8be
00000380: c989 8ebe b67f a43e d8b8 973e 023d d9be
00000390: 8fe3 c33d d0ec 4c3e 12b1 0bbe b778 753e
000003a0: 7971 86be 6c3d d3be 0376 d13d 0834 1e3e
000003b0: 4973 a73e ada0 9bbe 3984 b03e 9bd8 8cbe
000003c0: b46b c4bd 95e8 c53e 3bb5 81bd d59b ff3e
000003d0: 0fda 01be 0d6e a93e 02b2 1a3e 510e 0c3f
000003e0: 697e ebbe b9c1 f3bc 0f9c 12bf e1ea b0be
000003f0: 7c74 9f3d 2c33 a13c b5d7 9c3e ff03 0dbf
0.39122906 0.269257 0.4605612 0.049285572 -0.4564034 -0.50404304 -0.14133623 -0.54842603
-0.027067313 -0.42850468 -0.05282053 -0.34758738 0.26056883 0.4137452 -0.031175444 -0.33841315
-0.0012166675 -0.20569865 -0.2904194 -0.4356981 -0.22641806 -0.17388518 -0.4781263 0.001501534
-0.42162687 0.32339457 -0.38297117 0.067734204 0.11457088 0.2648954 0.11750345 0.07281201
0.29270872 0.3790964 0.6105503 0.06571939 0.2989002 -0.3259064 0.33397076 0.105523586
0.32823354 -0.49258086 0.44235775 0.45535445 0.2439489 -0.33249882 0.07212169 -0.23299596
-0.06868882 0.21857303 -0.31622583 -0.46777982 0.25487396 -0.3836374 0.13525689 -0.4380358
-0.17214113 -0.41879964 0.19385625 0.029054943 -0.43274444 0.28524047 0.39348468 -0.20907119
-0.19269772 -0.028039634 -0.27387765 0.427532 -0.03462157 -0.20330523 0.3148068 0.37414142
0.27364022 0.29076317 0.51619786 -0.24544466 -0.1261643 0.28250244 -0.36260217 0.45225504
-0.44898614 0.21945201 0.51302063 0.18186292 -0.32928148 0.48608658 0.27322492 0.10991189
-0.46608475 -0.05936865 -0.3293467 0.1771305 0.30762368 -0.19366772 -0.022701273 -0.49156037
-0.046742927 0.22925612 0.067121804 0.2953105 -0.06374433 -0.12235143 0.500378 -0.22904679
-0.33241767 -0.07968108 0.5035487 0.5321942 0.039156586 0.20599596 -0.27870977 0.5240576
-0.07077563 -0.27963644 -0.27357027 0.5151136 -0.46087924 -0.077287585 -0.31616035 -0.09958494
0.43725535 -0.214684 0.049511448 0.44012025 -0.08389757 0.051622223 0.44800645 -0.22131072
0.38290823 -0.112903245 -0.026019039 0.30886748 0.0070798253 -0.24691872 -0.4122002 0.4989249
0.22779463 0.01944289 0.18352759 0.24540776 0.37078926 -0.12995063 0.14024955 0.28149915
0.2664272 0.14009379 -0.37538582 -0.095016934 -0.2799244 -0.373532 -0.20031369 0.40467337
-0.17302336 -0.3996549 0.18155189 -0.14301908 -0.35307825 -0.00630745 -0.4291168 -0.31434953
-0.27481037 -0.2962185 0.41355598 0.2064212 -0.30036214 0.039725382 0.603145 0.080658026
0.021022685 0.23586918 0.10031756 0.4234936 0.24958302 -0.045287427 0.37172216 0.08844297
0.039723333 -0.060668375 -0.15211925 -0.2679478 0.352468 -0.024281817 -0.22461715 0.4853981
0.4039579 0.28408974 0.394517 -0.36535993 0.36002022 0.3859755 0.069700636 0.033637762
0.46595952 0.28566507 -0.09579976 -0.009083265 -0.4018741 0.119750716 -0.10283463 0.33984634
0.31578192 -0.36979094 0.1308353 0.2534155 -0.4305167 -0.13732699 -0.35805717 0.49976367
-0.12051591 0.36589316 -0.5281253 -0.3921151 -0.47266495 -0.05308101 -0.51852167 0.10537053
0.35567024 0.39587638 -0.23570377 -0.2546267 -0.010364826 0.0473282 -0.49927947 -0.48588893
-0.27839497 0.32128686 0.29633212 -0.42429358 0.09564888 0.20012212 -0.13641766 0.2397183
-0.26258448 -0.412578 0.10227587 0.15449536 0.32705143 -0.30396023 0.34475878 -0.27509007
-0.09590855 0.38654009 -0.06333395 0.49923578 -0.12680839 0.33091775 0.15106967 0.54709345
-0.4599488 -0.02975546 -0.57269377 -0.34554198 0.077858895 0.019677721 0.3063332 -0.5508422

linear.bias f4 [100]
00000000: 1f3b 3c3e 18d2 373e e599 b6bd 6618 853e
00000010: 4296 dbbd 942a c3be c110 a9be 63a5 c3be
00000020: 627b aa3e 6386 8a3e ec1b 3f3e d8af eebe
00000030: 7f44 b1be 3323 753c 3227 1ebd 6983 14be
00000040: 3414 86be 6195 dc3d 7b9f 4e3c 39da 00be
00000050: fa8f 69be 91a5 8f3e 8274 d53e 6628 f73e
00000060: c3d1 89be ff29 9b3e 63db cc3e b0a0 a53e
00000070: 579a 93bd d7f3 c6be 8ca7 d7bd bb4b 703e
00000080: f5f6 dfbe 0599 debd 0361 85be 3dd4 9fbd
00000090: ba54 63be 0f31 72be 340e 433e e6d0 40bd
000000a0: 00e5 d4be 3a74 e53e 96e3 d6be 4692 713e
000000b0: f598 e63e 0d13 debe 7574 213e aeb0 523e
000000c0: 3e98 a33e 905e a3be 2422 09be 016e 733d
000000d0: 1366 903e d631 cabd 17a5 7abe 256a 6f3e
000000e0: edd5 b23e 71a0 e9bd 4cd9 b73e 7645 2dbe
000000f0: 2b94 e0be 0162 91bc 3a9a a23d f4a6 193c
00000100: 2941 e03e cafc b8be 31d7 793d 53b8 693e
00000110: 9e66 9cbe 1f51 433e bf54 aabe 0342 b6be
00000120: cab5 7fbd 2dfb d9bd b12d 523e 1b93 353e
00000130: d8e5 4f3e bf59 60be 73d8 b93d 8aee bfbe
00000140: 68f2 e4be da0f 6abd 054a 8a3d 0444 403e
00000150: fd3c 9bbe ea21 d1bd 4988 d6be b536 0bbe
00000160: 901b 17be 6b88 043e 71b0 b23e 35ef d5be
00000170: fca1 c93e ebd3 81be 1b48 ba3e d32d c1be
00000180: a188 92bd 15c1 b4bd 26e0 b1be b954 373d
0.18381928 0.17951238 -0.08916072 0.25995177 -0.10722019 -0.38118422 -0.33020595 -0.38212118
0.3329726 0.27055654 0.18662995 -0.46618533 -0.3462257 0.014962005 -0.0386116 -0.14503254
-0.2618729 0.10770679 0.012611265 -0.12583245 -0.22808829 0.28056005 0.4169045 0.4827301
-0.26917848 0.30305478 0.4001113 0.32349157 -0.07207172 -0.3885791 -0.10530004 0.23466389
-0.437431 -0.1086903 -0.26050577 -0.07804153 -0.2220029 -0.23651527 0.19048387 -0.04707422
-0.41580963 0.44815236 -0.4197051 0.23590955 0.45038572 -0.4337391 0.15767081 0.2057521
0.3195209 -0.31908083 -0.1339193 0.05943108 0.28202876 -0.09872787 -0.2447704 0.23380335
0.34928837 -0.11407555 0.35907972 -0.16921028 -0.43863043 -0.017746927 0.07939573 0.009378184
0.43799713 -0.36130363 0.06099624 0.2282422 -0.3054704 0.19073914 -0.3326778 -0.35597238
-0.062429227 -0.10643611 0.20525242 0.17731898 0.20302522 -0.21909235 0.090744875 -0.37486678
-0.4471619 -0.057144023 0.06752399 0.18775946 -0.30319968 -0.10211547 -0.41900852 -0.13595088
-0.14756608 0.12942664 0.3490024 -0.41784063 0.39381397 -0.25356993 0.36383137 -0.37730274
-0.07154966 -0.0882589 -0.34741324 0.044758532

hidden.weight f4 [100, 100]
00000000: 32e4 613b 7439 ccbb 255a 9b3b af26 a23d
00000010: 86ea ce3d 8d09 b13d 37da 283d 4436 bdbb
00000020: c653 b1bd 1133 67bd 15d1 cfbc c8a2 163c
00000030: 545d b63d 4d79 043e e34e 9dbd 08ac 523d
00000040: a4a1 6ebd 07d5 22bc 3cf2 92bd 3b32 12bd
00000050: 0591 373d 2baa 073d 6a5c f1bb d4a8 39bd
00000060: 8dbf 96bc 66cb f63c 4ac8 38bd 899b dabb
00000070: a0c0 923d 04df fd3c e37b 7d3d 9909 97bb
00000080: b53b ae3d a3ed 533d 7bf1 65bc 6f19 41bd
00000090: a762 9f3c 08a9 bfbd c6fb 8fbd a81f 083e
000000a0: dd0a d2bd 405c c3bd 1e0a 71bd 1cb5 a83d
000000b0: bf47 8f3c 0e0d abbd c471 9dbd 9478 0bbd
000000c0: 98f9 723d 8e00 a0bb e79e 18bc 7554 a0bd
000000d0: 7545 183d 264f 40bd 966c 44bd a647 7d3d
000000e0: 3b24 28bd 8e15 593d 7ece 353d edc4 443d
000000f0: 0f2a 963c 60fd b8bd 3710 92bc bba5 1d3d
00000100: 08be 24bd f65b dbbc 12da da3d 8de7 6cbc
00000110: 83d6 633d e547 c33d 726c 8cbd 31af 833d
00000120: f397 40bd 44d8 c63d 148d 79bc f4be f0bd
00000130: 83c5 9e3d 9f47 973d ebec 5e3d 5c34 ff3c
00000140: b298 e4bd 0f72 ec3d 8fce ab3d cd01 283d
00000150: d281 36bd 8440 033d fe6b ddbb d892 803d
00000160: 8190 90bd af38 803d 5bfc b3bd 0c92 973a
00000170: 6bdb 92bd 2661 ccbb 62cd 1fbd 3d43 963d
00000180: 59b8 b43d f833 ccbd 7ae0 b4bb a89f 3f3d
00000190: 1bf5 523d 8e2f fe3d b0fb 693b 15f5 ab3d
000001a0: e6c3 1f3e 7dc7 c73d 095a 403b 5140 14bd
000001b0: 3079 90bc cc19 883d 3695 5a3d 9579 783c
000001c0: 7eec 27bd b69f a63d d5d0 4e3d d289 823d
000001d0: 394a 143d 42d9 2ebd c53b 5c3d 32a4 1c3d
000001e0: 8eb5 19bc b762 61bc c707 b9bd f2c3 5abb
000001f0: c5ba afbd 8b62 9d3d 04e6 4abc 13c2 2f3d
00000200: f923 183d 7696 523d d2eb af3d a450 e4bc
00000210: f992 a9bd b423 8dbd 98b1 adbd b06f 7d3d
00000220: 2ffe 35bc 22bf 90bd 794f f7bc 5aa5 bd3c
00000230: 859c 71bc ec4e 033d 9a5a 06be 4328 5bbd
00000240: af4a d33c 333d 7c3d 8eab 6cbd 9182 203d
00000250: 2325 c73d f8c8 83bd b13d 9c3d 9506 ffbc
00000260: 0de8 043e 1d1a 763d bf1b 483c 9a91 2b3e
00000270: 591b 4f3b 96ce c7bd 64d8 793d 8fa2 a93d
00000280: 39b9 93bd f280 74bd 6571 c9bb cc6e 363d
00000290: f243 61bd 8d1f 3dbd 0ecf 343d b692 3a3c
000002a0: 6159 a03d 7eef c43c 3442 6c3c 1c76 aebc
000002b0: 8035 b4bd 1707 863d c750 a93d 0c48 a23c
000002c0: b669 fb3d e10c fa3c 48f2 c0bb 87df 91bd
000002d0: 6e5a ce3c e85a e23d 869b 46bd 71fd 863d
000002e0: 3a6b 0bbe 5ea4 d4bd aa56 a3bb 7910 3abc
000002f0: b32b 35bd 698a 43bd 51a9 90bd 3edc 4a3d
00000300: fad3 e73c 9157 85bd d16f cabd e558 b73b
00000310: deb3 af3d f025 d2bd 8351 7c3d 65b3 9bbd
00000320: ae11 d1bd 93e3 063e 9d8d 333d 6712 033d
00000330: 46c1 f33d fb79 b73c 16ea 783d c7b9 3e3d
00000340: 5c02 b9bc d670 a23d 5161 fdbc 92d1 81bd
00000350: cc54 ed3d d54e 9a3d 0f9b 463d 4ceb a9bd
00000360: 6811 1f3d 5bdc 68bd 9693 9abd 3e51 2ebd
00000370: 51ad 71bc 272a f0bb 14cf 97bd e9d3 ddbc
00000380: f42f 963c 115c 313b e0c9 84bc 56fb 10bd
00000390: 65fe 6ebd e05c 71bd 262c b83d 514a 47bd
000003a0: 1bd9 9bbc 9b92 503d bee8 203b 04a1 4e3c
000003b0: bbda d63d 3a30 e6bd 5e9d 7f3c a425 083e
000003c0: 6c63 51bd 5aa6 80bd c45c c4bd 1702 6a3d
000003d0: fc5c 303c 7a7c 793d 6685 5d3c 0c25 903d
000003e0: 5902 803d 37cb 273d 5481 9f3d 5ebe 6e3d
000003f0: 779e e83d 6318 7ebd 9824 d43d e08e 823d
0.003446829 -0.006232435 0.0047409707 0.079175346 0.101033255 0.086444 0.04122373 -0.005774291
-0.08658557 -0.056445185 -0.025368253 0.0091940835 0.0890452 0.12936898 -0.07681062 0.051433593
-0.05825962 -0.009938485 -0.07175109 -0.035692435 0.044816036 0.03312127 -0.007365753 -0.045327023
-0.018401885 0.030126285 -0.045112886 -0.0066713733 0.071656466 0.030990131 0.061885726 -0.0046092984
0.08507482 0.0517403 -0.014034624 -0.047143396 0.01945622 -0.09358412 -0.07030444 0.13293326
-0.10255978 -0.0953908 -0.05884754 0.08237669 0.017490266 -0.08352099 -0.07687715 -0.03405054
0.059320062 -0.0048828786 -0.009315229 -0.07828609 0.037175614 -0.04695048 -0.047955118 0.061835907
-0.041050177 0.05299907 0.04438638 0.048039366 0.018330602 -0.090327024 -0.017829997 0.03848813
-0.04022029 -0.026777249 0.10686125 -0.014459503 0.055624496 0.09535197 -0.06856622 0.064298995
-0.04701991 0.09709218 -0.01523139 -0.117551714 0.07752516 0.073867075 0.05442516 0.031152897
-0.11161937 0.115451925 0.08389007 0.041017342 -0.0445574 0.03204395 -0.0067572584 0.06278008
-0.07058812 0.062608115 -0.08788367 0.0011563911 -0.07170757 -0.006237167 -0.039014228 0.073370434
0.08824224 -0.0997085 -0.0055199238 0.04678312 0.051503282 0.12411414 0.0035702996 0.08396355
0.15602073 0.09754846 0.002935054 -0.03619415 -0.017635912 0.06645545 0.053364955 0.015165706
-0.04099702 0.08135931 0.050492126 0.063739434 0.036203597 -0.042687662 0.05376794 0.038242526
-0.009381665 -0.013756446 -0.090346865 -0.0033380953 -0.08580545 0.07684811 -0.012383942 0.042909693
0.03714368 0.051413022 0.08589901 -0.027870484 -0.08279986 -0.068915755 -0.08481139 0.06187409
-0.011107965 -0.07067706 -0.030189263 0.023150135 -0.01474679 0.032057688 -0.13120499 -0.053505193
0.025792448 0.0615818 -0.057780795 0.039187018 0.0972388 -0.06434816 0.07628954 -0.031131068
0.12979145 0.060083497 0.012213646 0.16754761 0.0031601994 -0.097562 0.06099738 0.08282959
-0.07213063 -0.059693284 -0.006147551 0.044539258 -0.05499644 -0.046172667 0.044142775 0.011387518
0.07829548 0.02403998 0.014420081 -0.021296553 -0.08799267 0.06544321 0.0826736 0.019809745
0.12276022 0.03052372 -0.005888257 -0.071227126 0.025189605 0.11052495 -0.048488162 0.06591309
-0.13615122 -0.10382913 -0.0049846964 -0.011356466 -0.044231128 -0.04773942 -0.070635445 0.049526446
0.02829932 -0.065108426 -0.098846085 0.005595314 0.08579229 -0.10261142 0.061601173 -0.07602576
-0.1020845 0.1317275 0.043836225 0.03199997 0.11902098 0.022397032 0.060770117 0.04656389
-0.022584133 0.07931678 -0.030930193 -0.063388005 0.11588439 0.07534567 0.04848772 -0.082968324
0.03883496 -0.056850772 -0.07547681 -0.042557947 -0.0147507945 -0.0073292437 -0.07412544 -0.027078586
0.018333413 0.0027062932 -0.016209543 -0.035395943 -0.05834808 -0.058926463 0.08992796 -0.048654858
-0.019024422 0.050921064 0.0024552788 0.012611631 0.10490938 -0.11239667 0.015601484 0.13295609
-0.051120207 -0.06281729 -0.09588006 0.0571309 0.010764357 0.060909726 0.013520574 0.07038316
0.06250448 0.040965285 0.07788339 0.058287017 0.1135835 -0.062034976 0.10358542 0.063749075

hidden.bias f4 [100]
00000000: 726a 113d b58b fdbc daa1 15bd 6669 4ebd
00000010: 46ef 563b 5e71 4bbd 18c5 a53d 4614 b93c
00000020: 392f 3f3c c9ed a9bd 3df0 2a3c 8875 323c
00000030: b7ea fcbb aec0 893d 41fe 68bd aa8c cbbc
00000040: de2f e2bc cfb6 063d ac82 263d 84d0 b2bc
00000050: 255b a3bd 96a9 dc3d f6ac 6d3d 106e 163d
00000060: 4fd3 023d 3dfd 2f3d e048 ca3d 5b0c 8e3d
00000070: 95ca 70bd 86d1 ca3d 4cb2 a03c 312b 673d
00000080: a22a 62bd 060d 0c3d 9a7f 96bd 8af9 0cbd
00000090: a46d 873b 580c b63d 7197 793d 5b2b 743d
000000a0: c251 9ebd 37bb 84bc c0c5 2cbd df26 ecbb
000000b0: 0091 833d 69f5 b83d 2dea abbc 17e5 89bd
000000c0: c8e6 6b3d d88f 5e3d ecf3 e5bc 7054 11bd
000000d0: 3006 b0bd 3dfc 34bd 6851 b13c 175b 783c
000000e0: 5905 213d 5da9 993d f0ea efbc dc3a 243d
000000f0: f902 6abd e739 a33d f69b e93c 8c84 97bd
00000100: 4b3e 913d d0ef 7e3d 3036 1bbd a334 ba3c
00000110: 5391 6ebd 9321 bc3c 2109 9bbc 46a5 aabd
00000120: 4655 5c3c de94 2c3c 470c f23c ea2b b93d
00000130: 2000 883d 2d55 91bc 6b7a 81bc 521d 91bd
00000140: 7e25 d23d 9935 bc3d 83f7 57bd fc0f 6b3c
00000150: 6333 31bd bcac 13bd be9d 9f3d ffa2 b63d
00000160: 28ec d33b 2cac 03bc 24ea 14bc 4858 a3bd
00000170: d52b 99bd 460d 633d e8a4 2e3d 3019 00bd
00000180: 0ad9 af3d 9c79 95bd 2906 e03d f7c1 863d
0.035501905 -0.030950407 -0.036531307 -0.050393485 0.0032796427 -0.049668662 0.08094233 0.022592675
0.011668974 -0.08297307 0.010433254 0.010892279 -0.00771841 0.06726204 -0.0568831 -0.024847347
-0.027610715 0.032889184 0.040651962 -0.021827944 -0.07976369 0.107745335 0.058026277 0.036726058
0.0319398 0.042966116 0.09877181 0.0693595 -0.058786947 0.09903245 0.019616269 0.056437675
-0.05521644 0.034192108 -0.07348557 -0.034417666 0.004132943 0.08889073 0.06093544 0.05961166
-0.07730438 -0.016202552 -0.042180777 -0.0072067822 0.06424141 0.09031183 -0.020985687 -0.067331485
0.057593137 0.0543364 -0.028070413 -0.035480917 -0.0859493 -0.044185866 0.021645263 0.015158436
0.03931174 0.075030066 -0.029286832 0.040095195 -0.05713174 0.07970028 0.02851675 -0.07398328
0.070919596 0.06224042 -0.037893474 0.022730177 -0.05824406 0.022965228 -0.018925251 -0.08332305
0.013448065 0.01053354 0.02954687 0.09041579 0.06640649 -0.01774081 -0.015805444 -0.070856705
0.10261057 0.091899104 -0.05272628 0.014347073 -0.043261897 -0.036053404 0.07793759 0.08917808
0.006467361 -0.008036654 -0.009089027 -0.07975823 -0.074790634 0.05543258 0.042637736 -0.03127402
0.08586319 -0.07298586 0.10938675 0.065799646

output.weight f4 [1, 100]
00000000: 112e febd b47c 71bd fd28 31be 5720 0e3e
00000010: ee05 c63d cb81 023e 988d 9c3d b255 28be
00000020: b074 15be fc73 15be c4b5 14be 05dc fcbd
00000030: 2d58 ea3d 34d4 1fbe 2c8c b23d 2d31 943d
00000040: a6cf 9ebd 30a8 0fbe 259d c9bd a554 53bd
00000050: dab3 13be 5c2d 96bd d31e 00be 2411 fcbd
00000060: 2dc3 b8bd 30f1 a53d 45fa bc3d 3dbb e3bd
00000070: 0411 e8bd a251 133e 580c c03d 5645 773d
00000080: cbd9 d73d f4b3 e43d 7b5e f6bd 9593 073e
00000090: 6316 033e 9ba1 fcbd cf89 143e 47c7 1cbe
000000a0: c48e 163e d5c2 773d 8996 1f3e 6f23 aebd
000000b0: 8732 eb3d b9b9 e93d 6d98 d3bd cc6e 0cbe
000000c0: 155a b03d 9545 e2bd 20af c0bd b2ac c63d
000000d0: 55c8 12be 05d3 083e 0c23 aabd 9a18 ea3d
000000e0: 3ed7 dd3d 0537 f2bd db43 cabd bbe0 d53d
000000f0: 47a6 07be 0b81 98bd 4360 d03d 5453 12be
00000100: 8524 d0bd 17c2 95bd 8a2c 16be 17a3 f9bd
00000110: ed7e 3c3e 7995 d93d e867 fdbd b880 233d
00000120: c45e 0fbe 9d68 ffbd fb83 febd 97bd 99bd
00000130: 06d5 a3bd fd55 fa3d 3281 133e 3653 26be
00000140: d7b9 033e ce7a 02be 73af 7dbd c63c fd3d
00000150: b865 bf3d 9db3 fb3d 34f0 153e 713f 22be
00000160: 9116 fa3d cd8d 03be 3a64 1ebe 7d6c fd3d
00000170: a2e8 d9bd dd4e 29be 6595 43be f4ee 83bd
00000180: 6695 3abe 07a6 043e 498f 37be af1b 19be
-0.1241113 -0.058956817 -0.17300792 0.13879524 0.096691 0.12744825 0.07644194 -0.1643894
-0.14595294 -0.14595026 -0.14522463 -0.12346653 0.114425994 -0.15608293 0.08718142 0.07235942
-0.077544495 -0.14029002 -0.09844426 -0.051594395 -0.14424077 -0.0733287 -0.12511759 -0.12307957
-0.09021602 0.081026435 0.092274226 -0.11119697 -0.113313705 0.14386609 0.093773544 0.06036886
0.105395876 0.11167136 -0.120297395 0.13239892 0.12801509 -0.12335511 0.14505695 -0.15310393
0.14702898 0.06048854 0.15584768 -0.08502852 0.11484247 0.11412377 -0.10331807 -0.1371414
0.08610932 -0.11048428 -0.094084024 0.09700908 -0.14334233 0.13361748 -0.08307466 0.114304736
0.1083207 -0.118269004 -0.09876224 0.104432546 -0.13247024 -0.07446488 0.101746105 -0.142896
-0.101632155 -0.0731241 -0.14665428 -0.1218931 0.18407793 0.10624213 -0.12373334 0.039917678
-0.14000994 -0.12471125 -0.12427517 -0.075068645 -0.07999615 0.12223432 0.14404753 -0.1624268
0.12863861 -0.12742159 -0.0619349 0.12365107 0.09345573 0.12290118 0.14642411 -0.15844513
0.122113355 -0.12847061 -0.15467921 0.12374208 -0.10640074 -0.1653399 -0.19099958 -0.06442061
-0.18221053 0.1295396 -0.17925753 -0.14951967
