data/model/slrl_training_liberal/2/770.pth (torch, 44823 bytes, 5 tensors)

linear.weight f4 [100, 4]
00000000: 66bb f23e 07ba fc3e d88a 903e 663c 1dbe
00000010: 5fb7 0abe a8e9 bb3d a89f d0be 4efb 25be
00000020: 09ea 7fbe 6819 cabd ecd1 073f d337 693e
00000030: ed7f 82bd fe76 b7be af0c 20be 0a2d 0e3e
00000040: 6632 01be 83f4 c13e 19d0 303d 15e6 74be
00000050: be48 a2be bcf7 793e 5cf7 e33e 92db 2a3e
00000060: 51a8 9cbe 26c2 e33e 1220 cc3d 3aaf b43e
00000070: 41d5 433e abf5 b13e 5804 af3e 1386 d0be
00000080: 3777 bb3e 748e 59be d610 0f3d 3e0e 043f
00000090: f2e7 a5be 33e6 98be 9a87 afbe 4c5e 5bbc
000000a0: cb67 1a3e 2011 f8bd 2d84 16bd a4eb 053f
000000b0: 891c 573e 2ad7 8b3e eb71 c2bd 4ee6 fb3e
000000c0: e50c c6be 00e0 e43e 10e5 d6be 9b7f 5abe
000000d0: 2bf4 e3be 0d1a 983e 4f1e a5be d169 eebe
000000e0: 2375 d4be fa98 bc3e aaea bcbd b454 0b3e
000000f0: 44b7 eabe 5cac e439 c945 f03e 4491 bb3e
00000100: 63ea d8bc 2a89 fdb9 fc02 a9be d259 ef3e
00000110: 28ba b4be 089f b73e 3c14 0abe 3b6d 19be
00000120: 6058 90be a75f 443d a0af ee3d 631c a13e
00000130: 8a9c 4abe 581c adbe 6be9 38be b2f5 f7be
00000140: 225a 86be e785 cdbe ed6d 7a3e 5ba7 993e
00000150: 1c20 3dbe 3336 c9be 11dd debe 18b2 8cbd
00000160: 434f e9be e241 5fbe f43e 693d cdfd 923e
00000170: af08 583d 6bfc 8bbd f09e 94be d2a5 6bbe
00000180: ac45 57be 0d1e b1be 9f1c 77be 1a1b ecbe
00000190: ed20 843e b286 923e 0c18 53be 0709 793e
000001a0: b0c8 0bbe 2aae 14be bd6d 5dbe 6b41 d13e
000001b0: e4b3 d9be fd0e 573e 5681 e9bd b26d 533d
000001c0: 94df 2c3e a5a6 5dbd 086a 0cbf c9a7 6fbd
000001d0: 682b b33e 1268 80be 2742 cb3e 3b3e bebe
000001e0: 1fce d03e 2fa5 bb3e b684 c2be 4604 8b3e
000001f0: bc9c 233e 3423 b1be a9ae 673d 396f a3be
00000200: 73ed 363d b419 313e 47ea acbe ec36 f43e
00000210: e794 163d 5c32 dd3e 7711 483e 0ec9 f33e
00000220: 48b2 e33e 3d2a 233e 6289 3ebe 01e3 bb3e
00000230: 65ce 9cbe 9b55 d63e f2b7 21be 02b7 cabe
00000240: 7324 b4be e1d9 143e 609d 04be 561f bcbe
00000250: 55f3 76be bfff 4cbc f977 e8be 0aad adbd
00000260: b6ff 863d f1db c03e 8fae 94bd 6c2e 93be
00000270: a52d e33e d459 cdbe 1d65 4ebe 479a 76be
00000280: 5dfa adbe 9dd3 193d ed0c b6bd 503f 7d3e
00000290: 8deb 2abe c8c6 b0be 4586 6fbe d741 b5bc
000002a0: 6267 a43e f7f0 843e 191d 893b 3f3a 6bbe
000002b0: ab98 fb3e 4acb 5c3e 8951 d63e c8be af3d
000002c0: c9fa 083e 4459 7e3e 736c 643e 80ea c1be
000002d0: 22b4 923e b031 453e 21db bbbe 1ad5 8e3d
000002e0: b9e5 8dbe 6bc5 463e 06c1 aa3e c612 983e
000002f0: f507 34be 4c4c 903e 13fb 2f3e 85da c33e
00000300: 6cdc f63d a784 e7bc 2792 0c3a 36e3 d73e
00000310: 9c02 e63e 82d0 31be 6db1 72be 0e07 9abd
00000320: 5d5c cc3e 2a2c 7b3e 2971 e13e 8394 d13e
00000330: 324a ea3e f096 c7be ddc8 a9bd 1b46 ee3e
00000340: 3a81 cebd acee e03d c319 57be 8184 f5bd
00000350: 6077 91bd 7ffa ccbc 4b73 c33e b6f4 de3e
00000360: 9696 1abe a285 44be 279e 19bf 11ec 373d
00000370: cd57 96be 57a0 f83e 7f15 f83e 7deb c4be
00000380: 492f 22be ff23 04be 92b6 6f3e 131c 31be
00000390: 99a6 d83d b6b4 f23d 5c5a 0c3f 9f29 cf3e
000003a0: 684a 9f3e 8dc3 cebe 4985 293d a0ad 8ebe
000003b0: a6c1 84bd 1c36 babd d1bc 96be ea8b c23e
000003c0: 9b15 ecbe 5ed2 d6bd cde5 823d 2f48 02bf
000003d0: da32 833e 343d 0a3e 771a 1bbf 44c8 a23e
000003e0: cc2d 4f3e 7ece db3e 942b eabe 1217 49be
000003f0: 6a72 ee3e 71a6 fb3e 8aba 54be 99c9 c43e
0.474086 0.49360678 0.2823093 -0.15355071 -0.13546513 0.09175426 -0.40746808 -0.16209146
-0.24991621 -0.09868127 0.5305469 0.22775201 -0.06372056 -0.3583297 -0.15629838 0.13884369
-0.12616882 0.3788186 0.043167207 -0.23915894 -0.31696123 0.2441091 0.44524658 0.16685322
-0.30597165 0.4448406 0.099670544 0.35289937 0.19124319 0.34757742 0.34183002 -0.4072729
0.3661439 -0.21245748 0.034928165 0.5158423 -0.32403523 -0.29863128 -0.34283143 -0.013389181
0.15078656 -0.12112641 -0.036747146 0.52312684 0.21006979 0.27312595 -0.094943844 0.49199146
-0.38681713 0.44702148 -0.41971636 -0.2133774 -0.44522223 0.29707375 -0.32249686 -0.46565107
-0.41495618 0.36835462 -0.09224446 0.1360653 -0.45842946 0.00043615967 0.46928242 0.36634266
-0.026478952 -0.00048358116 -0.3301009 0.46748215 -0.35298276 0.3586352 -0.13484281 -0.14983074
-0.28192425 0.047942784 0.116545916 0.3146697 -0.19786277 -0.33810687 -0.18057792 -0.48429638
-0.2624064 -0.40141222 0.24455996 0.30010495 -0.1846928 -0.39299163 -0.43528035 -0.06869906
-0.45568284 -0.21802476 0.056944802 0.2870926 0.052742656 -0.06835254 -0.2902751 -0.23012474
-0.21022671 -0.3459324 -0.24132012 -0.46114427 0.2580637 0.2861839 -0.20614642 0.2431985
-0.13650775 -0.14519563 -0.21623893 0.40870222 -0.42520058 0.21001811 -0.11401622 0.051618285
0.16882163 -0.054114003 -0.5484929 -0.05850962 0.34994054 -0.250794 0.39698908 -0.37156853
0.40782258 0.36649463 -0.37991875 0.27151698 0.15977758 -0.3459717 0.056563053 -0.31920794
0.044660043 0.17294961 -0.3377249 0.47698152 0.036763098 0.43202484 0.19537912 0.4761433
0.44471955 0.15934081 -0.18607095 0.36696628 -0.30626217 0.41862187 -0.15792826 -0.3959275
-0.3518406 0.14536239 -0.12950659 -0.36742657 -0.24116261 -0.0125121465 -0.45404032 -0.0848027
0.06591742 0.37667802 -0.07259857 -0.28746355 0.44370762 -0.40107596 -0.20155759 -0.2408229
-0.33980075 0.037555326 -0.08889184 0.24731183 -0.16691418 -0.34526658 -0.23391064 -0.022126121
0.32110125 0.25965092 0.004184377 -0.22971438 0.49139914 0.21561924 0.4185908 0.085813105
0.13376917 0.2483874 0.22306995 -0.37874222 0.28653055 0.19257236 -0.3669062 0.0697424
-0.27714327 0.19411246 0.3335039 0.29701823 -0.1758116 0.2818321 0.17185621 0.38252655
0.12053761 -0.028261496 0.00053623546 0.42165536 0.44923866 -0.17364696 -0.23700495 -0.07520877
0.39914218 0.24528566 0.44031647 0.40933618 0.45759732 -0.38982344 -0.08290265 0.4653786
-0.10083242 0.10983023 -0.21005921 -0.11988164 -0.07102847 -0.02502179 0.381739 0.43546075
-0.15096506 -0.19191602 -0.60006946 0.044902865 -0.29363862 0.4855983 0.484539 -0.38460913
-0.1583835 -0.12904356 0.23409489 -0.17295866 0.10578651 0.11850874 0.5482538 0.40461442
0.31111455 -0.40383568 0.041386876 -0.2786684 -0.06482248 -0.09092352 -0.2944093 0.3799737
-0.46110234 -0.10489343 0.06391487 -0.50891393 0.25624734 0.1349991 -0.6058726 0.31793416
0.20232314 0.4293098 -0.45736372 -0.19637707 0.46571666 0.49150422 -0.20774284 0.38435057

linear.bias f4 [100]
00000000: eae3 18be ff77 59bd e6b3 25bd 6ab8 b7bd
00000010: d596 bb3e 12c7 6cbe f2ed 4bbe b41a 9e3e
00000020: cd66 dc3e 0451 72be 216d a53e 8f56 e43e
00000030: fe58 543e 8851 91be 8cfe 61be 0acc da3e
00000040: 93f7 59bd 262b b33e 422f cb3e 0aa1 e4be
00000050: aaa2 3c3e 691d 47bd f356 0dbd 39b6 89be
00000060: 92fb 83be eb7c f6be 039d 683e b789 b8bd
00000070: 6aa1 a03e ffbb f1be b175 92bd 0e28 f53e
00000080: b285 023f 6dd8 75be eeb0 1dbe 99d2 55bd
00000090: ce59 9ebe 78b4 aabe 5e08 e63b 9ee6 db3d
000000a0: 0844 e23e ed1a 143e 8afa 573e b112 ce3d
000000b0: 732d a3bd d27e 853e 0693 fb3e 2cdc e5bd
000000c0: d82d e4bd afa1 4a3e cbf9 ea3d 32f5 acbd
000000d0: f3af 47bd e20b 30bd dd3e 423e e9fb 7fbd
000000e0: a4d2 96be b890 a3be 29fa e23e a639 9e3d
000000f0: 401c 963e 140d fe3e 4ebf 873e 358d 34bd
00000100: 43fb cb3e 64e4 debd 9d30 eb3e 499a ce3d
00000110: 70a0 c33e c39e df3e 4911 bf3e 2027 003f
00000120: 8037 afbe 420e fdbd 9ea1 393d da4b 763e
00000130: 8f57 00bc ce6b 55bc 7632 3f3e 0def 063e
00000140: befe 96bd 18d6 9b3e b68d a73e 6e31 27be
00000150: 8591 153e 4eb3 f03e be21 fe3d 0174 e0be
00000160: cb3c bebe 40ab 2e3d 3cc8 b33e f03b a73e
00000170: e9e9 bcbd 02e5 99be 91ee 18be 0822 f23e
00000180: 98c3 d5bc aaa9 453b b4b9 d4be 23fa 8ebe
-0.14930692 -0.053092953 -0.040454768 -0.08970721 0.36638513 -0.23122814 -0.19914988 0.30879748
0.4304718 -0.23663718 0.3230982 0.4459729 0.20737073 -0.28382516 -0.22069758 0.42733794
-0.05321462 0.34993857 0.39684492 -0.44654113 0.18421426 -0.048612032 -0.03450675 -0.26896837
-0.2577787 -0.4814218 0.22716145 -0.09010642 0.3137315 -0.47213742 -0.07151354 0.47882122
0.5098525 -0.24008341 -0.15399525 -0.052202795 -0.3092789 -0.33340812 0.0070200404 0.10737346
0.4419253 0.14463396 0.21091667 0.10062159 -0.07967653 0.2607332 0.49135607 -0.11223635
-0.111415565 0.1978824 0.114734255 -0.08445205 -0.048751783 -0.042980082 0.18969293 -0.0624961
-0.2945758 -0.3194635 0.44331482 0.07725839 0.29318428 0.49619353 0.2651314 -0.044079978
0.39840135 -0.10883406 0.45935526 0.10088021 0.38208342 0.43675813 0.37317875 0.500597
-0.3422203 -0.12356235 0.045320146 0.24052373 -0.007833376 -0.013026191 0.18671593 0.13177128
-0.07372807 0.30436778 0.32725304 -0.1632745 0.14606293 0.470118 0.124087796 -0.43838504
-0.37155756 0.042643785 0.35113704 0.32662916 -0.09224302 -0.30057532 -0.14934756 0.4729159
-0.026094243 0.0030160942 -0.4154793 -0.27925214

hidden.weight f4 [100, 100]
00000000: 99ff 01bd 4e60 30be d5d3 563d 2002 46bd
00000010: c80a 4ebd 60fe 5d3b ba3f ffbc 2a02 d4bd
00000020: 8a7d ec3d 2ed0 5b3c c819 0ebd 2245 a13b
00000030: 84d4 9abc 73cb e7bd fe02 853d 08dd 8839
00000040: 3d86 e73d 4daa ad3d 35b0 903d cb96 cabd
00000050: cd99 8f3d a7c2 ffbc 5f69 ea3c 8df6 813c
00000060: c403 2abe 364b 9cbd b42d 75bd ae64 b83b
00000070: 7c0e e1bd 8abd 193d cb55 383d 95c3 e7bb
00000080: 44ac 653d 442b 1dbc 9c3d 463d 1b9c 48bd
00000090: b794 65bd ee69 0c3c 7101 5cbd 975b a3bd
000000a0: aeb5 32bd 5039 053d bf92 b7bc 308e 72bd
000000b0: eb0f d3bd 3788 a5bd a71e 023e 6f22 273e
000000c0: 7b51 053e 316e b7bd 4f9c a63d 7f4d c3bd
000000d0: e9fb 35bd dd8b 653c 047b dfbd a978 843d
000000e0: c494 8f3c 31bf 063e f530 a9ba ad72 41bc
000000f0: b474 d03c 4b53 0c3d ef15 e0bb 7c28 90bd
00000100: 389b 26bd 097e 933d 6e9e 7d3c 985f eb3c
00000110: 5643 43bd 1ef5 603c f501 0abe 635c b63c
00000120: 4bbf 493d e015 d2bd e4c3 1b3e 499e 473c
00000130: a672 b6bc bdb1 2a3d a990 943c 9797 b93d
00000140: 498f d23c 12b9 0f3d 405b f53c 1a10 e93d
00000150: 639b d5bd 4836 893d 56bc f93c cb1f 37bd
00000160: 97cc 913c 6030 d53d fa25 733d 1576 b7bd
00000170: 7269 67bc 9def 55bd e2cf 8abd 2ef6 e4bc
00000180: 5d66 99bd 6969 9b3d 24ee 1dbd 2539 f13c
00000190: 49bc 42bd 8072 163c d39e afbd 2982 54bd
000001a0: 7b15 fc3c e063 5a3d 40c3 cf3c 5a6e bc3d
000001b0: 5e3b b3bd 951c 8b3c cdd1 243b dfd3 d13c
000001c0: d034 e23d e93c 62bd 55b7 333d ff8f cabd
000001d0: af8f cbbc ca93 083d d299 f0bd 5f01 e63b
000001e0: dc50 f4bd 0998 d93c f8f1 1e3c ec42 5fbd
000001f0: d902 a23d ffec 853d 2e91 8fbd 6e80 37bd
00000200: 90df 4d3d 6bcc 6f3d 6f9b 1a3d 156d 95bd
00000210: c5fc 8ebd 686a 3bbd 1dd3 ddbc bb12 b6bd
00000220: 41f2 303c bae8 4bbd 47ac 9fbd 841d 55bd
00000230: e1b4 0dbd c44f cbbd 42fb 783c bf9d 88bd
00000240: e453 10bd 10bb 1cbd fcda 42bd 4233 043c
00000250: 0ddc 493d cd58 813d 4fb6 2e3c fd75 66bc
00000260: 15d3 f33b 1a60 94bd 6efe 99bb 661d bb3b
00000270: 5a66 c3bc 63f4 bfbd 226f 8fbd ca8d d23c
00000280: 488f 9bba cd20 b3bc bdc8 ba3d 1bb1 b93d
00000290: d5d7 22bd bcd6 a53d f18f 753c fa17 81bd
000002a0: a6be eabd 8d25 b4bd 8055 ad3b e3e2 d4bd
000002b0: 81ab 01be 689b c83d 00e0 953d 9308 083d
000002c0: a743 2bbd 3f64 84bd 0ee4 b93b c0b7 5739
000002d0: d165 153c 28fb a2bd 84b3 db3d 6387 ec3b
000002e0: b317 19bd 6985 e9bb 0d5a bcbc f5d6 4bbc
000002f0: a22b 86bd 2404 d5bd 0636 8cbd f7b7 88bd
00000300: 6f11 723d 732f 82bd e258 89bd 28c4 20bd
00000310: 7446 983d f185 13bd 66a1 b2bd f028 473d
00000320: d5d4 a2bd a3b9 1dbe 5830 bc3a 8ee8 b8bd
00000330: b02a 5e3d a7d5 433c ed00 6b3d caf1 d9bd
00000340: e61a f53c f145 63ba 829c 0d3d 9a65 2cbc
00000350: 5ba4 64bc 1fe2 d6bd 57a7 91bd 1c23 b0bc
00000360: 9a5d 403d a9e7 9e3d a2f0 853d 723c c8bb
00000370: ed16 b63d 764f 953c e56e 24bd b06d 0bbe
00000380: 86aa 24be 3d18 eebc 0fdd 253d 266e bf3d
00000390: 0f74 03bd 5714 0d3d 8377 c3bc 0b51 65bc
000003a0: 27a4 1ebd 3c31 b03d 554a 8d3d d33e 7f3c
000003b0: e7c8 213d 7c0b 51bc ee24 3bbd c70d a8bd
000003c0: f5ac e43d aab8 6abc 8d39 f5bc cc51 1fbd
000003d0: 2f54 6b3c 1de0 eebd f0a4 e63d 0917 fa3d
000003e0: fbcb 0cbd 4410 573d 10cf 873d b1c9 9e3d
000003f0: f0b0 363c ac66 7dbc e52a ee3a ef75 a9bd
-0.031737898 -0.17224237 0.052448113 -0.04834187 -0.05030325 0.0033873543 -0.031158317 -0.10351975
0.11547382 0.013416333 -0.034692556 0.0049215714 -0.018900163 -0.11318102 0.06494711 0.00026104623
0.11304901 0.08479748 0.07064859 -0.09892043 0.07011757 -0.031220747 0.028614698 0.015864635
-0.16602999 -0.07631533 -0.05985804 0.0056272363 -0.10989091 0.037534274 0.045003694 -0.0070728757
0.05607249 -0.009592835 0.0483986 -0.048977 -0.05605003 0.0085701775 -0.053712312 -0.07976454
-0.043630295 0.03252536 -0.022408841 -0.05921763 -0.103057705 -0.080826215 0.12707005 0.16321729
0.13019364 -0.08956564 0.08135282 -0.095362656 -0.044429693 0.014010397 -0.10912135 0.064683266
0.017526992 0.13158871 -0.0012908267 -0.011807126 0.025446273 0.034259122 -0.006838552 -0.07038972
-0.040675372 0.07201774 0.015479667 0.028732106 -0.04767164 0.0137303155 -0.13477309 0.02226085
0.049254697 -0.102580786 0.15211445 0.012183734 -0.022271466 0.04167341 0.018135386 0.090621166
0.02570309 0.035088606 0.029950738 0.11380024 -0.10430028 0.066998065 0.030485313 -0.044708055
0.017797751 0.104096174 0.05936239 -0.08958069 -0.014124261 -0.052230466 -0.06777932 -0.027949419
-0.07490227 0.07588465 -0.038557187 0.029446194 -0.047542844 0.009182572 -0.08575215 -0.051881943
0.030771961 0.053317904 0.025361657 0.092007354 -0.08751558 0.016981402 0.0025149465 0.025613723
0.110452294 -0.05523387 0.04387601 -0.09890746 -0.024848787 0.033344068 -0.11748089 0.0070192064
-0.11929485 0.026561754 0.0097012445 -0.05450718 0.079106994 0.06539344 -0.07010113 -0.044800214
0.050262034 0.058544558 0.03774589 -0.07296196 -0.06981806 -0.045755774 -0.027078206 -0.08890291
0.010799945 -0.049782492 -0.07796531 -0.0520301 -0.034596328 -0.099273235 0.015196623 -0.06670713
-0.035236254 -0.038264334 -0.04757212 0.008068861 0.049282122 0.063157655 0.010663583 -0.014066217
0.0074409344 -0.072448924 -0.00469952 0.0057102917 -0.023852516 -0.09372785 -0.07003619 0.025702376
-0.0011868263 -0.021866227 0.09120319 0.09066983 -0.039756615 0.08097598 0.014987932 -0.06303401
-0.114621446 -0.08796225 0.0052897334 -0.10394838 -0.1266308 0.097952664 0.07318115 0.033211302
-0.041812565 -0.06464433 0.005672938 0.0002057245 0.009118513 -0.079580605 0.10727599 0.007218288
-0.037376117 -0.0071264994 -0.022992158 -0.0124413865 -0.06551291 -0.104011804 -0.06846242 -0.066757135
0.059098657 -0.063567065 -0.06706406 -0.03924957 0.07435313 -0.03601641 -0.087221906 0.048623025
-0.07950751 -0.15402846 0.0014357669 -0.09028731 0.05423993 0.011952794 0.05737393 -0.10641821
0.029920053 -0.0008669785 0.034573086 -0.010522271 -0.013955201 -0.10492348 -0.07111996 -0.021501116
0.046964265 0.077590294 0.06540038 -0.0061107213 0.088910915 0.018226366 -0.04014482 -0.13616061
-0.16080675 -0.029064292 0.04049402 0.09347181 -0.032093104 0.034443226 -0.023860699 -0.013996373
-0.038730767 0.08603141 0.06898943 0.015578943 0.039498236 -0.012759086 -0.045689516 -0.08205753
0.111658014 -0.014326254 -0.029934669 -0.038896367 0.014363333 -0.1166384 0.11261928 0.12211425
-0.03437422 0.052505746 0.06631291 0.07753313 0.011150584 -0.015466373 0.0018170743 -0.08274447

hidden.bias f4 [100]
00000000: e444 913d c0eb 44bc b745 0cbd fa92 c63c
00000010: ef67 0f3d ec0a adbc 3dbd f8bb 3d34 9f3d
00000020: 1858 b0bd ff6f 94bd df90 813d cbe1 323c
00000030: 41cd 8bbd 607f 273c ce04 93bc 960e afbd
00000040: 0deb 1b3d 824a a23d 76ca ef3b cc6c 4dbd
00000050: aa3d dd3c 811e 103c 26d7 07bd c3f7 5e3c
00000060: aa56 bbbd ec60 b93d f2ae 823d d0ad b83c
00000070: e7e3 f73c b648 aebd e4dc 5c3d e87a 88bc
00000080: 3546 79bd 2aa2 783d b203 28bd 9bf0 603d
00000090: 1cce 8c37 444b 92bd 6a44 f13c cea3 7d3d
000000a0: b79d 59bd 9800 533d 148b ccbc d1e9 9dbd
000000b0: 5c01 213d b8ea 8b3d c615 89bd b4e3 90bd
000000c0: 1cd7 8bbc dba5 463d 9445 be3d 8ea5 bdbb
000000d0: 24bc bb3d a315 133d 12a7 06bd cd65 203c
000000e0: d6ae 673d d850 0cbb 62f2 b53d 335f b9bc
000000f0: 06e4 73bd f747 17bd 3915 abbb 0aa8 8abd
00000100: cb60 1dbd 52bb cd3d 53a8 0b3d 19ed 653d
00000110: 262a 103d 3add 9e3b 2350 a53d 8683 94bd
00000120: 44d8 49bc 5fcf 7d3c beda b73b 43af ccbb
00000130: 7ebb efbb a657 9cbd b9e8 bcbd 1e83 cabc
00000140: b63b 1a3d 0120 753d 7481 b43d 55a5 58bd
00000150: 0867 d53d a83d 863d 5fd9 39bb 8b26 863d
00000160: 3499 8fbd 98cb 793c 34f3 2fbd 7d6f a93d
00000170: a871 293d d512 1fbd 1f29 8bbd c96a 9e3d
00000180: 0168 9b3b bed0 9c3d a206 883c 50dd 56bd
0.07093218 -0.012019098 -0.034246173 0.024240006 0.03501123 -0.021123372 -0.0075909183 0.077736355
-0.086105525 -0.07247924 0.0632646 0.010918091 -0.068262585 0.01022324 -0.017946627 -0.08547704
0.03806596 0.079243675 0.0073178364 -0.050152585 0.027006943 0.008796335 -0.033164166 0.013608876
-0.09147389 0.090516895 0.063810244 0.022543818 0.03026004 -0.08509962 0.053921595 -0.016660169
-0.06085797 0.060701527 -0.04101915 0.05491696 1.6785278e-05 -0.07143262 0.029451568 0.061923794
-0.053128924 0.051514238 -0.024968661 -0.077106126 0.039307937 0.068318784 -0.06693606 -0.07074681
-0.017070346 0.048498016 0.09290615 -0.005787558 0.09166744 0.035909306 -0.032874174 0.009789896
0.05656322 -0.0021410491 0.088841215 -0.022628402 -0.059543632 -0.036933865 -0.005221036 -0.06770332
-0.038422387 0.10045494 0.034096073 0.056134317 0.035196446 0.0048481496 0.080719255 -0.072516486
-0.012319628 0.015491336 0.005610793 -0.0062464788 -0.007316052 -0.07633905 -0.09224076 -0.024720725
0.0376546 0.059844974 0.08813754 -0.052892048 0.10420042 0.06554729 -0.0028358323 0.0655032
-0.07011643 0.015246294 -0.042956546 0.08273218 0.041368157 -0.03883632 -0.067949526 0.077352114
0.004742623 0.07657002 0.016604725 -0.052457154

output.weight f4 [1, 100]
00000000: b9ca e13d 4433 f0bd 76f1 883d 224a 0abe
00000010: 6b6c 003e bbe1 abbd 714e cabd 9f6e 143e
00000020: 3f57 963d 2184 92bd 5ff9 70bd 9b00 40be
00000030: c29b 1bbe 82d5 4fbe bf8e a23d fa25 7bbd
00000040: 6bcb cb3c 2144 3a3d 8278 bcbd 96ed a0bc
00000050: ecfe 39be 0945 e0bd e891 7d3d 8f71 053e
00000060: 60e3 fe3d 718a 9b3d 0707 0d3e fbaa c93d
00000070: 1802 f7bd 0798 62bc afe7 803c 9383 05be
00000080: 6e0d 173e 3673 efbd 64da 3e3d d870 c93d
00000090: 28be a23d 6145 4b3d 0523 583c 99a1 e43c
000000a0: d741 90bd c9e1 123e b44f bb3d ec31 3fbd
000000b0: f908 1fbd b180 9bbd c850 68bd dbce f03d
000000c0: 0092 403d 9e20 e13d 4646 803d d790 e1bd
000000d0: 134b 123e b258 9fbd 9899 ab3d 4cf6 653d
000000e0: a40f 96bd bf3a a3bd 51f9 a4bd 297e b9bd
000000f0: 09c8 e43d f0aa 203e c8c9 2e3d 728a 023e
00000100: 6971 ad3d 0341 093e ca7d 8ebd a656 053e
00000110: ce4e 123e c40f 0abe 1019 013e b61e 0bbd
00000120: d362 ed3d 2aea 08bd 78b8 033e c1a0 22bd
00000130: 7b70 00bd ffcf 02be e796 8ebd 63d2 ad3d
00000140: 3fe8 1abd a58e b13d 33b6 e73d 7bdc 99bd
00000150: 8712 bcbd c249 be3d ef9a 12be ea2c cbbd
00000160: 9480 0abe 484c 0fbe 2e9c a53d 21ec 8d3d
00000170: a145 f03d 2694 0bbe b714 a8bd 23bf b3bd
00000180: 9d56 dc3d 3f40 7b3d 3f30 0d3d 832e 0dbe
0.110249944 -0.11728528 0.0668668 -0.13504842 0.12541358 -0.08392664 -0.09878243 0.14495324
0.073408596 -0.07154108 -0.05883157 -0.18750231 -0.15196136 -0.2029629 0.07937383 -0.061315514
0.02487727 0.04547513 -0.092026725 -0.01964454 -0.18163651 -0.109506674 0.061906725 0.130316
0.12445712 0.07594765 0.13772212 0.09847065 -0.12060946 -0.013830191 0.015735475 -0.13038473
0.14751217 -0.116918966 0.046594992 0.09835976 0.07946426 0.04962671 0.013191943 0.027909087
-0.07043808 0.14343943 0.091460615 -0.04667847 -0.038826916 -0.07592905 -0.056717664 0.117582045
0.047014236 0.10992549 0.062634036 -0.11013954 0.14286451 -0.07780589 0.08378905 0.05614309
-0.07327202 -0.07970189 -0.08055366 -0.09057266 0.11170966 0.15690207 0.042672902 0.12748125
0.08468897 0.13403706 -0.06957586 0.13021335 0.14287874 -0.13482577 0.12607217 -0.033964835
0.11591115 -0.03342644 0.12863338 -0.039704088 -0.03135727 -0.12774657 -0.06962376 0.08487394
-0.037819143 0.086697854 0.113140486 -0.075127564 -0.09183221 0.09291412 -0.14316915 -0.09920676
-0.13525611 -0.13993943 0.080864295 0.06929804 0.11732031 -0.13630733 -0.08207076 -0.08776691
0.10758708 0.061340567 0.03446984 -0.13787274
