data/model/sl_training_noisy/10/16.pth (torch, 44823 bytes, 5 tensors)

linear.weight f4 [100, 4]
0	0x3e6336e2	0.22188905
1	0x3b3e9def	0.0029085835
2	0x3f234d5b	0.6378991
3	0x3e0e30d7	0.13885818
4	0x3f004861	0.5011044
5	0x3eb49232	0.35267788
6	0x3ef1f2d5	0.4725558
7	0x3eb4494d	0.35212174
8	0x3ea4f836	0.3222062
9	0x3ef2e90e	0.47443432
10	0x3e644c99	0.22294845
11	0x3e709c5d	0.23497148
12	0xbedb5b08	-0.4284289
13	0x3ece1427	0.4024975
14	0x3ee1a809	0.44073513
15	0xbdcdcdf6	-0.100490496
16	0x3d7a5247	0.061113622
17	0x3e833e1f	0.25633332
18	0x3eb86bb2	0.36019665
19	0xbea32ce2	-0.3187018
20	0x3e5e307c	0.21698183
21	0xbdfc6d5c	-0.12325546
22	0xbf0c111c	-0.54713607
23	0xbc1be786	-0.009515649
24	0xbd1177b7	-0.03551456
25	0x3f00d3bf	0.503231
26	0xbdbd3869	-0.09239275
27	0xbee1476d	-0.43999806
28	0x3ec87c91	0.39157537
29	0x3e948ea6	0.29015082
30	0x3ea1696b	0.3152574
31	0xbe4b8d2b	-0.1987807
32	0x3d9453af	0.07242524
33	0x3ef750a1	0.48303702
34	0x3e08cec7	0.1336013
35	0x3d6be9da	0.057596065
36	0x3ed61306	0.4181139
37	0xbdbaba2e	-0.09117542
38	0x3f02e0aa	0.5112406
39	0xbe38e12f	-0.1805465
40	0x3eaa1157	0.33216354
41	0xbeb94dc8	-0.36192155
42	0xbd8f42c0	-0.069951534
43	0xbd1ebbd1	-0.038753334
44	0x3efc4159	0.49268606
45	0x3eac4b21	0.3365107
46	0xbeb06504	-0.3445207
47	0x3d3248cd	0.04352646
48	0xbdb24e61	-0.08706356
49	0xbd749bd7	-0.059718933
50	0xbebafcfe	-0.36521143
51	0xbed16880	-0.4090004
52	0x3e28c5d4	0.16481715
53	0x3dc2c7ba	0.09510751
54	0x3d88f6ce	0.06687699
55	0x3f020f2e	0.5080441
56	0x3e9542bd	0.2915248
57	0x3ec430ba	0.38318425
58	0x3d4e2089	0.050323997
59	0xbecc152b	-0.398599
60	0xbedf8e81	-0.4366341
61	0x3e36d37f	0.17854117
62	0x3bc2939b	0.005938006
63	0xbdd12852	-0.102127686
64	0x3e8aec8b	0.27133593
65	0x3da18cf5	0.078882135
66	0x3cd278f9	0.02569245
67	0xbe4c79d1	-0.19968344
68	0xbdd9bc08	-0.10631567
69	0x3de28693	0.11060824
70	0xbebfcd24	-0.37461197
71	0xbc9b5280	-0.018960238
72	0xbdd02849	-0.10163934
73	0xbecc989f	-0.3996019
74	0x3e970f67	0.2950394
75	0x3ec3438e	0.38137478
76	0xbe9368c1	-0.28790858
77	0xbe7342e3	-0.23755984
78	0x3e2e5cd2	0.17027596
79	0x3db97242	0.09054996
80	0xbedc05d9	-0.4297321
81	0x3e1031af	0.14081453
82	0xbf017824	-0.50573945
83	0xbe05e527	-0.13075696
84	0x3e9a7272	0.3016544
85	0xbe6b8a94	-0.23002082
86	0xbda27e23	-0.07934215
87	0xbed3065e	-0.41215795
88	0xbe725aae	-0.23667404
89	0x3d3be687	0.045874145
90	0xbd6e78d7	-0.05822071
91	0x3eb60317	0.35549232
92	0x3ee883ef	0.45413157
93	0x3ed0110b	0.40638003
94	0x3ec6f1b6	0.38856286
95	0xbece448f	-0.4028668
96	0x3e5e5ead	0.21715803
97	0x3d4caa7b	0.04996727
98	0x3eb5ed52	0.35532624
99	0xbe57a3b8	-0.21058547
100	0xbe50d244	-0.2039271
101	0xbc9d3141	-0.019188525
102	0x3ebd64f0	0.36991072
103	0xbe40b364	-0.18818432
104	0xbeee3b88	-0.46529794
105	0x3e907373	0.2821308
106	0xbdc9bf1f	-0.098509066
107	0x3ea2b422	0.31778055
108	0xbea1d4e3	-0.31607732
109	0xbe8ef0a5	-0.27917972
110	0x3c42d1fb	0.011890884
111	0x3e3bb5b8	0.18331039
112	0xbeadadeb	-0.3392175
113	0x3e54f754	0.20797473
114	0xbefc2975	-0.4925038
115	0x3beb45d5	0.0071799555
116	0x3e922b5d	0.2854871
117	0xbe9cd4cf	-0.3063111
118	0x3df7fcef	0.1210879
119	0x3efcdfa3	0.4938937
120	0x3e6fc523	0.23415045
121	0xbeb43e83	-0.35203943
122	0xbe83ef9f	-0.25768754
123	0x3db10010	0.0864259
124	0xbdd7032e	-0.10498653
125	0xbec8f3a1	-0.39248374
126	0xbc6703a1	-0.014099986
127	0x3ebad88d	0.3649334
128	0xbe80db9e	-0.25167555
129	0x3e5036b0	0.20333362
130	0x3e9bd5d4	0.30436575
131	0xbed74a47	-0.42048857
132	0xbebcbe1d	-0.36863795
133	0xbec05173	-0.3756214
134	0xbeb7b752	-0.3588205
135	0xbe726f48	-0.23675263
136	0xbd3a8569	-0.045537386
137	0x3ed00fbd	0.40637007
138	0x3ed21085	0.41028228
139	0x3e958362	0.292018
140	0xbe093668	-0.1339966
141	0xbed71cde	-0.4201421
142	0xbdc206cb	-0.09473952
143	0x3eca221a	0.39479142
144	0xbeeecc63	-0.4664031
145	0xbebb06a1	-0.36528495
146	0xbecd10e9	-0.40051964
147	0x3d3caf8c	0.046065852
148	0xbe1ea1d6	-0.15491423
149	0x3ef61a20	0.48066807
150	0x3f108a98	0.5646148
151	0x3efff599	0.49992064
152	0xbd73f492	-0.059559412
153	0x3eb063c9	0.3445113
154	0xbecbe53c	-0.3982333
155	0x3e1eb33b	0.15498058
156	0x3ec94f8d	0.39318505
157	0xbdb6f738	-0.08933872
158	0xbe94bc5f	-0.29049966
159	0x3e9fc2d9	0.31203344
160	0x3cf55a8d	0.029950405
161	0x3bc74f02	0.0060824165
162	0x3f0600cb	0.5234496
163	0xbedb9c34	-0.4289261
164	0x3de0cd66	0.10976677
165	0xbef3d7bb	-0.47625527
166	0x3e936634	0.28788912
167	0x3e8071b2	0.25086743
168	0x3ea5c5a0	0.32377338
169	0xbef7da5e	-0.48408788
170	0xbbb81849	-0.0056181294
171	0xbeda7bd3	-0.42672595
172	0x3d9d2fc4	0.07675126
173	0xbe4789de	-0.19486186
174	0x3e2f6021	0.17126514
175	0x3ee44def	0.4459071
176	0x3ec2cb06	0.3804552
177	0xbee7d16d	-0.45276967
178	0x3e00229d	0.12513204
179	0x3e62dca5	0.22154482
180	0x3dafc0b7	0.08581679
181	0xbef7c08d	-0.48389092
182	0xbe89de63	-0.2692748
183	0xbe0900f5	-0.13379271
184	0xbe853ce7	-0.26023027
185	0x3ea4496a	0.3208726
186	0x3f0917c1	0.5355187
187	0x3ee9b1d6	0.4564349
188	0x3d324c2a	0.043529667
189	0x3eaddc9c	0.33957374
190	0x3e4841ef	0.19556402
191	0xbd3001a2	-0.042970307
192	0xbe35a66d	-0.17739268
193	0xbeabe33e	-0.3357181
194	0x3f0cc5cb	0.5498931
195	0x3ed57252	0.41688782
196	0x3eac2017	0.33618233
197	0x3e984190	0.2973752
198	0x3f054d31	0.5207091
199	0x3ebddfb7	0.37084743
200	0x3eb7e348	0.3591559
201	0xbd0aa386	-0.033847354
202	0xbca538de	-0.020168718
203	0xbef60f5b	-0.4805859
204	0x3ef50f90	0.47863436
205	0x3e5a3818	0.2131046
206	0x3ee6eb62	0.45101458
207	0x3da025e7	0.07819729
208	0x3e8628b7	0.26202938
209	0xbe0fe3a4	-0.14051682
210	0x3e9ff7f0	0.3124385
211	0xbd3e621c	-0.046480283
212	0x3ea8d072	0.3297153
213	0x3db82fd3	0.08993497
214	0xbe63be6c	-0.22240609
215	0xbee7cfac	-0.4527563
216	0xbec20735	-0.37896124
217	0xbcd463f9	-0.025926577
218	0x3f21b3f3	0.63165206
219	0x3e3fbf7f	0.18725394
220	0xbee2bf67	-0.44286653
221	0xbdc05c8b	-0.09392651
222	0xbeb5f5a9	-0.35538986
223	0x3eed8874	0.46393168
224	0xbeaf0276	-0.34181565
225	0xbe13691c	-0.14395565
226	0xbe77cd8b	-0.24199502
227	0xbe6ec60e	-0.2331774
228	0xbdfafdde	-0.122554526
229	0x3e60eab6	0.21964535
230	0x3f0c3c1c	0.5477922
231	0x3ee43b88	0.4457667
232	0xbbff44c6	-0.007790181
233	0xbdfdfea7	-0.12402087
234	0xbdf4f2c6	-0.11960368
235	0xbe3191c8	-0.17340767
236	0xbe626c98	-0.22111738
237	0x3eab0c8c	0.3340801
238	0xbcc2b18c	-0.023766302
239	0x3ede1e4c	0.4338249
240	0x3e1f68a8	0.15567267
241	0xbedbbe6b	-0.42918715
242	0xbeae70d1	-0.34070447
243	0x3ecd7b55	0.40133157
244	0xbed97cba	-0.4247797
245	0xbebf7133	-0.37391052
246	0xbe1f3149	-0.15546145
247	0x3e9b45ad	0.30326596
248	0xbe0ed273	-0.13947468
249	0xbef65d87	-0.4811823
250	0x3e87a955	0.26496378
251	0x3e8ee5f9	0.2790983
252	0x3d8758ec	0.066087574
253	0xbe1c4823	-0.15261893
254	0x3daa81e3	0.08325555
255	0x3e1ee352	0.15516403

linear.bias f4 [100]
0	0x3e9965ef	0.29960582
1	0xbed60310	-0.41799212
2	0x3ed365cf	0.4128861
3	0x3efb58df	0.4909124
4	0xbde21048	-0.11038262
5	0xbe8f9fd7	-0.28051636
6	0xbe49628b	-0.19666497
7	0x3d9e1a2a	0.07719834
8	0xbe493a3a	-0.19651118
9	0x3eb85b73	0.3600727
10	0xbeca3212	-0.39491326
11	0xbe3b40ac	-0.18286389
12	0x3ee6cdd9	0.45078924
13	0x3eda23fa	0.42605573
14	0x3ea1c567	0.3159592
15	0x3e7ad441	0.24495031
16	0xbef0b0d3	-0.47009906
17	0x3e660db5	0.22466166
18	0xbd615cd9	-0.055020187
19	0x3db284ff	0.08716773
20	0x3d3d7169	0.046250734
21	0xbe7c0de7	-0.24614678
22	0xbe127144	-0.1430102
23	0xbef35258	-0.4752376
24	0x3e6bab24	0.23014504
25	0xbef965b9	-0.4871042
26	0x3ea0aeed	0.31383458
27	0xbee25009	-0.44201687
28	0xbd2b277d	-0.041785706
29	0x3cc61310	0.024179012
30	0xbe87c8ce	-0.2652039
31	0xbecc158f	-0.39860198
32	0xbebf150e	-0.3732075
33	0xbea4ed20	-0.32212162
34	0xbe1b9fa8	-0.15197623
35	0xbed6aa69	-0.41926888
36	0x3e49b1e0	0.1969676
37	0xbec8f41c	-0.3924874
38	0x3e983ce5	0.2973396
39	0x3e3f4d94	0.18681937
40	0xbe782895	-0.24234231
41	0x3edb6bf9	0.42855814
42	0x3d420317	0.047366228
43	0x3e9d8424	0.30764878
44	0xbe681fb4	-0.22668344
45	0xbe92ca02	-0.28669745
46	0xbe121a37	-0.14267813
47	0x3ed73a90	0.42036867
48	0x3de8a8ed	0.11360345
49	0x3c54bcb1	0.012984441
50	0x3e95e557	0.29276535
51	0xbeb808cb	-0.35944209
52	0x3bbe9cec	0.0058170464
53	0x3ec35edf	0.38158318
54	0x3ddccbb8	0.10781044
55	0xbe7c9d83	-0.24669461
56	0xbc92f785	-0.017940292
57	0x3ef0863c	0.46977413
58	0x3f0023d4	0.5005467
59	0xbe921d1e	-0.2853784
60	0x3e87e6d6	0.265433
61	0xbeda1a68	-0.4259827
62	0x3cb0d8f8	0.021587834
63	0xbdd21655	-0.10258166
64	0xbedfd8c2	-0.4372006
65	0x3cd21ae1	0.025647582
66	0x3d5a0542	0.05322767
67	0xbeb55896	-0.35419148
68	0x3e8b03a2	0.2715121
69	0xbeed5ea8	-0.4636128
70	0x3da06a55	0.07832781
71	0xbdaf7b5b	-0.0856845
72	0x3d5607ea	0.05225364
73	0xbe8c32ed	-0.27382603
74	0xbe2e670b	-0.17031495
75	0xbeef5859	-0.4674709
76	0xbe7e52aa	-0.24836221
77	0xbe9b7d17	-0.30368873
78	0xbee40616	-0.44535893
79	0xbee68cb1	-0.45029214
80	0x3e7c2d26	0.24626598
81	0xbe738c5e	-0.23784015
82	0x3e733f6b	0.23754661
83	0xbec301b6	-0.38087243
84	0x3ec6d746	0.38836116
85	0x3d0c7408	0.034290344
86	0x3eb4996f	0.3527331
87	0xbe7f810d	-0.24951573
88	0xbebfa75e	-0.3743238
89	0xbe009d47	-0.12559997
90	0x3e3509d0	0.17679524
91	0xbeb5a611	-0.3547826
92	0x3e5113be	0.20417687
93	0x3ea85a0c	0.328812
94	0xbe84a106	-0.259041
95	0x3ed489d1	0.41511396
96	0x3ecadbb2	0.3962074
97	0xbd62b927	-0.055352356
98	0xbea00cb9	-0.31259707
99	0x3e7197ae	0.23593017

hidden.weight f4 [100, 100]
0	0x3db38253	0.08765092
1	0x3cb52b32	0.022115324
2	0x3d12a9ea	0.035806574
3	0xbd6d9646	-0.05800464
4	0x3d11c8ae	0.035591774
5	0xbcc562cb	-0.02409496
6	0x3d069058	0.0328525
7	0x3d6bb714	0.057547644
8	0x3c8c8aba	0.017155994
9	0x3d7d2d62	0.06181086
10	0x3d9b2409	0.075752325
11	0x3dc322aa	0.09528096
12	0xbdbe34be	-0.092874035
13	0xbd8fdb9b	-0.07024308
14	0xbc698e1f	-0.014255076
15	0x3d789522	0.0606891
16	0x3dbcfbdc	0.09227726
17	0xbd10c192	-0.035340853
18	0xbd413af8	-0.047175378
19	0x3da63488	0.08115488
20	0x3cb9ffb5	0.022704938
21	0x3d816c0f	0.06319439
22	0x39ef5753	0.00045650694
23	0x3dec9ef7	0.11553758
24	0x3ce3a8a3	0.027790373
25	0xbc1c4f05	-0.009540324
26	0xbcc3c5b6	-0.023897987
27	0xbcb2fef9	-0.021850096
28	0xbd3d21c4	-0.04617478
29	0xbd0f226a	-0.03494493
30	0x3d16e77e	0.036841862
31	0x3ddbd262	0.10733487
32	0xbdaa4315	-0.08313576
33	0xbd44af38	-0.048018664
34	0x3d82bfd8	0.063842475
35	0x3dc7d024	0.097564965
36	0xbca46f68	-0.020072654
37	0x3d9c0951	0.076189645
38	0x3b93cdf6	0.0045106364
39	0x3d21eafb	0.039530735
40	0xbd9a8c47	-0.07546287
41	0xbc8485de	-0.016177114
42	0x3d8129a6	0.06306772
43	0xbcec0657	-0.028811617
44	0xbac557e8	-0.0015056105
45	0x3d9b1309	0.0757199
46	0xbce1a637	-0.027545078
47	0x3da653f8	0.081214845
48	0x3db6a7fa	0.08918758
49	0xbac7190a	-0.0015189957
50	0xbd63f5ff	-0.055654522
51	0x3e0b2024	0.1358648
52	0x3d9f5e17	0.07781618
53	0xbd90a08d	-0.07061873
54	0xbc8db190	-0.017296582
55	0xbdbd7701	-0.09251214
56	0xbca2a7f1	-0.019855471
57	0x3e13c37e	0.14430043
58	0x3c31fb6a	0.010863164
59	0x3c1740c0	0.009231746
60	0xbd3023dc	-0.04300295
61	0x3c902442	0.017595414
62	0x3cc5bcf9	0.02413796
63	0xbd8ccc45	-0.06874899
64	0xbdb30f97	-0.08743208
65	0x3d85d4fd	0.06534765
66	0x3dc1bd47	0.0945993
67	0x3d9f0d56	0.077662155
68	0xbdf46777	-0.11933797
69	0xbb873f14	-0.0041273925
70	0x3dbc0a54	0.091816574
71	0x3bf9c3cb	0.0076222173
72	0x3cd9d784	0.026592024
73	0x3db8092e	0.08986126
74	0xbca66fb5	-0.020316938
75	0x3d0e35e5	0.034719367
76	0xbc713066	-0.014721012
77	0xbd0673fc	-0.032825455
78	0xbd688918	-0.056771368
79	0xbd9ad549	-0.07560212
80	0x3dd5d80f	0.104416005
81	0x3cff950c	0.031199
82	0xbc266497	-0.010155818
83	0xbd97a925	-0.07405309
84	0x3d9e2f38	0.0772385
85	0xbc2aaecf	-0.010417654
86	0x3d5b04f5	0.053471524
87	0xbc8fd341	-0.017556788
88	0xbd8ede52	-0.06975998
89	0xbd83728a	-0.06418331
90	0xbdbca209	-0.09210593
91	0x3e224e29	0.15850128
92	0x3deee0f7	0.116640024
93	0x3df5cdc1	0.12002135
94	0xbb6a0de8	-0.0035713855
95	0x3dbd2d21	0.09237123
96	0xbd9f2921	-0.077715166
97	0xbd572b5b	-0.05253158
98	0xbd5dab62	-0.05411852
99	0xbdbca83f	-0.09211778
100	0xbc25d126	-0.010120666
101	0xbd8292a9	-0.063756295
102	0xbd0e71ce	-0.0347765
103	0x3d11003a	0.035400607
104	0xbd47e9b7	-0.048806872
105	0x3da31986	0.079638526
106	0x3ceb992b	0.02875956
107	0x3ce00922	0.027348105
108	0x3b18291b	0.002321786
109	0x3ceab0b2	0.028648708
110	0x3cfa28f6	0.03053711
111	0x3c8fbe38	0.017546758
112	0xbd363f25	-0.044493813
113	0x3c8b1a9e	0.016980466
114	0xbd832171	-0.06402863
115	0xbd702501	-0.05862904
116	0x3d518ed2	0.051161595
117	0x3dbd04f5	0.09229461
118	0x3bad798b	0.00529403
119	0x3da63306	0.08115201
120	0x3dea9ee4	0.11456087
121	0x3cbc078b	0.022952816
122	0xbd0c29df	-0.03421962
123	0x3d53a3d7	0.05166992
124	0x3bd26e76	0.0064218594
125	0x3cc6e371	0.024278374
126	0xbd334b31	-0.04377288
127	0x3d80eb06	0.06294827
128	0x3dc94058	0.09826726
129	0xbd4d03a1	-0.05005229
130	0x3ccb2f04	0.024802692
131	0x3c5fb419	0.0136537785
132	0xbb6c86fe	-0.0036091204
133	0x3cd314e0	0.02576679
134	0xbda7231f	-0.08160996
135	0xbd2a52e4	-0.041582957
136	0x3cd1b522	0.025599066
137	0xbd6de1bc	-0.058076605
138	0x3d2f95b4	0.042867377
139	0xbd9a1fb3	-0.075255774
140	0x39a104f1	0.00030711995
141	0xbd0100ef	-0.03149503
142	0xbcc0d5d8	-0.023539469
143	0xbd2d69e4	-0.042337313
144	0xbdd42196	-0.103579685
145	0x3cd7e8ac	0.026356064
146	0xbdea692e	-0.11445843
147	0x3db45933	0.08806076
148	0xbdcec3a8	-0.10095912
149	0xbc81d7e4	-0.015850015
150	0x3cd6b46a	0.026209075
151	0xbd744e43	-0.05964495
152	0x3d0311cd	0.031999398
153	0xbd4e6a09	-0.05039409
154	0x3c6eca9a	0.014574671
155	0xbcc60f40	-0.024177194
156	0x3dd36396	0.10321729
157	0x3d504b78	0.050853223
158	0x3da8a75a	0.08235045
159	0xbc8af3e4	-0.016962
160	0x3db0275c	0.08601257
161	0x3d998d27	0.07497626
162	0xbd8a3698	-0.06748694
163	0xbd660025	-0.05615248
164	0xbb9822e6	-0.004642832
165	0x3d85a2e9	0.06525213
166	0x3d81d92c	0.063402504
167	0xbdcee709	-0.1010266
168	0x3e04ab35	0.12955935
169	0xbc98d10e	-0.018654373
170	0x3dd58ec3	0.1042762
171	0xbbd57a3f	-0.006514817
172	0xbd026013	-0.031829905
173	0x3ceb3b13	0.028714692
174	0xbd832ce0	-0.064050436
175	0xba219b6a	-0.0006164821
176	0xbd96bc32	-0.07360114
177	0xbaab0acb	-0.0013049481
178	0xbd83beec	-0.064329
179	0x3c5b8734	0.013398934
180	0xbd0fdae4	-0.03512086
181	0xbdd70a91	-0.10500062
182	0x3d876965	0.06611899
183	0x3c25a3f2	0.010109888
184	0xbd343ccc	-0.044003293
185	0xbd372902	-0.044716842
186	0x3d8287c8	0.063735545
187	0xbd8834dc	-0.06650707
188	0xbd561f38	-0.052275866
189	0xbd77604a	-0.060394563
190	0x3d433cd8	0.047665447
191	0x3ca4857e	0.020083185
192	0xbc307c13	-0.010771769
193	0xbe001ef3	-0.12511806
194	0x3c054ce8	0.008136012
195	0xbd20b6f7	-0.03923699
196	0x3c1cac18	0.009562515
197	0x3da1be04	0.07897571
198	0x3dd19414	0.10233322
199	0xbd21d961	-0.03951395
200	0xbd993ef8	-0.074827135
201	0x3bc88966	0.006119895
202	0x3d9892f7	0.07449906
203	0x3dabe2e2	0.08392884
204	0xbdc57227	-0.096409135
205	0x3e009b0d	0.12559147
206	0x3da7afc6	0.08187823
207	0xbd491fe0	-0.049102664
208	0xbcdb64bb	-0.02678143
209	0x3d1c2816	0.038124166
210	0xbda96ea2	-0.08273055
211	0xbd169f7e	-0.036773197
212	0x3d6ebf82	0.058288105
213	0xbd2b8140	-0.04187131
214	0x3d4f5175	0.050614793
215	0x3d43f1d8	0.047838062
216	0x3ce7b189	0.028282898
217	0x3d8848c9	0.06654508
218	0x3c94ed67	0.018179609
219	0x3cdca4d4	0.026934065
220	0xbc5e3f63	-0.013564917
221	0x3dac1169	0.08401758
222	0xbce2ac13	-0.027669942
223	0xbca32853	-0.019916689
224	0x3d4f31b4	0.05058451
225	0xbd87398a	-0.066027716
226	0xbd1fdfc3	-0.039031755
227	0x3d157a48	0.03649357
228	0x3d3d9a26	0.046289586
229	0xbd351831	-0.044212524
230	0x3db26011	0.087097295
231	0x3d4c1f1b	0.049834352
232	0xb93272c4	-0.00017018156
233	0x3dc36f9e	0.09542774
234	0xbd87fc6c	-0.066399425
235	0x3cf61816	0.030040782
236	0xbce67c4c	-0.028135441
237	0xbdb1a610	-0.08674252
238	0x3d834a92	0.064107075
239	0xbd7583d8	-0.05994019
240	0xbc37063e	-0.011170922
241	0xbd3dbced	-0.04632275
242	0x3dd969a9	0.10615856
243	0x3d0e535c	0.034747466
244	0xbd3bb498	-0.045826524
245	0x3bb117cf	0.0054044495
246	0xbd1a2cf3	-0.037640523
247	0xbd57b58c	-0.05266337
248	0xbdef90ae	-0.11697517
249	0xbdcddac9	-0.100514956
250	0xbd84f4ad	-0.06491981
251	0xbdb2903e	-0.08718918
252	0x3d38e07f	0.04513597
253	0xbdb05212	-0.08609404
254	0x3cc87c25	0.02447326
255	0x3bc06cf4	0.005872363

hidden.bias f4 [100]
0	0x3d3b3035	0.04570027
1	0xbd900316	-0.070318386
2	0x3ddf68c5	0.10908655
3	0xbc92b9fb	-0.017910948
4	0xbdb0aea4	-0.0862706
5	0xbd9a0f8d	-0.07522497
6	0x3d8b6e99	0.06808204
7	0x3cc6d0f3	0.024269557
8	0xbd057c9a	-0.032589532
9	0x3dcdf038	0.10055584
10	0x3daef44e	0.08542691
11	0xbca567d6	-0.020191114
12	0xbc953a17	-0.018216176
13	0xbcd7aa64	-0.026326366
14	0xbcdc1d63	-0.026869481
15	0xbd56ab5e	-0.052409522
16	0xbb5f0cad	-0.0034034655
17	0xbd3db9b7	-0.04631969
18	0x3dd5aaf1	0.10432995
19	0xbda78fbc	-0.08181712
20	0xbd171a43	-0.03689028
21	0xbd0a3f45	-0.033751745
22	0xbcdd3122	-0.027000967
23	0xbd552913	-0.052041125
24	0x3d7bb2ec	0.06144993
25	0xbc6310c5	-0.013858979
26	0xbd997f12	-0.0749494
27	0xbaba1309	-0.0014196347
28	0x3d8b935c	0.06815216
29	0x3cdb809d	0.026794726
30	0x3d383a66	0.044977568
31	0xbd031fae	-0.032012634
32	0x3c6b2058	0.014350973
33	0xbd54fde9	-0.05199996
34	0x3d807f49	0.06274278
35	0x3d56e8fe	0.052468292
36	0xbd734647	-0.059393194
37	0xbda42c7f	-0.080162995
38	0x3d2be8d2	0.04197008
39	0x3c82ede1	0.01598257
40	0x3bdb1f79	0.0066871014
41	0x3da79f9c	0.0818474
42	0xbd92ece6	-0.07174091
43	0xbd544fc4	-0.051833883
44	0xbda65fbd	-0.081237294
45	0x3d92c7d3	0.0716702
46	0x3d9c11c7	0.07620578
47	0xbd1260b3	-0.03573675
48	0x3c0444dc	0.008073058
49	0x3d3ff392	0.046863146
50	0xbbe03bda	-0.0068430724
51	0x3d6b6c04	0.05747606
52	0x3c01db5f	0.007925837
53	0x3d4617e5	0.04836263
54	0xbc2137df	-0.009839981
55	0x3deaae8f	0.11459076
56	0xbc0d6e4a	-0.008632252
57	0x3d363f81	0.044494156
58	0xbbfe28fd	-0.007756351
59	0x3d381ac2	0.044947393
60	0xbd9de78d	-0.077101804
61	0xbc523c8d	-0.012831819
62	0xbd91d537	-0.07120746
63	0x3d7a475c	0.06110321
64	0x3d88359f	0.066508524
65	0xbc50b843	-0.012739244
66	0x3be5780d	0.0070028366
67	0xbcda290d	-0.026630903
68	0xbc82b147	-0.015953673
69	0x3db9ed2b	0.09078439
70	0x3d1d0c0f	0.038341578
71	0xbd059e21	-0.032621507
72	0xbd99666d	-0.07490239
73	0x3d06937d	0.0328555
74	0xbc41e32a	-0.011833945
75	0x3dd42dd5	0.10360304
76	0xbd1917f0	-0.037376344
77	0xbd85e478	-0.065377176
78	0xbca1eef9	-0.019767271
79	0xbd9c38c8	-0.07628018
80	0x3ad2c133	0.0016079306
81	0xbceeb01b	-0.029136708
82	0xbd1de844	-0.038551584
83	0x3dbf50ea	0.09341605
84	0xbd0f0c91	-0.034924094
85	0xbd08bc45	-0.033382673
86	0xbd758268	-0.05993882
87	0x3d264caf	0.040600475
88	0x3db5ee2f	0.088833205
89	0x3db1277c	0.08650109
90	0xbb023dcd	-0.0019873262
91	0xbd021689	-0.031759772
92	0xbd3176ea	-0.043326296
93	0x3dcdb141	0.10043574
94	0x3da544bb	0.0806975
95	0xbd45dfa6	-0.04830899
96	0x3cc166db	0.023608616
97	0xbd9e28b0	-0.07722604
98	0x3d675f63	0.056487452
99	0x3cd3fded	0.025877917

output.weight f4 [1, 100]
0	0x3e1cfd0f	0.15330909
1	0xbe0df808	-0.13864148
2	0xbda33bd9	-0.079703994
3	0xbe32d53f	-0.1746416
4	0x3dcc6ab7	0.09981292
5	0xbe1de18e	-0.15418074
6	0x3d77be92	0.060484476
7	0x3dc7eb22	0.09761645
8	0xbd87a855	-0.06623904
9	0x3dae4efa	0.08511157
10	0xbd543f60	-0.05181825
11	0xbd43ac3e	-0.047771685
12	0x3d87ea7c	0.06636521
13	0xbe1b0719	-0.15139426
14	0xbdf55c73	-0.11980524
15	0xbdc6f006	-0.097137496
16	0x3da826c8	0.08210522
17	0xbd4026eb	-0.046912115
18	0x3e19f6b8	0.15035522
19	0x3de01bf2	0.1094283
20	0x3ce84d16	0.02835707
21	0xbe01582b	-0.1263129
22	0x3dffc194	0.12488094
23	0x3e4b7eea	0.19872633
24	0xbe3adde5	-0.18248709
25	0x3da979ae	0.08275162
26	0x3de5531e	0.11197494
27	0xbdbcb4f4	-0.092142016
28	0x3e063e58	0.1310972
29	0x3dccb174	0.09994784
30	0xbde50942	-0.111834064
31	0x3dfb8dc8	0.12282902
32	0xbe04cfb3	-0.12969856
33	0x3dda0534	0.10645524
34	0xbd9dcbd0	-0.0770489
35	0x3d7de53f	0.061986204
36	0xbd8c086a	-0.06837542
37	0xbdb44503	-0.088022254
38	0xbe32c02e	-0.17456123
39	0x3d3379a9	0.043817196
40	0x3da49c40	0.08037615
41	0xbde490b4	-0.111604124
42	0x3c4d20f5	0.012520065
43	0xbe192a87	-0.14957629
44	0xbdd563f3	-0.104194544
45	0xbdbd7b99	-0.0925209
46	0xbd42802f	-0.047485527
47	0xbe0c5678	-0.1370486
48	0xbdf66618	-0.120311916
49	0xbdf15873	-0.117844485
50	0xbd481751	-0.04885036
51	0xbe299af0	-0.1656301
52	0x3df663a2	0.12030722
53	0xbe3787f0	-0.1792295
54	0x3da00e03	0.078151725
55	0xbe13e61b	-0.14443247
56	0xbd6afd71	-0.057370607
57	0xbcd5a6a8	-0.026080444
58	0x3d2004e1	0.039067153
59	0xbe0c019f	-0.13672493
60	0xbe248445	-0.16066082
61	0x3d479f8d	0.048736144
62	0x3e1ba1d9	0.15198459
63	0xbe409214	-0.18805724
64	0xbd68d398	-0.056842417
65	0x3df48452	0.119393006
66	0xbd913acb	-0.07091292
67	0x3dd4771d	0.103742816
68	0xbe1912a7	-0.14948522
69	0x3e149278	0.14508998
70	0x3d85d62c	0.06534991
71	0x3d166d74	0.036725476
72	0xbe33d14f	-0.17560314
73	0x3e15fdd9	0.14647616
74	0xbe0ec1fc	-0.13941187
75	0xbe3f9217	-0.18708073
76	0xbda2c037	-0.07946818
77	0xbe09c7b7	-0.13455091
78	0xbdb76755	-0.08955256
79	0xbe05605b	-0.13025038
80	0xbd52bc66	-0.051449202
81	0xbe065250	-0.13117337
82	0xbe1cf072	-0.15326098
83	0x3e021104	0.12701803
84	0xbdb6afa8	-0.089202225
85	0x3db44067	0.08801346
86	0x3e1f0aaa	0.15531412
87	0x3df5e387	0.12006288
88	0xbe22d035	-0.15899737
89	0xbe2ce066	-0.16882476
90	0xbd62541c	-0.055255994
91	0x3d85eb20	0.06538987
92	0x3e05e576	0.13075814
93	0x3d94762a	0.072491005
94	0xbe3835fa	-0.1798934
95	0xbddcd8cc	-0.10783538
96	0xbdd885ec	-0.105724186
97	0xbdd939b6	-0.106067106
98	0xbdb56663	-0.08857419
99	0x3dac6843	0.08418324
